models/ensembles/ensemble_25_unbootsrapped/model15/model_checkpoint-10000.pt (torch, 14893 bytes, 24 tensors)

branch.hidden_layers.0.thetas f4 [55]
0	0x3e96b5c3	0.29435548
1	0x3fb77372	1.4332106
2	0xbfb67ecf	-1.4257449
3	0xbe6fb0e1	-0.23407318
4	0xbfb6047e	-1.4220121
5	0x40053fcd	2.082019
6	0xbdd1e47f	-0.1024866
7	0xbf8ed9c4	-1.1160207
8	0x3fb79015	1.4340845
9	0xbf02c379	-0.5107952
10	0x3f2b24c6	0.66852987
11	0xbf8d376c	-1.1032538
12	0xbf6e218d	-0.93019944
13	0x3fc831ed	1.5640236
14	0xbfabfdcb	-1.3436826
15	0xbfa2a872	-1.2707655
16	0x3f54846f	0.8301458
17	0x3fa080c2	1.2539294
18	0xbf95edf2	-1.171324
19	0x3f3a2f33	0.7272827
20	0xbf199232	-0.599887
21	0x3fc065cf	1.503107
22	0xbf1fd89c	-0.62439895
23	0xbecf788b	-0.40521654
24	0x3b9c9bd4	0.0047793183
25	0xbf4e9a50	-0.8070421
26	0x3f006a7c	0.5016248
27	0x40060482	2.0940251
28	0x3f5f02b5	0.87113506
29	0xbf4bdd07	-0.79634136
30	0x3e18c6c4	0.14919573
31	0xbe94dbe9	-0.29074028
32	0x3f7aba93	0.9794094
33	0x3fcd1e20	1.6024818
34	0xbf14383e	-0.5789832
35	0x3f9dcd18	1.2328215
36	0xbf0d3d71	-0.5517188
37	0x40111244	2.2667398
38	0xbe438720	-0.19094515
39	0xbe20331b	-0.15644495
40	0x3e899a7a	0.2687567
41	0xbf25ab18	-0.64714193
42	0xbf4e869c	-0.8067415
43	0xbec020b5	-0.37524953
44	0xc0238ea7	-2.5555818
45	0xbf8c1b70	-1.0945873
46	0x3f13b8fb	0.5770413
47	0x3f03140f	0.5120248
48	0xbe2dc8e8	-0.16971171
49	0xbe648972	-0.22318056
50	0x3fed6a54	1.8548074
51	0x3f92add3	1.1459297
52	0xbf87d229	-1.0611011
53	0x3eea0b8f	0.45711944
54	0xc02738c3	-2.6128395

branch.hidden_layers.0.bias f4 [10]
0	0x3ed8af6b	0.42321333
1	0x3ec427ef	0.38311717
2	0x3ed146c9	0.40874317
3	0x3ecef7e9	0.40423515
4	0x3e6ee3bd	0.23329063
5	0x3e96ef7d	0.2947959
6	0x3e495e8c	0.19664973
7	0x3f19c40b	0.6006476
8	0x3ed253b4	0.41079485
9	0x3eefd549	0.4684241

branch.output_layer.weight f4 [10, 10]
0	0xbf10abc7	-0.5651211
1	0xbf502b5b	-0.81316155
2	0xbd154fe0	-0.036453128
3	0x3db5e651	0.0888182
4	0xbf841726	-1.0319564
5	0x3e3ff9d5	0.18747647
6	0xbf46c618	-0.7764602
7	0xbf118ccb	-0.5685546
8	0x3f49df6a	0.7885653
9	0xbf546d6e	-0.82979476
10	0xbc05b7dd	-0.008161512
11	0xbe6aab14	-0.22916824
12	0x3f1dbaa5	0.6161292
13	0x3e5e2eff	0.21697615
14	0x3e886782	0.2664147
15	0xbd2663ba	-0.04062245
16	0xbe353e06	-0.17699441
17	0x3e933fa3	0.28759488
18	0xbe83b5bc	-0.2572459
19	0xbe2b0d41	-0.16704275
20	0x3e9d8f8e	0.30773586
21	0x3ea42faa	0.32067615
22	0xbf151712	-0.5823833
23	0xbeb3784a	-0.3505271
24	0x3e8d10f7	0.27552006
25	0xbdf73a1a	-0.12071629
26	0x3e9cfebb	0.30663094
27	0x3de85912	0.11345114
28	0xbea9a813	-0.33136043
29	0x3e5086b0	0.20363879
30	0xbdc47a6d	-0.09593663
31	0x3d90fc75	0.07079402
32	0x3be8f8e0	0.0071097463
33	0xbdd9b6e0	-0.10630584
34	0xbef4193a	-0.47675496
35	0xbed62aa5	-0.4182941
36	0xbe33486a	-0.17508093
37	0xbf214eb9	-0.63010746
38	0x3e977d94	0.29587996
39	0xbddd7108	-0.108125746
40	0xbf11fdd9	-0.57027966
41	0xbf6a6586	-0.9156116
42	0x3f1f0ab2	0.62125695
43	0x3f60333e	0.8757819
44	0xbe299f7a	-0.16564742
45	0xbe926ccc	-0.2859863
46	0xbf1618b3	-0.5863144
47	0xbeec3c54	-0.46139777
48	0x3f1c7706	0.61119115
49	0xbc1ebf6b	-0.009689192
50	0x3ece1575	0.40250745
51	0x3efb78fe	0.49115747
52	0xbef8653f	-0.48514745
53	0xbe71f0f4	-0.23627073
54	0x3e21f2f0	0.1581533
55	0x3f98869d	1.1916081
56	0x3e9d239a	0.30691224
57	0x3f7ba17b	0.98293275
58	0xbe0d8a6b	-0.13822334
59	0xbe3e1e8e	-0.18566343
60	0x3e5cd087	0.21563922
61	0x3f0f9d16	0.5609907
62	0xbecc7eea	-0.39940578
63	0xbf29bec8	-0.66306734
64	0x3eca50c9	0.3951476
65	0xbf1d168c	-0.6136253
66	0x3e281b6f	0.16416715
67	0x3e18baa2	0.14914945
68	0xbe1cdac2	-0.15317824
69	0x3ef4ac3f	0.47787663
70	0x3f23d470	0.6399603
71	0x3ec9a44e	0.39383167
72	0xbf20a74e	-0.62755287
73	0xbf112094	-0.56690335
74	0x3e015b9d	0.12632604
75	0x3e8b509d	0.2720994
76	0xbd7a12e5	-0.061053175
77	0x3f46ffa5	0.7773383
78	0xbf3fad40	-0.74873734
79	0xbe53a8b8	-0.2066983
80	0xbe58eb53	-0.21183519
81	0xbe6467ed	-0.2230527
82	0x3eb52711	0.35381368
83	0x3eb83acf	0.35982367
84	0xbe2cf479	-0.16890134
85	0xbdae6e7e	-0.085171685
86	0x3e8a3a14	0.26997435
87	0x3e748dd3	0.23882227
88	0x3eaffcde	0.3437261
89	0x3c8b8078	0.017029032
90	0xbf4ca213	-0.79934806
91	0x3f25a8de	0.64710796
92	0xbe5a8447	-0.21339522
93	0xbf2e53db	-0.68096703
94	0xbeb2648d	-0.3484234
95	0x3d39ad2c	0.045331165
96	0xbc8c0104	-0.017090328
97	0xbf2b0e4e	-0.668187
98	0x3e4d52a4	0.20051056
99	0x3de85466	0.11344223

branch.output_layer.bias f4 [10]
0	0x3f83733a	1.0269539
1	0xbe8505f3	-0.259811
2	0xbe69ccdb	-0.22832052
3	0x3eba18b2	0.36346966
4	0x3e28fd1c	0.16502804
5	0xbf17f7fa	-0.5936276
6	0x3e415e19	0.18883552
7	0xba0eb836	-0.00054443197
8	0x3dcb3d23	0.0992377
9	0x3f15fcf0	0.58589077

trunk.hidden_layers.0.thetas f4 [17]
0	0xbe7af4a7	-0.2450739
1	0xbc3bac92	-0.011454718
2	0x3fed5d4b	1.8544096
3	0x3e8cc190	0.27491426
4	0x3f9b6bed	1.2142311
5	0xbdbf0009	-0.093261786
6	0x3f24cc7d	0.64374524
7	0xbe7b7a4e	-0.24558374
8	0x3fb53ce5	1.4159209
9	0x3f85b68f	1.0446337
10	0xbf63bcb4	-0.88959813
11	0x3f39510b	0.72389287
12	0xbec1f6d0	-0.37883615
13	0xbf024c76	-0.5089792
14	0x3f062423	0.5239889
15	0xbf3f3107	-0.74684185
16	0x3f59d425	0.8508933

trunk.hidden_layers.0.bias f4 [10]
0	0x3efcb23d	0.49354735
1	0xbe989aeb	-0.29805693
2	0x3e23cf50	0.15997052
3	0x3e214d78	0.15752208
4	0x3e639362	0.22224191
5	0x3d63e56b	0.055638712
6	0xbe15bc35	-0.14622577
7	0x3e6f0733	0.2334259
8	0x3f369468	0.713202
9	0x3f873145	1.0561911

trunk.output_layer.weight f4 [10, 10]
0	0x3f522329	0.820849
1	0xbf43294d	-0.76234895
2	0x3e353de2	0.17699388
3	0x3f01eb98	0.5075011
4	0x3ecbf4c5	0.39835182
5	0x3e04eb0e	0.12980291
6	0xbf093067	-0.5358948
7	0x3ef8ee32	0.4861923
8	0xbf814793	-1.0099968
9	0xbff44341	-1.9083024
10	0x3ed1d3d0	0.40981913
11	0xbf4d92b3	-0.8030197
12	0x3ea43007	0.32067892
13	0xbeb27c77	-0.34860584
14	0xbf03d4d9	-0.51496655
15	0xbf3252e2	-0.6965772
16	0xbd3ed7dd	-0.046592582
17	0xbf498a06	-0.7872623
18	0x3f2545d8	0.645597
19	0xbf54b480	-0.8308792
20	0x3e9532e6	0.29140395
21	0xbe8d7ae7	-0.2763283
22	0x3eef0aa6	0.46687812
23	0x3e3c2f8c	0.18377513
24	0x3f1eb7be	0.6199912
25	0x3eeb3dd9	0.45945624
26	0xbe76c435	-0.24098285
27	0x3f581dd0	0.8442049
28	0xbde400fd	-0.11133001
29	0x3ee7d291	0.45277837
30	0x3eafade6	0.3431236
31	0xbf6ed2fb	-0.9329068
32	0x3e14a37d	0.14515491
33	0x3e1c6abe	0.15275094
34	0x3f2128f5	0.6295312
35	0x3ee78f97	0.45226738
36	0xbe828972	-0.25495487
37	0x3db78c41	0.08962298
38	0xbe6fc3bc	-0.2341451
39	0xbf1f74fa	-0.6228787
40	0x3f4da224	0.8032553
41	0xbf1ffb51	-0.62492853
42	0x3ed11ea4	0.4084369
43	0x3e0c8216	0.13721499
44	0xbe510bb4	-0.2041462
45	0xbe6479b6	-0.22312054
46	0xbeb8de25	-0.36106983
47	0xbf065bad	-0.52483636
48	0x3f116cdd	0.5680674
49	0xbf790b0b	-0.97282475
50	0x3ea04af0	0.31307173
51	0x3e4a67d2	0.19766167
52	0x3f171845	0.5902141
53	0x3e67f60c	0.22652453
54	0xbd69731c	-0.056994542
55	0xbdddeaae	-0.10835777
56	0xbe830df0	-0.2559657
57	0xbdecc084	-0.11560157
58	0x3f5f1e78	0.87155867
59	0x3f88f03b	1.0698313
60	0x3e43016c	0.19043511
61	0xbda63274	-0.08115092
62	0xbcb742d3	-0.022370731
63	0x3f11a186	0.5688709
64	0x3f2e4860	0.68079185
65	0x3f468968	0.77553415
66	0xbebb50b0	-0.36584997
67	0x3f6880bc	0.90821433
68	0xbeb8134e	-0.35952228
69	0x3cac1c89	0.0210097
70	0x3da15d25	0.07879094
71	0xbe9d39b7	-0.30708095
72	0x3a75a9a1	0.0009371285
73	0x3e3e25a3	0.18569045
74	0x3f31edf2	0.695037
75	0x3ec3fb58	0.38277698
76	0xbef18138	-0.471689
77	0x3f3e752c	0.7439754
78	0xbec1ead3	-0.3787447
79	0x3f3f550f	0.74739164
80	0x3e83e0ef	0.25757548
81	0xbcaf20f5	-0.02137802
82	0xbe10c996	-0.14139399
83	0xbe761130	-0.24029994
84	0xbe01f38e	-0.12690565
85	0xbe079949	-0.13242067
86	0x3ebed85b	0.3727444
87	0xbe7ff62f	-0.24996255
88	0x3dc26f8d	0.09493933
89	0xbe7408ce	-0.23831484
90	0x3f26cfc8	0.651608
91	0xbece7ecb	-0.4033111
92	0xbe5dbb60	-0.21653509
93	0x3f6b73bc	0.9197347
94	0x3fbce667	1.4757813
95	0x3f955d82	1.1669161
96	0xbf3f7fa2	-0.7480413
97	0x3ffc016c	1.9687934
98	0xbfbe82db	-1.4883684
99	0xc018d39c	-2.3879156

trunk.output_layer.bias f4 [10]
0	0x3e9407ea	0.28912288
1	0xbd1698f4	-0.03676696
2	0x3e864829	0.2622693
3	0x3e942ebe	0.2894191
4	0x3e4feb53	0.20304613
5	0x3dd72498	0.105050266
6	0x3eb13d4a	0.34617072
7	0x3e9f2238	0.31080794
8	0xbe9e3642	-0.3090077
9	0x3d4f930c	0.050677344

exp_avg f4 [55]
0	0x3697dcc7	4.5258525e-06
1	0xb7db488b	-2.6140615e-05
2	0x3763e0c9	1.3582591e-05
3	0xb80a26db	-3.293795e-05
4	0xb5f2bc61	-1.808523e-06
5	0x36dce5b9	6.583254e-06
6	0xb7a64ff6	-1.9825977e-05
7	0x370c3ee1	8.35929e-06
8	0x36fa958e	7.467991e-06
9	0x371a73e3	9.206097e-06
10	0x36e17715	6.7193855e-06
11	0xb69b8ef5	-4.6360024e-06
12	0xb7b5738c	-2.1630687e-05
13	0xb273c3f4	-1.4189016e-08
14	0x378c0a36	1.6694055e-05
15	0x36cec472	6.1621477e-06
16	0x34a96723	3.1553745e-07
17	0x37539c1f	1.261293e-05
18	0x37070cba	8.04959e-06
19	0xb729de9b	-1.0125014e-05
20	0xb6d05b50	-6.2095132e-06
21	0x37c90654	2.3964014e-05
22	0xb60a1145	-2.0573655e-06
23	0x368d2213	4.206094e-06
24	0xb742eda6	-1.1618633e-05
25	0xb5e142a7	-1.6783205e-06
26	0xb695bdc8	-4.4626395e-06
27	0x36ef7abe	7.137044e-06
28	0xb77af900	-1.4959136e-05
29	0x3920aae6	0.00015322454
30	0xb749853b	-1.2011554e-05
31	0x36cae6d2	6.04694e-06
32	0x35337b87	6.686245e-07
33	0x36cba2f8	6.0688435e-06
34	0xb9cf7fec	-0.00039577426
35	0x369abfda	4.611892e-06
36	0xb71f18c8	-9.482908e-06
37	0xb6e82d65	-6.9194234e-06
38	0xb8648f0d	-5.4492662e-05
39	0x368e04ed	4.232503e-06
40	0x37aa2934	2.0284766e-05
41	0xb6f912eb	-7.4229806e-06
42	0xb6a7721a	-4.990271e-06
43	0x36b2b5d2	5.32598e-06
44	0xb55dac32	-8.257949e-07
45	0xb6741358	-3.6370093e-06
46	0x35827767	9.720505e-07
47	0xb792840e	-1.7466049e-05
48	0x369b89f8	4.6354216e-06
49	0xb4f9fe10	-4.656472e-07
50	0xb4cc7906	-3.8086017e-07
51	0xb685bc02	-3.985596e-06
52	0x37051cd3	7.934129e-06
53	0xb781b100	-1.546042e-05
54	0x3377f1dc	5.772914e-08

exp_avg_sq f4 [55]
0	0x30b88e5e	1.3428225e-09
1	0x33d4a184	9.901399e-08
2	0x32ce57e9	2.4021533e-08
3	0x3401e2b9	1.2096542e-07
4	0x2f6767b6	2.1046173e-10
5	0x318d9096	4.1200776e-09
6	0x338a95f1	6.4534e-08
7	0x3184acce	3.8613512e-09
8	0x319ed5ab	4.6226964e-09
9	0x31ea3471	6.8162582e-09
10	0x31d2f959	6.140152e-09
11	0x320e5b61	8.286265e-09
12	0x33959199	6.964837e-08
13	0x2dd8facb	2.4667731e-11
14	0x3292302b	1.7018541e-08
15	0x3245840e	1.1496935e-08
16	0x2f3ec168	1.7349111e-10
17	0x328f9553	1.6715296e-08
18	0x3161c5bd	3.285421e-09
19	0x323b753d	1.09114895e-08
20	0x31c8c7aa	5.8434653e-09
21	0x33ab0a22	7.964651e-08
22	0x2f3b71a8	1.704793e-10
23	0x30d40663	1.5426845e-09
24	0x326d2aac	1.3804918e-08
25	0x30473c1f	7.2481215e-10
26	0x318acea7	4.0398223e-09
27	0x31a44376	4.7806976e-09
28	0x32f1d2e4	2.8151995e-08
29	0x36163c71	2.2386923e-06
30	0x329d7dfb	1.8334495e-08
31	0x31d92b08	6.3204233e-09
32	0x2eb09343	8.029712e-11
33	0x320c3604	8.161354e-09
34	0x3796b279	1.7964501e-05
35	0x316365a6	3.3090628e-09
36	0x31d46439	6.181406e-09
37	0x3183ceeb	3.8361256e-09
38	0x349544cd	2.7803472e-07
39	0x312454d1	2.3913354e-09
40	0x3380558d	5.976026e-08
41	0x32554ef2	1.2416182e-08
42	0x311aa85f	2.2505657e-09
43	0x31984f06	4.432766e-09
44	0x303d5a4c	6.888612e-10
45	0x3132ff8b	2.6047668e-09
46	0x2f55486b	1.9397965e-10
47	0x3342c700	4.5350134e-08
48	0x3110bce0	2.106212e-09
49	0x2ffe8b1b	4.630117e-10
50	0x2fda8dd6	3.975475e-10
51	0x310806da	1.97945e-09
52	0x323c1116	1.0946925e-08
53	0x32d6583f	2.4953009e-08
54	0x2e8634d1	6.1029966e-11

exp_avg f4 [10]
0	0x3990c300	0.00027611107
1	0x39d5912d	0.0004073469
2	0xb9febfc6	-0.00048589538
3	0xb9f59009	-0.00046837356
4	0x38fe8a4e	0.00012137425
5	0x38a7c8e7	8.0006015e-05
6	0x38f8bd66	0.0001186084
7	0x39cab86f	0.00038665856
8	0xb9c7853a	-0.000380555
9	0x38cec1a6	9.858915e-05

exp_avg_sq f4 [10]
0	0x372f35bf	1.0443327e-05
1	0x37b3d880	2.1439278e-05
2	0x38024103	3.1054962e-05
3	0x37f47d55	2.9145429e-05
4	0x36123892	2.1788624e-06
5	0x351cfa51	5.8478787e-07
6	0x35f2df5f	1.8095415e-06
7	0x3797eb39	1.8110137e-05
8	0x3796b494	1.7965482e-05
9	0x35bd4ecb	1.4104529e-06

exp_avg f4 [10, 10]
0	0x335f713a	5.2024212e-08
1	0xb54e79a0	-7.691797e-07
2	0x35c7daef	1.4890373e-06
3	0xb6068a24	-2.0047964e-06
4	0x33a0208f	7.456503e-08
5	0xb7277fb0	-9.983705e-06
6	0xb662b8c3	-3.378417e-06
7	0xb6e094c8	-6.6930406e-06
8	0xb7693ec7	-1.3902499e-05
9	0xb5927845	-1.0912851e-06
10	0xb77cbda9	-1.5064529e-05
11	0xb74de29c	-1.2271714e-05
12	0xb78f0c99	-1.7052795e-05
13	0xb780ad4a	-1.5339483e-05
14	0xb72e97ca	-1.0406549e-05
15	0xb7009859	-7.664866e-06
16	0xb6d52592	-6.3522684e-06
17	0xb82c5c97	-4.1094227e-05
18	0xb8274f07	-3.9889503e-05
19	0xb8698e20	-5.5683893e-05
20	0x38af3584	8.354618e-05
21	0x38856adf	6.3618405e-05
22	0x38a28886	7.7501914e-05
23	0x38ac5232	8.216909e-05
24	0x382e4fe5	4.155924e-05
25	0x3870d21d	5.7416142e-05
26	0x38411060	4.6030036e-05
27	0x396a0b3f	0.00022320169
28	0x39774d7d	0.00023584622
29	0x398e09b9	0.00027091595
30	0x379353ec	1.7562845e-05
31	0x3769e64f	1.3941505e-05
32	0x3762b819	1.3513513e-05
33	0x37860a8c	1.5978956e-05
34	0x36e83e67	6.9214034e-06
35	0x37581754	1.2880035e-05
36	0x372f21ba	1.0438665e-05
37	0x3846ba3a	4.7380316e-05
38	0x385e136c	5.2947013e-05
39	0x386aa266	5.5941193e-05
40	0xb6cbf493	-6.0783436e-06
41	0xb6c05813	-5.732299e-06
42	0xb728c8c5	-1.0060326e-05
43	0xb70884e9	-8.137177e-06
44	0xb7017354	-7.715851e-06
45	0xb6937119	-4.3941077e-06
46	0xb5ea85cc	-1.7473299e-06
47	0xb7a9e22c	-2.025169e-05
48	0xb79c0ecb	-1.8603538e-05
49	0xb800d3cf	-3.071484e-05
50	0x3885ca5a	6.379625e-05
51	0x382a31fc	4.057771e-05
52	0x387ba8d4	6.0000297e-05
53	0x388493e6	6.321799e-05
54	0x38022d1a	3.103642e-05
55	0x38098c7a	3.2794174e-05
56	0x381292ec	3.4945944e-05
57	0x391b1568	0.00014789926
58	0x3915bdef	0.00014280503
59	0x393a7930	0.00017783488
60	0x389234d4	6.9716625e-05
61	0x38693f94	5.561074e-05
62	0x3885b5e7	6.375816e-05
63	0x388f2464	6.82555e-05
64	0x381151eb	3.4646986e-05
65	0x38587c2c	5.1614057e-05
66	0x382239f7	3.8677794e-05
67	0x394ab253	0.00019330652
68	0x395b3315	0.00020904497
69	0x39766262	0.00023497039
70	0x38b98049	8.8453824e-05
71	0x388c37a0	6.686081e-05
72	0x38af0cf2	8.3470615e-05
73	0x38b78548	8.7509456e-05
74	0x383c8280	4.494423e-05
75	0x3879cf65	5.9559377e-05
76	0x384a3339	4.8208258e-05
77	0x39767a09	0.0002350585
78	0x39811487	0.0002462009
79	0x3996309b	0.00028646443
80	0xb76ebfa9	-1.423053e-05
81	0xb72decad	-1.0366709e-05
82	0xb7548418	-1.266694e-05
83	0xb76636f6	-1.3721865e-05
84	0xb6dcffab	-6.5862746e-06
85	0xb718a8f9	-9.099248e-06
86	0xb705fb30	-7.985902e-06
87	0xb818b544	-3.640844e-05
88	0xb81fb9d0	-3.8081605e-05
89	0xb8372049	-4.3660668e-05
90	0x380599b2	3.185281e-05
91	0x379b6be0	1.8527673e-05
92	0x37ddc6df	2.643786e-05
93	0x380c2637	3.341419e-05
94	0x37a774e2	1.996238e-05
95	0x378ba468	1.6646649e-05
96	0x379aba0e	1.8444869e-05
97	0x389439de	7.0679685e-05
98	0x388cdb64	6.716585e-05
99	0x38c282ba	9.2749906e-05

exp_avg_sq f4 [10, 10]
0	0x30fc5084	1.8358297e-09
1	0x30a02f30	1.1654944e-09
2	0x30fe78ce	1.8515267e-09
3	0x31015c72	1.882452e-09
4	0x300b13d6	5.0596094e-10
5	0x30997a31	1.1166944e-09
6	0x30174371	5.502932e-10
7	0x324ca4a1	1.1911795e-08
8	0x3249787d	1.1727136e-08
9	0x32a154b8	1.8781392e-08
10	0x331292a3	3.412664e-08
11	0x32afb1d4	2.0453548e-08
12	0x32ffdfb6	2.9787639e-08
13	0x330f8372	3.341433e-08
14	0x3214aec1	8.654468e-09
15	0x32944e45	1.726506e-08
16	0x32316cb6	1.0327474e-08
17	0x3477ecad	2.308977e-07
18	0x347fd3c0	2.382576e-07
19	0x34b58c7f	3.3816102e-07
20	0x35843a89	9.851802e-07
21	0x351c808a	5.830158e-07
22	0x356480af	8.512388e-07
23	0x3580fede	9.610919e-07
24	0x34852e56	2.4806894e-07
25	0x350572cf	4.971343e-07
26	0x349d84a8	2.934005e-07
27	0x36e0b1f3	6.6964362e-06
28	0x36e80028	6.914157e-06
29	0x37246db8	9.800708e-06
30	0x33709832	5.6017775e-08
31	0x330f38ee	3.334656e-08
32	0x33514fa6	4.8734044e-08
33	0x336bb261	5.4877436e-08
34	0x32744e4f	1.4220475e-08
35	0x32f81a29	2.8882896e-08
36	0x3290b88d	1.684773e-08
37	0x34cd7ecf	3.827649e-07
38	0x34d2b34f	3.9246012e-07
39	0x35175a78	5.6383533e-07
40	0x3222bc18	9.472409e-09
41	0x31c5754b	5.7467893e-09
42	0x3210ccd5	8.428477e-09
43	0x322068f0	9.337086e-09
44	0x31262d75	2.4182019e-09
45	0x31a2f975	4.7431805e-09
46	0x31462f67	2.8839737e-09
47	0x33881459	6.336695e-08
48	0x338c47a2	6.532288e-08
49	0x33c7a604	9.296858e-08
50	0x34d91168	4.0432064e-07
51	0x34803fd4	2.38883e-07
52	0x34bb7071	3.4913276e-07
53	0x34d3ab2d	3.942636e-07
54	0x33d9d1c6	1.01430075e-07
55	0x345a6794	2.0340514e-07
56	0x3400eaf1	1.20064e-07
57	0x36383305	2.7447834e-06
58	0x363e6ffb	2.8377387e-06
59	0x3686b375	4.0144027e-06
60	0x354b3a41	7.5708164e-07
61	0x34f0b942	4.4838276e-07
62	0x352fdb41	6.5511637e-07
63	0x35466266	7.3903936e-07
64	0x344d1304	1.909903e-07
65	0x34cdf983	3.836577e-07
66	0x347248f7	2.2564551e-07
67	0x36acbfea	5.148341e-06
68	0x36b23146	5.3105496e-06
69	0x36fd2564	7.5443404e-06
70	0x358ac94d	1.0340387e-06
71	0x3524572a	6.12216e-07
72	0x356f94f0	8.925117e-07
73	0x35874f47	1.0081357e-06
74	0x348bb9be	2.6025913e-07
75	0x350bc64f	5.207011e-07
76	0x34a56360	3.080595e-07
77	0x36eb9ad5	7.0215706e-06
78	0x36f38e9f	7.2585676e-06
79	0x372c41b2	1.0267295e-05
80	0x32e3493e	2.6459585e-08
81	0x3287d396	1.5812287e-08
82	0x32c5f15e	2.304358e-08
83	0x32de507f	2.5880807e-08
84	0x31e616c9	6.6964714e-09
85	0x3265a2da	1.33665825e-08
86	0x320905b1	7.975744e-09
87	0x344051a0	1.7911088e-07
88	0x34468b44	1.8490852e-07
89	0x348cc64a	2.6221306e-07
90	0x33ce3dc0	9.603855e-08
91	0x3377742e	5.7614834e-08
92	0x33b0b1df	8.227993e-08
93	0x33c89096	9.339526e-08
94	0x32d31462	2.4572902e-08
95	0x3350d037	4.8618144e-08
96	0x32fae962	2.920996e-08
97	0x352eaf9e	6.507561e-07
98	0x3535613d	6.7569255e-07
99	0x357e6dfa	9.478241e-07

exp_avg f4 [10]
0	0xb6b6d448	-5.4487355e-06
1	0xb87bb99c	-6.0015926e-05
2	0x39a10739	0.00030713694
3	0x38813c3e	6.16242e-05
4	0xb8062877	-3.1985775e-05
5	0x39626726	0.00021591465
6	0x398910ee	0.0002614329
7	0x39aad171	0.00032580973
8	0xb852beee	-5.024572e-05
9	0x38db768d	0.000104648156

exp_avg_sq f4 [10]
0	0x32d0d12f	2.4309513e-08
1	0x34f80cfb	4.6203044e-07
2	0x3760cfd0	1.3399826e-05
3	0x354de29b	7.6698205e-07
4	0x34082da0	1.2682585e-07
5	0x36b848cf	5.4921034e-06
6	0x372ce653	1.0305625e-05
7	0x376bb0ad	1.4048227e-05
8	0x34c06c22	3.5841464e-07
9	0x35ae9bdf	1.3009375e-06

exp_avg f4 [17]
0	0x352254db	6.0473184e-07
1	0x3454a378	1.9803508e-07
2	0x36d7d4fd	6.4322944e-06
3	0xb100e4ae	-1.875644e-09
4	0x378b6ea2	1.6621609e-05
5	0x30598dc1	7.9145585e-10
6	0x367ced38	3.7689006e-06
7	0x301a4839	5.612751e-10
8	0x351871e4	5.6790145e-07
9	0x2e9e2bf0	7.192813e-11
10	0x36f8ee17	7.4186933e-06
11	0x2dad1bc8	1.968016e-11
12	0xb72b24be	-1.0200949e-05
13	0x2bef89ec	1.7020252e-12
14	0xb5cf1cb5	-1.5431057e-06
15	0x3561075d	8.3829747e-07
16	0x355b7d6c	8.176637e-07

exp_avg_sq f4 [17]
0	0x320174d3	7.535351e-09
1	0x2d8561ca	1.5163776e-11
2	0x31be365e	5.5359086e-09
3	0x29d24fab	9.3396936e-14
4	0x33570dce	5.0071144e-08
5	0x28582bd9	1.1999917e-14
6	0x30f2a586	1.7654862e-09
7	0x26b56638	1.2587104e-15
8	0x2f1b25d9	1.4110614e-10
9	0x2225a8c7	2.245102e-18
10	0x31af98e9	5.110554e-09
11	0x2203cf60	1.7863594e-18
12	0x3270b0db	1.4010051e-08
13	0x2176312b	8.3413115e-19
14	0x2fa5e15c	3.0173453e-10
15	0x2e5eb58d	5.0638205e-11
16	0x2ec5bab8	8.991691e-11

exp_avg f4 [10]
0	0x371f64f4	9.5006435e-06
1	0x37965952	1.7922986e-05
2	0xb6bd4aea	-5.64136e-06
3	0x37e05eeb	2.674708e-05
4	0xb7585c7c	-1.28961365e-05
5	0x376271d8	1.3497156e-05
6	0xb570720c	-8.957293e-07
7	0xb5f03e00	-1.7899438e-06
8	0x37a15457	1.923197e-05
9	0xb6ddb727	-6.607635e-06

exp_avg_sq f4 [10]
0	0x32344226	1.0492419e-08
1	0x3346b678	4.6266422e-08
2	0x321a96c3	8.998259e-09
3	0x33c358d5	9.0965536e-08
4	0x32ffc20c	2.977415e-08
5	0x32bb1034	2.1777034e-08
6	0x30b578e3	1.3203841e-09
7	0x31eba819	6.8585106e-09
8	0x3386ac5e	6.271215e-08
9	0x31e0ea38	6.5458856e-09

exp_avg f4 [10, 10]
0	0xb594df88	-1.1091915e-06
1	0x34f81076	4.6205577e-07
2	0x33fcfb27	1.1780349e-07
3	0xb588c9f1	-1.0191562e-06
4	0xb635fd78	-2.711864e-06
5	0xb5fae6e3	-1.8693648e-06
6	0x3514c8c6	5.542646e-07
7	0xb69f1af3	-4.7417066e-06
8	0x3624a601	2.4534531e-06
9	0x36e44c67	6.803824e-06
10	0xb5d4c8ab	-1.5853633e-06
11	0x3530150f	6.5595754e-07
12	0xb4f7f3c0	-4.6184687e-07
13	0xb4e0dc24	-4.1883425e-07
14	0xb51e5cde	-5.8994726e-07
15	0xb3ed4363	-1.104843e-07
16	0x34b505a8	3.3717993e-07
17	0xb526e859	-6.217793e-07
18	0xb5e07a65	-1.6724922e-06
19	0xb4ed5776	-4.4208326e-07
20	0xb79eb4a9	-1.8919194e-05
21	0x37032762	7.817378e-06
22	0xb6541d7c	-3.1607624e-06
23	0xb71a5114	-9.197993e-06
24	0xb7b5083c	-2.1580716e-05
25	0xb755bebd	-1.2740199e-05
26	0x36be0cf6	5.66395e-06
27	0xb81e0736	-3.767685e-05
28	0xb7865cc9	-1.6017251e-05
29	0xb83bdaf5	-4.4788194e-05
30	0xb7109ffc	-8.620318e-06
31	0x366ef2b2	3.560603e-06
32	0xb5bc58ce	-1.4032937e-06
33	0xb68f51a4	-4.2712363e-06
34	0xb72a8549	-1.01638225e-05
35	0xb6cb8bdd	-6.0661537e-06
36	0x362ea02f	2.602126e-06
37	0xb796a18a	-1.7956616e-05
38	0xb6e1a79c	-6.725035e-06
39	0xb7965f07	-1.7925644e-05
40	0x36271c07	2.4901253e-06
41	0xb589f828	-1.0279518e-06
42	0x346c6f73	2.2019758e-07
43	0x35d15500	1.5596452e-06
44	0x3687f926	4.052318e-06
45	0x3630400c	2.6263324e-06
46	0xb56c7f6b	-8.810227e-07
47	0x36fbb0ab	7.50095e-06
48	0x35ad1374	1.2895166e-06
49	0x36d1f59f	6.2572794e-06
50	0x3769e86d	1.3941998e-05
51	0xb6c10ec4	-5.753567e-06
52	0x3634bda5	2.6932478e-06
53	0x36d19b50	6.246766e-06
54	0x3772d8f4	1.4474837e-05
55	0x370b0d96	8.288209e-06
56	0xb6827769	-3.888203e-06
57	0x37d616fc	2.552149e-05
58	0x37230c43	9.718412e-06
59	0x374d5335	1.2238325e-05
60	0x38136489	3.514116e-05
61	0xb773c76f	-1.4530363e-05
62	0x36c0ef61	5.7499133e-06
63	0x37900bdc	1.717166e-05
64	0x38277572	3.9925282e-05
65	0x37c543d6	2.3515819e-05
66	0xb7326969	-1.06341695e-05
67	0x38900f78	6.869336e-05
68	0x37e818af	2.766805e-05
69	0x38a4f1d1	7.865171e-05
70	0xb766b920	-1.3752171e-05
71	0x36beaba8	5.6824247e-06
72	0xb60d67b3	-2.1070998e-06
73	0xb6eb9c74	-7.0217593e-06
74	0xb78d35f5	-1.6833636e-05
75	0xb72a6d5b	-1.0158251e-05
76	0x368ea144	4.2507036e-06
77	0xb7f97241	-2.9736317e-05
78	0xb72c7575	-1.02793465e-05
79	0xb8035d16	-3.1319527e-05
80	0x370ddb17	8.455266e-06
81	0xb66a7c4b	-3.4941065e-06
82	0x35c96e01	1.5007682e-06
83	0x3684a693	3.9532983e-06
84	0x3718b537	9.102098e-06
85	0x36b0b712	5.266521e-06
86	0xb625b6b1	-2.4693256e-06
87	0x3783d5ef	1.5716038e-05
88	0x36ec8ca5	7.0497213e-06
89	0x378ef102	1.7039947e-05
90	0xb3f1e15c	-1.126343e-07
91	0x33392496	4.3106944e-08
92	0x342774df	1.5595604e-07
93	0xb4d88b68	-4.0334567e-07
94	0xb5c56fd8	-1.4710195e-06
95	0xb597f2de	-1.132106e-06
96	0x341cbf36	1.4598194e-07
97	0xb65dce55	-3.3051667e-06
98	0x358963e8	1.0236372e-06
99	0x36177f21	2.2574752e-06

exp_avg_sq f4 [10, 10]
0	0x2ef00fdf	1.0916756e-10
1	0x2dad90b1	1.9732079e-11
2	0x2d3a951d	1.0605986e-11
3	0x2e15921a	3.4008442e-11
4	0x2f18df1e	1.3903587e-10
5	0x2e97b418	6.898676e-11
6	0x2d801579	1.4561451e-11
7	0x2fe1d53a	4.1078768e-10
8	0x2f02465c	1.1848428e-10
9	0x304485c9	7.1494505e-10
10	0x2ec78df7	9.07469e-11
11	0x2d84b99e	1.5089093e-11
12	0x2cde7e45	6.3236382e-12
13	0x2d9274c5	1.6650134e-11
14	0x2e930ad0	6.686707e-11
15	0x2dde6411	2.5282916e-11
16	0x2d1049b3	8.201817e-12
17	0x2f4064e4	1.7498142e-10
18	0x2e6bef4c	5.3645352e-11
19	0x2e598d1d	4.946542e-11
20	0x335bffe1	5.122263e-08
21	0x32113cce	8.453936e-09
22	0x3126b8b2	2.4261166e-09
23	0x32500727	1.210882e-08
24	0x3385f8dc	6.2385624e-08
25	0x32d00a40	2.4219048e-08
26	0x31b1476d	5.159498e-09
27	0x344e1ee3	1.9196482e-07
28	0x32eb7e71	2.74151e-08
29	0x347d3913	2.3583225e-07
30	0x327e8e61	1.4817119e-08
31	0x31274486	2.434065e-09
32	0x305288ab	7.659177e-10
33	0x31732773	3.5383578e-09
34	0x329b2315	1.8060328e-08
35	0x31f8f88b	7.246006e-09
36	0x30d189f3	1.5245959e-09
37	0x336df903	5.5407337e-08
38	0x31f0a02f	7.00313e-09
39	0x33672292	5.381532e-08
40	0x309dacda	1.1472381e-09
41	0x2f544cda	1.9308591e-10
42	0x2e8a8392	6.298885e-11
43	0x2f9bbb8e	2.83276e-10
44	0x30b7b8cf	1.3367528e-09
45	0x3026fd6e	6.0750593e-10
46	0x2f020ce1	1.1828007e-10
47	0x318b494e	4.053766e-09
48	0x3066ba0c	8.39379e-10
49	0x3188536b	3.9676045e-09
50	0x32b78a08	2.1366773e-08
51	0x3172025e	3.521698e-09
52	0x308dfb47	1.0330518e-09
53	0x31ad63b4	5.0462976e-09
54	0x32df0adb	2.5965553e-08
55	0x322dddd1	1.01203605e-08
56	0x311467ab	2.1595763e-09
57	0x33ab8dcc	7.988601e-08
58	0x3245e0ba	1.1518006e-08
59	0x33e17c6e	1.05000126e-07
60	0x34308c85	1.6442398e-07
61	0x32e8fbd8	2.712288e-08
62	0x32043b0c	7.696837e-09
63	0x3326c3d4	3.882799e-08
64	0x34578ee8	2.0075424e-07
65	0x33a6dda0	7.770291e-08
66	0x328dfea7	1.6530363e-08
67	0x35260c3c	6.185762e-07
68	0x33b8f7d6	8.613249e-08
69	0x35435168	7.276162e-07
70	0x32bb1d1c	2.1782903e-08
71	0x3177fdc7	3.6087486e-09
72	0x30921e6b	1.0631543e-09
73	0x31b4a19e	5.2570632e-09
74	0x32e5a7d2	2.6735425e-08
75	0x32364f6b	1.0611852e-08
76	0x3118e82e	2.225089e-09
77	0x33b0e670	8.237555e-08
78	0x32530d23	1.2284803e-08
79	0x33e75d23	1.0773717e-07
80	0x322782a8	9.750387e-09
81	0x30dce478	1.6072041e-09
82	0x30044f7c	4.8134274e-10
83	0x3118bdb1	2.2226738e-09
84	0x32410993	1.12362555e-08
85	0x3192fffe	4.278262e-09
86	0x3084cc7a	9.66238e-10
87	0x33124e1d	3.4064318e-08
88	0x31ae0b03	5.0653184e-09
89	0x3313a9c8	3.438052e-08
90	0x2e0b4b75	3.167196e-11
91	0x2cc695eb	5.6441427e-12
92	0x2c8e92a9	4.0521653e-12
93	0x2d50ed73	1.18761554e-11
94	0x2e64490f	5.1906087e-11
95	0x2e108853	3.286289e-11
96	0x2cb50023	5.1443446e-12
97	0x2f3db6e0	1.725442e-10
98	0x2e08186d	3.0944514e-11
99	0x2f8dc454	2.578725e-10

exp_avg f4 [10]
0	0xb6309bd5	-2.631675e-06
1	0xb6aea089	-5.204293e-06
2	0xb86d3597	-5.6555113e-05
3	0xb7d75f6b	-2.567443e-05
4	0x36ea43a2	6.981617e-06
5	0x383229b6	4.2477353e-05
6	0x38dbd6e7	0.000104827624
7	0xb82a8d99	-4.066303e-05
8	0x37d5c58e	2.5483572e-05
9	0x33c956a0	9.375549e-08

exp_avg_sq f4 [10]
0	0x3108f0a9	1.9927404e-09
1	0x308cd22e	1.0246077e-09
2	0x34f90f83	4.639115e-07
3	0x3410b86d	1.3478139e-07
4	0x328532b6	1.5506298e-08
5	0x344edb3a	1.9264999e-07
6	0x35c6e390	1.4818379e-06
7	0x345d33ab	2.0601026e-07
8	0x33be4fea	8.862101e-08
9	0x301c9d51	5.697603e-10
