models/ensembles/ensemble_25_unbootsrapped/model1/model_checkpoint-10000.pt (torch, 14893 bytes, 24 tensors)

branch.hidden_layers.0.thetas f4 [55]
00000000: e813 94bf dde9 2b40 9bc0 1bbf e3b1 21bf
00000010: d839 1fbe 1649 85be 42ea adbf a828 1abd
00000020: b64d b9be 5bdb 91bf cf68 87bf 34aa 953e
00000030: c1a9 b63f ecd9 0ebf d8b3 d5bf d9e3 a53f
00000040: 6f1f 033e f67e 55bd cd3e 553f a3d9 193f
00000050: a495 8fbf 4120 2c3e c9b7 b1bf 7425 583f
00000060: a36e 9abf b5a1 47bf f659 bfbd db52 8cbf
00000070: 9ad6 373f a261 a8be 97d7 b53f 7f03 32bf
00000080: 47b2 2d3f 948a 8e3f 6e3e 313e 1fbe 8abf
00000090: f777 d33c 4b85 263e 6ca6 79be c18b 733f
000000a0: ba7b f4be 9171 dfbf 8240 fa3e fe0d 63bf
000000b0: 7c8a 043e 2142 0ec0 bf03 363f c785 013f
000000c0: a0bf 21bf 667c 47bf 51e3 323f 19c7 08bf
000000d0: aefa 0640 8a20 f7bf 874f 3ec0
-1.1568575 2.686149 -0.6084077 -0.6316206 -0.1554941 -0.26032323 -1.3587115 -0.03763643
-0.361921 -1.1395067 -1.057886 0.29231417 1.4270555 -0.5580127 -1.6695509 1.2960159
0.1280496 -0.052123033 0.8329895 0.6009771 -1.1217542 0.16809179 -1.3884212 0.8443215
-1.2065014 -0.7798112 -0.093433306 -1.0962785 0.7181183 -0.32886988 1.4206418 -0.69536585
0.67850155 1.1136041 0.17308971 -1.083927 0.02581404 0.16261785 -0.24379891 0.9513512
-0.47750646 -1.7456533 0.4887734 -0.88693225 0.12943453 -2.2227862 0.71099466 0.50594753
-0.6318302 -0.7792419 0.6987811 -0.534288 2.1090503 -1.9306805 -2.973604

branch.hidden_layers.0.bias f4 [10]
00000000: 2e5b b73e 3769 d13e 79f3 cc3e 5c51 073e
00000010: 470f e93e 35bc fb3e 7861 8f3e 2b23 853e
00000020: 09f9 3c3f d8fd dc3c
0.35811752 0.40900585 0.40029505 0.1321463 0.45519468 0.49167028 0.2800405 0.26003394
0.738175 0.02697651

branch.output_layer.weight f4 [10, 10]
00000000: e2c4 233e eb9a 1abe 7284 433f 931e 363f
00000010: 1531 ecbe ebc3 f23e fbb0 263f 18c4 1e3f
00000020: 72ee 4abf 7660 c63e 2384 dcbd 3e2d 253f
00000030: 0bf5 8abe a058 5abd f8e9 97bc 7709 3ebe
00000040: 1ee0 3d3d b06c 2f3d 36ff 473e 24a9 85be
00000050: a361 c4be 799b 43bf b0d3 2f3f e524 5fbd
00000060: c78a 38bf fae0 183d ee0f 813e 9497 8cbe
00000070: 2b45 1a3f c904 c8be 3301 b93d 6cdf 04bf
00000080: 9834 4f3e c32f 6c3e ed13 5dbf 2562 563e
00000090: 4acb ab3e 2824 9ebe 335f 0f3f 63e3 9dbe
000000a0: d486 8a3d ac50 283f 6086 0bbf 6a5b 84be
000000b0: b5bf be3e 415d 1f3e d2de b6be 87de 1ebf
000000c0: 2d4e 31be 9040 1fbd 7e83 debf 880e 9e3e
000000d0: f462 33be 8055 45bf 40fb 913f 38a0 48bf
000000e0: 6b2b 07bf 7a01 eb3e a4e8 87be 5640 c238
000000f0: 735e babf 8533 8cbe d09d 9d3e 56b2 abbf
00000100: 8a2c 283f 8046 8fbf 9f52 50bf f57f cb3e
00000110: d34c 4a3f d7ce 083e 4c7b 44be dd9b 00bf
00000120: 7cd3 383f 0a2f a63e 8781 17bf 4ff3 263f
00000130: 286d 623e 6b63 ff3e bebc 11be 02cc d73d
00000140: 4f05 673e f5d4 1e3f d13b cfbe d1cc b33d
00000150: c731 6ebb 133a 273e d4f2 d7be 6040 9bbe
00000160: 7041 343d 799f f6bd 89d4 9bbe 7149 003f
00000170: 958c b9be 4aca babe db53 e33d 4e5c f4be
00000180: 9d05 e6be 4a5c f6bc d1d0 ab3e d5dc 86be
0.15993074 -0.15098159 0.7637397 0.711404 -0.46131197 0.474151 0.651138 0.62017965
-0.7927009 0.3874547 -0.107673906 0.6452216 -0.27140078 -0.053307176 -0.018544182 -0.18558298
0.046356313 0.04282826 0.19530949 -0.26105607 -0.3835574 -0.7640911 0.68682384 -0.054478545
-0.7208676 0.03732393 0.25207466 -0.27459395 0.6026179 -0.3906615 0.09033432 -0.51903415
0.20234907 0.23065095 -0.8635853 0.20935877 0.33553535 -0.3088696 0.5600464 -0.30837545
0.06763998 0.65748096 -0.54501915 -0.25850993 0.37255636 0.15562917 -0.35716873 -0.620583
-0.17314978 -0.03887993 -1.7383878 0.3087046 -0.17518216 -0.7708359 1.14048 -0.78369474
-0.52800626 0.45899564 -0.26544678 9.2626244e-05 -1.4560074 -0.27383056 0.30784464 -1.3413799
0.6569296 -1.119339 -0.8137607 0.3974606 0.79023474 0.13360153 -0.19187659 -0.5023783
0.721977 0.32457763 -0.5918202 0.6521501 0.22111952 0.49880537 -0.14232156 0.10536958
0.22560619 0.62043697 -0.40475324 0.087793 -0.0036345588 0.16330747 -0.4217745 -0.30322552
0.04400772 -0.12042136 -0.3043559 0.5011206 -0.36240068 -0.3648246 0.110999785 -0.47726673
-0.44926158 -0.030073304 0.33557752 -0.26340356

branch.output_layer.bias f4 [10]
00000000: 3f2f 4ebe d0f0 babd 0751 1bbe 4c1d 383e
00000010: ee08 32be f8e5 bc3e bddc b43e 6c4d 97bc
00000020: add6 483e 8cac 8abe
-0.2013521 -0.091279626 -0.15167628 0.17979926 -0.17386219 0.36894202 0.3532466 -0.018469535
0.19613142 -0.27084768

trunk.hidden_layers.0.thetas f4 [17]
00000000: 76b2 45bf c99d 96bf af2c f63f dd5a 2abf
00000010: cd78 91bf b28a 07c0 d9f7 ac3f 7368 903f
00000020: a51d 91bf e247 95bf fe78 253d b067 af3e
00000030: 30f9 153f ee40 923e f566 9abf 487a adbe
00000040: 15c7 1d3f
-0.77225435 -1.1766902 1.9232386 -0.66544896 -1.136499 -2.1178403 1.3513137 1.1281875
-1.1337172 -1.1662562 0.04039859 0.34258795 0.58583355 0.28565162 -1.206267 -0.33882356
0.616319

trunk.hidden_layers.0.bias f4 [10]
00000000: 9774 1ebd 4099 8d3e 7d73 783d 88dc 663e
00000010: 2f58 9a3e 7f54 093f 09a5 893e 306e 253f
00000020: 37f1 8d3f 7ce0 6c3f
-0.038685407 0.27655983 0.060657013 0.22545063 0.30145404 0.53644556 0.26883724 0.6462126
1.1089238 0.92530036

trunk.output_layer.weight f4 [10, 10]
00000000: f889 b1be 9e59 023f 20ef 5fbf f0e5 663f
00000010: 3318 273f 61ea 993e cc29 013f 363f 413f
00000020: edb2 dcbe 4d46 543f 02fc 6abd 3fe9 433d
00000030: c2c6 413e 592c 78be b3a2 0cbf 90c2 283a
00000040: 1714 e9be a9a6 6cbe 488d 1abd 885d 5bbe
00000050: 94d6 48be a69b dc3e 392e 33be 231e 963e
00000060: e718 cc3e 09fb 9e3f 14e7 533e db4b 44bf
00000070: 3cae 3cbf 530e 88bf a79f 27be d39d 9e3e
00000080: 7ae8 a0be 6f62 ec3e f909 293e 5f31 873f
00000090: d632 f13e 281e e5be e03e 43bf 54e5 0fbf
000000a0: 7b4d c23e 29c3 7c3e 3742 ca3f d631 79bf
000000b0: 1149 c9bd fa58 24be e4ee 0abf 07c8 55bf
000000c0: 5fb9 693f f92f 15bf 8799 6cbc 3faf bc3e
000000d0: 5e1c 8f3f 0055 95bf 21c6 c6be 54e8 b13f
000000e0: a73b a83c 3952 ecbf 8393 07bf 513c 19c0
000000f0: a377 c33e 2d4b fa3a dbd0 1d3f 5fbf 41bf
00000100: c11c cabc 7ac9 3c3f da96 853e 57ad 38bf
00000110: f8bb 39be 2d7b d8bf ce21 17bf c743 203f
00000120: 3983 44bf 8ee6 483f be94 293f 0283 0e3f
00000130: d6e5 063f af62 4b3f 77ca 1f3e d9b1 263f
00000140: 20a4 4e3e dbaf d3be b498 9e3f 3c37 7ebf
00000150: 6223 8ebe 0f1b d7bb 340b f3be ec65 35bf
00000160: 9645 713f 3511 1abf efe3 9e3c 3371 65be
00000170: 2ffd 903e f694 afbe 70e7 cdbe 2f50 b53c
00000180: 7005 6abe de79 18bf 4c7e 723e 30ca 20bf
-0.34675574 0.50917995 -0.8747425 0.90194607 0.652713 0.3006163 0.504544 0.7548708
-0.4310526 0.8291977 -0.05736924 0.047829863 0.18923476 -0.24235667 -0.5493576 0.00064376835
-0.4552314 -0.23110451 -0.037732393 -0.21422398 -0.19613105 0.430875 -0.17498101 0.29319867
0.3986275 1.242036 0.20693618 -0.76678246 -0.7370336 -1.0629371 -0.16369496 0.30979785
-0.31427366 0.4616885 0.1650771 1.0561942 0.47109097 -0.4474957 -0.76267815 -0.562093
0.37949738 0.24683823 1.5801457 -0.9734167 -0.098283894 -0.16049567 -0.5427077 -0.8350834
0.9129848 -0.58276325 -0.014440901 0.36852452 1.1180532 -1.1666565 -0.38823035 1.3899026
0.020536257 -1.8462592 -0.5295946 -2.3943064 0.38177213 0.001909589 0.61646813 -0.75682634
-0.024671914 0.7374493 0.26091653 -0.72139496 -0.1813811 -1.691259 -0.59035957 0.6260342
-0.7676273 0.784768 0.6624259 0.5566865 0.5269445 0.79447454 0.15604578 0.65115124
0.20179796 -0.41345105 1.2390351 -0.9930303 -0.2776137 -0.006564505 -0.47469485 -0.70858645
0.94246805 -0.60182506 0.019395797 -0.22406463 0.28318164 -0.34293336 -0.40215635 0.022132961
-0.22853637 -0.59560955 0.23680991 -0.62808514

trunk.output_layer.bias f4 [10]
00000000: 9169 b13d 6613 94be 7f9e c83e a6ba 903e
00000010: bda8 89be 2455 b73e aaba fd3d e3b3 073f
00000020: ba27 9fbe b0d7 a8bd
0.08662713 -0.2892105 0.39183423 0.282674 -0.2688655 0.35807145 0.12389119 0.5300886
-0.31084996 -0.08244264

exp_avg f4 [55]
00000000: c334 92b5 fd62 ad36 b871 d435 017c df36
00000010: 0458 a235 f853 c636 ebfa b435 2f68 f536
00000020: 7217 cab5 532c 0e36 8afc fb36 645a 7734
00000030: e121 9835 6aaf 3334 b94a 41b6 ea3a 71b4
00000040: cafa 00b6 2b38 91b5 4a41 c1b5 fba9 c535
00000050: 368a d235 8735 c7b3 3ba7 02b6 9624 0f36
00000060: d7ed af35 aced 0c36 a2d5 43b6 f920 f634
00000070: 50ac 84b5 66d3 cc37 708a 59b5 8455 c6b5
00000080: 858c 44b6 1ae5 5eb5 4d0c a2b7 1ade 8cb6
00000090: 55fd e435 483a 20b5 87c7 3736 0f34 35b6
000000a0: 7fe4 adb3 dc6a 44b6 df49 51b5 ff8d 32b6
000000b0: 121f 4236 1abf 3d32 8e5b 8e35 781f dcb5
000000c0: 10ae a034 ad5e 0235 56a7 9236 6c3d 9136
000000d0: 7022 c1b5 c840 c734 5241 8534
-1.0893203e-06 5.1673255e-06 1.5828327e-06 6.660354e-06 1.2095556e-06 5.910635e-06 1.3484072e-06 7.3136976e-06
-1.5056996e-06 2.118545e-06 7.5097823e-06 2.3036552e-07 1.1334743e-06 1.673449e-07 -2.8802735e-06 -2.2466307e-07
-1.9219465e-06 -1.0819689e-06 -1.4398622e-06 1.4727115e-06 1.5686444e-06 -9.276396e-08 -1.946885e-06 2.1329956e-06
1.3107737e-06 2.099997e-06 -2.9181615e-06 4.5845061e-07 -9.884916e-07 2.4417135e-05 -8.104025e-07 -1.4777038e-06
-2.928807e-06 -8.303483e-07 -1.9317633e-05 -4.198181e-06 1.7061053e-06 -5.9689455e-07 2.7385265e-06 -2.7001404e-06
-8.0975035e-08 -2.9268476e-06 -7.7966064e-07 -2.660672e-06 2.8926338e-06 1.1044699e-08 1.060647e-06 -1.6400436e-06
2.992897e-07 4.8566545e-07 4.3706195e-06 4.328487e-06 -1.4389643e-06 3.7113773e-07 2.4820707e-07

exp_avg_sq f4 [55]
00000000: 2b3e 1a32 574b 7532 16e5 a332 b3a9 3c33
00000010: 138a 4632 9f09 4932 4628 8c32 de04 1a33
00000020: 4e3e 4530 bde8 3e32 5436 b432 5719 242f
00000030: 33cf 9932 76db 2231 e950 2132 f166 fa30
00000040: 5351 ef31 bfcb 6a2e d4eb 3f32 f7b0 3530
00000050: c14b c332 2b8d 0d31 c476 7831 d76c 0c31
00000060: 1d4f 4e31 6c72 b731 6440 4431 6062 9e31
00000070: 3cb1 9332 1f81 8436 a3be 7c30 28d7 3731
00000080: 429a 7331 5c21 3130 1289 0935 cd68 c832
00000090: a231 b430 1ee5 1732 0534 ac31 641d 7331
000000a0: e85f 4732 043c 9931 9080 3130 4cb7 1032
000000b0: 8e03 6533 af3f c631 51dd e330 c499 f132
000000c0: 242a c432 c201 492f 7708 0633 5847 8432
000000d0: 69bd 3731 b6d0 8830 680f 9c2c
8.978115e-09 1.4278007e-08 1.9079874e-08 4.39265e-08 1.1556511e-08 1.1701927e-08 1.631646e-08 3.5860346e-08
7.1756723e-10 1.1112374e-08 2.0979463e-08 1.4924716e-10 1.7905768e-08 2.3698852e-09 9.38983e-09 1.8219152e-09
6.965061e-09 5.3386403e-11 1.1171284e-08 6.60989e-10 2.2735437e-08 2.0598445e-09 3.615626e-09 2.043455e-09
3.0021916e-09 5.3390092e-09 2.8558356e-09 4.609589e-09 1.719365e-08 3.9489382e-06 9.1947977e-10 2.6752307e-09
3.544884e-09 6.443963e-10 5.123594e-07 2.3330722e-08 1.311083e-09 8.841452e-09 5.0117728e-09 3.537786e-09
1.1605131e-08 4.459709e-09 6.4574923e-10 8.42358e-09 5.332145e-08 5.7697984e-09 1.6579326e-09 2.8126017e-08
2.2836566e-08 1.8281468e-10 3.1207005e-08 1.5399266e-08 2.6737672e-09 9.954622e-10 4.435497e-12

exp_avg f4 [10]
00000000: d898 c4b5 08b1 81b8 383f 9038 0824 1d38
00000010: d09f 9db8 1898 6a38 bcca 2538 3837 f537
00000020: bcce d4b7 602b 6637
-1.4647621e-06 -6.184174e-05 6.8782305e-05 3.7465274e-05 -7.516111e-05 5.5931596e-05 3.9527877e-05 2.923199e-05
-2.5368638e-05 1.3719167e-05

exp_avg_sq f4 [10]
00000000: addb 3431 b406 5137 5255 a437 137f b236
00000010: 895c 9737 e472 3f37 295b cb36 35a0 7c36
00000020: cc02 1436 fc21 4b35
2.6318319e-09 1.2458931e-05 1.9590054e-05 5.3196068e-06 1.8043693e-05 1.1411237e-05 6.060484e-06 3.764418e-06
2.2055347e-06 7.5672847e-07

exp_avg f4 [10, 10]
00000000: 6f69 3637 c194 2c37 7b06 e236 05f8 2336
00000010: 7353 2437 a1a6 3737 d4d8 9136 df13 1435
00000020: 6d5f ed37 be71 e037 da7d 17b6 0d3f 36b6
00000030: a749 b4b5 6f3e 92b5 3eca 47b6 fd54 e7b5
00000040: 55fe 79b5 d3ad a2b5 3476 b5b6 24dc afb6
00000050: 5714 c735 b5ec fd36 0a69 f035 3482 cc35
00000060: a636 da36 9f6a 4635 bcdf 6b35 03e6 4236
00000070: 460e 1037 2c07 4237 78ba 4b35 3cbc fc36
00000080: 7f9d ad36 e2d7 0335 098d 0337 ea3c 5736
00000090: 6a91 2936 b1dd 6636 cd1c 8137 b49d 8737
000000a0: 689b 26b5 4c05 4fb6 b74e d9b5 ee0c 8435
000000b0: cb9f 8bb5 4de5 19b6 3f0c 37b5 3444 d635
000000c0: eb87 01b7 96b5 12b7 65d3 bdb3 80ca b3b5
000000d0: 5016 ddb4 f745 5db5 7f63 7ab6 da99 0634
000000e0: d61e f634 807a 33b6 ba54 9135 f5b7 a5b5
000000f0: 4d5b 8d34 3cf8 0633 b6b0 bab5 6fe7 8934
00000100: 13ab b9b5 e03a 73b5 b527 fcb4 e75d 5ab5
00000110: 5559 04b6 60b6 d7b5 5cb0 a237 f8f8 b637
00000120: c734 4d37 fd35 f836 fe9e bf37 558e 8e37
00000130: 2281 0937 8cc4 e936 8a2e 4f38 114a 4638
00000140: c5f9 52b5 99bf 42b6 0634 cab5 b86f 3335
00000150: bebc afb5 b44d 0cb6 d034 31b5 0c56 9635
00000160: 8eb6 eab6 130d 04b7 0a05 efb5 ce0e 2eb6
00000170: 9f62 b2b5 c3b2 23b5 f69a 27b6 43a9 ebb5
00000180: 08a5 53b5 b0a2 26b5 e4df b6b6 a898 bab6
1.08725935e-05 1.0286633e-05 6.7360793e-06 2.443326e-06 9.794591e-06 1.0946446e-05 4.346579e-06 5.516321e-07
2.8297038e-05 2.6755846e-05 -2.2574009e-06 -2.7156814e-06 -1.3432481e-06 -1.0896018e-06 -2.9771031e-06 -1.7235576e-06
-9.312983e-07 -1.212053e-06 -5.407981e-06 -5.241034e-06 1.4832575e-06 7.567544e-06 1.7911964e-06 1.5237079e-06
6.503268e-06 7.39159e-07 8.78699e-07 2.9042137e-06 8.586392e-06 1.1564971e-05 7.589474e-07 7.5320986e-06
5.1741367e-06 4.9115454e-07 7.841046e-06 3.2072953e-06 2.5267605e-06 3.4401712e-06 1.539141e-05 1.616669e-05
-6.2065965e-07 -3.0848487e-06 -1.6190669e-06 9.838529e-07 -1.0402813e-06 -2.2932247e-06 -6.8190633e-07 1.5964092e-06
-7.720645e-06 -8.744557e-06 -8.839451e-08 -1.3395475e-06 -4.1180692e-07 -8.243073e-07 -3.7310817e-06 1.2535693e-07
4.5843507e-07 -2.6744383e-06 1.0828e-06 -1.2346997e-06 2.6329727e-07 3.1425074e-08 -1.390951e-06 2.568663e-07
-1.3833363e-06 -9.061023e-07 -4.6967548e-07 -8.1347974e-07 -1.972153e-06 -1.6071826e-06 1.9394029e-05 2.1812026e-05
1.223124e-05 7.397261e-06 2.284301e-05 1.6993998e-05 8.195902e-06 6.966822e-06 4.939599e-05 4.727586e-05
-7.859456e-07 -2.9019777e-06 -1.5065314e-06 6.684527e-07 -1.3093447e-06 -2.0906855e-06 -6.601449e-07 1.1200914e-06
-6.9949956e-06 -7.870857e-06 -1.7808354e-06 -2.5936638e-06 -1.3290736e-06 -6.0982364e-07 -2.4975138e-06 -1.7558126e-06
-7.884378e-07 -6.207656e-07 -5.450087e-06 -5.5610035e-06

exp_avg_sq f4 [10, 10]
00000000: f692 7a34 77ea f034 d0d3 a234 51d0 5133
00000010: dd97 0b35 1c34 0735 cf57 0234 cd0d d233
00000020: a479 6836 e4e8 3336 dccc 2c32 5fae a332
00000030: e455 5f32 00d0 0f31 9263 bf32 9bed b732
00000040: 2aa2 b531 7439 9331 8075 1d34 4982 f433
00000050: a20d 2433 2bf7 a133 bff1 5c33 4196 0e32
00000060: 84b8 bc33 3e89 b733 d833 b132 d791 9032
00000070: e6ac 1c35 07b2 f234 7391 6c33 db4c e233
00000080: f113 9a33 0178 4632 9eee 0334 327c ff33
00000090: 6c80 f632 3dec c732 6c09 5b35 d3d2 2935
000000a0: 1730 1b32 7252 9932 ac1f 5032 4f0a 0731
000000b0: 9208 b332 1012 a932 189c b431 f5c8 9231
000000c0: ca98 0f34 c9d0 de33 78bc 8530 6376 0e31
000000d0: 3283 b830 a26d 712f a30f 2031 d38f 1831
000000e0: ef3d 1730 57fe f92f af6d 8332 04b9 4832
000000f0: 0cda fc30 9212 7c31 034b 2731 4a17 d92f
00000100: 6c91 8f31 ffcf 8a31 9cbc 8630 de4f 5730
00000110: 18d5 ef32 d6c1 b832 6315 3a35 93a6 ad35
00000120: 5c6c 6c35 fd26 1734 249a ca35 3665 c335
00000130: 4a9d bc34 1dd2 9834 56e1 2737 883f 0237
00000140: 368f 1532 ec10 9332 2330 4732 f674 0031
00000150: 060e ab32 86e6 a232 0cdc a731 63aa 8831
00000160: 30e8 0a34 984f d733 c1cc 0d32 f08b 8732
00000170: e70d 3832 77fa eb30 f1af 9d32 f6aa 9732
00000180: e257 9531 67a4 7131 75f0 0134 4870 c933
2.3336528e-07 4.487408e-07 3.0328965e-07 4.8851067e-08 5.2002525e-07 5.036725e-07 1.2139138e-07 9.7813974e-08
3.4641498e-06 2.6808639e-06 1.0058297e-08 1.9054992e-08 1.2999838e-08 2.0927473e-09 2.2280606e-08 2.1412054e-08
5.2862292e-09 4.2847947e-09 1.466451e-07 1.1385834e-07 3.8196625e-08 7.542106e-08 5.144261e-08 8.299652e-09
8.7879954e-08 8.546566e-08 2.0629088e-08 1.6830127e-08 5.836613e-07 4.5205545e-07 5.5080317e-08 1.0537925e-07
7.174811e-08 1.1552403e-08 1.2287134e-07 1.1896954e-07 2.8696569e-08 2.3274078e-08 8.159757e-07 6.3264196e-07
9.033122e-09 1.7849036e-08 1.2114395e-08 1.9650945e-09 2.084224e-08 1.9682403e-08 5.2564353e-09 4.2720054e-09
1.3373497e-07 1.03756584e-07 9.73059e-10 2.0731015e-09 1.342505e-09 2.1957772e-10 2.3291953e-09 2.2200666e-09
5.5021493e-10 4.5473555e-10 1.5300285e-08 1.16836e-08 1.8397386e-09 3.6681382e-09 2.4344338e-09 3.9488618e-10
4.1783803e-09 4.039975e-09 9.803389e-10 7.833004e-10 2.7920166e-08 2.1508566e-08 6.932152e-07 1.2937984e-06
8.8074535e-07 1.4077155e-07 1.5095034e-06 1.4558088e-06 3.5132172e-07 2.8465084e-07 1.0006441e-05 7.763396e-06
8.705504e-09 1.7120747e-08 1.15942695e-08 1.8692936e-09 1.9913397e-08 1.8964112e-08 4.885356e-09 3.9774917e-09
1.2936721e-07 1.0026196e-07 8.253836e-09 1.5779705e-08 1.0713371e-08 1.7169687e-09 1.8357214e-08 1.7656458e-08
4.346462e-09 3.5163568e-09 1.2101539e-07 9.380216e-08

exp_avg f4 [10]
00000000: 9477 2038 1c79 0bb7 6854 5a37 2cfa b237
00000010: 88c4 fab6 50f0 4db6 de4c 80b6 788a 9638
00000020: 60bb f3b6 7432 01b7
3.825834e-05 -8.313244e-06 1.3013465e-05 2.1335749e-05 -7.47346e-06 -3.068726e-06 -3.823646e-06 7.178349e-05
-7.2637777e-06 -7.700746e-06

exp_avg_sq f4 [10]
00000000: 76b2 c736 18ae 8734 ccc8 8635 4d6d bc35
00000010: ad94 7734 52d3 df32 1780 4d33 8b61 9037
00000020: 3a1f 6f34 4475 5f34
5.9514377e-06 2.527238e-07 1.0042218e-06 1.4038902e-06 2.3057756e-07 2.6056714e-08 4.784678e-08 1.721156e-05
2.226997e-07 2.0811154e-07

exp_avg f4 [17]
00000000: 8a92 04b6 c1f2 fbb4 3066 4d36 df09 c5b5
00000010: ee41 8436 9345 91b4 d6a2 3434 de8a 59b3
00000020: 952f a136 4302 c6b4 2686 8135 c119 ff32
00000030: 2f23 b3b4 d9b1 75b3 0cde 9db4 6a0f 7434
00000040: 90d8 67b1
-1.975483e-06 -4.692902e-07 3.0606861e-06 -1.4680517e-06 3.941582e-06 -2.7058977e-07 1.6823046e-07 -5.065055e-08
4.803713e-06 -3.688202e-07 9.650291e-07 2.9697619e-08 -3.3366948e-07 -5.720526e-08 -2.940509e-07 2.2729878e-07
-3.3738026e-09

exp_avg_sq f4 [17]
00000000: 0e4c 3831 ed07 b230 2475 fa31 1c2c 7a30
00000010: c1eb 4532 bc88 072f b059 3132 9078 842f
00000020: 8761 8132 499e b22e b47b 2931 af97 482c
00000030: b215 402e 2fa6 b42c 9d5c fe2d 3007 722d
00000040: 3cf7 832c
2.6818756e-09 1.2953457e-09 7.289275e-09 9.1012153e-10 1.1520513e-08 1.2326756e-10 1.0323149e-08 2.4096325e-10
1.5061927e-08 8.12262e-11 2.4663054e-09 2.850591e-12 4.3675015e-11 5.1343578e-12 2.8917585e-11 1.3757703e-11
3.7506925e-12

exp_avg f4 [10]
00000000: fcbc d935 d4cc 79b6 00ec eb32 3cee 33b6
00000010: 1ce1 4eb6 5830 c3b6 68fd 45b5 c83e 35b6
00000020: 0001 c9b4 62bc 76b6
1.6222762e-06 -3.7223117e-06 2.7464921e-08 -2.681175e-06 -3.0827423e-06 -5.817081e-06 -7.3756974e-07 -2.7007645e-06
-3.7439895e-07 -3.676651e-06

exp_avg_sq f4 [10]
00000000: 4981 db31 7659 b732 8cb2 1d32 a323 0233
00000010: be92 8332 43de 3c33 b151 5c32 5c59 b432
00000020: 2909 1433 312e e031
6.388437e-09 2.1344686e-08 9.1792e-09 3.0300395e-08 1.5317138e-08 4.3974307e-08 1.282426e-08 2.0995394e-08
3.4467266e-08 6.5245094e-09

exp_avg f4 [10, 10]
00000000: c01d 0434 8524 59b5 bf0d 2734 2fe6 81b5
00000010: 1a25 6ab5 bad0 d4b6 df5b 47b6 6a4f 1ab6
00000020: 884d b2b5 bb8f 4fb6 8457 6dae 51a2 a6b0
00000030: d267 2ab2 ad47 06b2 658d af31 d338 41b4
00000040: 8446 80b3 4f3c c4b1 e257 3634 f5a2 4fb1
00000050: d55f ad33 ad57 7bb5 8acf abb4 3cb2 9eb4
00000060: bde4 2cb5 f9b9 40b7 3586 81b6 c66d a235
00000070: d227 88b5 edde 5636 d44b e7b3 9286 2b35
00000080: f056 27b4 1b7e 9235 6d51 6e35 9212 2135
00000090: abfa aa35 3273 8736 11d1 4536 f807 d936
000000a0: 8349 1432 d2b4 d2b4 7ba4 33b5 56b3 cf33
000000b0: 6303 61b4 93a4 20b6 6b90 6fb4 a610 0e35
000000c0: 9ec9 b6b5 d09a 7735 823d a132 39eb 91b4
000000d0: 3951 6fb4 658d d8b2 1a72 2bb4 c9ea 53b6
000000e0: 09d3 71b5 e85b 0235 45b4 8bb4 bd48 8d35
000000f0: bacb dcb2 4f0d c234 b144 af34 b0d6 9234
00000100: a8c7 c334 d787 be34 440d 9d33 ea6f ae35
00000110: d3a0 f635 f985 1036 583b 0733 eff7 a5b4
00000120: 5f36 8bb3 edbf fdb3 5cb9 cfb4 d1c9 a435
00000130: 6590 4c35 1fb5 85b5 936b 4db6 b63f f0b5
00000140: 4bd4 c7b2 a738 b833 4bc3 6cb4 ca2d 8334
00000150: 0a04 3d34 99b0 cd31 30b7 e634 fc8e 4f35
00000160: 554c 4a35 655d 9735 984d 9f32 5afc 9ab4
00000170: e168 8db4 8373 f7b3 b2bc 7fb4 c300 c0b5
00000180: 58a5 e4b4 30ef 93b4 648b a5b5 a836 afb4
1.2304281e-07 -8.089194e-07 1.5558088e-07 -9.678241e-07 -8.7225783e-07 -6.3423913e-06 -2.9706787e-06 -2.2994013e-06
-1.3284598e-06 -3.0929066e-06 -5.396529e-11 -1.2124223e-09 -9.918908e-09 -7.816124e-09 5.109245e-09 -1.7995198e-07
-5.973291e-08 -5.711207e-09 1.6982042e-07 -3.0215095e-09 8.073372e-08 -9.363237e-07 -3.2002237e-07 -2.9559476e-07
-6.440785e-07 -1.1487392e-05 -3.8601233e-06 1.2101889e-06 -1.0144379e-06 3.2018245e-06 -1.0770569e-07 6.389829e-07
-1.5584715e-07 1.0914549e-06 8.87804e-07 6.00042e-07 1.2738941e-06 4.036724e-06 2.947698e-06 6.4680316e-06
8.6314484e-09 -3.9247112e-07 -6.6922047e-07 9.67181e-08 -2.095599e-07 -2.3937653e-06 -2.2311148e-07 5.292335e-07
-1.3618735e-06 9.223995e-07 1.8770837e-08 -2.7179502e-07 -2.2288158e-07 -2.5210008e-08 -1.5967126e-07 -3.1578113e-06
-9.008659e-07 4.8562515e-07 -2.602193e-07 1.0526488e-06 -2.5704015e-08 3.6145e-07 3.264627e-07 2.7350825e-07
3.646685e-07 3.5489094e-07 7.313295e-08 1.2996582e-06 1.8375234e-06 2.1535654e-06 3.148611e-08 -3.091404e-07
-6.482582e-08 -1.1816142e-07 -3.869162e-07 1.2277688e-06 7.6206044e-07 -9.961985e-07 -3.0609997e-06 -1.7899936e-06
-2.3263189e-08 8.578473e-08 -2.205026e-07 2.4433967e-07 1.7603466e-07 5.986362e-09 4.2974125e-07 7.732158e-07
7.536194e-07 1.1277558e-06 1.8545322e-08 -2.8868345e-07 -2.6339606e-07 -1.1522845e-07 -2.3817373e-07 -1.4305336e-06
-4.2588613e-07 -2.7554916e-07 -1.2334026e-06 -3.2636058e-07

exp_avg_sq f4 [10, 10]
00000000: 642a 9a2e 6b42 1531 959d 0f2f b4cb 3631
00000010: 272c 6c31 de82 9633 bfb1 9f32 d40d 7032
00000020: 4499 8632 21b6 d732 303c 8a2b a638 952d
00000030: 55ca 4c2c bb1b 892d faac 122e d32b 0830
00000040: 49f4 572f 66fc 932e 5aa8 552f cd76 f62e
00000050: b6ab 082f 89c9 be31 57f0 352f d0f2 ba31
00000060: 953d fc31 4461 4d34 04d6 3533 823c e932
00000070: 68fb 3333 cddb 4833 7857 5e2e ac9f 0a31
00000080: c14e bf2e de65 1731 69b4 4931 3056 9033
00000090: 5318 8c32 bf51 3e32 f287 7632 efe6 a232
000000a0: d645 f62b 1e73 c72e a117 0c2e 01c7 e32d
000000b0: d3e6 bf2e b75d 3731 5e62 ee2f 8893 b52e
000000c0: 163b b630 fd3c 122f c968 3c2c 7b0d 322f
000000d0: e504 c72d 20a2 a22e ae07 332f 2abf ba31
000000e0: 15ae 6530 d710 a82f 0d18 f130 64f0 0130
000000f0: bd53 092e 3e48 f730 d7b6 062f 73e2 9a30
00000100: 033c 0831 7f8d 8433 c628 3d32 53f0 ad31
00000110: 2a50 9132 0d9d 0b32 712d 732e c9a4 5a30
00000120: eacc 1c2f 7c2c 8430 8ab5 fd30 34ec bf32
00000130: acbe 1132 bd55 9131 bff2 d931 c98f f631
00000140: 9159 d32b 2663 c02e c4b7 be2d b169 052e
00000150: 99d9 be2e 17ed 3731 690f df2f 15a3 f32e
00000160: d436 9a30 0699 2e2f 2e64 3c2d 0d45 1830
00000170: 78ee 3d2e 4174 c22f 7dce 3230 d49b 9b32
00000180: 3323 6e31 3deb d830 ecc7 b731 69e9 2b31
7.010639e-11 2.1720108e-09 1.3061759e-10 2.6600278e-09 3.4367618e-09 7.008724e-08 1.8590866e-08 1.3972983e-08
1.566935e-08 2.5112117e-08 9.822195e-13 1.6964496e-11 2.910246e-12 1.5587412e-11 3.335019e-11 4.953879e-10
1.9640924e-10 6.729621e-11 1.9432048e-10 1.1207888e-10 1.2430132e-10 5.5526397e-09 1.654724e-10 5.440917e-09
7.3411663e-09 1.9127498e-07 4.2336993e-08 2.7152286e-08 4.1905338e-08 4.6766036e-08 5.0554644e-11 2.0172406e-09
8.699664e-11 2.2031297e-09 2.93519e-09 6.7212e-08 1.6309206e-08 1.10780425e-08 1.4349995e-08 1.8964299e-08
1.7498735e-12 9.069921e-11 3.18533e-11 2.5895288e-11 8.726677e-11 2.6683276e-09 4.3361842e-10 8.257134e-11
1.3259036e-09 1.330029e-10 2.6774574e-12 1.6193795e-10 2.2625854e-11 7.395706e-11 1.6282684e-10 5.4350453e-09
8.35571e-10 3.0570987e-10 1.7541893e-09 4.727154e-10 3.1224568e-11 1.7992148e-09 1.2252187e-10 1.1269335e-09
1.9824717e-09 6.172467e-08 1.1010519e-08 5.0622844e-09 1.6916676e-08 8.126574e-09 5.5292163e-11 7.954211e-10
1.4260917e-10 9.616907e-10 1.8459769e-09 2.234274e-08 8.483465e-09 4.2298027e-09 6.3431282e-09 7.1758888e-09
1.5017311e-12 8.7487614e-11 2.1682107e-11 3.033457e-11 8.678853e-11 2.6764775e-09 4.0574413e-10 1.107933e-10
1.1220558e-09 1.5879573e-10 1.0708807e-11 5.5395405e-10 4.3185427e-11 3.5370998e-10 6.504946e-10 1.8115237e-08
3.4653567e-09 1.5782927e-09 5.3487295e-09 2.5016453e-09

exp_avg f4 [10]
00000000: 1492 b2b6 80d1 4db2 6887 c1b6 ecd6 9436
00000010: 3c6a 15b6 1039 d7b5 8071 1e36 c4c7 00b6
00000020: 606a 3835 1824 f1b5
-5.321819e-06 -1.1980205e-08 -5.7676116e-06 4.435764e-06 -2.2264567e-06 -1.6035356e-06 2.36099e-06 -1.9189765e-06
6.870014e-07 -1.7966404e-06

exp_avg_sq f4 [10]
00000000: 3e49 dc33 12fe fa30 7a30 8134 21f6 c033
00000010: 9935 a931 639a ea31 4a35 a733 a813 5d33
00000020: dcd6 8731 b678 da32
1.0257871e-07 1.8262105e-09 2.4063394e-07 8.985467e-08 4.9246407e-09 6.827848e-09 7.786237e-08 5.147345e-08
3.953444e-09 2.5433433e-08
