models/ensembles/ensemble_25_unbootsrapped/model6/model_checkpoint-10000.pt (torch, 14893 bytes, 24 tensors)

branch.hidden_layers.0.thetas f4 [55]
000000 b1 a3 38 3f fe f8 b7 bf 3d 13 9d 3e 52 2b 5d 3e
       0.72124773 -1.4372861 0.3067874 0.21598557
000010 87 2f ba be 9b 87 07 bd 6b 1b 1c 40 42 b5 f1 3e
       -0.36364385 -0.033088308 2.4391735 0.472086
000020 ec 62 9d 3e 6a a4 26 3a a8 02 a6 3f 40 ff cb 3f
       0.30739534 0.0006356897 1.2969561 1.5937271
000030 61 5e 7e bf 21 d7 4b 3f 80 b5 11 bf b4 0d fa 3e
       -0.9936276 0.79625136 -0.5691757 0.4883858
000040 16 29 55 3f b6 67 64 3e 3c a2 bf 3f 14 35 65 bf
       0.8326582 0.22305188 1.4971385 -0.89534116
000050 42 1d 6e bf c6 dd 05 3f 09 15 30 3f a1 a2 73 bf
       -0.93013394 0.52291524 0.687821 -0.95170027
000060 f2 91 18 3f b1 61 f0 3e a8 69 22 3d 0c c9 7d bf
       0.59597695 0.46949533 0.039651543 -0.991349
000070 9d 7c ec be 50 11 74 3f c2 fd 7b bf 01 2c b1 be
       -0.46188822 0.95338917 -0.9843408 -0.34603885
000080 ac 60 c6 3f a4 20 84 3e b8 f5 a4 3f 3f 87 a9 3d
       1.5498252 0.25806153 1.2887487 0.08277749
000090 c7 2d 80 3f 8d 8e 93 be ba 89 ac be bf 45 07 bf
       1.001397 -0.28819695 -0.33698827 -0.528408
0000a0 eb bd 06 3f 9f 3d 02 bf 6e 6a 11 be a6 11 29 c0
       0.5263354 -0.50875276 -0.14200756 -2.6417022
0000b0 cb 6e c4 be a6 f0 92 3f 24 a3 77 3f 43 25 40 3f
       -0.38365778 1.147969 0.9673331 0.75056857
0000c0 f9 ca e3 3b 8d 00 0b 40 b9 e8 09 bd 55 c5 51 be
       0.0069516865 2.1719086 -0.033669207 -0.20485432
0000d0 f8 9c a2 3c 07 16 3f bf e8 f8 59 bf
       0.01985024 -0.74642986 -0.85145426

branch.hidden_layers.0.bias f4 [10]
000000 78 17 6c 3e 5e 76 ce 3e fe 77 af 3e 74 36 c9 3e
       0.23055828 0.40324682 0.34271234 0.39299357
000010 61 52 fb 3e 37 70 4e 3e 0a 50 0e 3f 64 d9 90 3e
       0.49086288 0.20159994 0.5559088 0.28290856
000020 a4 75 3d 3e bc 19 dd 3e
       0.18501908 0.43183696

branch.output_layer.weight f4 [10, 10]
000000 3e e3 0f 3e 00 85 df 3e 9b aa 1a bd 2d 76 f4 be
       0.1405153 0.43656158 -0.03776036 -0.4774641
000010 66 b0 08 bf a6 53 c6 3e 5e ca 31 3f 0a da 26 bf
       -0.5339416 0.38735694 0.6944941 -0.6517645
000020 7a 53 d1 be e6 08 fb 3e 1f 7f 28 3f bd 9f 4e bf
       -0.40884 0.49030226 0.6581897 -0.8071249
000030 49 3a 87 be e8 fe 59 3f 14 99 16 3d 11 ab b4 3e
       -0.26411656 0.8515458 0.03676708 0.35286763
000040 68 fc b3 3e 37 22 41 3c 85 66 c6 be 2a eb 87 be
       0.35153508 0.011787943 -0.3875009 -0.26546603
000050 20 c0 24 3f b2 0f 4f bf b1 ac 0b 3f d7 2e 09 3f
       0.6435566 -0.80883324 0.5456038 0.53587097
000060 a8 ed 06 bf 1f cd ac be 3c 2e 75 3e 6e 49 cd be
       -0.52706385 -0.33750245 0.23943418 -0.40095085
000070 70 78 92 bd e8 8a d7 3d 2c 82 93 3e f5 59 f5 be
       -0.07151878 0.10524541 0.2881025 -0.47920194
000080 aa d4 3a 3e 38 c9 65 3e 6a 80 c5 be e3 18 0f be
       0.18245187 0.2244004 -0.38574535 -0.13974337
000090 f4 ec dc 3d 1f b0 0f bd fd da 7c 3d 0f e9 a7 be
       0.10787383 -0.03508007 0.06173228 -0.32794997
0000a0 be fb f5 be 3e ff 43 3f 17 93 05 bf 97 a0 00 bf
       -0.48043627 0.76561344 -0.52177566 -0.5024504
0000b0 e1 cf 9d 3e a1 1b 27 3d 72 51 e8 be c5 41 01 3e
       0.30822662 0.040797833 -0.45374638 0.12622745
0000c0 30 60 66 be 86 eb 30 3e 8d 33 97 be 72 89 93 3e
       -0.2249763 0.17277345 -0.29531518 0.288158
0000d0 fe 75 c4 be b3 61 06 bf bc 0d 85 3e 49 cd b2 3e
       -0.3837127 -0.5249283 0.2598704 0.34922245
0000e0 bb 99 0c 3f a6 30 dc 3d 77 88 46 bd 87 ba 7d be
       0.54922074 0.107514665 -0.048469987 -0.24778186
0000f0 23 86 88 3e 63 a9 5e 3d 47 06 13 3f 96 95 69 3e
       0.26664838 0.05436076 0.57431453 0.22810969
000100 52 2c 51 bf 8d 54 19 bf 74 af 2c be c2 85 7e be
       -0.8170825 -0.5989464 -0.16863805 -0.24855712
000110 82 33 cf 3e 86 36 a6 3e 4b 81 d1 3e 7e 84 0a bf
       0.40468985 0.32463473 0.40918955 -0.5410842
000120 9b 7a 90 3e a9 78 21 3e 89 6d 2a bf 1d f1 d4 be
       0.2821854 0.15768684 -0.6657339 -0.41590205
000130 49 d1 5e 3e a5 62 04 3e 4d 61 8e 3e 4d 58 79 be
       0.21759523 0.12928255 0.2780861 -0.2435009
000140 d5 ed a7 be 32 03 1c 3e 86 0e df be ce c7 7a be
       -0.3279864 0.15235594 -0.43565768 -0.24490282
000150 fb 0b 08 3f 63 72 9f 3e 6e c7 15 3d 1d 3c c0 be
       0.5314328 0.31141958 0.036567144 -0.37545863
000160 c7 75 cc bc c7 ef 94 be b1 39 af be 7a 47 f9 3d
       -0.024958504 -0.29089186 -0.34223703 0.12171836
000170 f8 29 e4 be b5 71 09 3b 17 b7 9d 3e 07 d4 07 3f
       -0.4456327 0.0020972316 0.3080375 0.53057903
000180 05 53 23 3f 07 e0 43 be 21 f5 cd be 6e 29 65 be
       0.6379855 -0.19128428 -0.4022608 -0.22379085

branch.output_layer.bias f4 [10]
000000 0e cf 39 be b5 e5 09 be eb 01 8b bd 47 8d 82 be
       -0.18145391 -0.13466533 -0.06787475 -0.2549841
000010 6c 19 f5 3d 26 29 5e 3d 13 df e0 3d f4 47 a1 3e
       0.119677395 0.05423846 0.10980048 0.31500208
000020 f8 cf 70 be 5c 2f d9 3d
       -0.23516834 0.10604736

trunk.hidden_layers.0.thetas f4 [17]
000000 34 e0 83 be 69 98 9d bf 7f a0 be 3e b1 4a b3 3f
       -0.2575699 -1.2312137 0.37231824 1.4007169
000010 00 51 ea bf dc cb fa bf e4 a6 cf 3f 31 ce 84 3f
       -1.8305969 -1.9593463 1.6222806 1.0375425
000020 ec 6f cf 3f 5b a3 29 3f 55 ef c7 3f 14 ed 48 3f
       1.6206031 0.66264886 1.5619913 0.7848675
000030 32 d6 bd 3e a6 92 91 bf 82 91 c7 bf 53 cd d8 3d
       0.3707748 -1.1372879 -1.559128 0.105860375
000040 28 1f b6 be
       -0.35570645

trunk.hidden_layers.0.bias f4 [10]
000000 27 94 b3 3e 79 8d d9 3e 1f 5b 0f 3f e2 c3 cf 3e
       0.3507397 0.42490748 0.55998415 0.40579134
000010 c4 15 33 3f 3d 7d 11 be 4f a5 bb 3e 06 a2 1b 3f
       0.69955087 -0.14207931 0.36649558 0.60794103
000020 c2 71 b6 3e c2 cd cc 3e
       0.35633665 0.4000073

trunk.output_layer.weight f4 [10, 10]
000000 1e d3 0b 3f 76 71 14 3f 3d ae a2 3f 1e d9 44 3f
       0.54619014 0.5798563 1.2709423 0.76893795
000010 8c b9 d0 bf 03 95 2e bf 7b 02 59 3f d9 99 a8 bd
       -1.6306624 -0.68196124 0.8476941 -0.08232469
000020 6d bf 84 bf 2c 08 8a bd c5 f4 94 bf d8 78 3d be
       -1.0370919 -0.0673984 -1.1637198 -0.1850313
000030 12 8a d8 bf 70 b0 69 bf 13 85 35 40 22 5f b1 3f
       -1.6917136 -0.9128485 2.8362472 1.3857157
000040 1e 4e bb bf 20 f4 99 bd cb 1a ee 3f 3a 33 fa bf
       -1.4633214 -0.07517266 1.8601927 -1.9546883
000050 2f e0 81 bf b9 df 54 bf 5a c8 69 bf 2c 39 48 bf
       -1.014654 -0.83153874 -0.9132134 -0.7821224
000060 32 a9 21 3f f1 a0 54 3e c7 9e 30 bf 3f 44 47 bf
       0.63148797 0.2076452 -0.68992275 -0.7783851
000070 c5 41 3b 3e 92 6f 22 bf 31 66 c1 be 48 c6 66 be
       0.18286808 -0.6345149 -0.37773278 -0.22536576
000080 78 70 ee be 63 76 52 bd db 2e c1 be 97 2d 4e 3e
       -0.46570182 -0.051382434 -0.3773106 0.20134579
000090 e4 77 c6 be 88 e0 e6 bd 13 61 d8 3e 3e 28 08 be
       -0.38763344 -0.11273295 0.42261562 -0.13296601
0000a0 a9 e4 06 3f 93 1a 9c 3e b8 3c 94 3e 7e 0c 9b 3d
       0.5269266 0.30489025 0.28952575 0.07570742
0000b0 2e 06 8f 3f 10 eb 04 be c5 de 30 3f 6b 31 86 3f
       1.1173761 -0.12980294 0.6908992 1.0483831
0000c0 b8 46 ae 3e 3d a8 a2 3e c5 8c 9c 3e 18 ed 35 3f
       0.3403833 0.3176898 0.3057615 0.710649
0000d0 a3 7e ab 3e 9a d7 2c 3f 78 d8 77 bb 52 aa 01 bf
       0.33495054 0.6751648 -0.0037818234 -0.50650513
0000e0 12 d6 09 3f 46 e4 9b 3e 6a e9 3b bd d4 61 32 3f
       0.5384227 0.30447596 -0.045876898 0.69680524
0000f0 f9 22 28 bf f7 23 ca be c0 b7 36 c0 89 16 9b bf
       -0.65678364 -0.39480564 -2.8549652 -1.2116252
000100 94 d0 4d 40 36 8e 6a 3f 16 d8 78 bf c8 36 d0 be
       3.2158556 0.91623247 -0.9720472 -0.40666795
000110 b7 f0 9f 3f 8a 22 a5 3e b0 4d d7 be 1b 00 f2 bd
       1.2495335 0.32252914 -0.42051458 -0.11816426
000120 09 f6 80 bf 26 18 c3 be ec ea 47 3f 5c 79 bc 3e
       -1.0075084 -0.3810436 0.7809284 0.3681134
000130 00 f9 46 bf 99 6c 5a be 4d 08 de 3e ed 03 a8 be
       -0.77723694 -0.21330489 0.43365708 -0.32815495
000140 cb 27 ba 3e c7 e0 23 3f 79 ad 1c 3e d6 ec fc 3e
       0.36358485 0.6401486 0.1530055 0.4939944
000150 a6 c9 7f bb e6 ac 66 bd 08 e3 19 3f 23 79 87 3e
       -0.0039030104 -0.056317233 0.6011205 0.26459607
000160 3a 12 c9 be 41 5c d0 3e 43 69 79 3e 4d cd 34 3f
       -0.39271718 0.40695384 0.2435656 0.70625764
000170 ca da 89 3e fe a9 35 3f ed 96 19 bf 8b 20 0e bf
       0.26924735 0.7096251 -0.5999592 -0.55518407
000180 10 a0 f5 3e 45 4f 44 3e 45 e3 42 bf cb 05 22 3f
       0.4797368 0.19170864 -0.76128036 0.6329009

trunk.output_layer.bias f4 [10]
000000 db 95 08 3e e1 13 50 be 39 31 9b 3d 50 f6 df be
       0.13338415 -0.20320083 0.07577748 -0.4374261
000010 b1 6b 0e 3f 1a 56 31 3e c1 01 ec be 54 0e c5 be
       0.55633074 0.17318001 -0.46095088 -0.38487494
000020 54 a0 d0 3e 4c 81 f9 3e
       0.4074732 0.48731458

exp_avg f4 [55]
000000 10 ab 48 36 6a 59 ad 36 3b c6 88 34 6b 8e 00 b6
       2.9901894e-06 5.166211e-06 2.5476206e-07 -1.9156384e-06
000010 ce 41 1f 36 e8 19 fd 34 1e da 30 b5 25 a1 97 b6
       2.373115e-06 4.7143772e-07 -6.588251e-07 -4.5189104e-06
000020 fe bb 05 b6 4b 55 09 36 40 fb 1f 36 23 de 4d b4
       -1.992797e-06 2.0464238e-06 2.3839093e-06 -1.9172926e-07
000030 0d ab 30 b5 1a 36 39 b6 9f 0d bc 34 82 8c dd b5
       -6.581402e-07 -2.759864e-06 3.502764e-07 -1.6506676e-06
000040 32 b2 52 b5 16 75 6d 34 96 4b 00 35 c4 f0 30 35
       -7.8490405e-07 2.211494e-07 4.779371e-07 6.591547e-07
000050 a1 5c a1 b5 9c 5c 19 36 a7 3e bb 34 e1 ed 94 b5
       -1.2022393e-06 2.2852682e-06 3.487705e-07 -1.1096091e-06
000060 23 16 1b 34 bc ae 9a b5 42 bc bb b5 23 bd 70 34
       1.4443553e-07 -1.1524749e-06 -1.3987376e-06 2.242055e-07
000070 c1 81 35 b5 0f 2b 65 33 0f 38 9d 34 85 3e 26 36
       -6.761657e-07 5.335738e-08 2.9284317e-07 2.4772319e-06
000080 b7 f0 45 34 3b f4 4c 34 32 67 b6 35 05 66 21 35
       1.8434626e-07 1.9087831e-07 1.359009e-06 6.012563e-07
000090 47 2a 4e b6 f7 8a 06 33 f5 05 76 b6 bd fa f2 34
       -3.0721e-06 3.1325694e-08 -3.6660324e-06 4.525845e-07
0000a0 38 6a 1d 34 4b d0 99 35 ce cb c3 b5 bf 1f eb 35
       1.4660407e-07 1.146001e-06 -1.4587947e-06 1.7518104e-06
0000b0 46 35 aa b5 ff cb 05 b6 88 89 de b4 d9 39 23 b4
       -1.2681492e-06 -1.9937286e-06 -4.145079e-07 -1.5201603e-07
0000c0 82 fc 81 b5 3b d8 32 35 a4 bf 83 b5 be 97 37 b4
       -9.684738e-07 6.6624824e-07 -9.816035e-07 -1.7098407e-07
0000d0 bc 28 2e 35 06 57 4f 35 f0 64 da b4
       6.487933e-07 7.7240145e-07 -4.0679106e-07

exp_avg_sq f4 [55]
000000 99 45 c2 31 95 69 9e 33 6c fa eb 31 08 f4 d8 33
       5.6540554e-09 7.3766536e-08 6.86787e-09 1.0102673e-07
000010 1a 25 1b 33 b5 28 08 32 21 3e af 30 29 fd 21 34
       3.6122493e-08 7.925498e-09 1.2750584e-09 1.5086393e-07
000020 12 a6 6c 31 cc a8 e8 32 5d 9b 43 31 8b 14 3d 2f
       3.443692e-09 2.7085115e-08 2.8464548e-09 1.7196748e-10
000030 65 4a b1 30 ae 9b 23 32 79 a9 5b 30 a3 e8 31 31
       1.2899589e-09 9.523246e-09 7.991257e-10 2.5889129e-09
000040 b8 ab 32 31 ab ae 95 33 f6 83 ce 30 8d fd 2d 2f
       2.600002e-09 6.970125e-08 1.5025978e-09 1.5824338e-10
000050 7d 2b 23 31 f1 21 25 32 3c 53 b9 2e 5f 45 5d 30
       2.3744342e-09 9.611981e-09 8.4276114e-11 8.0497914e-10
000060 6b 5d de 2e 33 95 89 31 d1 65 0b 32 21 0d 8f 2d
       1.01119856e-10 4.0041868e-09 8.114015e-09 1.6263048e-11
000070 16 8d c3 2e 1a 10 f8 30 61 e2 03 31 e1 22 a1 31
       8.892635e-11 1.8048951e-09 1.919169e-09 4.689682e-09
000080 4a d9 c5 2e c7 2e c3 2f 9b 3b 87 35 c1 58 41 30
       8.997121e-11 3.550353e-10 1.0075631e-06 7.033912e-10
000090 35 04 02 33 2e 42 79 2f 87 11 92 33 11 1a 07 31
       3.027181e-08 2.266993e-10 6.801843e-08 1.9659903e-09
0000a0 1d 67 f2 30 cb b7 86 30 75 78 94 34 23 ff bf 30
       1.7637124e-09 9.80202e-10 2.7654792e-07 1.3969593e-09
0000b0 69 ed 80 32 2d 9e 19 31 97 0a 06 32 dc 39 b6 30
       1.5009123e-08 2.2354343e-09 7.802234e-09 1.3258687e-09
0000c0 0d 22 0e 31 62 66 47 30 25 91 83 32 47 0a 3a 32
       2.0683075e-09 7.2541273e-10 1.5316411e-08 1.0828962e-08
0000d0 80 7b b8 30 26 8f 99 30 16 e8 52 31
       1.3422863e-09 1.11729e-09 3.0690948e-09

exp_avg f4 [10]
000000 d8 17 10 b6 f2 76 b5 34 08 a8 de b6 fb 0c 62 b6
       -2.147155e-06 3.380042e-07 -6.635677e-06 -3.368418e-06
000010 a3 f2 fc b5 e8 2d 45 33 dd dc 04 b6 1d 20 53 b4
       -1.884608e-06 4.590939e-08 -1.9798092e-06 -1.9662589e-07
000020 46 30 ed b5 3a a9 c6 b5
       -1.7671925e-06 -1.4801401e-06

exp_avg_sq f4 [10]
000000 05 b3 6a 37 b8 21 ee 37 6b 97 ba 37 ec b1 86 37
       1.3989168e-05 2.8387512e-05 2.2243437e-05 1.6056896e-05
000010 85 70 3b 37 3a 87 87 36 f9 10 30 34 f2 3f 0a 35
       1.1172267e-05 4.039056e-06 1.6397452e-07 5.150206e-07
000020 d0 ce b7 35 10 de 5d 33
       1.3694753e-06 5.1657537e-08

exp_avg f4 [10, 10]
000000 b3 cf ae b5 c9 3f f5 b5 5d 06 40 b3 3b e4 0d 36
       -1.3024459e-06 -1.8272486e-06 -4.470927e-08 2.1143485e-06
000010 2c 5a 0f 36 00 e3 a1 35 c5 05 fb 35 b5 fa f9 b5
       2.1361147e-06 1.20615e-06 1.8702636e-06 -1.8624911e-06
000020 21 21 57 b5 3c 79 12 b6 56 62 c7 35 d6 13 07 35
       -8.014195e-07 -2.1826263e-06 1.4855275e-06 5.0320284e-07
000030 ab f0 dd 35 e6 be 97 b5 29 41 8d b5 38 84 97 b5
       1.6535827e-06 -1.1305935e-06 -1.0524283e-06 -1.1288857e-06
000040 fa 33 cc b4 ad fc 68 b6 89 bd ac 34 07 4e ca 35
       -3.803578e-07 -3.471777e-06 3.2175402e-07 1.5072882e-06
000050 79 62 33 b3 7e 29 3a 35 52 46 a3 34 27 b5 7f b4
       -4.1766246e-08 6.935078e-07 3.041228e-07 -2.3814628e-07
000060 a4 21 9d 34 66 89 88 33 a2 db 28 35 91 71 b4 35
       2.9268006e-07 6.357986e-08 6.2904485e-07 1.3444097e-06
000070 34 23 95 34 c6 83 80 35 47 0e d1 b4 e8 cb af 33
       2.7779026e-07 9.575094e-07 -3.8939672e-07 8.186163e-08
000080 a8 eb 51 b4 63 91 2d b5 70 3d a1 b3 a5 99 0b b3
       -1.9550373e-07 -6.465909e-07 -7.508322e-08 -3.25032e-08
000090 d0 b4 b0 b4 96 5e 22 b4 4e a8 1e 34 57 69 1d b5
       -3.2914113e-07 -1.5121836e-07 1.4776126e-07 -5.864035e-07
0000a0 b1 9f 80 36 0e 56 38 b5 e9 50 29 35 9c f8 80 36
       3.833288e-06 -6.867057e-07 6.3075146e-07 3.843639e-06
0000b0 c1 d1 84 b5 75 c7 e7 b4 e5 1e 97 b4 3c fe 22 b5
       -9.895813e-07 -4.3172227e-07 -2.814842e-07 -6.071966e-07
0000c0 47 0b 5c b5 16 da 4e 36 cb 25 6b b5 fb b9 3a b5
       -8.19728e-07 3.0823335e-06 -8.759932e-07 -6.9561037e-07
0000d0 cb 72 98 b5 e5 16 2b 35 a7 f9 24 b6 a4 14 2a b5
       -1.1358292e-06 6.373578e-07 -2.4583221e-06 -6.335997e-07
0000e0 dc a1 4d b6 9e 80 40 b6 66 b9 33 35 f0 56 9b b4
       -3.0641595e-06 -2.8685095e-06 6.6952487e-07 -2.8934255e-07
0000f0 81 f3 ae 36 f6 38 fa b4 25 7f 2d b6 02 24 0b 36
       5.2139517e-06 -4.6607573e-07 -2.5853017e-06 2.0733573e-06
000100 91 6e 1c 36 8d 20 07 36 40 93 cc b5 31 6d 92 b5
       2.331017e-06 2.0135515e-06 -1.524204e-06 -1.0909627e-06
000110 66 c1 6f b5 4d b5 b6 b6 2b f3 90 34 3e f1 bd 34
       -8.931587e-07 -5.445129e-06 2.6999018e-07 3.537952e-07
000120 5b c7 3c 34 38 82 7b b4 8f 9d a9 34 2f 72 5a 33
       1.758139e-07 -2.342357e-07 3.1593342e-07 5.086093e-08
000130 3b 55 90 34 93 4b 06 35 02 87 00 34 99 a2 3b 34
       2.6884103e-07 5.0028865e-07 1.1970045e-07 1.7474885e-07
000140 6b e8 8e b4 22 df 0d b5 42 c7 e9 b4 3a 42 96 35
       -2.6618667e-07 -5.2851294e-07 -4.354461e-07 1.1195145e-06
000150 83 82 ad b5 92 1d 9f b4 f5 d3 b1 b5 69 cd ca b5
       -1.2927488e-06 -2.9637573e-07 -1.3249215e-06 -1.5109955e-06
000160 d2 a5 80 34 90 13 fd 34 4c db 01 b6 b7 2f a5 b4
       2.3962508e-07 4.7139156e-07 -1.9350146e-06 -3.0768362e-07
000170 c8 6c 45 b5 91 95 33 35 1c cd e4 b5 c8 a0 a5 b4
       -7.3546516e-07 6.6900344e-07 -1.7047018e-06 -3.085063e-07
000180 e7 96 e6 b5 29 d7 d9 b5 a5 fc 6e 35 ae e8 05 35
       -1.7180254e-06 -1.623038e-06 8.9029555e-07 4.9884954e-07

exp_avg_sq f4 [10, 10]
000000 8c bc 2e 31 3f 58 e9 31 f1 b3 f9 31 d5 8f fe 31
       2.542751e-09 6.791225e-09 7.2673108e-09 7.4087247e-09
000010 54 07 23 32 44 8e 71 31 df db 21 33 4c ec 64 33
       9.489515e-09 3.5150984e-09 3.7685705e-08 5.3300298e-08
000020 10 c0 8c 2f fb a6 78 33 e7 ac 9b 31 9f 4e 67 32
       2.560232e-10 5.7893867e-08 4.5307504e-09 1.3463846e-08
000030 44 28 61 32 c9 3d 7c 32 45 3c b9 32 17 3c 8c 31
       1.3105879e-08 1.4682379e-08 2.1564242e-08 4.0813677e-09
000040 e2 1f b4 33 f4 5d 06 34 96 21 79 2f 6c 9d 11 34
       8.3877026e-08 1.2513902e-07 2.265835e-10 1.3561447e-07
000050 f0 2a 0f 32 8b d2 c4 32 f9 ba d9 32 10 98 ef 32
       8.333458e-09 2.2913147e-08 2.534715e-08 2.7892412e-08
000060 bb 2a 2e 33 be 7d b7 31 7b 1a 20 34 79 cb 77 34
       4.0551395e-08 5.340296e-09 1.4910795e-07 2.307769e-07
000070 8e d9 d3 2e 84 31 83 34 91 4e 3a 32 64 7e 00 33
       9.6338146e-11 2.443668e-07 1.0844489e-08 2.9917274e-08
000080 6d 40 0d 33 d5 91 1b 33 d9 df 61 33 da 52 f9 31
       3.2887716e-08 3.6221383e-08 5.2590483e-08 7.256273e-09
000090 bb 77 50 34 d1 d2 a0 34 07 4c 31 2f 57 8c aa 34
       1.9415067e-07 2.9955712e-07 1.6125067e-10 3.1767078e-07
0000a0 0c 0e 4b 35 b2 72 0c 36 94 2a 1a 36 35 fc 29 36
       7.5643834e-07 2.0928387e-06 2.2972572e-06 2.5329766e-06
0000b0 25 e1 77 36 64 80 02 35 58 17 64 37 d5 9d b0 37
       3.693692e-06 4.8615607e-07 1.3595294e-05 2.1054331e-05
0000c0 9d 25 1c 32 95 f4 ba 37 d9 82 78 34 1c d8 2a 35
       9.088947e-09 2.228682e-05 2.3144402e-07 6.3644416e-07
0000d0 37 39 3d 35 88 46 50 35 5a 97 97 35 28 dc 1d 34
       7.0491245e-07 7.7588675e-07 1.1294426e-06 1.4701857e-07
0000e0 d8 03 8b 36 87 b6 d7 36 ad 86 2e 31 ce 02 e4 36
       4.1429703e-06 6.4287483e-06 2.5396887e-09 6.795256e-06
0000f0 3b 7e 9f 33 40 b2 62 34 87 1e 6f 34 29 cb 84 34
       7.426976e-08 2.1112737e-07 2.2269715e-07 2.4734734e-07
000100 b6 98 c3 34 31 9e 55 33 59 08 b6 35 c3 3e 0c 36
       3.6432692e-07 4.97368e-08 1.3562486e-06 2.0898158e-06
000110 2d 59 ae 30 9a 0d 15 36 35 b9 b3 31 e6 0c 75 32
       1.2685512e-09 2.2210647e-06 5.2306413e-09 1.426381e-08
000120 e1 46 88 32 1e df 94 32 39 28 d6 32 9f 1e 8e 31
       1.5864716e-08 1.733093e-08 2.493117e-08 4.136225e-09
000130 a2 11 c4 33 67 09 18 34 4a bf 34 2f 99 69 20 34
       9.1301686e-08 1.4159524e-07 1.6438864e-10 1.4939577e-07
000140 a8 5d 22 34 e7 46 df 34 b6 f0 f6 34 c2 d9 07 35
       1.5121498e-07 4.1588575e-07 4.599621e-07 5.06083e-07
000150 60 75 45 35 c5 df d2 33 1f 6b 35 36 db 7d 8c 36
       7.355902e-07 9.8195905e-08 2.7033454e-06 4.1869766e-06
000160 51 1c 03 31 0f a6 94 36 ef 65 fe 33 8f 03 ae 34
       1.9079105e-09 4.4300755e-06 1.1846338e-07 3.2412615e-07
000170 30 a3 c1 34 06 49 d4 34 32 bb 19 35 a1 b0 ab 33
       3.6067786e-07 3.954121e-07 5.7269347e-07 7.9949366e-08
000180 1c ea 0c 36 9f 70 5a 36 6e c4 00 31 af e8 66 36
       2.0997895e-06 3.2550086e-06 1.8738109e-09 3.440811e-06

exp_avg f4 [10]
000000 b4 5a a2 b5 9e 79 35 35 5c 8c 81 35 fa 67 a5 b5
       -1.2096339e-06 6.760473e-07 9.652099e-07 -1.2323719e-06
000010 ec 2b f8 36 3e b1 79 35 43 ed 12 b6 a3 25 8e 33
       7.396089e-06 9.301765e-07 -2.18938e-06 6.6192364e-08
000020 ef b2 fd 35 c5 b9 de 35
       1.8902045e-06 1.6594355e-06

exp_avg_sq f4 [10]
000000 29 ad fc 33 c8 30 89 34 9e cb f9 34 19 7b 22 35
       1.1766162e-07 2.5553732e-07 4.6528015e-07 6.0528834e-07
000010 0b b1 31 38 52 f9 58 37 36 b8 8c 36 58 74 99 34
       4.2364973e-05 1.2932653e-05 4.19377e-06 2.8583122e-07
000020 d4 8d 0d 37 fc 38 dc 36
       8.437277e-06 6.563145e-06

exp_avg f4 [17]
000000 42 ef dd b4 b0 4d ea 34 f8 00 47 34 a2 37 bc b3
       -4.133854e-07 4.3642422e-07 1.8533672e-07 -8.764552e-08
000010 0c 64 ff b5 5d 21 7a b4 cc 4c 01 34 9b da 29 b4
       -1.9028098e-06 -2.3295202e-07 1.2042e-07 -1.581888e-07
000020 91 b5 3e 35 c8 4e 0e 34 81 0c 57 35 d8 8c e4 2f
       7.104473e-07 1.3253441e-07 8.0111937e-07 4.1573034e-10
000030 fb 21 45 34 1d 67 8b 32 df 15 c4 34 ad 3b ae b4
       1.8359417e-07 1.622862e-08 3.6523758e-07 -3.2453445e-07
000040 e5 f9 8e 32
       1.6644615e-08

exp_avg_sq f4 [17]
000000 22 62 e3 30 26 95 20 30 06 48 d2 30 8b 88 1d 2e
       1.6544315e-09 5.8419614e-10 1.5299981e-09 3.581894e-11
000010 31 0d 15 32 10 1f 6f 2e 9a db e3 2e 79 f9 7f 2e
       8.675941e-09 5.4369897e-11 1.0361774e-10 5.8201863e-11
000020 e9 46 f7 31 8c 4f 15 2e 7d 5a 4f 31 66 b1 11 2d
       7.1967077e-09 3.394933e-11 3.0173901e-09 8.281686e-12
000030 3a 49 bc 2e f9 e6 06 2d 51 a7 d3 2e 9d 67 09 30
       8.562258e-11 7.668304e-12 9.6248905e-11 4.9987553e-10
000040 59 fa 3a 2e
       4.2513857e-11

exp_avg f4 [10]
000000 e4 e2 92 b5 48 e4 0f b6 60 85 ca b5 9e 0b b8 b5
       -1.0943882e-06 -2.1441538e-06 -1.508899e-06 -1.3712449e-06
000010 38 0c 87 b6 60 35 08 34 de 37 04 b6 c0 83 1a b6
       -4.024736e-06 1.2685405e-07 -1.9702052e-06 -2.3024477e-06
000020 62 99 39 b5 26 8e 23 b6
       -6.914107e-07 -2.4371634e-06

exp_avg_sq f4 [10]
000000 27 b5 5c 33 ff b4 c5 33 ac d2 c7 30 f8 5a e0 32
       5.13875e-08 9.2064504e-08 1.4539032e-09 2.61184e-08
000010 eb b1 29 32 91 43 25 33 ad d3 16 34 1a e6 f8 31
       9.877549e-09 3.8478507e-08 1.4046846e-07 7.2439095e-09
000020 c4 93 8f 33 f7 82 4b 32
       6.685835e-08 1.1845933e-08

exp_avg f4 [10, 10]
000000 96 dc 1c b2 04 29 5d 33 f1 dd 96 b4 20 bd aa b2
       -9.1305505e-09 5.1492876e-08 -2.810116e-07 -1.9876609e-08
000010 5d 41 1e 35 3a 72 b7 32 f3 be 57 b3 b8 93 5d 33
       5.89547e-07 2.1355948e-08 -5.0232256e-08 5.158992e-08
000020 85 4a 4a 34 c6 5c 4b 34 68 3b e5 b3 71 0a 19 b4
       1.8839826e-07 1.8939599e-07 -1.06744494e-07 -1.4253034e-07
000030 bf 55 30 b4 12 ae 07 b4 e3 69 90 b4 c1 7c 03 33
       -1.6422472e-07 -1.2636181e-07 -2.6899133e-07 3.0614277e-08
000040 7b c3 ec b3 82 f7 64 b4 ef 30 00 b4 5b 81 70 b3
       -1.1025164e-07 -2.1324198e-07 -1.1938731e-07 -5.5997003e-08
000050 09 a9 03 b0 76 bc cc b2 1c a0 8e b3 60 af a9 b1
       -4.7897736e-10 -2.3834428e-08 -6.641514e-08 -4.938485e-09
000060 a8 cd ff 33 80 fd 7c b2 bf 1c 1a b2 33 33 ad b2
       1.19117715e-07 -1.472597e-08 -8.970516e-09 -2.0163133e-08
000070 0e ac 2d b2 a9 eb 94 35 f7 08 27 b3 91 0f ae b3
       -1.0109046e-08 1.1095445e-06 -3.889087e-08 -8.105338e-08
000080 99 d4 42 b1 2a e3 3c b3 52 c1 aa b4 5d 74 28 b1
       -2.8351563e-09 -4.3978766e-08 -3.1805627e-07 -2.4513362e-09
000090 a1 dd f5 b2 5b 96 e6 b3 57 11 12 b4 ff d3 82 34
       -2.8622539e-08 -1.0737559e-07 -1.3603618e-07 2.4368634e-07
0000a0 1e 4e b1 b4 7d 78 ed b4 aa 4e 75 b5 2b ff d6 b4
       -3.3025657e-07 -4.4232357e-07 -9.1384084e-07 -4.0046265e-07
0000b0 b4 4a c9 b5 72 6d be 33 a2 29 ca b4 6a 8b 2f b5
       -1.4997408e-06 8.8674724e-08 -3.7655724e-07 -6.5395454e-07
0000c0 36 93 f9 b4 94 1d 19 36 53 07 bd b4 67 49 02 b5
       -4.6486974e-07 2.2815993e-06 -3.5209322e-07 -4.853559e-07
0000d0 4c 04 56 b4 8c 5c d5 b4 71 71 05 b6 89 4c e4 33
       -1.9931866e-07 -3.9741678e-07 -1.9884576e-06 1.0630999e-07
0000e0 89 85 a3 b4 d5 9a 44 b5 e9 bd 2f b5 c1 83 30 b6
       -3.0458276e-07 -7.3241e-07 -6.5468936e-07 -2.6302735e-06
0000f0 09 a2 7d 33 5f 2d 9f b3 cf 62 42 35 f1 9b c7 33
       5.9053523e-08 -7.4122674e-08 7.241442e-07 9.295025e-08
000100 3f b5 cd b5 98 49 86 b3 8d 7a 2d 34 21 53 58 b3
       -1.532644e-06 -6.253248e-08 1.6156464e-07 -5.0367024e-08
000110 5b cd f4 b4 53 63 2e b5 c8 36 c8 33 08 9a 32 34
       -4.5597957e-07 -6.4964587e-07 9.3231904e-08 1.6633578e-07
000120 3b 9b 0b 34 d6 85 ec 33 6b 81 d6 34 1a 0a b1 b0
       1.3001856e-07 1.1013951e-07 3.995477e-07 -1.2881316e-09
000130 c6 e1 bd 33 90 c8 72 34 82 33 70 34 ad 9c 51 b5
       8.842066e-08 2.261097e-07 2.237048e-07 -7.808656e-07
000140 3e 74 cb b4 30 56 2b b5 11 bd e8 b4 79 99 f0 b4
       -3.7896274e-07 -6.3827883e-07 -4.335093e-07 -4.481515e-07
000150 c9 86 b0 b5 08 fe 34 33 76 0d c3 b4 77 b9 6d b5
       -1.315225e-06 4.2140556e-08 -3.6331375e-07 -8.8559267e-07
000160 0d 13 3d b5 bf 95 14 36 85 b6 08 33 b2 63 3c b3
       -7.043571e-07 2.2140882e-06 3.1830968e-08 -4.3862833e-08
000170 53 9c 60 35 7c ac 8f 33 f4 2c 7f b5 d1 74 de b2
       8.3673984e-07 6.690331e-08 -9.506032e-07 -2.5897323e-08
000180 6c 37 18 34 a2 b3 39 b3 91 56 aa b4 bf 0b 5b b6
       1.4176265e-07 -4.3237044e-08 -3.1727953e-07 -3.264038e-06

exp_avg_sq f4 [10, 10]
000000 0b c0 8c 2e d8 1e 0c 2f 0e 04 32 2f cf db 3d 2f
       6.4005766e-11 1.2743884e-10 1.6190446e-10 1.7267542e-10
000010 3c d2 3b 2f ca 34 6a 2e 4b 42 06 2f ac cc 1b 2f
       1.7082241e-10 5.3252326e-11 1.2210781e-10 1.4169882e-10
000020 9c 3b 64 2f ac 5b 6d 31 05 62 42 2c db 25 f5 2c
       2.0757657e-10 3.4540149e-09 2.762347e-12 6.9675216e-12
000030 f7 3c 92 2b 85 a7 9e 2c 6d ec d9 2e b5 62 84 2b
       1.0390845e-12 4.5092285e-12 9.910015e-11 9.406561e-13
000040 af b1 2d 2c 5f 94 5b 2d c2 fc ad 2d 16 ef bd 2e
       2.4683413e-12 1.2481654e-11 1.978007e-11 8.637195e-11
000050 f0 03 30 2d 73 ee 0e 2e 5e ba c8 2d 51 53 6a 2d
       1.0005316e-11 3.2498847e-11 2.2820131e-11 1.331986e-11
000060 96 bc 60 30 f3 0b 91 2c b8 1d ff 2c 99 c0 61 2e
       8.175872e-10 4.1224745e-12 7.2508353e-12 5.1330138e-11
000070 f0 84 2f 2f 85 3d 35 30 21 e3 3b 2f 93 66 a1 2f
       1.5963386e-10 6.593484e-10 1.7088243e-10 2.9358613e-10
000080 1c 1c 3d 2f 9b 20 6e 2f 3a 14 25 31 db 28 89 2d
       1.7199436e-10 2.1657558e-10 2.4022158e-09 1.559324e-11
000090 26 34 28 2f f4 fc 28 30 92 20 e9 2f 82 96 51 31
       1.5298038e-10 6.147751e-10 4.2405596e-10 3.0499057e-09
0000a0 01 a7 35 30 0c 74 94 30 99 a4 8e 30 dd 95 82 30
       6.6084743e-10 1.08014e-09 1.0378641e-09 9.501339e-10
0000b0 79 50 ed 31 ce 5b f6 2e de c0 3d 30 c4 24 1c 31
       6.9067565e-09 1.12030926e-10 6.903188e-10 2.2721887e-09
0000c0 2e f5 aa 30 3a c6 7b 32 ad 67 50 32 88 f5 a0 32
       1.2438812e-09 1.4655194e-08 1.2130767e-08 1.8738106e-08
0000d0 ed 03 b0 32 c3 d9 8a 32 b3 b7 00 34 aa 43 b2 30
       2.0490882e-08 1.6164341e-08 1.1987758e-07 1.2970436e-09
0000e0 6c ea 4f 32 94 b4 34 33 9e fd a2 32 d9 a3 7d 34
       1.2102287e-08 4.207375e-08 1.8974614e-08 2.3622069e-07
0000f0 01 a0 a5 2c 8b ea 1f 2d 55 7f 0b 2d 02 6a 36 2d
       4.707346e-12 9.090183e-12 7.929509e-12 1.0369041e-11
000100 9d d0 8f 2e 4e 6f 8e 2c 66 3a e1 2c e8 b4 46 2d
       6.539944e-11 4.04824e-12 6.401368e-12 1.1295166e-11
000110 21 75 c6 2d f2 33 e1 2f b8 9a 58 2f 62 25 ea 2f
       2.256201e-11 4.096417e-10 1.9700053e-10 4.2590914e-10
000120 a3 99 9e 2e 64 43 84 2f 46 f6 bc 31 4c 49 66 2d
       7.2122995e-11 2.4058544e-10 5.499518e-09 1.30902615e-11
000130 01 4b 1e 2f b5 39 70 30 e9 91 73 30 d5 eb 5a 31
       1.4396663e-10 8.73935e-10 8.8610236e-10 3.185723e-09
000140 88 28 29 34 a2 bd 81 34 ad 21 91 34 0f 29 61 34
       1.5754097e-07 2.4166098e-07 2.7032857e-07 2.0969695e-07
000150 32 42 cc 35 ff 4d 90 32 81 1b 29 34 ed fd 11 35
       1.521845e-06 1.6799275e-08 1.5749357e-07 5.438622e-07
000160 5c 33 81 34 3d 08 4e 36 14 36 55 32 7b b1 9f 32
       2.406549e-07 3.0701187e-06 1.2410528e-08 1.8590745e-08
000170 e9 c9 c1 32 6b b7 8f 32 fd 62 e7 33 a0 87 c8 30
       2.2559975e-08 1.67308e-08 1.07747816e-07 1.4590462e-09
000180 f7 88 5a 32 94 5e 33 33 ec 36 95 32 6a ea 86 34
       1.2720412e-08 4.1762704e-08 1.7370859e-08 2.5130004e-07

exp_avg f4 [10]
000000 e3 43 ef 33 68 2c 14 b5 2c 47 e6 b3 46 84 97 b4
       1.1141653e-07 -5.5198916e-07 -1.0723156e-07 -2.8222183e-07
000010 8d 6c ea b5 66 42 e9 b5 26 c4 85 b3 1c 66 24 35
       -1.7465951e-06 -1.7379177e-06 -6.228974e-08 6.124335e-07
000020 a3 b5 20 b6 4c a8 53 33
       -2.3947584e-06 4.928033e-08

exp_avg_sq f4 [10]
000000 8a b9 bd 31 dc c9 2a 2f c4 61 f7 30 78 cd a4 31
       5.5217173e-09 1.5533125e-10 1.7999402e-09 4.7963873e-09
000010 58 81 a7 32 b3 4d 96 34 44 b0 48 30 b1 48 e7 31
       1.9500177e-08 2.799621e-07 7.3010065e-10 6.731249e-09
000020 e3 68 72 36 41 62 99 34
       3.6121862e-06 2.856996e-07
