models/ensembles/ensemble_25_unbootsrapped/model12/model_checkpoint-10000.pt (torch, 14893 bytes, 24 tensors)

branch.hidden_layers.0.thetas f4 [55]
0	0xbfa01dc9	-1.250909
1	0x3f53f246	0.82791555
2	0x3f935667	1.1510743
3	0xbde5bcbf	-0.11217641
4	0xbf3948e2	-0.72376835
5	0x3d4b9606	0.04970362
6	0x3ccee725	0.025256703
7	0xbfc5628f	-1.5420703
8	0x3f9605e7	1.1720551
9	0xc02d4a7a	-2.7076707
10	0xbee3b5e0	-0.44474697
11	0xbf74c857	-0.95618194
12	0xbf66c802	-0.9014894
13	0x3f06e456	0.52692163
14	0x3fcae168	1.5850039
15	0xbfd836ad	-1.6891686
16	0x3e11bcc5	0.14232166
17	0xbf87c0e2	-1.0605738
18	0x3f05193f	0.5199165
19	0xbfa789e4	-1.3088956
20	0xbfa648b4	-1.2990937
21	0x3f51daac	0.8197429
22	0x3e16dce0	0.14732695
23	0x3f0cc45d	0.54987127
24	0x3fb89b3e	1.4422376
25	0x3fb2d813	1.3972191
26	0xbe754e6f	-0.23955701
27	0xbf507a04	-0.8143618
28	0xbe97d03f	-0.29651067
29	0x3ea691e9	0.32533196
30	0xbf8a82c5	-1.0821158
31	0x3f2069fc	0.6266172
32	0x400518d3	2.0796402
33	0x3f0b72d5	0.54472095
34	0xbfd8999f	-1.6921881
35	0xbd758341	-0.059939627
36	0xbf87d02e	-1.0610406
37	0x3f813a33	1.0095886
38	0x3e92d00a	0.28674346
39	0x3c4c2ea5	0.012462293
40	0x3f13b47c	0.5769727
41	0x3fe17274	1.7613053
42	0x3f1cfe2e	0.6132535
43	0xbeed9cdb	-0.46408734
44	0xbfaa903c	-1.3325267
45	0x3f27d972	0.6556617
46	0x3f488ced	0.78340036
47	0x3d59e001	0.053192142
48	0xbf270eb4	-0.6525681
49	0x3ee5f162	0.44910723
50	0x3ff16d55	1.886149
51	0xbef36b2b	-0.475427
52	0x3e9493e9	0.29019096
53	0x3f965376	1.174422
54	0x3eb31471	0.34976533

branch.hidden_layers.0.bias f4 [10]
0	0x3ec505ff	0.38481137
1	0x3f2811d6	0.65652215
2	0x3e8c04a0	0.2734728
3	0x3ea39486	0.31949252
4	0x3ee0b2f7	0.4388654
5	0x3ea842cf	0.3286347
6	0x3e8d0f82	0.27550894
7	0x3eb335bb	0.3500193
8	0x3e9944d0	0.29935312
9	0x3cbf6788	0.023364797

branch.output_layer.weight f4 [10, 10]
0	0x3eb4ac04	0.35287488
1	0xbf3cbe49	-0.7372785
2	0xbcfcb998	-0.030850217
3	0x3f11a653	0.56894416
4	0x3f4f892d	0.8106869
5	0xbc31c555	-0.01085027
6	0xbf0a0992	-0.53920853
7	0x3f869d8b	1.0516828
8	0x3e665b8a	0.22495857
9	0x3e30b51d	0.17256589
10	0x3d96de2a	0.07366593
11	0x3f7b78ce	0.9823121
12	0xbe0a3bd4	-0.13499385
13	0xbf2e99c4	-0.6820338
14	0xbf66c0f8	-0.90138197
15	0xbcbf8ff7	-0.023384077
16	0x3e3a7be6	0.18211326
17	0xbf1afd52	-0.60542786
18	0xbea0f11e	-0.31433958
19	0xbd8f7f52	-0.07006706
20	0xbe562653	-0.20913057
21	0x3f17815f	0.5918178
22	0xbf14a053	-0.58057135
23	0xbf015236	-0.5051607
24	0xbf5a3022	-0.85229695
25	0x3e437c70	0.19090438
26	0x3ed6b6b5	0.4193627
27	0xbf1427da	-0.5787331
28	0xbdfbbad0	-0.12291491
29	0xbe38ae64	-0.18035275
30	0xbee2cee7	-0.4429848
31	0xbe2a97d4	-0.1665948
32	0xbc613ead	-0.013747853
33	0x3ce82a70	0.028340548
34	0xbe7b1a4a	-0.24521747
35	0x3f1b72d6	0.607221
36	0x3f05be1e	0.5224322
37	0x3e52c5e2	0.20583299
38	0x3ecd65d4	0.4011675
39	0x3e515302	0.20441821
40	0x3e9b5c5c	0.30343902
41	0xbd587cc9	-0.05285338
42	0xbd64e52a	-0.05588261
43	0x3f03a0be	0.5141715
44	0x3e802cf2	0.2503429
45	0xbee77293	-0.452046
46	0xbe37748e	-0.17915556
47	0xbd43e61d	-0.047826875
48	0xbeb15271	-0.3463321
49	0x3e2fdae5	0.17173345
50	0xbe5e86dc	-0.21731132
51	0x3edd0d02	0.43173987
52	0xbedac19e	-0.42725843
53	0xbf214fee	-0.6301259
54	0xbe987e5a	-0.297839
55	0x3e22f22f	0.15912698
56	0x3eb24366	0.34817046
57	0x3edeab24	0.43489945
58	0x3ee4b347	0.44668028
59	0xbd061995	-0.03273924
60	0xbeecd3c0	-0.46255302
61	0xbf5ffa27	-0.8749108
62	0x3e6b962c	0.23006505
63	0x3f1d9539	0.6155582
64	0x3f357c89	0.7089315
65	0x3b518534	0.0031970264
66	0x3dc0bbd6	0.09410827
67	0xbf8bfced	-1.0936562
68	0xbedcaffd	-0.43103018
69	0xbd89ecc0	-0.067346096
70	0xbedec2c1	-0.4350796
71	0xbeaa85f0	-0.3330531
72	0xbea730af	-0.3265433
73	0xbf160255	-0.5859731
74	0xbe68c460	-0.22731161
75	0x3e94d3ae	0.2906775
76	0x3e297c04	0.16551214
77	0x3ebc8ad1	0.3682466
78	0x3f0c6243	0.54837435
79	0x3e2e632a	0.17030016
80	0xbf672049	-0.9028364
81	0xbea856bd	-0.32878676
82	0xbebbdae6	-0.36690444
83	0xbe82403e	-0.25439638
84	0x3df32981	0.118731506
85	0x3f30c781	0.6905442
86	0x3f01d8a2	0.5072118
87	0x3e6f8ba2	0.2339311
88	0x3cd8205f	0.026382623
89	0xbd4634a5	-0.04839005
90	0x3e0b58b7	0.13608061
91	0xbebb1947	-0.36542723
92	0x3ea8b1b8	0.3294809
93	0x3ee3cbdb	0.44491467
94	0x3e5a79c0	0.21335506
95	0xbdd6039c	-0.10449907
96	0x3b84fcd6	0.0040584607
97	0x3d9390a0	0.072053194
98	0xbe3bd157	-0.18341576
99	0xbcd327ff	-0.025775908

branch.output_layer.bias f4 [10]
0	0xbe603617	-0.21895634
1	0x3e150e3c	0.14556211
2	0x3e609bf3	0.2193449
3	0x3e66f97e	0.22556111
4	0xbe0ae13d	-0.13562484
5	0xbbbd23e1	-0.0057720994
6	0x3e8bd3dc	0.27310073
7	0x3e8df546	0.2772619
8	0xbe006497	-0.12538372
9	0xbde09cfb	-0.10967442

trunk.hidden_layers.0.thetas f4 [17]
0	0xbf88cbb2	-1.0687163
1	0x3f897b8c	1.0740829
2	0x3dac6042	0.08416797
3	0x3f9cc0f3	1.2246383
4	0xbf5772cc	-0.8415954
5	0x3f816bda	1.0111039
6	0x3f8a3ff0	1.0800762
7	0x3f0b5ae1	0.54435545
8	0x3f899c2e	1.0750787
9	0x3f6920f6	0.9106592
10	0x3f7c3a50	0.9852648
11	0x3f98e87e	1.1945951
12	0x3faae935	1.3352419
13	0x3f01c17e	0.5068587
14	0x3fa9f669	1.3278323
15	0xbf4cd824	-0.80017304
16	0x3fcfe88a	1.624284

trunk.hidden_layers.0.bias f4 [10]
0	0x3f3b8b42	0.73259366
1	0xbe222942	-0.15836051
2	0x3f585f15	0.84520084
3	0x3ef6a860	0.48175335
4	0xbe1440de	-0.1447787
5	0x3f046704	0.5171969
6	0xbec56bb3	-0.3855873
7	0x3edb1bd4	0.4279467
8	0x3ec71d74	0.38889658
9	0x3e85734c	0.26064527

trunk.output_layer.weight f4 [10, 10]
0	0xc02484a9	-2.570597
1	0x3f18307b	0.59448975
2	0x4021cc5d	2.5280983
3	0xbfa05c65	-1.2528197
4	0x3ecb7c2d	0.39743176
5	0xbe161b00	-0.14658737
6	0xbe883b70	-0.26607847
7	0xbf4152ea	-0.7551714
8	0xbf051c13	-0.5199596
9	0x3f4faecf	0.8112611
10	0x3cb1b57e	0.021692988
11	0x3dec2719	0.11530895
12	0x3f5306e5	0.82432395
13	0xbe7307bf	-0.23733424
14	0xbe4795f1	-0.19490792
15	0x3f0a77c8	0.5408902
16	0xbf10c580	-0.5655136
17	0x3ddd9993	0.108203076
18	0x3e91bde8	0.284652
19	0x3f25d074	0.647712
20	0x3f0b5710	0.5442972
21	0xbeca5ed5	-0.39525476
22	0x3e0fb21c	0.14032787
23	0x3eb776aa	0.3583272
24	0xbf2166e0	-0.630476
25	0x3f3ecc83	0.7453081
26	0xbed57e71	-0.4169803
27	0x3dbee433	0.09320869
28	0x3e1edf11	0.1551478
29	0x3ee5018d	0.44727746
30	0x3f0accaf	0.5421857
31	0xbe8a931b	-0.27065358
32	0xbf6ce3b2	-0.92534935
33	0x3f51d188	0.81960344
34	0xbf3e8720	-0.74424934
35	0x3e45462f	0.19265054
36	0xbda1e1ba	-0.07904382
37	0x3f21b145	0.63161117
38	0x3e87fa9e	0.26558393
39	0x3e5c85e3	0.21535449
40	0x3d87ed9b	0.066371165
41	0x3e68d9d8	0.22739351
42	0x3e832918	0.2561729
43	0xbefca12b	-0.4934171
44	0x3e7abd77	0.24486338
45	0x3d6681e8	0.056276232
46	0xbdda65b1	-0.10663927
47	0xbeb1251e	-0.3459863
48	0xbe991d1e	-0.29905027
49	0x3e7b247b	0.24525635
50	0x3f44d708	0.7689061
51	0xbed328eb	-0.41242155
52	0x3e1f5d16	0.15562853
53	0x3efafa90	0.4901929
54	0xbf52b8d5	-0.8231328
55	0x3f0ecf1d	0.5578478
56	0xbf33592a	-0.7005793
57	0x3f46e2bf	0.7768974
58	0x3ec953c6	0.39321727
59	0xbdac0045	-0.08398489
60	0xc04cfb55	-3.20284
61	0x3f89bfcf	1.076166
62	0x4010d2fc	2.2628775
63	0xbf3fcd77	-0.7492289
64	0x3eb94bbb	0.3619059
65	0xbe990436	-0.29886025
66	0x3db75060	0.08950877
67	0xbe28b9ec	-0.16477174
68	0xbd082d43	-0.03324629
69	0xbf609777	-0.87731117
70	0x3ed5660e	0.41679424
71	0xbf07968c	-0.5296409
72	0xbf1d3032	-0.61401665
73	0x3f62de32	0.88620293
74	0xbf4eec90	-0.80829716
75	0x3e9a4581	0.30131152
76	0xbeb45e1c	-0.3522805
77	0x3f2ce96d	0.6754368
78	0x3e49c85f	0.19705342
79	0x3e01c1de	0.1267161
80	0x3f50a401	0.8150025
81	0xbf2f0db8	-0.6838031
82	0xbf9a5261	-1.205639
83	0x3f8aa72d	1.0832268
84	0xbf2fec79	-0.68720204
85	0x3f267c23	0.6503317
86	0xbdadef20	-0.08492875
87	0x3f584d6c	0.84493136
88	0x3f12b372	0.5730506
89	0x3e926d00	0.28598785
90	0xbf162e51	-0.58664423
91	0x3e8d3dc3	0.27586183
92	0x3dea5317	0.114416294
93	0xbe31d77f	-0.17367361
94	0x3e85866a	0.26079112
95	0xbf0eb7bf	-0.55749124
96	0x3ea9d9f8	0.3317411
97	0x3b6bbd31	0.003597092
98	0xbece0086	-0.40234774
99	0xbdcce2fd	-0.10004232

trunk.output_layer.bias f4 [10]
0	0x3e0ad1b4	0.13556558
1	0x3ef9fe41	0.48826793
2	0x3ea465cb	0.32108912
3	0x3e9c7f3b	0.3056582
4	0xbe8e37e8	-0.27777028
5	0x3f0a13b2	0.539363
6	0xbe4492f2	-0.1919668
7	0x3e4ceb7b	0.20011704
8	0x3e89409f	0.26807114
9	0xbe9b77e6	-0.30364913

exp_avg f4 [55]
0	0xb5b2f5e8	-1.3333602e-06
1	0xb6d65a06	-6.388177e-06
2	0xb6d3c24f	-6.3109105e-06
3	0x365e0512	3.308353e-06
4	0x35fb3ca7	1.871861e-06
5	0xb71edace	-9.468478e-06
6	0x351d8465	5.8679717e-07
7	0xb5fe5bc1	-1.8951179e-06
8	0x36182b24	2.2674876e-06
9	0x36ff6f9b	7.612585e-06
10	0x352057be	5.9732326e-07
11	0x373b4ffa	1.116469e-05
12	0x359c1b3c	1.1630832e-06
13	0x3602961e	1.945889e-06
14	0xb5364d87	-6.79131e-07
15	0xb6d333ca	-6.294319e-06
16	0x364e8ecd	3.0779513e-06
17	0x36a5cd04	4.94125e-06
18	0xb5244595	-6.1196016e-07
19	0xb59ec9bb	-1.1830629e-06
20	0x350f4d41	5.338407e-07
21	0x36ebf07c	7.031542e-06
22	0xb64c340f	-3.042867e-06
23	0x3566c6b8	8.597085e-07
24	0xb67418e1	-3.6373315e-06
25	0xb5aae6bb	-1.2733138e-06
26	0x363fe2a9	2.8593151e-06
27	0x35566d94	7.988067e-07
28	0xb647e72b	-2.9787868e-06
29	0x37e1dbdd	2.6924472e-05
30	0xb5c2c0f3	-1.4510282e-06
31	0xb6591505	-3.2347755e-06
32	0x34f52f5f	4.5669273e-07
33	0x34dc64d4	4.1051555e-07
34	0x370c96b3	8.379738e-06
35	0x35e30ef7	1.6917173e-06
36	0x36370666	2.727285e-06
37	0x360452ec	1.97178e-06
38	0xb69ca93d	-4.668864e-06
39	0xb5aff79f	-1.3110583e-06
40	0x36cafda1	6.0495954e-06
41	0x366c66eb	3.5226647e-06
42	0x36ba5743	5.5533906e-06
43	0x36f4722c	7.285058e-06
44	0x3553dfbb	7.8929196e-07
45	0xb71836d3	-9.072671e-06
46	0xb2db6070	-2.553881e-08
47	0x369b887c	4.635249e-06
48	0x3691c1e6	4.3439095e-06
49	0x36f36c57	7.2545768e-06
50	0x34e14720	4.1961266e-07
51	0x35b77831	1.3669543e-06
52	0x3549d124	7.5182675e-07
53	0x371bfd87	9.297749e-06
54	0xb4e31f9c	-4.2305044e-07

exp_avg_sq f4 [55]
0	0x2f431a78	1.774455e-10
1	0x326a7680	1.3647536e-08
2	0x32ae7126	2.030772e-08
3	0x30ba65cf	1.3562217e-09
4	0x31bf1717	5.5614566e-09
5	0x31fa2507	7.280167e-09
6	0x2f20f97a	1.4640547e-10
7	0x32059c15	7.777108e-09
8	0x31460267	2.8814158e-09
9	0x326c7763	1.3764153e-08
10	0x305b8cc2	7.9871765e-10
11	0x30df4e1f	1.6247589e-09
12	0x3282c91d	1.5225448e-08
13	0x31a7a785	4.8793845e-09
14	0x3115f947	2.1824051e-09
15	0x31a80847	4.8903845e-09
16	0x33055f63	3.105323e-08
17	0x330b7962	3.2473856e-08
18	0x314e6f8e	3.0040357e-09
19	0x2ff4f443	4.45569e-10
20	0x32884e3a	1.5868057e-08
21	0x329a88c8	1.799016e-08
22	0x3211dd24	8.490392e-09
23	0x321fb227	9.295525e-09
24	0x313150ed	2.580289e-09
25	0x319197fb	4.2373336e-09
26	0x32ec3aa1	2.7500677e-08
27	0x316abe58	3.415968e-09
28	0x30aa90e6	1.2410311e-09
29	0x34e03744	4.1763462e-07
30	0x30e364b0	1.6545041e-09
31	0x324e8136	1.2020157e-08
32	0x31e1e81d	6.57475e-09
33	0x310786ff	1.9721822e-09
34	0x34354c78	1.6884758e-07
35	0x30a4dcfb	1.1995377e-09
36	0x338747c3	6.299481e-08
37	0x303f35ec	6.9562023e-10
38	0x34232d57	1.5197053e-07
39	0x30d9b244	1.5839494e-09
40	0x331325a3	3.4260335e-08
41	0x31a39200	4.7605226e-09
42	0x34526b3c	1.9596786e-07
43	0x32c2a1d9	2.2658172e-08
44	0x31078921	1.9723034e-09
45	0x32717be3	1.4056215e-08
46	0x31471c74	2.8974485e-09
47	0x326ee00c	1.3904366e-08
48	0x334bca65	4.7448697e-08
49	0x32689c73	1.353975e-08
50	0x31aa0960	4.948717e-09
51	0x31324df1	2.5946714e-09
52	0x31a2bfac	4.736611e-09
53	0x33204182	3.7312482e-08
54	0x31aea005	5.0822586e-09

exp_avg f4 [10]
0	0x3877f00e	5.9112957e-05
1	0xb8ac81c2	-8.2257684e-05
2	0x3882e43e	6.2413965e-05
3	0x38d2bba0	0.00010048528
4	0x38e3734e	0.00010845681
5	0xb8587386	-5.1606003e-05
6	0xb8974c8d	-7.2145e-05
7	0x360ad7ac	2.068914e-06
8	0xb7d7c7bb	-2.5723004e-05
9	0x36d0eb55	6.2262793e-06

exp_avg_sq f4 [10]
0	0x3713e9ed	8.816348e-06
1	0x3777e48b	1.4775559e-05
2	0x37398b14	1.1059241e-05
3	0x37ccf60d	2.4433271e-05
4	0x37c8cbb8	2.3936722e-05
5	0x36effb38	7.1520008e-06
6	0x373ae998	1.1140852e-05
7	0x32a08418	1.868652e-08
8	0x360fc4b0	2.1423148e-06
9	0x33e20d37	1.0526349e-07

exp_avg f4 [10, 10]
0	0xb753fc92	-1.2635386e-05
1	0xb79d2944	-1.8735074e-05
2	0x3721845b	9.627164e-06
3	0x369c574b	4.6593245e-06
4	0xb6a80524	-5.0073886e-06
5	0xb6742556	-3.6380566e-06
6	0x35b8ba97	1.3763373e-06
7	0xb6df1129	-6.6479156e-06
8	0xb70fa740	-8.562405e-06
9	0xb807f934	-3.2418597e-05
10	0xb713dd53	-8.813414e-06
11	0xb810264c	-3.4367942e-05
12	0xb7908766	-1.7229188e-05
13	0xb78c382a	-1.6715454e-05
14	0xb7b8a302	-2.2010416e-05
15	0xb78556bb	-1.5895223e-05
16	0xb7a1578c	-1.9233463e-05
17	0xb5c2820c	-1.4491975e-06
18	0xb74abc13	-1.2083928e-05
19	0xb858e9d1	-5.171617e-05
20	0xb733c0b8	-1.0714102e-05
21	0xb7f7b1df	-2.9527522e-05
22	0xb75502a2	-1.2696402e-05
23	0xb756a0bf	-1.2792821e-05
24	0xb79e00bc	-1.883541e-05
25	0xb74c8c46	-1.21920075e-05
26	0xb7782169	-1.4789731e-05
27	0xb683f6ec	-3.9328497e-06
28	0xb74ee2fa	-1.2331404e-05
29	0xb84551d0	-4.7044654e-05
30	0xb704453b	-7.883932e-06
31	0xb76f5d21	-1.4267193e-05
32	0xb69c7632	-4.662922e-06
33	0xb69b7172	-4.6325667e-06
34	0xb7133ce0	-8.776056e-06
35	0xb6949e3e	-4.4291655e-06
36	0xb6ba8b7b	-5.5594696e-06
37	0xb69c6f1b	-4.6620967e-06
38	0xb7066bfc	-8.0121645e-06
39	0xb7c5d5dc	-2.3583816e-05
40	0x35df68b1	1.6645264e-06
41	0x360bf811	2.0857008e-06
42	0xb33816bb	-4.286151e-08
43	0x33121d72	3.4020054e-08
44	0x350a3e9d	5.150012e-07
45	0x34980f40	2.8323302e-07
46	0xb31b6720	-3.618254e-08
47	0x355b1d39	8.162638e-07
48	0x35689dc2	8.66563e-07
49	0x36397541	2.76354e-06
50	0xb79d7a3f	-1.8772784e-05
51	0xb8143042	-3.5330893e-05
52	0xb6d9c4db	-6.490021e-06
53	0xb7031bdf	-7.814698e-06
54	0xb78ad118	-1.6548249e-05
55	0xb7361878	-1.0853742e-05
56	0xb722231f	-9.66413e-06
57	0xb709b387	-8.207636e-06
58	0xb77289a9	-1.44563755e-05
59	0xb85e165a	-5.294974e-05
60	0x36d42035	6.3218417e-06
61	0xb5df8ca8	-1.6655731e-06
62	0xb74bc372	-1.2145249e-05
63	0xb64c5aca	-3.0451215e-06
64	0x367c2975	3.7575057e-06
65	0xb5af990f	-1.3083062e-06
66	0xb64b3515	-3.0280255e-06
67	0x35e8f39c	1.7356247e-06
68	0x35d1d5af	1.5633904e-06
69	0x37d61951	2.5522577e-05
70	0xb70c55e1	-8.3646455e-06
71	0xb778fa4f	-1.4840231e-05
72	0xb6761557	-3.6669278e-06
73	0xb689a299	-4.101847e-06
74	0xb70e74f9	-8.491094e-06
75	0xb6988a0c	-4.546024e-06
76	0xb6a9c261	-5.059221e-06
77	0xb6974951	-4.508686e-06
78	0xb700b998	-7.672606e-06
79	0xb7cdcf1a	-2.4534344e-05
80	0xb74cf717	-1.2216878e-05
81	0xb7bc861f	-2.2473801e-05
82	0xb6fce350	-7.536648e-06
83	0xb6f46f84	-7.284749e-06
84	0xb762413c	-1.3485838e-05
85	0xb6eb0f83	-7.0053516e-06
86	0xb71179f5	-8.671069e-06
87	0xb6ee2d4a	-7.098225e-06
88	0xb74dcbb9	-1.2266385e-05
89	0xb8178c2b	-3.6131747e-05
90	0x3632c6c9	2.6639775e-06
91	0x36cc52f0	6.089329e-06
92	0x35fbbaa9	1.8755283e-06
93	0x36075b2a	2.0169632e-06
94	0x365e7e54	3.315411e-06
95	0x361581da	2.2278314e-06
96	0x361db4fc	2.350017e-06
97	0x3584bd16	9.889798e-07
98	0x361f66aa	2.3752605e-06
99	0x371ca14f	9.335882e-06

exp_avg_sq f4 [10, 10]
0	0x330211d0	3.0284184e-08
1	0x33f531cd	1.141776e-07
2	0x328f57ea	1.668737e-08
3	0x32d60f23	2.4919762e-08
4	0x33722a21	5.6383332e-08
5	0x328e5572	1.6569832e-08
6	0x3302076d	3.0274737e-08
7	0x30b0fdb4	1.2877792e-09
8	0x33077713	3.1540434e-08
9	0x34a1fafc	3.0171202e-07
10	0x3506c7a3	5.02094e-07
11	0x35fd0a4f	1.8852969e-06
12	0x3493e068	2.754416e-07
13	0x34dede5c	4.151251e-07
14	0x357b0f05	9.352664e-07
15	0x34906a71	2.6899536e-07
16	0x3506a98a	5.01656e-07
17	0x32a6c5b8	1.9414856e-08
18	0x350cb58e	5.241826e-07
19	0x36a8d587	5.031648e-06
20	0x34d43864	3.9529107e-07
21	0x35c701f0	1.4827219e-06
22	0x3468eed1	2.1693565e-07
23	0x34afa5da	3.2716963e-07
24	0x35458a78	7.358972e-07
25	0x3462cc29	2.1122163e-07
26	0x34d3e583	3.9468804e-07
27	0x3282a656	1.5209633e-08
28	0x34dd6eec	4.1245164e-07
29	0x3684e767	3.9608453e-06
30	0x33ea8287	1.0920217e-07
31	0x34da2de4	4.0639054e-07
32	0x33851f87	6.19903e-08
33	0x33c4aefb	9.15879e-08
34	0x3459073b	2.021233e-07
35	0x337deaea	5.9119806e-08
36	0x33e89057	1.0829597e-07
37	0x318b3dc4	4.0524544e-09
38	0x33f56aad	1.1428106e-07
39	0x35923487	1.0893135e-06
40	0x31079400	1.9729214e-09
41	0x31ee4528	6.934574e-09
42	0x30f7f337	1.8040741e-09
43	0x310361be	1.911857e-09
44	0x31709d84	3.5014134e-09
45	0x30c7f4f2	1.4548773e-09
46	0x3101d906	1.8895334e-09
47	0x2eb00aa0	8.005441e-11
48	0x311e0be1	2.2998778e-09
49	0x329f4efb	1.8545952e-08
50	0x35094b85	5.114637e-07
51	0x360082b1	1.9149559e-06
52	0x3498325c	2.8348848e-07
53	0x34e42ae8	4.2499528e-07
54	0x357f31be	9.5067287e-07
55	0x34939a42	2.749312e-07
56	0x3508e0db	5.0991156e-07
57	0x32a85f1b	1.9601023e-08
58	0x350f6b7d	5.342807e-07
59	0x36aba774	5.1156912e-06
60	0x31d58dc4	6.2152328e-09
61	0x32bf4cae	2.2270196e-08
62	0x3179b44a	3.6336751e-09
63	0x31b2946e	5.1973563e-09
64	0x323f0284	1.1118235e-08
65	0x316a65c2	3.4109324e-09
66	0x31ce8f7f	6.0117027e-09
67	0x2f495203	1.830998e-10
68	0x31db8028	6.3883085e-09
69	0x33833344	6.109488e-08
70	0x33f15ea4	1.1239652e-07
71	0x34e13a07	4.1951736e-07
72	0x338590a9	6.219609e-08
73	0x33c8f17d	9.357152e-08
74	0x345fd32b	2.0845316e-07
75	0x33810163	6.007283e-08
76	0x33efe7b2	1.117145e-07
77	0x31900135	4.191089e-09
78	0x33fb9652	1.17154414e-07
79	0x3596cf07	1.1236124e-06
80	0x348c69d6	2.6154038e-07
81	0x3582f335	9.756537e-07
82	0x341be49d	1.4518669e-07
83	0x346a12bc	2.1799764e-07
84	0x350228c9	4.8488124e-07
85	0x34164972	1.3996558e-07
86	0x348b8883	2.5990093e-07
87	0x3227bdc1	9.763824e-09
88	0x34926eac	2.7275144e-07
89	0x362f6078	2.6133184e-06
90	0x329c75a4	1.8214287e-08
91	0x33921a12	6.803397e-08
92	0x322ecbd6	1.017448e-08
93	0x328263fa	1.5179456e-08
94	0x33111356	3.377803e-08
95	0x3228e349	9.830566e-09
96	0x329b9afb	1.8114852e-08
97	0x303a548d	6.778656e-10
98	0x32a38b18	1.903895e-08
99	0x34435859	1.8192931e-07

exp_avg f4 [10]
0	0xb6f52670	-7.3060437e-06
1	0xb8a81d72	-8.016349e-05
2	0xb88cb2e8	-6.709044e-05
3	0xb80047c4	-3.0584415e-05
4	0x362cfdf6	2.5777822e-06
5	0xb8806efe	-6.1241895e-05
6	0xb6d38d48	-6.3047373e-06
7	0xb7f6f1e6	-2.9438128e-05
8	0xb848c45a	-4.7866582e-05
9	0x374be697	1.2153431e-05

exp_avg_sq f4 [10]
0	0x35330932	6.669608e-07
1	0x373a7abe	1.1115042e-05
2	0x3712cc81	8.749893e-06
3	0x36216759	2.4051026e-06
4	0x33304951	4.1044874e-08
5	0x373d9a83	1.1301253e-05
6	0x340eb645	1.329109e-07
7	0x36267e59	2.4809472e-06
8	0x36c1a25c	5.7707493e-06
9	0x34d7af5d	4.0174464e-07

exp_avg f4 [17]
0	0x35748257	9.108675e-07
1	0x350fdfe3	5.359745e-07
2	0x3618ce4e	2.276985e-06
3	0xb54b2ace	-7.568568e-07
4	0x349b2793	2.8899794e-07
5	0xb4c4fd15	-3.6691986e-07
6	0x34bf4da8	3.5633025e-07
7	0x361034ab	2.148833e-06
8	0x343b1842	1.7424557e-07
9	0x3527cdb5	6.251169e-07
10	0xb5ce1da4	-1.5356823e-06
11	0x33d89907	1.0086119e-07
12	0x3430876e	1.6440546e-07
13	0xb4f0f361	-4.4880565e-07
14	0x35027daf	4.861167e-07
15	0x366e4706	3.5506105e-06
16	0xb4a50100	-3.0734373e-07

exp_avg_sq f4 [17]
0	0x3082e013	9.522431e-10
1	0x2fac72d1	3.13682e-10
2	0x32ed4fb1	2.762667e-08
3	0x2ffa3f99	4.5519924e-10
4	0x3003581d	4.778274e-10
5	0x2fc95797	3.6623923e-10
6	0x2fa2514a	2.9525388e-10
7	0x3045abfa	7.1912576e-10
8	0x2ee0ca92	1.02223244e-10
9	0x2e381a8d	4.1860338e-11
10	0x30949065	1.0809457e-09
11	0x2e7d0c4f	5.7536472e-11
12	0x3036d522	6.6514094e-10
13	0x2e14d7be	3.384292e-11
14	0x304af622	7.383695e-10
15	0x2f738175	2.2146714e-10
16	0x2d6786c5	1.3160755e-11

exp_avg f4 [10]
0	0xb712930e	-8.736517e-06
1	0xb504e9dc	-4.951414e-07
2	0xb6f1cbd5	-7.206089e-06
3	0xb693091d	-4.3820023e-06
4	0x36bfb052	5.71277e-06
5	0xb59ef7a4	-1.184399e-06
6	0x363d24fc	2.8184722e-06
7	0xb6c01d29	-5.7254406e-06
8	0xb5a1f8a7	-1.2067802e-06
9	0xb68ccb58	-4.1959975e-06

exp_avg_sq f4 [10]
0	0x3240089a	1.1177827e-08
1	0x31bb455a	5.4503007e-09
2	0x326fff4b	1.3969678e-08
3	0x3314a377	3.4607606e-08
4	0x3320e54f	3.7461458e-08
5	0x33077263	3.153617e-08
6	0x319c146c	4.5425192e-09
7	0x3330a9b0	4.1132523e-08
8	0x31a45b07	4.783377e-09
9	0x3211aeb8	8.479837e-09

exp_avg f4 [10, 10]
0	0x36036911	1.9581678e-06
1	0xb3cae783	-9.44847e-08
2	0xb5b4a02c	-1.3457661e-06
3	0x34ea3db1	4.3630783e-07
4	0xb3b43bbc	-8.392769e-08
5	0x3477c257	2.3074368e-07
6	0xb3c49b0d	-9.155165e-08
7	0x34c04fe6	3.582092e-07
8	0x34c7a968	3.7189898e-07
9	0xb6d456a3	-6.328178e-06
10	0xb5d2b4d6	-1.569885e-06
11	0x3497b316	2.8256244e-07
12	0xb700c905	-7.676198e-06
13	0xb5c85d62	-1.4928339e-06
14	0x34d2a7ff	3.923778e-07
15	0xb614a537	-2.2149886e-06
16	0x358f8991	1.0694367e-06
17	0xb5d52919	-1.5881698e-06
18	0xb5e8ffd3	-1.7359802e-06
19	0x36931aca	4.38406e-06
20	0x3607ba9f	2.0225195e-06
21	0xb476d151	-2.2986684e-07
22	0xb601b238	-1.9326235e-06
23	0x353a0230	6.929358e-07
24	0xb3dd8fee	-1.0317295e-07
25	0x3482c9b3	2.4361142e-07
26	0xb3fa9c00	-1.16699084e-07
27	0x34b5247f	3.3740432e-07
28	0x328ba598	1.6257033e-08
29	0x36c89b11	5.9785166e-06
30	0xb70b1d24	-8.29183e-06
31	0x35b67acb	1.3595794e-06
32	0xb71406f1	-8.823104e-06
33	0xb6ab36cf	-5.1025777e-06
34	0x358ece55	1.0639875e-06
35	0xb6a7e46f	-5.003581e-06
36	0x36242d83	2.4464396e-06
37	0xb682739a	-3.8877597e-06
38	0xb63ae537	-2.784958e-06
39	0xb7f45f99	-2.9131583e-05
40	0x34b087cc	3.288136e-07
41	0xb338c66a	-4.3021295e-08
42	0x350397d4	4.902224e-07
43	0x344119fc	1.7983979e-07
44	0xb321b1c0	-3.7647396e-08
45	0x3447f730	1.8623246e-07
46	0xb3c427dd	-9.134212e-08
47	0x3415f713	1.3966591e-07
48	0x33e2871f	1.05485235e-07
49	0x354bf736	7.598313e-07
50	0xb6bbc43c	-5.595879e-06
51	0x350c76d2	5.232697e-07
52	0xb60797f9	-2.0205027e-06
53	0xb613bea8	-2.2015683e-06
54	0x34f353a9	4.5323148e-07
55	0xb6016f0c	-1.9287136e-06
56	0x3573d494	9.0833896e-07
57	0xb5f6e2e9	-1.8394468e-06
58	0xb5db34a3	-1.6332091e-06
59	0x36e1fada	6.7347255e-06
60	0x360d8e15	2.109334e-06
61	0xb45cee12	-2.0575706e-07
62	0xb68c93a1	-4.1895114e-06
63	0x350e8ad3	5.310114e-07
64	0xb387bc44	-6.320673e-08
65	0xb3817ed4	-6.0301005e-08
66	0x332db748	4.0446395e-08
67	0x3451d594	1.9542341e-07
68	0xb3c1afe5	-9.019258e-08
69	0x36679f7a	3.451451e-06
70	0xb6a6377d	-4.953645e-06
71	0x351f5ee6	5.937021e-07
72	0xb61c1cfa	-2.3262678e-06
73	0xb61a3f7b	-2.2984739e-06
74	0x34f9660c	4.6454113e-07
75	0xb607dd24	-2.0245288e-06
76	0x35829fd5	9.732272e-07
77	0xb5eda432	-1.7705663e-06
78	0xb5b540c1	-1.3504397e-06
79	0xb69cfb26	-4.6784e-06
80	0x3728e471	1.00667685e-05
81	0xb5aacf75	-1.2726365e-06
82	0x36dd8925	6.602279e-06
83	0x36a84809	5.015176e-06
84	0xb58cfe45	-1.0504815e-06
85	0x369ed154	4.733136e-06
86	0xb6189410	-2.2735949e-06
87	0x36874857	4.031735e-06
88	0x365be446	3.2766416e-06
89	0x3701e171	7.741489e-06
90	0x322630b1	9.673543e-09
91	0xb2c85a17	-2.3324032e-08
92	0x3528ac35	6.283547e-07
93	0x33d9daf3	1.01446766e-07
94	0xb2dbc03b	-2.5582372e-08
95	0x34257d09	1.541231e-07
96	0xb3a4f088	-7.6805975e-08
97	0x33cc05fc	9.500579e-08
98	0x33b5191c	8.433037e-08
99	0x3560a32c	8.368395e-07

exp_avg_sq f4 [10, 10]
0	0x2ddf50bb	2.5388016e-11
1	0x2c2d0c50	2.4591613e-12
2	0x2f192216	1.3927379e-10
3	0x2dedd55c	2.7038531e-11
4	0x2c6fccf4	3.4077715e-12
5	0x2dfcbeda	2.8733838e-11
6	0x2d4edde7	1.17590165e-11
7	0x2e5418c3	4.8225212e-11
8	0x2e5460f9	4.8289348e-11
9	0x3015b654	5.446499e-10
10	0x3138717e	2.6840037e-09
11	0x2ec20f91	8.824864e-11
12	0x316c54b1	3.4390661e-09
13	0x30b4553b	1.3120948e-09
14	0x2eb6f289	8.319485e-11
15	0x30a7f82b	1.2221383e-09
16	0x2fa8c435	3.0698435e-10
17	0x3097d097	1.1045981e-09
18	0x3041d3ee	7.051416e-10
19	0x322b076b	9.955197e-09
20	0x320519fd	7.747528e-09
21	0x2f6f7f77	2.1782208e-10
22	0x320e78ec	8.292982e-09
23	0x31616fe0	3.2805403e-09
24	0x2f30ec32	1.609102e-10
25	0x3151e74e	3.0544984e-09
26	0x30478ffc	7.260039e-10
27	0x311dff38	2.2991582e-09
28	0x30bea596	1.3871382e-09
29	0x32cc01e3	2.3749584e-08
30	0x34558008	1.9883748e-07
31	0x31b67d10	5.311115e-09
32	0x341c934f	1.4582223e-07
33	0x33a63f1d	7.7414576e-08
34	0x3160a7df	3.2691714e-09
35	0x3392b954	6.832366e-08
36	0x32877e76	1.5773576e-08
37	0x335103f6	4.8665207e-08
38	0x32f02ab5	2.7959098e-08
39	0x35103309	5.3718446e-07
40	0x2e4ca7d6	4.6533298e-11
41	0x2c255f69	2.3500874e-12
42	0x2e8a383b	6.285502e-11
43	0x2dfcc13d	2.8734898e-11
44	0x2c34b083	2.5677522e-12
45	0x2df11fef	2.741271e-11
46	0x2d281e98	9.5564875e-12
47	0x2e280567	3.8203576e-11
48	0x2e1f33e5	3.6198506e-11
49	0x2fbdb3a8	3.4506553e-10
50	0x317fc686	3.7220231e-09
51	0x2f123943	1.3298966e-10
52	0x318c5152	4.0837813e-09
53	0x3103e271	1.9191726e-09
54	0x2f1c9937	1.424255e-10
55	0x30ef52f6	1.7413118e-09
56	0x3000625f	4.670592e-10
57	0x31020fb7	1.8926423e-09
58	0x30ba39ea	1.3549741e-09
59	0x328145e0	1.5049352e-08
60	0x2cec8b07	6.7229586e-12
61	0x2c96544f	4.2726165e-12
62	0x2ee59072	1.0439373e-10
63	0x2e25030b	3.751936e-11
64	0x2cfe1adb	7.2220958e-12
65	0x2e10c534	3.291696e-11
66	0x2d9b604c	1.7664224e-11
67	0x2ed60918	9.733209e-11
68	0x2edfc4cb	1.01758234e-10
69	0x3062c107	8.249263e-10
70	0x32cb4c8d	2.3667122e-08
71	0x302e8852	6.3494554e-10
72	0x32a9532a	1.9712008e-08
73	0x32213cb0	9.385232e-09
74	0x2fe50b77	4.1663004e-10
75	0x32116400	8.462848e-09
76	0x31076308	1.9701378e-09
77	0x31d253d6	6.1213354e-09
78	0x3176dc4b	3.5922934e-09
79	0x338d9501	6.592928e-08
80	0x34154527	1.3901864e-07
81	0x3182265c	3.787859e-09
82	0x33dcdcc9	1.0284709e-07
83	0x336c7a42	5.5059225e-08
84	0x311ff06b	2.3274207e-09
85	0x334f9b21	4.8337032e-08
86	0x323fe4ce	1.1169687e-08
87	0x3314cf5f	3.4647538e-08
88	0x32a9b272	1.9755337e-08
89	0x34cf39ca	3.8598802e-07
90	0x2eb9fbac	8.457532e-11
91	0x2c888789	3.8804e-12
92	0x2f956c07	2.71797e-10
93	0x2e7d087b	5.7533072e-11
94	0x2c87885d	3.85207e-12
95	0x2e869e56	6.1217406e-11
96	0x2da04203	1.8219209e-11
97	0x2e8683b3	6.117009e-11
98	0x2e5b1105	4.980995e-11
99	0x3029d97e	6.1790917e-10

exp_avg f4 [10]
0	0x348288b8	2.4313863e-07
1	0xb6d44ac4	-6.326796e-06
2	0x35a8b6e0	1.2570199e-06
3	0xb7930590	-1.7526356e-05
4	0x352c7496	6.424465e-07
5	0xb6b656f0	-5.4341435e-06
6	0x33b505d2	8.429528e-08
7	0xb6dd5124	-6.5957593e-06
8	0x377c7234	1.50469605e-05
9	0x350e4ca0	5.3010626e-07

exp_avg_sq f4 [10]
0	0x30886b5d	9.925817e-10
1	0x328b4f70	1.6217854e-08
2	0x331e0c43	3.6798394e-08
3	0x35574fb9	8.0209753e-07
4	0x3049278c	7.3179574e-10
5	0x32e89178	2.7074506e-08
6	0x310f246d	2.0829944e-09
7	0x33d6f35d	1.0009419e-07
8	0x3519b7d0	5.7264424e-07
9	0x30a2576d	1.1811899e-09
