models/zero/model_checkpoint-30000.pt (torch, 14893 bytes, 24 tensors)

branch.hidden_layers.0.thetas f4 [55]
00000000: e3a7 a33e a529 bdbe d005 863d c2f8 78bc
00000010: a405 ddbf e160 2d3f 3f7c e5bf 62f1 7fbe
00000020: 5541 edbf 9e17 6dbf 9819 9fbf 786d 913e
00000030: 48e9 c4be 3391 893b 248d a93f f78e 7d3e
00000040: 25ca 073f d5ed f03f 8edd 953f fa47 67bf
00000050: 57c1 4ebf 596f a03f 5022 3ebe 27ce b3bf
00000060: 5103 823e fdac f83c 896a b9be 83b7 93be
00000070: ba6f 0ec0 08a8 903f de94 30bf 1ca6 a1be
00000080: b777 c83d 7f60 23bf 9f41 bebd 5e86 21bf
00000090: 6cbd c3bf 5604 093f 804d 83bf ad40 0c3e
000000a0: 7abc e43f e3b0 143f f5ca 61bf efd0 113e
000000b0: 0e2c 89bf 5ab6 0c3f c88d 703f e1b3 3fbe
000000c0: 9d7b 983f 9fdd 993f 9013 d5be 1c8e 083f
000000d0: dbf9 92be 7352 aa3f d6b3 f33d
0.31964025 -0.36945835 0.065440774 -0.015196027 -1.7267346 0.6772595 -1.7928542 -0.24994424
-1.8535563 -0.9261416 -1.2429686 0.2840383 -0.3845923 0.0041982173 1.3246198 0.24761568
0.53042823 1.882258 1.1708238 -0.903442 -0.80763763 1.2533981 -0.18567777 -1.4047288
0.25393155 0.030355925 -0.36214092 -0.28850946 -2.2255692 1.1301279 -0.68977153 -0.31572044
0.09788459 -0.63819116 -0.0928986 -0.63095653 -1.5292182 0.5352224 -1.0258026 0.13696547
1.7870018 0.5808241 -0.8820031 0.14239858 -1.071657 0.54965746 0.9396634 -0.18720962
1.1912724 1.2020758 -0.41616488 0.5334184 -0.2870625 1.3306412 0.11899535

branch.hidden_layers.0.bias f4 [10]
00000000: 4b05 a93e 1d48 a53e a027 d73e d407 b13e
00000010: b63e 823e 9dfd b43e 60d9 ae3e 3469 193f
00000020: 01de 9f3e a41c d0b9
0.3301185 0.3228158 0.4202242 0.34576285 0.2543847 0.35349742 0.3415022 0.5992615
0.31224063 -0.0003969419

branch.output_layer.weight f4 [10, 10]
00000000: 54e7 8cbe 4767 dabe 581b 4b3f b9db 44bf
00000010: d81e 883e 4e13 afbd c501 b7bb 8bcd 17be
00000020: 9c3b 533d 19ae cbbd c13f ae3d f881 83bd
00000030: 36a6 07bf 54e8 b33e 2724 77be 3b76 c9be
00000040: 019b 413e c91e 42be ea82 d6bd ad0b 693d
00000050: 43d8 f93e a561 bf3e 714f d3be 7a67 1e3f
00000060: e0af 26bd 46ad 50be d54a 8a3e 9b3d f4be
00000070: f20f 3abe 3f57 e7bd 450f d63e 62e3 b63e
00000080: 3bea d7be cfcc 123f 63aa eebe 3116 903e
00000090: e80f a03e d935 113e ba3f 423e 0fef a63e
000000a0: 8e22 9cbe 4539 1cbf 9f8d ed3d 53f9 94be
000000b0: dce4 a03e be44 9a3d 0d7b d5be 22d9 c23e
000000c0: c4e9 143e 0a6d 873d 4a49 cdbe 2f1d 14bf
000000d0: 67c0 55bd aa4d febc dc3d 0d3f 5632 ba3e
000000e0: cd40 febe 4e31 ec3e 7d17 483d 0e7b d83d
000000f0: bf74 f9be 7a85 dbbe f1cb 0b3f bd2f 11bf
00000100: 493e bc3e 1a20 c83e 19b5 12bf ce18 003f
00000110: e76c 2c3e db04 593e ef2a e5be 7d2d 5abc
00000120: f3a0 1a3f a100 cdbd fe91 163f 7d02 ef3e
00000130: 9cb3 38bf d8ff bf3e b1b1 5c3d 32bf 133f
00000140: 4d6f 9b3f 1970 f4be c8a0 fbbd 3793 713f
00000150: 7c1e 5f3e 504b 1fbf 0ef3 323e 1010 473e
00000160: dd0d 273f ec6e 6c3f 8a35 f73e 9957 bcbe
00000170: 9464 503f 2039 3dbf 9886 2cbd 6bee 4abf
00000180: 10e2 4b3f 6bd0 a8bf 6793 d9be 4a0e 06bf
-0.2752024 -0.4265692 0.793386 -0.7689777 0.26586032 -0.08548604 -0.0055849277 -0.14824502
0.05157052 -0.09945316 0.08508254 -0.06421274 -0.5298799 0.3513819 -0.24134885 -0.39348015
0.18906786 -0.18957056 -0.104741886 0.0568959 0.48797807 0.37379184 -0.41271546 0.6187664
-0.04069507 -0.20378599 0.27010217 -0.4770325 -0.18170145 -0.11295938 0.41808525 0.35720354
-0.4217089 0.57343763 -0.4661437 0.2814193 0.31262136 0.14180698 0.18969622 0.32604262
-0.30495113 -0.61024886 0.11599278 -0.2909647 0.31424606 0.07532643 -0.41695443 0.38056284
0.145423 0.066125944 -0.40094978 -0.5785703 -0.052185442 -0.031042892 0.55172515 0.36366528
-0.49658814 0.46131366 0.048850525 0.10570346 -0.48721883 -0.42875272 0.54608065 -0.5671347
0.3676627 0.39086992 -0.57307583 0.5003785 0.16838418 0.21193258 -0.44759318 -0.013316509
0.6040184 -0.100098856 0.58816516 0.46681586 -0.7214906 0.3749988 0.053880397 0.57713616
1.2143341 -0.47741774 -0.12286526 0.9436526 0.21788973 -0.6222429 0.1747553 0.19439721
0.6525553 0.92356753 0.48283035 -0.36785582 0.8140347 -0.7391529 -0.042120546 -0.79270047
0.7964182 -1.3188604 -0.42495272 -0.52365553

branch.output_layer.bias f4 [10]
00000000: 9f28 9b3d d659 503e db67 ce3d aa72 c0be
00000010: 8037 19be e346 bbbd 27a1 c5bd db37 c2be
00000020: 49e8 dfbe bef4 dd3e
0.07576107 0.2034677 0.100784026 -0.37587482 -0.14962578 -0.0914438 -0.09649878 -0.3793324
-0.43731907 0.43350786

trunk.hidden_layers.0.thetas f4 [17]
00000000: c996 bebf 29dd ebbd 0816 083f e1e3 583e
00000010: 2574 37bf 5ee5 9e3e d18c 02c0 ad2a 1fbe
00000020: e60a 5dbf 4b30 9b3f 28c4 36bf 7872 62be
00000030: fe54 66bf 9957 02be d998 4b3d 46db 2abf
00000040: b52c 8b3f
-1.4889766 -0.11516792 0.53158617 0.21180679 -0.716616 0.31034368 -2.0398448 -0.15543623
-0.86344755 1.2124113 -0.7139306 -0.22113979 -0.8997344 -0.12728728 0.049706314 -0.66740835
1.0873019

trunk.hidden_layers.0.bias f4 [10]
00000000: ce61 6dbe 48ef 97be d347 5c3e 61b4 8a3e
00000010: 792f 78be 17c3 dc3e 5007 e73e 42b8 873e
00000020: 87e6 bd3e 00c6 7f3e
-0.23181841 -0.29674745 0.21511774 0.27090743 -0.2423686 0.43117592 0.45122766 0.26507765
0.3708994 0.24977875

trunk.output_layer.weight f4 [10, 10]
00000000: e1a1 1cbf e7ba 07bf e758 573e f6de 473e
00000010: e4ef 21bf eebc b73e ff41 2c3e bcaf f5bd
00000020: 57bc 2ebf 2e6f 513f 91b7 1dbe 424e a13e
00000030: a0a3 f0bd a0e9 b8be 4de4 c0be 8528 18bf
00000040: bb08 30bf 60fa 863f 937b c33e 994c b3bd
00000050: 1d4c e13d 09c5 cd3c 3196 4fbe a7ef b6be
00000060: 70f8 a6bd 92af bdbe bc98 37bf 48a3 9f3f
00000070: 2ba9 0c3f 5119 403c f757 0c3f a2b6 f13e
00000080: be12 3fbe c905 82be 5466 b33e 6e6c 79bf
00000090: 3d9b b8be 474a 353f e992 0f3d b497 83be
000000a0: 10f3 49be 4598 f7be 43be e33e 1512 cf3e
000000b0: feea 1d3e d295 9c3e 22e8 0c3f 2e3b 71be
000000c0: 2acd 77bd a45e 863e 1cbd 12be d93a febe
000000d0: 037c c43c 2886 0e3f e7e2 87be 631b 313f
000000e0: 2cfe d53e 49d4 0bbf 52c6 493f d8f4 cabd
000000f0: 3e68 b0be efca 1bbd 4841 6c3e 699c 1f3f
00000100: 6d4f 4bbe 1232 2f3f 5f7d 3a3f c246 05bf
00000110: 2c44 fbbe 38ac a83e 2aa2 11be 0a41 d1be
00000120: 4492 2e3c 28fa 423f 85d1 5e3e 8ff9 233f
00000130: 1621 5a3f a4df 7bbf 85e7 c4be 1901 003f
00000140: 8130 ac3d 40bb 69be 80ad 84be 38c6 1dc0
00000150: 444c 66bf 1dda 7cc0 884f 05c0 4b11 4a40
00000160: d39d 49c0 2d49 c63f 6727 14be 3fae 22bf
00000170: b765 123f 70bd 23bf 19e4 70bf 8cf5 debf
00000180: 3ce8 8bbf 65bf 8fbd e29e 0fc0 22ad d13f
-0.6118451 -0.53019565 0.21030007 0.19518647 -0.6325667 0.3588633 0.1682205 -0.11996409
-0.68256134 0.8181027 -0.15402056 0.31505018 -0.11749959 -0.36115742 -0.3767418 -0.5943683
-0.6876332 1.0545158 0.38180217 -0.08754844 0.110008456 0.025118368 -0.20272137 -0.35729715
-0.081528544 -0.37048012 -0.7171743 1.2471704 0.5494563 0.011724786 0.54821724 0.4720965
-0.18659493 -0.2539504 0.35039008 -0.97431076 -0.36055937 0.70816463 0.035052214 -0.25701678
-0.19721627 -0.4835836 0.44481096 0.40443483 0.15421674 0.30583054 0.55041707 -0.23557732
-0.060498394 0.2624408 -0.14329952 -0.49654272 0.023984915 0.55673456 -0.265403 0.69182414
0.4179548 -0.54620796 0.7881824 -0.099099815 -0.3445453 -0.03803533 0.23071778 0.6234804
-0.19854517 0.68435776 0.7284755 -0.5206109 -0.4907545 0.32943892 -0.14222017 -0.40869933
0.01065499 0.7616296 0.21759613 0.6405267 0.85206735 -0.98388124 -0.38457885 0.50001675
0.08407689 -0.22825336 -0.2591362 -2.4652233 -0.8996012 -3.9508126 -2.0829792 3.1573055
-3.1502578 1.5491081 -0.14468156 -0.6354713 0.57186455 -0.63960934 -0.9409805 -1.7418685
-1.0930247 -0.070189275 -2.2440724 1.6380961

trunk.output_layer.bias f4 [10]
00000000: 8de2 053f dd43 b7be 69d6 13be 8f2a 08bf
00000010: c598 c83e c20a be3e 6117 d03e 30c9 733d
00000020: 80e1 c9be 6710 dd3d
0.52298814 -0.35793963 -0.1443726 -0.5318994 0.39179054 0.37117583 0.40642837 0.05951804
-0.39429855 0.10794144

exp_avg f4 [55]
00000000: ee4c efb1 d843 a832 787c e832 e8d9 0033
00000010: 2fcf df32 b541 cc33 0a4c b233 9ecc b033
00000020: 79e1 68b4 78f4 3533 a312 2532 1143 dc32
00000030: 4875 ab33 295a 6a33 c50b d733 1625 d1b3
00000040: 7606 6c33 0491 9834 6c1b feb3 b764 dc33
00000050: 1413 af33 f99f e732 2427 03b4 4e90 13b4
00000060: 64a3 b833 03c5 41b2 a83b 8734 1bee 8d33
00000070: 220a a633 23bc b6b3 86ef b933 0b4c 40b3
00000080: 1449 0eb4 0c05 f833 f9da 46b5 af5d 8233
00000090: ff45 a034 56d7 8430 b5a5 de33 d9b2 fc32
000000a0: db4c 63b3 55ac 95b3 2b19 2134 600c eb33
000000b0: d6b6 98b4 229d bfb3 49a5 6633 5281 7bb4
000000c0: 4aad 95b4 255c f5b3 801f d5b2 52f0 9234
000000d0: 9693 aab4 46b6 37b4 ee60 4034
-6.9645614e-09 1.9588626e-08 2.7064956e-08 3.0000507e-08 2.6054833e-08 9.511442e-08 8.302602e-08 8.232858e-08
-2.168871e-07 4.236469e-08 9.6085015e-09 2.5641869e-08 7.984141e-08 5.456437e-08 1.00138585e-07 -9.739067e-08
5.4953908e-08 2.841772e-07 -1.1832785e-07 1.0262868e-07 8.152543e-08 2.6964686e-08 -1.2214565e-07 -1.374294e-07
8.597888e-08 -1.1278874e-08 2.5189115e-07 6.609135e-08 7.7318205e-08 -8.509257e-08 8.658303e-08 -4.4772644e-08
-1.3251366e-07 1.1549318e-07 -7.4079395e-07 6.070638e-08 2.985325e-07 9.665466e-10 1.03678225e-07 2.9417992e-08
-5.2922456e-08 -6.9697e-08 1.500345e-07 1.0945291e-07 -2.8445237e-07 -8.922713e-08 5.3701374e-08 -2.3423243e-07
-2.7879497e-07 -1.14254625e-07 -2.4810788e-08 2.7369475e-07 -3.177235e-07 -1.7109514e-07 1.7916656e-07

exp_avg_sq f4 [55]
00000000: 013e 4d31 79e4 6530 27ce a831 5926 7c2f
00000010: 82c3 8230 a9bc cf31 b647 9a2f 663d 2932
00000020: 2ad2 1332 8d01 ab31 58b5 3030 3727 d231
00000030: c040 0a31 7695 5d31 05bd e731 d155 2e31
00000040: 073d 7931 609f 8f32 8392 7631 9857 7a30
00000050: 9f82 d02f 38d3 1130 96da db30 ec41 5430
00000060: 23fb 1330 c696 3a2e c80e 0133 1ae1 e530
00000070: a0e3 7230 6e1c f732 7d53 0630 b3ed 242f
00000080: d72d c230 15a9 6131 719f 9c34 decd b12f
00000090: 3af4 1433 1bc9 152f 0c25 3330 36ef 162e
000000a0: e6fe 162e 0da2 1d32 5fa4 9030 35ec 6a30
000000b0: 7a7d d631 c728 8b31 08a7 ab2f cfd7 a732
000000c0: 62a0 3031 bb49 a531 ec78 e932 88cc 4332
000000d0: 1e47 5232 6b30 cf31 5f81 6431
2.9866671e-09 8.3634394e-10 4.9128803e-09 2.293289e-10 9.514312e-10 6.045941e-09 2.806339e-10 9.851055e-09
8.604312e-09 4.9769313e-09 6.428613e-10 6.1162626e-09 2.011845e-09 3.2244691e-09 6.744474e-09 2.5369113e-09
3.626896e-09 1.6719866e-08 3.5880994e-09 9.107395e-10 3.7927791e-10 5.305085e-10 1.5996473e-09 7.721883e-10
5.3835175e-10 4.2425417e-11 3.0048596e-08 1.6725921e-09 8.836256e-10 2.8767513e-08 4.886756e-10 1.5000161e-10
1.4128386e-09 3.2837921e-09 2.9173273e-07 3.234239e-10 3.4681058e-08 1.3622918e-10 6.517247e-10 3.4318513e-11
3.4332447e-11 9.175449e-09 1.0524096e-09 8.5464374e-10 6.2424848e-09 4.0500683e-09 3.1223402e-10 1.9539497e-08
2.5702538e-09 4.810514e-09 2.7179759e-08 1.1396999e-08 1.2239779e-08 6.0299974e-09 3.3251906e-09

exp_avg f4 [10]
00000000: c6ec c2b4 0465 7db5 dfdd b435 d28c 8db5
00000010: 022a 5935 7658 3f33 875d 1cb5 f431 3d34
00000020: 1b76 6a34 b840 0133
-3.630759e-07 -9.439684e-07 1.3475618e-06 -1.0546303e-06 8.089993e-07 4.4551108e-08 -5.825063e-07 1.762017e-07
2.1835915e-07 3.0094014e-08

exp_avg_sq f4 [10]
00000000: 63ad 2535 b777 1436 7135 a236 3943 3036
00000010: 8a49 d935 35a6 8931 81fd 0e35 cd73 a132
00000020: e3c6 7831 f814 3233
6.17196e-07 2.2123402e-06 4.8341976e-06 2.6265172e-06 1.6189163e-06 4.0061203e-09 5.326802e-07 1.8795527e-08
3.6201804e-09 4.1462926e-08

exp_avg f4 [10, 10]
00000000: e4fa 3c34 2787 6a33 5d6c 6134 bd02 4134
00000010: 3dd9 8234 c8bd 1634 2e4f 1834 761a 6734
00000020: b432 5931 d741 8734 c0d0 c2b1 2950 8332
00000030: ec5d 8eb2 b30a e6b2 846b 79b2 5e4a f3b1
00000040: e97f 2432 48df 90b3 7cc6 7233 136b 3eb2
00000050: 6748 9931 9ba0 0733 cb9d b3b1 f8eb 22b3
00000060: dac7 c830 0c07 a531 96c5 9d32 126c dfb3
00000070: e643 c633 5ae6 1133 4676 b0b2 d5e8 a8b2
00000080: af02 09b3 b45a e7b1 13b3 03b3 1748 e5b2
00000090: 69ac 44b2 215c a8b2 e491 81b1 031a 83b3
000000a0: d43c 9233 6cd0 ce33 7830 e933 d96b 7a32
000000b0: bef7 a533 efdd cd33 165e 8433 c2ca 0e34
000000c0: 9d6b 0232 0169 0734 dac3 47b0 29a5 fa33
000000d0: 4787 4133 6dbc e4b3 ddfa 0ab2 aea5 8f33
000000e0: 5ef2 9db2 78b4 3633 d21c 07b2 8de3 e933
000000f0: 324e e533 60e8 1734 8f3e 3034 c41c 4533
00000100: 2503 ed33 617a 1734 fa4b d933 beed 8c34
00000110: efc2 0bb3 3279 1734 2193 b633 5e0a fd33
00000120: bf07 0a34 0dfc 1533 780f c433 18b2 ec33
00000130: 4d76 b033 4a6b 8634 11a2 0ab3 74fe 8533
00000140: 2fef cdb2 ed4a 8e31 4d57 8534 252c 64b4
00000150: baac 87b4 de00 ac33 f97d ed33 93b3 0234
00000160: 4700 c333 572b 5a34 61eb a433 5661 bfb3
00000170: d6f4 9433 2d90 9234 2806 5a33 2a5e 3133
00000180: c0dc aeb2 3cb2 dc33 a26a f2b4 8d02 c734
1.7600138e-07 5.460529e-08 2.099418e-07 1.7975522e-07 2.437245e-07 1.403888e-07 1.4184909e-07 2.1523178e-07
3.1606477e-09 2.5193614e-07 -5.6698752e-09 1.528686e-08 -1.6573686e-08 -2.678039e-08 -1.4518154e-08 -7.0806854e-09
9.57514e-09 -6.746137e-08 5.6525536e-08 -1.1083801e-08 4.4611173e-09 3.1578207e-08 -5.2275246e-09 -3.7933177e-08
1.4608716e-09 4.802933e-09 1.8367057e-08 -1.04039046e-07 9.232444e-08 3.3969947e-08 -2.0542881e-08 -1.9663654e-08
-3.190024e-08 -6.7332966e-09 -3.066368e-08 -2.6691891e-08 -1.1447903e-08 -1.959967e-08 -3.77098e-09 -6.1048944e-08
6.8097194e-08 9.630534e-08 1.08587244e-07 1.4576437e-08 7.728475e-08 9.586426e-08 6.163843e-08 1.3298543e-07
7.591464e-09 1.2611055e-07 -7.26741e-10 1.16715746e-07 4.505935e-08 -1.0651352e-07 -8.089697e-09 6.6890934e-08
-1.8387421e-08 4.2539313e-08 -7.864587e-09 1.0891299e-07 1.0677867e-07 1.4147508e-07 1.6414036e-07 4.58938e-08
1.10367445e-07 1.4107492e-07 1.011867e-07 2.6250012e-07 -3.254075e-08 1.4107061e-07 8.501798e-08 1.1783116e-07
1.285507e-07 3.4921005e-08 9.129775e-08 1.10220014e-07 8.2171574e-08 2.5037508e-07 -3.2278027e-08 6.23958e-08
-2.3973909e-08 4.141262e-09 2.48367e-07 -2.1250214e-07 -2.5271385e-07 8.009532e-08 1.1059087e-07 1.2172522e-07
9.0804456e-08 2.0318599e-07 7.67966e-08 -8.911836e-08 6.9363224e-08 2.729952e-07 5.076268e-08 4.1296666e-08
-2.0356651e-08 1.0276969e-07 -4.5153598e-07 3.7068494e-07

exp_avg_sq f4 [10, 10]
00000000: e2e0 b733 c8ff 4f33 1248 5334 c739 3133
00000010: b8c8 bf33 e2cb 8233 d95d 2e33 6b16 ad34
00000020: 41fa a033 176d 2834 87c3 e630 3362 8330
00000030: 567e 8331 9f32 6130 4fdf ee30 ee42 a430
00000040: 4dc3 5c30 073d d831 2668 ca30 91e7 5231
00000050: 41c4 752f 9aad 0f2f 6dc1 0730 445d fc2e
00000060: 3608 772f 857a 2f2f ce91 f32e c857 6230
00000070: 9d1e 592f 0abc de2f eb8e 8f31 0d3e 2231
00000080: ab29 2532 ed1b 0a31 b7e7 9531 bf36 4c31
00000090: d6f4 0731 a63d 8732 124f 7b31 328e 0332
000000a0: 9b1c e132 70c7 7e32 3647 8133 f222 5932
000000b0: 7cab ea32 4e27 a032 728c 5532 61e1 d333
000000c0: 631b c532 7437 4e33 e7be 3f32 32ca d831
000000d0: 9ba0 dc32 9a82 b831 102f 4832 946b 0832
000000e0: 968e b531 02b3 3433 09db 2732 21ce af32
000000f0: ce8b 2b33 fd70 c232 92ae c433 e4eb a532
00000100: 9987 3233 dc22 f432 960a a332 ca4e 2134
00000110: 6a44 1633 3214 9d33 5779 9b32 8e8c 3032
00000120: 16e2 3133 a3e0 1632 1f78 a132 bc54 5d32
00000130: 5116 1432 6509 9233 2f41 8832 294d 0e33
00000140: 06b4 1f31 e9c5 b330 05f2 b731 ae1d 9930
00000150: 1151 2731 c5a6 e230 0946 9730 1c3d 1632
00000160: e2b1 0b31 39f1 9131 e9e3 bf32 8a0a 5932
00000170: a04c 5c33 9b10 3932 f318 c832 736e 8832
00000180: 842c 3632 7277 b433 90ff a732 3797 2f33
8.5625075e-08 4.8428575e-08 1.9677125e-07 4.1263572e-08 8.930641e-08 6.090683e-08 4.0597886e-08 3.2240072e-07
7.4961015e-08 1.5685906e-07 1.6790275e-09 9.559414e-10 3.8269645e-09 8.192646e-10 1.7380247e-09 1.1951593e-09
8.0313073e-10 6.2933654e-09 1.4727035e-09 3.0690652e-09 2.2352344e-10 1.306745e-10 4.938759e-10 1.14762005e-10
2.2467436e-10 1.5959685e-10 1.1076261e-10 8.2343066e-10 1.9746911e-10 4.0515175e-10 4.1780956e-09 2.3609374e-09
9.613738e-09 2.0097517e-09 4.3628137e-09 2.9717027e-09 1.9784259e-09 1.5744103e-08 3.6570253e-09 7.657535e-09
2.6206456e-08 1.4830093e-08 6.019984e-08 1.2639008e-08 2.7319167e-08 1.8644325e-08 1.2430165e-08 9.866449e-08
2.2946272e-08 4.8013547e-08 1.1161069e-08 6.3094143e-09 2.5684406e-08 5.3699525e-09 1.1652233e-08 7.940702e-09
5.2840035e-09 4.2072323e-08 9.770482e-09 2.0466418e-08 3.994119e-08 2.2635954e-08 9.1587154e-08 1.9315799e-08
4.156718e-08 2.842119e-08 1.8980511e-08 1.5022957e-07 3.498682e-08 7.314556e-08 1.8099554e-08 1.0276507e-08
4.1416648e-08 8.782226e-09 1.8797492e-08 1.2883159e-08 8.619808e-09 6.800364e-08 1.5862126e-08 3.3132128e-08
2.3239877e-09 1.3080214e-09 5.3535154e-09 1.1140651e-09 2.434778e-09 1.6491063e-09 1.1006601e-09 8.745044e-09
2.0328277e-09 4.2474793e-09 2.2338968e-08 1.2633459e-08 5.129243e-08 1.0772193e-08 2.329441e-08 1.588271e-08
1.0603916e-08 8.40363e-08 1.9557575e-08 4.088289e-08

exp_avg f4 [10]
00000000: 08e0 5c35 68c5 27b3 d2c2 1033 2e0a 1fb4
00000010: d2fe 0435 a1e8 a734 7c0c 4235 9940 1435
00000020: 35dd d134 20f7 ca34
8.2282395e-07 -3.9062257e-08 3.37048e-08 -1.4811732e-07 4.9544644e-07 3.1275434e-07 7.22888e-07 5.52283e-07
3.9090233e-07 3.780524e-07

exp_avg_sq f4 [10]
00000000: 4172 0c36 9239 3033 fb8b bb31 4051 db33
00000010: a1f3 2b35 257e 9234 3408 8335 cb82 ed34
00000020: abb3 7333 8786 1235
2.092813e-06 4.1030553e-08 5.4583302e-09 1.02127615e-07 6.405699e-07 2.72864e-07 9.762648e-07 4.4239854e-07
5.6741253e-08 5.4585e-07

exp_avg f4 [17]
00000000: 3997 24b3 579e b633 88dc 07b4 5105 ebae
00000010: 0206 b132 b3aa ebaf 9d11 ac32 b220 9bae
00000020: 156d 1131 bd47 42ad 89e5 d6b0 9786 982d
00000030: edd8 da31 693c 202c 25fd 0ab1 4fee 672b
00000040: 6058 992e
-3.832176e-08 8.503837e-08 -1.2653084e-07 -1.0687507e-10 2.0608244e-08 -4.286754e-10 2.0031445e-08 -7.054392e-11
2.1162283e-09 -1.1043552e-11 -1.5635787e-09 1.734017e-11 6.3692966e-09 2.2770902e-12 -2.022554e-09 8.2398406e-13
6.973333e-11

exp_avg_sq f4 [17]
00000000: 4c9e 1c30 732f b12e 61fb c031 ea85 e328
00000010: 7adb bf31 aa71 7d28 3419 a82f 9a29 2327
00000020: ef5b 232c 807f ba25 edf5 d72c 53ac 4124
00000030: c417 572c e0f3 5820 b283 452b e560 9825
00000040: ce28 c726
5.6977423e-10 8.057457e-11 5.616514e-09 2.5260139e-14 5.583783e-09 1.4068968e-14 3.057693e-10 2.2643346e-15
2.3214727e-12 3.2352254e-16 6.1379708e-12 4.1996168e-17 3.056653e-12 1.8376603e-19 7.0171223e-13 2.6433455e-16
1.3819459e-15

exp_avg f4 [10]
00000000: 448b 3eb2 ca7f 7832 7041 efb2 00a3 52b1
00000010: c9d1 9ab2 9026 db32 c002 b1b1 009d 9131
00000020: 0aca 8fb3 e0a9 90b2
-1.1091121e-08 1.4464556e-08 -2.785302e-08 -3.0651677e-09 -1.8023359e-08 2.5512492e-08 -5.1516906e-09 4.2379042e-09
-6.695707e-08 -1.6841057e-08

exp_avg_sq f4 [10]
00000000: 0bee 2030 8608 922e 78d6 a42f 5a55 a031
00000010: a6dc 4530 a462 1132 a61b ab31 8d8b 1c32
00000020: 6ca3 3931 eee5 0932
5.854594e-10 6.6408254e-11 2.9983815e-10 4.6663162e-09 7.1981743e-10 8.462539e-09 4.9798983e-09 9.112125e-09
2.7013938e-09 8.0267295e-09

exp_avg f4 [10, 10]
00000000: 57c5 cab1 d5e3 f7b1 9b35 ed31 4e63 1e32
00000010: 817c c2b1 2ca5 9132 6bbb b032 6f15 b732
00000020: 5907 bc32 750e fe31 8f33 91b0 0bac b9b0
00000030: c409 a530 917f 3631 87c0 45b0 e193 8f31
00000040: 8fbe b331 f6b3 17b1 3664 f6b0 9977 2432
00000050: 5a96 89b1 561e a8b1 8af0 a031 19a8 7231
00000060: 421c bab1 6841 c431 35b8 df31 07ff e631
00000070: 9c57 2e32 18d8 c532 136c 4430 4603 7030
00000080: e9ff 63b0 4128 17b0 01b9 8e30 230c 67b0
00000090: 4492 f2ae a5c4 d8b0 029a dcb2 4d4f cf32
000000a0: 5d23 4432 0e67 7132 0173 64b2 4555 adb2
000000b0: 082a 2132 0c80 16b3 f44e 2ab3 fe79 03b3
000000c0: 0d8e ab32 9505 1bb3 9796 5831 6db8 8731
000000d0: 2242 7ab1 5936 6fb2 601f 17b1 0f46 dab2
000000e0: 369e 07b3 cf71 b8b2 993b c231 eceb 5833
000000f0: 0fa3 b2b1 c335 e7b1 0dff c831 795e 9832
00000100: 23bc 9db0 36dc fa32 a019 1533 89ba 1bb2
00000110: a1d5 d231 7f06 3f32 b716 52b1 582e 6cb1
00000120: 13db 8031 a4ef 26b2 e990 2eb2 1cc5 8bb2
00000130: 6829 b3b2 7d75 6332 1a84 0131 9067 ac33
00000140: 6aa0 822f 6740 5d2f f85c bbaf ae65 9fae
00000150: b9fa bbae 8909 b7b0 ab0f 4ab1 b8bd 63b2
00000160: 54c9 c431 5243 9f31 f5c1 1d31 18b3 4031
00000170: 151d 38b1 9b14 bd30 a36c b431 f18e 6a31
00000180: aa61 b731 ee9f e031 039f 49b0 8b60 64b3
-5.9014087e-09 -7.2145476e-09 6.903702e-09 9.21939e-09 -5.6602976e-09 1.6955333e-08 2.0574324e-08 2.131375e-08
2.1889422e-08 7.3940165e-09 -1.0564792e-09 -1.3509419e-09 1.2008106e-09 2.6556999e-09 -7.194178e-10 4.1786596e-09
5.2312497e-09 -2.2075688e-09 -1.7927337e-09 9.57325e-09 -4.0043178e-09 -4.8928923e-09 4.683959e-09 3.5311187e-09
-5.416525e-09 5.7117866e-09 6.511096e-09 6.7228743e-09 1.0148053e-08 2.3032086e-08 7.145797e-10 8.7316143e-10
-8.294579e-10 -5.4990684e-10 1.0384441e-09 -8.405456e-10 -1.1030868e-10 -1.5771958e-09 -2.5681405e-08 2.4134033e-08
1.1416742e-08 1.4051478e-08 -1.32974955e-08 -2.0178627e-08 9.38099e-09 -3.5041055e-08 -3.9653017e-08 -3.0611766e-08
1.9971617e-08 -3.6093827e-08 3.1517737e-09 3.949984e-09 -3.641738e-09 -1.3923988e-08 -2.1991227e-09 -2.54104e-08
-3.157603e-08 -2.1472173e-08 5.6529186e-09 5.050599e-08 -5.1990194e-09 -6.729097e-09 5.849762e-09 1.773809e-08
-1.1476725e-09 2.920397e-08 3.471507e-08 -9.064601e-09 6.136091e-09 1.111914e-08 -3.0571934e-09 -3.4368863e-09
3.750196e-09 -9.71696e-09 -1.0161082e-08 -1.6271365e-08 -2.0857172e-08 1.3239853e-08 1.8847062e-09 8.028212e-08
2.3760843e-10 2.0122713e-10 -3.408116e-10 -7.248545e-11 -8.548313e-11 -1.3317712e-09 -2.9403775e-09 -1.3256276e-08
5.727239e-09 4.6351625e-09 2.2956759e-09 2.804148e-09 -2.6792055e-09 1.3757416e-09 5.25104e-09 3.4132734e-09
5.337104e-09 6.53744e-09 -7.3349343e-10 -5.3173192e-08

exp_avg_sq f4 [10, 10]
00000000: 426f c02d e6a8 112e cc6a 032e 58bb 192e
00000010: 1549 fa2d b60e e12e 8f93 012f ae3c a32e
00000020: eff0 652b 413e 8830 c592 a32b 96e2 f02b
00000030: 863c e32b d7bf 022b f6c8 242c ceaa d92b
00000040: 81c7 c42b ffea 382d 08ef e82b b08a 6d2e
00000050: 75de 142c 207a 5d2c e07c 4d2c bbb2 d92b
00000060: 6939 832c 3f00 a82c 8019 ad2c b9a4 752d
00000070: e7c1 a32b 58b3 f32e 8a56 f22b 1769 2e2c
00000080: 43af 2a2c 012e 9928 805c a62c 520f 282a
00000090: 0307 4e28 71e8 eb2d 8670 de2c a48a c62e
000000a0: a0c1 9b2f 9004 ed2f fa03 d42f be3d 1530
000000b0: a63e b72f 3f1f d830 2b13 fe30 4d8f 4930
000000c0: 60d4 bc2d 8930 5c32 11c0 022d c358 462d
000000d0: 2c51 322d 4622 642d 6686 222d 9f60 262e
000000e0: aaad 412e d5ec cc2d afb4 cc2a 4d9d af2f
000000f0: 61b6 3e2f 562f 912f 65c6 812f e791 b92f
00000100: 82b1 5e2f 6836 8630 720c 9e30 9ea8 f12f
00000110: f031 7e2d 2d12 0632 5c59 d02e 3334 1f2f
00000120: 7a75 0d2f b86d 642f 276e e22e 3d11 2430
00000130: 9eab 4330 a73f 562f 899c 9b2d 2866 9131
00000140: 7b7f 9627 0e1b dc27 ebdc d127 a7ea 9626
00000150: 732d 2428 830d 8627 5979 5527 47d8 4529
00000160: b0d6 fd27 0517 662a 8e1e 672b e0e1 ad2b
00000170: c16d 9e2b 59e1 8b2b ba3d aa2b 8651 4f2c
00000180: dcdb 652c 2faa 712c 3e05 0128 446c 3c2e
2.1877281e-11 3.3119195e-11 2.9880806e-11 3.4954567e-11 2.8454164e-11 1.02344286e-10 1.1784905e-10 7.423161e-11
8.1691506e-13 9.912996e-10 1.1622583e-12 1.7115916e-12 1.6146119e-12 4.645151e-13 2.3417357e-12 1.5466185e-12
1.3982011e-12 1.0511369e-11 1.6550936e-12 5.401074e-11 2.1155553e-12 3.1473782e-12 2.9201572e-12 1.5468385e-12
3.7296177e-12 4.7748745e-12 4.919787e-12 1.3963213e-11 1.1635665e-12 1.10822185e-10 1.7219154e-12 2.4785224e-12
2.4255743e-12 1.7006363e-14 4.7282733e-12 1.4926713e-13 1.1436818e-14 2.6819632e-11 6.322112e-12 9.028625e-11
2.8331915e-10 4.311329e-10 3.85654e-10 5.4293625e-10 3.333202e-10 1.5724949e-09 1.848638e-09 7.3327017e-10
2.1467439e-11 1.2816721e-08 7.432292e-12 1.1274706e-11 1.0136152e-11 1.296791e-11 9.238476e-12 3.7829847e-11
4.4037364e-11 2.329729e-11 3.6363054e-13 3.1944083e-10 1.7345193e-10 2.640898e-10 2.360593e-10 3.3754974e-10
2.0253846e-10 9.765246e-10 1.149955e-09 4.3957454e-10 1.4449317e-11 7.803959e-09 9.474618e-11 1.447951e-10
1.2865611e-10 2.0775459e-10 1.0296857e-10 5.968735e-10 7.118447e-10 1.94858e-10 1.7690975e-11 4.2316692e-09
4.177158e-15 6.10916e-15 5.8248673e-15 1.0471944e-15 9.113684e-15 3.720712e-15 2.962547e-15 4.3930378e-14
7.045437e-15 2.043609e-13 8.211009e-13 1.2355082e-12 1.1257038e-12 9.939091e-13 1.2096359e-12 2.9461724e-12
3.2664904e-12 3.434263e-12 7.162075e-15 4.284241e-11

exp_avg f4 [10]
00000000: cf95 7533 eaa5 3532 4d90 2633 f2b8 edb1
00000010: edb0 eeb3 3ca8 05b3 b859 6133 7090 ef32
00000020: 0b3e f8b0 7cd3 beb2
5.7179758e-08 1.0573311e-08 3.8781128e-08 -6.9186337e-09 -1.1114921e-07 -3.1119484e-08 5.2468494e-08 2.7888944e-08
-1.8062009e-09 -2.2215083e-08

exp_avg_sq f4 [10]
00000000: 37ca 0d31 2557 ec2e efbe 582f 2640 2c2f
00000010: cb6b e632 9dfa 4030 9d1a 8d32 218f 1a32
00000020: 0b7f d82a 3294 a92e
2.0633146e-09 1.07475175e-10 1.9712919e-10 1.5666099e-10 2.6824543e-08 7.0205336e-10 1.6426663e-08 8.9965235e-09
3.8457461e-13 7.711555e-11
