models/ensembles/bootstrap_test/model4/model_checkpoint-10000.pt (torch, 14893 bytes, 24 tensors)

branch.hidden_layers.0.thetas f4 [55]
0	0xbfd80b6b	-1.6878484
1	0xbf2ad795	-0.667352
2	0xbd4c6a26	-0.04990592
3	0x3df92d18	0.12166804
4	0xbf310ae6	-0.69157255
5	0xbcc1e9e3	-0.023671096
6	0x3fe8dbc2	1.8192065
7	0xbf60d39d	-0.87822896
8	0xc005bff1	-2.0898402
9	0xbfc033cf	-1.5015811
10	0x3f8121b4	1.008841
11	0xbf088abd	-0.533367
12	0xbf114eec	-0.5676105
13	0xbf5b51ed	-0.85671884
14	0x3f9f6842	1.2453692
15	0x4034dafe	2.8258662
16	0xbf87e926	-1.0618026
17	0x3ec7023e	0.38868898
18	0xbf6bded0	-0.9213686
19	0xbfb8e4ee	-1.4444864
20	0x3ebd8f26	0.37023276
21	0x3fcafae9	1.5857822
22	0x3f5ed0b8	0.8703723
23	0xbf0adba9	-0.54241425
24	0xbe3f2778	-0.186674
25	0xbe2c1d84	-0.16808134
26	0xbf8bd43c	-1.0924144
27	0xbfa96473	-1.323378
28	0xbde3264c	-0.11091289
29	0x3f6810fc	0.90650916
30	0xbed3b08e	-0.41345638
31	0xbf982876	-1.1887348
32	0xbf8a9644	-1.0827107
33	0x3e961a7e	0.29317087
34	0xbee34be5	-0.4439384
35	0x3fb324f2	1.399565
36	0x3f050a5d	0.5196894
37	0xbf18bb49	-0.59660774
38	0xbfd31ebc	-1.6493754
39	0xbf0bb3df	-0.54571337
40	0x3ec8158f	0.39078948
41	0xbdada0ae	-0.08477913
42	0x3f112aaa	0.56705725
43	0xbf89a427	-1.075322
44	0x3e9729aa	0.29523975
45	0x3f3b5903	0.73182696
46	0x3f9e2096	1.2353694
47	0xc030d87f	-2.7632139
48	0x3f967d95	1.1757075
49	0x3dc47f5a	0.09594603
50	0xbf5a5db8	-0.85299253
51	0xbbe3c312	-0.0069507444
52	0x3f583fd0	0.8447237
53	0xbf9cbc73	-1.224501
54	0x3fe7b6c0	1.8102646

branch.hidden_layers.0.bias f4 [10]
0	0x3f027880	0.5096512
1	0x3eceb8ea	0.40375453
2	0x3f04c740	0.5186653
3	0x3ec7ec68	0.3904755
4	0x3db06c5d	0.08614419
5	0x3ecd5f42	0.40111738
6	0x3e5ce1ca	0.21570507
7	0x3edd2943	0.43195543
8	0x3d8fb1c1	0.07016326
9	0x3e9c181f	0.30487153

branch.output_layer.weight f4 [10, 10]
0	0x3e28dda4	0.16490799
1	0x3f18eb36	0.59733903
2	0xbed1cae9	-0.4097512
3	0xbeedb063	-0.46423635
4	0xbe6bfd2a	-0.23045793
5	0x3ea1d4b4	0.31607592
6	0xbeb77620	-0.3583231
7	0xbcf2aa73	-0.029622292
8	0xbc9ac283	-0.018891579
9	0xbea045ae	-0.3130316
10	0xbf0b9c6c	-0.54535556
11	0xbe7b4b89	-0.24540533
12	0x3e8098ee	0.25116676
13	0x3f0e5010	0.55590916
14	0xbe567586	-0.20943269
15	0xbefe708b	-0.49695238
16	0xbe8c4f7b	-0.2740439
17	0x3f29f951	0.6639605
18	0x3e8a135f	0.26967904
19	0x3e02d950	0.1277821
20	0x3e15d2e4	0.1463123
21	0x3e46cfbe	0.19415185
22	0xbf3b959c	-0.7327516
23	0xbef2f617	-0.47453377
24	0x39bd41d7	0.00036097944
25	0x3f18318f	0.5945062
26	0x3dd2579f	0.10270619
27	0xbe8d35ba	-0.27580053
28	0xbe78b8fe	-0.24289319
29	0xbe8011c7	-0.25013563
30	0x3e886677	0.26640674
31	0xbe8ff614	-0.2811743
32	0xbf673b0a	-0.9032446
33	0x3e95aa14	0.29231322
34	0xbe351ade	-0.1768603
35	0xbed6d3b7	-0.419584
36	0x3f87cfc6	1.0610282
37	0xbf8156ec	-1.0104651
38	0xbd2a3bbc	-0.041560873
39	0x3e8d1478	0.2755468
40	0xbf371597	-0.7151732
41	0xbe9e0dc2	-0.3086987
42	0x3ef7b70e	0.48381847
43	0x3f385cde	0.72016704
44	0xbe9e2ea5	-0.30894962
45	0xbf2d579d	-0.6771181
46	0x3c0905c6	0.008363193
47	0x3d471de8	0.048612505
48	0x3dfffa98	0.12498969
49	0xbd8c5a88	-0.06853205
50	0x3f4e5bd7	0.80608886
51	0x3eaed2b0	0.34145117
52	0xbf796154	-0.97414136
53	0x3c8193f0	0.015817612
54	0xbf8dadbd	-1.1068646
55	0xbe34e34c	-0.17664832
56	0xbf813cbc	-1.009666
57	0x3d4f971c	0.05068122
58	0xbda41209	-0.080112524
59	0xbde46bda	-0.111533836
60	0xbe9e004c	-0.30859601
61	0xbf1887fd	-0.595825
62	0x3e903bbb	0.2817057
63	0x3f034d1a	0.5128952
64	0xbe9c90cd	-0.30579224
65	0xbf2b0a8d	-0.66812974
66	0x3f20dbe1	0.6283551
67	0xbea407c3	-0.32037172
68	0x3eda49fc	0.4263457
69	0x3edde10e	0.43335766
70	0x3ccaa71c	0.024737887
71	0x3cfa0318	0.030519053
72	0xbd784654	-0.060613945
73	0xbf07f531	-0.5310851
74	0x3f4110d2	0.7541629
75	0x3f2545a5	0.64559394
76	0x3ec6f23e	0.3885669
77	0xbe9eabf4	-0.30990565
78	0xbe0344b7	-0.12819181
79	0xbe2529c4	-0.16129214
80	0xbe99a399	-0.30007628
81	0xbeb2c7f6	-0.34918183
82	0x3f40320b	0.7507636
83	0x3eded434	0.43521273
84	0xbe96f984	-0.2948724
85	0x3d24fced	0.04028027
86	0x3e4b87a2	0.19875959
87	0x3ebb218c	0.36549032
88	0x3e0c10ef	0.13678335
89	0x3e79ac14	0.24382049
90	0x3ec875d7	0.39152405
91	0x3ee19de9	0.44065788
92	0xbe883bed	-0.2660822
93	0xbeed11f6	-0.46302766
94	0x3e9ca8a3	0.3059741
95	0x3f0e73b8	0.5564532
96	0x3dfd9d92	0.1238357
97	0xbf685d26	-0.90767133
98	0x3e45c77d	0.1931438
99	0xbe714fdf	-0.23565625

branch.output_layer.bias f4 [10]
0	0x3e9cbfbd	0.30615035
1	0x3d549ace	0.051905446
2	0x3ed1b618	0.4095924
3	0x3ee2640a	0.4421695
4	0xbe0f142f	-0.13972543
5	0x3c2bfbf2	0.01049708
6	0x3ea818d2	0.32831436
7	0xbe1baf5c	-0.15203613
8	0xbe984e99	-0.29747465
9	0x3e80723c	0.25087154

trunk.hidden_layers.0.thetas f4 [17]
0	0xbe73f854	-0.23825198
1	0x3efd9d0a	0.49533874
2	0x3ea95021	0.33068946
3	0xbea8ef20	-0.32994938
4	0xbfc56d68	-1.5424013
5	0x3ffc1be8	1.9696016
6	0xbfdb4fd9	-1.7133743
7	0x3ed62793	0.41827068
8	0x3fd05d16	1.6278408
9	0xbc98bfa8	-0.018646076
10	0xbfa1012a	-1.257848
11	0x3fbb755f	1.4645194
12	0xbe66c489	-0.2253591
13	0x3efb2f1f	0.49059388
14	0x3f781a84	0.9691546
15	0x3e830a62	0.2559386
16	0xbf07008e	-0.5273522

trunk.hidden_layers.0.bias f4 [10]
0	0xbeac1ecd	-0.3361725
1	0xbed2383d	-0.4105853
2	0x3f29a98b	0.6627433
3	0xbe241c33	-0.16026382
4	0x3e38e3c9	0.18055643
5	0x3f5b87c4	0.85754037
6	0xbe40d3eb	-0.1883084
7	0xbe8b1513	-0.27164516
8	0xbe0c06d4	-0.1367448
9	0x3ed14c69	0.4087861

trunk.output_layer.weight f4 [10, 10]
0	0x3f0cb2d3	0.54960364
1	0x3eb07e22	0.34471232
2	0xbf158d5e	-0.58418834
3	0x3e78d9b6	0.243018
4	0x3f339922	0.7015554
5	0x3eb847a0	0.35992146
6	0x3e6891d6	0.22711882
7	0x3f053da7	0.520472
8	0x3f0043ed	0.50103647
9	0xbe7e2537	-0.24818884
10	0xbf164664	-0.5870116
11	0xbebfcc59	-0.37460592
12	0x3e77b829	0.24191345
13	0xbeb2fbf8	-0.34957862
14	0xbf88e232	-1.0694029
15	0xbe268bfc	-0.16264337
16	0xbe8c54e0	-0.27408504
17	0xbf036e57	-0.5134024
18	0xbf556bed	-0.83367807
19	0x3f4542e4	0.7705519
20	0x3e9c6adf	0.30550286
21	0x3eb04775	0.34429517
22	0xbf191aab	-0.5980632
23	0x3e758bb8	0.2397908
24	0x3fbb9f38	1.4657965
25	0x3ef44ff4	0.4771725
26	0x3f201021	0.6252461
27	0x3f1633b8	0.58672667
28	0x3f696b43	0.91179293
29	0xbe04545c	-0.12922806
30	0xbf0ebbab	-0.5575511
31	0xbf49f2b8	-0.78885984
32	0x3fcb81a2	1.5898936
33	0xbf9ff17e	-1.2495573
34	0xc00323cf	-2.0490606
35	0xbf241a4a	-0.64102614
36	0xbf04078d	-0.5157402
37	0xbe737ba1	-0.2377763
38	0xbfabb846	-1.3415611
39	0xbcc69d61	-0.024244966
40	0xbeeb685c	-0.45978057
41	0xbf39228d	-0.72318345
42	0x3ea7e8b7	0.32794735
43	0xbef5fbb8	-0.4804361
44	0xbf69fa9e	-0.91398036
45	0x3f218b78	0.6310344
46	0xbf1fecfc	-0.62470984
47	0xbea771fd	-0.32704154
48	0xbef599dd	-0.4796895
49	0x3e83ef37	0.25768444
50	0x3e0908ed	0.13382311
51	0x3ef27df7	0.4736173
52	0xbf4ac4bc	-0.7920644
53	0x3f8a1e2d	1.0790459
54	0x3ff687f8	1.9260244
55	0x3f52265a	0.8208977
56	0x3eabc872	0.33551365
57	0x3f0d0be6	0.5509628
58	0x3fac825a	1.347728
59	0xbfac52dd	-1.3462788
60	0xbf020e81	-0.5080338
61	0xbf202f7f	-0.62572473
62	0x3f53d78d	0.8275078
63	0xbf1980f0	-0.5996237
64	0xbec8dd57	-0.3923137
65	0x3e0568d3	0.13028269
66	0xbf3b70ec	-0.7321918
67	0xbe9afa1a	-0.30268937
68	0xbf3b5b1c	-0.73185897
69	0x3c36bd4a	0.0111535285
70	0xbe971642	-0.2950917
71	0x3df4dd8f	0.119563214
72	0xbf24ba46	-0.6434673
73	0x3f3432d4	0.7039006
74	0x3fa3ece6	1.2806671
75	0x3f334fdb	0.70043725
76	0x3ec56adc	0.3855809
77	0x3eb59296	0.354634
78	0x3f4db4e4	0.8035414
79	0x3ea6d46d	0.32583943
80	0xbe98e385	-0.29861084
81	0xbf40a708	-0.7525487
82	0x3f12849f	0.57233614
83	0xbe719bc6	-0.23594579
84	0x3dc178a6	0.0944684
85	0x3fa79e40	1.3095169
86	0xbeb4aee4	-0.3528968
87	0xbeca5f5a	-0.39525872
88	0xbf3a63ae	-0.7280835
89	0x3ebcf3c0	0.36904716
90	0x3ed9cf18	0.42540812
91	0xbe22ac4b	-0.15886037
92	0xbf139a1f	-0.57657045
93	0x3eae9ce7	0.34104082
94	0x3f61407f	0.8798904
95	0x3f508680	0.8145523
96	0x3ea5311f	0.3226404
97	0x3e74d845	0.23910625
98	0x3f2fa6a7	0.68613666
99	0xbdc8a9d6	-0.09798019

trunk.output_layer.bias f4 [10]
0	0xbeafddfd	-0.3434905
1	0x3ecae53e	0.39628023
2	0xbe5faf51	-0.21844222
3	0x3db150bd	0.08657978
4	0x3efda16a	0.49537212
5	0xbe8156d2	-0.2526155
6	0x3ee75563	0.45182332
7	0xbe486fc2	-0.19573882
8	0x3f318b56	0.69353235
9	0x3d14f692	0.03636796

exp_avg f4 [55]
0	0x36c63dc1	5.908049e-06
1	0xb79a2d2f	-1.837927e-05
2	0x373658e9	1.0868746e-05
3	0x37f41d48	2.9100702e-05
4	0xb78ff7ba	-1.7162285e-05
5	0xb782641f	-1.554383e-05
6	0x3712c787	8.748734e-06
7	0x37fcdb8c	3.0142975e-05
8	0x36065b3a	2.0020657e-06
9	0x37632fc1	1.3541373e-05
10	0xb60cbe82	-2.0972516e-06
11	0x364ab559	3.0205904e-06
12	0x35ca18c7	1.5057384e-06
13	0xb6d569fc	-6.360233e-06
14	0x3600443b	1.9113202e-06
15	0x371987d0	9.151132e-06
16	0x37fe7ca4	3.03372e-05
17	0xb613c41f	-2.2018864e-06
18	0x369d38d7	4.6855816e-06
19	0xb68b66b7	-4.1544804e-06
20	0x3443f259	1.8248956e-07
21	0xb73c6be6	-1.1230795e-05
22	0x35e8a981	1.7334679e-06
23	0xb723258b	-9.724298e-06
24	0x353b68eb	6.9815604e-07
25	0xb6402188	-2.8629747e-06
26	0x37c28995	2.3190669e-05
27	0x337d0e33	5.8919067e-08
28	0x35e76465	1.724006e-06
29	0x39703553	0.00022908048
30	0x349c54c2	2.9118934e-07
31	0xb6cdbbf7	-6.131358e-06
32	0xb79fdadd	-1.9056193e-05
33	0xb685697b	-3.9759884e-06
34	0xb798cb89	-1.821459e-05
35	0x3690d1df	4.3159666e-06
36	0xb6a30ca8	-4.859252e-06
37	0x379230ee	1.7427341e-05
38	0x384852fb	4.7760997e-05
39	0x35e9bb6c	1.74144e-06
40	0x37352aa3	1.0798368e-05
41	0xb77d98c4	-1.5115544e-05
42	0xb89b2c71	-7.399254e-05
43	0xb644f17d	-2.934684e-06
44	0xb6f53493	-7.3076894e-06
45	0xb8b91b04	-8.8265195e-05
46	0xb48fb5e3	-2.6768166e-07
47	0xb74d82f1	-1.2249439e-05
48	0xb7a69290	-1.985699e-05
49	0x3716617e	8.963396e-06
50	0x370196c7	7.724105e-06
51	0x350710a6	5.0315646e-07
52	0x3709f626	8.223147e-06
53	0xb487fa80	-2.5327972e-07
54	0x3654c458	3.1704749e-06

exp_avg_sq f4 [55]
0	0x315d2107	3.2178507e-09
1	0x32e91c88	2.7137744e-08
2	0x320a7e0b	8.061316e-09
3	0x33b74d42	8.535655e-08
4	0x32c8fdb8	2.3398442e-08
5	0x3281ea90	1.5124243e-08
6	0x31a5315c	4.8077435e-09
7	0x33c4789a	9.1488985e-08
8	0x3035aade	6.6090233e-10
9	0x3234ff62	1.0535446e-08
10	0x2f3dbb1b	1.7255923e-10
11	0x305eddc1	8.107826e-10
12	0x2f7159d9	2.1950743e-10
13	0x31186127	2.2174136e-09
14	0x30e59527	1.6704335e-09
15	0x30121ed8	5.315832e-10
16	0x339d8ff6	7.3370686e-08
17	0x2fadff13	3.1649758e-10
18	0x30d5dba0	1.5560211e-09
19	0x3097ffcf	1.1059401e-09
20	0x2f5e8c35	2.0240594e-10
21	0x322f0259	1.01868745e-08
22	0x31582ce2	3.145765e-09
23	0x31d7ef69	6.2845413e-09
24	0x30945cd0	1.0794796e-09
25	0x2fb5eb3c	3.3090852e-10
26	0x330b68e9	3.2458875e-08
27	0x2f9f5ed6	2.8989317e-10
28	0x2f77d130	2.2538837e-10
29	0x36a7f8a4	5.0059334e-06
30	0x2f27f692	1.5276161e-10
31	0x31380744	2.6779654e-09
32	0x3305754f	3.1073167e-08
33	0x30127f75	5.329562e-10
34	0x3211ecc1	8.493942e-09
35	0x30c180b3	1.4079177e-09
36	0x30568eb4	7.805554e-10
37	0x330764b7	3.1523737e-08
38	0x3403e34f	1.228302e-07
39	0x2ed1c1ee	9.5386685e-11
40	0x32083e88	7.93046e-09
41	0x32b0f7cc	2.0601782e-08
42	0x3501a87b	4.8301416e-07
43	0x304e8180	7.5126394e-10
44	0x313dd763	2.7625553e-09
45	0x358e2951	1.0591849e-06
46	0x2f51e1f9	1.9088721e-10
47	0x31c56dc3	5.745933e-09
48	0x3316386c	3.4975912e-08
49	0x3167f47d	3.37539e-09
50	0x31218eb7	2.3509708e-09
51	0x2ed60c91	9.7338256e-11
52	0x3214e9de	8.667909e-09
53	0x31492e47	2.9275655e-09
54	0x31b16855	5.163239e-09

exp_avg f4 [10]
0	0x39eb26a7	0.0004485149
1	0x39c7bc7c	0.0003809667
2	0xba0a900c	-0.0005285747
3	0xba077a35	-0.00051680516
4	0x390fdfaf	0.00013720871
5	0x39a73660	0.00031893235
6	0xb94944dc	-0.00019194506
7	0xb90c163f	-0.00013359728
8	0xb8806ddb	-6.123978e-05
9	0xb980dc4e	-0.00024578202

exp_avg_sq f4 [10]
0	0x3792ed4d	1.7515058e-05
1	0x37586656	1.289843e-05
2	0x37bf4f80	2.2805994e-05
3	0x37c94cab	2.3996769e-05
4	0x35e853bd	1.7309718e-06
5	0x373014f6	1.0495298e-05
6	0x362a4bbf	2.5376064e-06
7	0x35951c7b	1.1109654e-06
8	0x34bbf271	3.5007864e-07
9	0x36c480b9	5.8562405e-06

exp_avg f4 [10, 10]
0	0x3798d7d8	1.8220322e-05
1	0x37669972	1.3744795e-05
2	0x37a89ae3	2.0099285e-05
3	0x377da16e	1.5117561e-05
4	0x35c4c608	1.4660773e-06
5	0x37a64c6e	1.9824332e-05
6	0xb57c98a2	-9.4099425e-07
7	0x37694b4a	1.3905412e-05
8	0xb74fcb1e	-1.2385453e-05
9	0x381a18e1	3.673963e-05
10	0xb8aafb4d	-8.15304e-05
11	0xb88690c8	-6.4165855e-05
12	0xb8a47895	-7.8425895e-05
13	0xb8a7fa48	-8.009799e-05
14	0x34b62aa7	3.3931175e-07
15	0xb89e89fc	-7.559729e-05
16	0x372760c1	9.976503e-06
17	0xb89d2044	-7.492353e-05
18	0x385d5f01	5.2778985e-05
19	0xb9145ac0	-0.00014148187
20	0x369f0248	4.738835e-06
21	0x36a01fc1	4.772068e-06
22	0x36711342	3.5923008e-06
23	0x36d033ba	6.204905e-06
24	0xb59ce3dc	-1.1689222e-06
25	0x3659d6b5	3.2460496e-06
26	0xb51f8ac4	-5.9434046e-07
27	0x3628b140	2.5137124e-06
28	0xb6492497	-2.9972632e-06
29	0x370b4c33	8.302787e-06
30	0xb7e2e30c	-2.7047026e-05
31	0xb7a6d0c9	-1.9885965e-05
32	0xb7e629b2	-2.7437552e-05
33	0xb77f0465	-1.5200208e-05
34	0xb69f7240	-4.7518697e-06
35	0xb80ec6ac	-3.4040466e-05
36	0xb7045a1f	-7.888796e-06
37	0xb7a26dbd	-1.9363006e-05
38	0x374b2025	1.2107227e-05
39	0xb81f7c2d	-3.80242e-05
40	0xb8cd8c71	-9.801321e-05
41	0xb89a84b2	-7.368009e-05
42	0xb8dbca6a	-0.00010480436
43	0xb8b4fafa	-8.629817e-05
44	0xb6c35ca2	-5.8222367e-06
45	0xb8d50208	-0.0001015701
46	0x36ef4e17	7.131846e-06
47	0xb8b1f385	-8.485377e-05
48	0x3887e565	6.48003e-05
49	0xb9408d69	-0.00018363226
50	0x374053f1	1.1463636e-05
51	0x3730a1bc	1.0528074e-05
52	0x377a2f1a	1.4912128e-05
53	0xb69c28a2	-4.6538926e-06
54	0x36c984d9	6.0057323e-06
55	0x37ca8e99	2.4146679e-05
56	0x362bfa92	2.5626837e-06
57	0xb72de9cc	-1.0366039e-05
58	0xb739e9c7	-1.108129e-05
59	0x384d6965	4.8973965e-05
60	0xb89da5fd	-7.517261e-05
61	0xb8670d06	-5.508682e-05
62	0xb8b0808e	-8.416279e-05
63	0xb8824f32	-6.213634e-05
64	0xb6e7dd7c	-6.9101206e-06
65	0xb8ac4c57	-8.2158185e-05
66	0x36142eec	2.208103e-06
67	0xb8848e56	-6.3207626e-05
68	0x384e595b	4.9197446e-05
69	0xb915c5d3	-0.00014283443
70	0xb7e788f9	-2.7601129e-05
71	0xb79c3dbe	-1.86254e-05
72	0xb810eb92	-3.4551667e-05
73	0xb7a3d231	-1.9528992e-05
74	0xb6a22085	-4.831762e-06
75	0xb80b5795	-3.322175e-05
76	0x3614658f	2.2112833e-06
77	0xb7a9d70c	-2.0246509e-05
78	0x37afdd28	2.096461e-05
79	0xb888fceb	-6.532095e-05
80	0xb9480a4c	-0.00019077322
81	0xb913cc81	-0.00014095196
82	0xb95d4f2d	-0.00021105698
83	0xb92c8330	-0.0001645207
84	0xb772fce9	-1.4483209e-05
85	0xb953f1bb	-0.0002021258
86	0x378982e3	1.6392622e-05
87	0xb92c8822	-0.00016453912
88	0x3908a9af	0.00013033183
89	0xb9c3d838	-0.00037354394
90	0xb775e724	-1.4656955e-05
91	0xb71dcbb6	-9.405359e-06
92	0xb7a338fe	-1.9457653e-05
93	0xb729886d	-1.0104949e-05
94	0xb64d5de4	-3.0602032e-06
95	0xb798c718	-1.8212522e-05
96	0x35c29854	1.449846e-06
97	0xb76559fc	-1.3670415e-05
98	0x3739e041	1.10790725e-05
99	0xb80a82d0	-3.3023593e-05

exp_avg_sq f4 [10, 10]
0	0x32f05aba	2.7980935e-08
1	0x3285ddb1	1.5584051e-08
2	0x330406dc	3.0739884e-08
3	0x32b0cc19	2.058191e-08
4	0x2f34167b	1.6378891e-10
5	0x3302a146	3.041466e-08
6	0x2ff4c83e	4.4525622e-10
7	0x329a05b7	1.7930558e-08
8	0x32463075	1.1536135e-08
9	0x33e5d016	1.0701494e-07
10	0x351da70e	5.8730154e-07
11	0x34af1957	3.2614727e-07
12	0x352d3d78	6.453697e-07
13	0x34e3ea71	4.2452623e-07
14	0x313cb0ca	2.7458094e-09
15	0x352ac58e	6.3617415e-07
16	0x321be212	9.07359e-09
17	0x34cad8fa	3.7783303e-07
18	0x34828222	2.430907e-07
19	0x361752f6	2.2549043e-06
20	0x3169b925	3.4011205e-09
21	0x31065051	1.954522e-09
22	0x318012fb	3.727448e-09
23	0x314a8fdb	2.9476641e-09
24	0x2e7fbf54	5.815022e-11
25	0x3188e0e0	3.9836863e-09
26	0x2edb5d0e	9.975497e-11
27	0x310c8c0b	2.0452287e-09
28	0x30b4610a	1.3124304e-09
29	0x32558b93	1.2429967e-08
30	0x33e48ed8	1.06430605e-07
31	0x337d3f56	5.8963757e-08
32	0x33fab359	1.1674155e-07
33	0x33a486c5	7.6613595e-08
34	0x3018b8a0	5.5559646e-10
35	0x33fba8c1	1.17187945e-07
36	0x3115c56e	2.179458e-09
37	0x33909406	6.732448e-08
38	0x333b26ff	4.3574797e-08
39	0x34db6385	4.086434e-07
40	0x3561d820	8.4133535e-07
41	0x34fa603c	4.6636148e-07
42	0x35784630	9.2489336e-07
43	0x3522e50b	6.0683004e-07
44	0x317cedbb	3.680596e-09
45	0x35744efe	9.101203e-07
46	0x325cc9bf	1.2851557e-08
47	0x35110d06	5.403566e-07
48	0x34bb0bcb	3.4840045e-07
49	0x3659053b	3.2338564e-06
50	0x32b5a3d3	2.1145672e-08
51	0x324b59e4	1.1836594e-08
52	0x32c73100	2.3188932e-08
53	0x328898da	1.5901993e-08
54	0x2f422d06	1.7660193e-10
55	0x32c87cf5	2.3339888e-08
56	0x2fe05ba9	4.081049e-10
57	0x326c38a4	1.3749887e-08
58	0x32149baa	8.650128e-09
59	0x33ad8cdd	8.081563e-08
60	0x35091ccc	5.107838e-07
61	0x349806b3	2.831708e-07
62	0x3516c438	5.616489e-07
63	0x34c66ad0	3.695809e-07
64	0x311bbf12	2.266408e-09
65	0x35148429	5.5326615e-07
66	0x3207c0d5	7.901879e-09
67	0x34afdea3	3.275828e-07
68	0x3462df6f	2.1129175e-07
69	0x3603acfb	1.962121e-06
70	0x336283d4	5.2739622e-08
71	0x32fa44e7	2.9135164e-08
72	0x3379def1	5.8177594e-08
73	0x3326e420	3.8857365e-08
74	0x2f94efa6	2.7091324e-10
75	0x3371ffb5	5.634475e-08
76	0x3034f691	6.583401e-10
77	0x3310f499	3.3750073e-08
78	0x32bc2577	2.1903118e-08
79	0x3459a318	2.0269033e-07
80	0x36519053	3.1227435e-06
81	0x35e82409	1.7295835e-06
82	0x366677d2	3.4342415e-06
83	0x361742e9	2.25397e-06
84	0x326c0fc9	1.3740597e-08
85	0x3661f8cf	3.3672438e-06
86	0x334448d4	4.5701043e-08
87	0x3606a957	2.0066125e-06
88	0x35adce73	1.2949589e-06
89	0x374978ec	1.2008688e-05
90	0x3287230f	1.5732011e-08
91	0x32150f80	8.676466e-09
92	0x32956742	1.739284e-08
93	0x324a09d3	1.1760181e-08
94	0x2ea86299	7.65727e-11
95	0x328f85d8	1.6708256e-08
96	0x2f432c8a	1.775097e-10
97	0x322c4acd	1.0028725e-08
98	0x31e06ab8	6.5313905e-09
99	0x33818647	6.0314555e-08

exp_avg f4 [10]
0	0x386a6ffe	5.589425e-05
1	0xb98330ef	-0.00025022725
2	0x376b15ec	1.4012196e-05
3	0xb8a2ab92	-7.7567194e-05
4	0xb99e45d8	-0.00030188146
5	0x38043472	3.1520096e-05
6	0xb9728568	-0.00023128616
7	0xb8b4c881	-8.6204156e-05
8	0xba1afdf5	-0.00059124763
9	0xb844a296	-4.688146e-05

exp_avg_sq f4 [10]
0	0x348add22	2.5865398e-07
1	0x36b70565	5.454453e-06
2	0x330087b9	2.992576e-08
3	0x3584d68d	9.897209e-07
4	0x37033651	7.820855e-06
5	0x34513b7d	1.9486284e-07
6	0x369f346d	4.7446724e-06
7	0x35030a91	4.881668e-07
8	0x37f37eeb	2.9026958e-05
9	0x341bc862	1.4508399e-07

exp_avg f4 [17]
0	0xb4125edd	-1.363182e-07
1	0x34119b19	1.3560602e-07
2	0xb7394b06	-1.1044327e-05
3	0x35294354	6.305538e-07
4	0xb6b6f5db	-5.452644e-06
5	0x33750fb4	5.705779e-08
6	0xb5acadf6	-1.2865628e-06
7	0x33659237	5.34512e-08
8	0x354c3b14	7.608189e-07
9	0x3319e8d1	3.5834834e-08
10	0x369efdb2	4.738301e-06
11	0xaf7d2d5e	-2.3026334e-10
12	0xb71deb96	-9.412781e-06
13	0x30234f53	5.941178e-10
14	0x348098bf	2.3952995e-07
15	0x3407467f	1.2598501e-07
16	0x326ce3f0	1.3788835e-08

exp_avg_sq f4 [17]
0	0x2f84ee35	2.4179916e-10
1	0x2d9a8ec4	1.7571174e-11
2	0x322bec5f	1.0007255e-08
3	0x2e2dcb2d	3.9516102e-11
4	0x30f27e16	1.7643653e-09
5	0x2ae39254	4.0424836e-13
6	0x2e455903	4.4871672e-11
7	0x2ac1706f	3.4361703e-13
8	0x2f9f7d14	2.9010805e-10
9	0x29294ae0	3.7590482e-14
10	0x3154bb49	3.095652e-09
11	0x25a70a53	2.8976878e-16
12	0x316339b0	3.306564e-09
13	0x25eeddc1	4.1436685e-16
14	0x2e535e40	4.8059556e-11
15	0x2fa39929	2.9758354e-10
16	0x2cb54dfa	5.1529865e-12

exp_avg f4 [10]
0	0xb727ac70	-9.994124e-06
1	0xb6c02bc1	-5.7271395e-06
2	0xb7dfef68	-2.6695154e-05
3	0x367e2968	3.787305e-06
4	0xb80687fd	-3.207474e-05
5	0x37d091ba	2.4863391e-05
6	0xb69fde84	-4.7644735e-06
7	0x364ace88	3.0220563e-06
8	0x3764f970	1.3647936e-05
9	0x36b5a8d4	5.4138745e-06

exp_avg_sq f4 [10]
0	0x32313781	1.0315376e-08
1	0x3169c460	3.4017589e-09
2	0x339474df	6.913046e-08
3	0x318cf302	4.102163e-09
4	0x332a84d3	3.9702012e-08
5	0x3394c2b2	6.927202e-08
6	0x3155d9b6	3.1119334e-09
7	0x30c9bb21	1.467786e-09
8	0x32e90aa4	2.7129609e-08
9	0x3280a17a	1.4974592e-08

exp_avg f4 [10, 10]
0	0x3558b945	8.0735873e-07
1	0x357ac18f	9.341392e-07
2	0xb612984d	-2.1844346e-06
3	0x3492b1dc	2.732403e-07
4	0xb62c611e	-2.5686527e-06
5	0xb694589d	-4.4210597e-06
6	0x34f0fd0f	4.4887608e-07
7	0x3521909d	6.0187614e-07
8	0x348212ff	2.4228208e-07
9	0xb698cea1	-4.554008e-06
10	0x362c6ea5	2.56944e-06
11	0x3648ab82	2.9902153e-06
12	0xb6eb8e60	-7.0201204e-06
13	0x359ef45b	1.1843034e-06
14	0x360b60b5	2.0768905e-06
15	0xb74b0922	-1.2101869e-05
16	0x35bf1d98	1.4239222e-06
17	0x35d5a7e1	1.5918596e-06
18	0x360252e1	1.9419751e-06
19	0xb82c0af0	-4.1018182e-05
20	0x35f75b69	1.8429538e-06
21	0x360ee299	2.1291546e-06
22	0xb6a208d3	-4.8290035e-06
23	0x3518ec7f	5.696856e-07
24	0xb6da7d43	-6.5114887e-06
25	0xb72f6250	-1.0453703e-05
26	0x3584c422	9.891849e-07
27	0x35a80787	1.2519166e-06
28	0x354c9c2f	7.62232e-07
29	0xb789145b	-1.6341151e-05
30	0xb5908800	-1.0768417e-06
31	0xb5a8150a	-1.2523099e-06
32	0x364c345a	3.0428841e-06
33	0xb4fd40ae	-4.7171983e-07
34	0x3587077e	1.0060464e-06
35	0x36af0e6b	5.217085e-06
36	0xb521a2ea	-6.0214245e-07
37	0xb540b6d7	-7.179164e-07
38	0xb5370581	-6.818082e-07
39	0x375a0842	1.2995735e-05
40	0xb76fb9ca	-1.42887675e-05
41	0xb78bc53d	-1.6661937e-05
42	0x383967c3	4.4204073e-05
43	0xb6ec548c	-7.0431906e-06
44	0x37c382c8	2.3306711e-05
45	0x38853683	6.352088e-05
46	0xb70e47b2	-8.480552e-06
47	0xb7360391	-1.0848876e-05
48	0xb705d31a	-7.976569e-06
49	0x38b656dc	8.694615e-05
50	0xb420151c	-1.4908841e-07
51	0xb43f7139	-1.7829451e-07
52	0x3510682b	5.3795765e-07
53	0xb427f030	-1.5640467e-07
54	0xb5ef6864	-1.7837269e-06
55	0x33c68bdf	9.245536e-08
56	0xb3a6a602	-7.760174e-08
57	0x335dd654	5.1650503e-08
58	0xb51e3a9d	-5.894488e-07
59	0x37402388	1.1452365e-05
60	0x36bcf141	5.6309223e-06
61	0x36dc02b5	6.556826e-06
62	0xb78df835	-1.692409e-05
63	0x36304025	2.626338e-06
64	0xb71f7b80	-9.505893e-06
65	0xb7da6990	-2.6036781e-05
66	0x365c26e1	3.2805185e-06
67	0x368ac52c	4.1356743e-06
68	0x3657e293	3.216938e-06
69	0xb8285aed	-4.0139003e-05
70	0xb6db07da	-6.5276226e-06
71	0xb6ffdfa1	-7.625626e-06
72	0x37ab76ba	2.0440075e-05
73	0xb6683432	-3.4601076e-06
74	0x3677d6e6	3.6930956e-06
75	0x37e62ddd	2.7439493e-05
76	0xb6834831	-3.9125084e-06
77	0xb6a471d2	-4.9008313e-06
78	0xb6878ecd	-4.0399377e-06
79	0x384c25b0	4.867249e-05
80	0x36b621eb	5.4279712e-06
81	0x36d3e07d	6.314424e-06
82	0xb78717e9	-1.6104388e-05
83	0x3621f689	2.4134372e-06
84	0xb73a4f58	-1.1104938e-05
85	0xb7d99d6a	-2.5941717e-05
86	0x3653e6b2	3.1575732e-06
87	0x368a8fa6	4.1294434e-06
88	0x362b9407	2.556715e-06
89	0xb7fac313	-2.989316e-05
90	0x33ee110a	1.1085838e-07
91	0x34019b2e	1.2070515e-07
92	0xb39774c5	-7.052726e-08
93	0xb3bb2e49	-8.716285e-08
94	0xb64e17c8	-3.0710235e-06
95	0xb5bb6540	-1.3962053e-06
96	0x32539300	1.231524e-08
97	0xb37f7200	-5.9475497e-08
98	0x3465afea	2.1391284e-07
99	0xb6c0cd28	-5.7459292e-06

exp_avg_sq f4 [10, 10]
0	0x2ef01d91	1.09191885e-10
1	0x2f140fbf	1.3466116e-10
2	0x305eca96	8.105102e-10
3	0x2dd577d1	2.4268506e-11
4	0x302d5dc0	6.307026e-10
5	0x3139fe98	2.7065763e-09
6	0x2e69c831	5.3155872e-11
7	0x2e880504	6.185455e-11
8	0x2e02d976	2.9751722e-11
9	0x31b0920d	5.138878e-09
10	0x3086dc4e	9.812398e-10
11	0x30acb22d	1.2565288e-09
12	0x321dcb83	9.184876e-09
13	0x2fbb7b8f	3.4102896e-10
14	0x30c88fff	1.4592841e-09
15	0x329aade6	1.800704e-08
16	0x3013e9ef	5.381073e-10
17	0x3023cb4e	5.958797e-10
18	0x30090cd0	4.985852e-10
19	0x33560508	4.9830334e-08
20	0x2fb444a7	3.279059e-10
21	0x2fe6895e	4.1934362e-10
22	0x31242dd7	2.3891198e-09
23	0x2e5abf5b	4.973742e-11
24	0x31104382	2.0993132e-09
25	0x32147b48	8.642765e-09
26	0x2ed31e4d	9.6005516e-11
27	0x2f21a3ad	1.4701014e-10
28	0x2e74631a	5.5567197e-11
29	0x327ba47b	1.4647521e-08
30	0x2e8117fb	5.8705006e-11
31	0x2ea78d43	7.619374e-11
32	0x3027ef60	6.109442e-10
33	0x2dc34046	2.2197476e-11
34	0x2d9a82fd	1.7565943e-11
35	0x3071f6df	8.8026114e-10
36	0x2e0467d7	3.0105553e-11
37	0x2e1b9ebd	3.5383908e-11
38	0x2e13e6ad	3.362881e-11
39	0x3157f76a	3.1427256e-09
40	0x3294f6f1	1.7341764e-08
41	0x32c237eb	2.2610001e-08
42	0x3424fba8	1.5365242e-07
43	0x318caeaf	4.0943955e-09
44	0x32fd432d	2.9483624e-08
45	0x34b5a4dc	3.3833828e-07
46	0x31b1b0cd	5.171478e-09
47	0x3208bd1b	7.9592395e-09
48	0x31c73336	5.7974843e-09
49	0x3560b250	8.370598e-07
50	0x2d9dceb3	1.7940626e-11
51	0x2da6a0da	1.8943448e-11
52	0x2edb4993	9.9720364e-11
53	0x2cdae348	6.221166e-12
54	0x2fa94460	3.0789504e-10
55	0x301ec89a	5.7765137e-10
56	0x2d8b418f	1.5831584e-11
57	0x2d709a27	1.3676649e-11
58	0x2d2f78ab	9.974392e-12
59	0x30749b73	8.898759e-10
60	0x31581bcd	3.144794e-09
61	0x318c0743	4.075362e-09
62	0x32f34c6e	2.832368e-08
63	0x306a19aa	8.5165175e-10
64	0x31c17830	5.630703e-09
65	0x3382d28c	6.091895e-08
66	0x30a6e603	1.2143463e-09
67	0x30dcd6d0	1.606816e-09
68	0x30a75fda	1.2178092e-09
69	0x3422aba2	1.5149865e-07
70	0x316b699e	3.4257037e-09
71	0x31986755	4.4355297e-09
72	0x32e9b4dc	2.7207015e-08
73	0x302212db	5.896205e-10
74	0x3257ce0a	1.2561495e-08
75	0x33a966ea	7.888396e-08
76	0x30678d2e	8.423794e-10
77	0x30c4cc93	1.431902e-09
78	0x304c925e	7.442277e-10
79	0x342e06f9	1.620755e-07
80	0x3112a5ed	2.1340114e-09
81	0x313e5943	2.7699378e-09
82	0x32a0ef48	1.8735264e-08
83	0x300fbae9	5.228871e-10
84	0x31945b2b	4.3177315e-09
85	0x333725f5	4.264253e-08
86	0x3045965a	7.1881845e-10
87	0x308d4b5b	1.0280518e-09
88	0x3047e719	7.272419e-10
89	0x33dac8f2	1.0187968e-07
90	0x2ed7507c	9.791365e-11
91	0x2efa924a	1.139467e-10
92	0x30564549	7.7951207e-10
93	0x2e0db321	3.2218787e-11
94	0x2f7154b8	2.194892e-10
95	0x3101c2ea	1.8882766e-09
96	0x2e9be47e	7.089172e-11
97	0x2e91a166	6.622507e-11
98	0x2e3fca70	4.3608173e-11
99	0x31affcf3	5.1219273e-09

exp_avg f4 [10]
0	0xb6c60e48	-5.9025224e-06
1	0xb79bd9ee	-1.8578921e-05
2	0xb76352d7	-1.3549542e-05
3	0x3702caec	7.79585e-06
4	0x38d5e782	0.00010199753
5	0x35856f09	9.941588e-07
6	0xb829610f	-4.0383133e-05
7	0x38429b24	4.639769e-05
8	0xb823dcd6	-3.9067898e-05
9	0xb5792e00	-9.282667e-07

exp_avg_sq f4 [10]
0	0x320274f3	7.593587e-09
1	0x337615f7	5.7296315e-08
2	0x32a419a8	1.910378e-08
3	0x3180ddfb	3.7505266e-09
4	0x3578bc09	9.2660827e-07
5	0x30ed252c	1.7254584e-09
6	0x343a6885	1.7360624e-07
7	0x3448694b	1.8664757e-07
8	0x33f9a2bf	1.16245694e-07
9	0x3209910a	8.007428e-09
