src/data_driven/advection/classical_training/model_checkpoint-10000.pt (torch, 66285 bytes, 72 tensors)

branch.hidden_layers.0.thetas f4 [210]
000000 bb 13 c2 3f 3c 74 ea 3e 8a 58 9a 3e e8 85 a1 be
       1.5162271 0.45791805 0.30145675 -0.31547475
000010 0f b3 59 3f 51 94 c3 bf 1d c9 85 3f 95 d6 cd 3f
       0.85038847 -1.5279638 1.0452 1.608111
000020 9f 05 3c be 4c 9c 0b 3f db 25 74 3f d6 2a ba be
       -0.1836152 0.54535365 0.9537026 -0.36360806
000030 63 6c 9b bf cf 4a 73 3f 21 7a 8c 3d 5b 90 08 40
       -1.2142452 0.95036024 0.06859232 2.1338108
000040 84 81 11 be 77 d2 00 3e 39 9f 07 3f 91 15 ee 3e
       -0.14209563 0.12580286 0.5297733 0.4650083
000050 71 07 2e bf 41 af b6 bd 80 4e 1c c0 9a 79 d7 3f
       -0.67980105 -0.08920146 -2.4422913 1.6833985
000060 48 a2 ce be f9 78 86 3f 05 c1 55 bf d7 73 63 bf
       -0.40358186 1.0505668 -0.8349765 -0.8884863
000070 0f 72 54 be 5e b3 56 3f 29 ae d1 3f 95 b7 53 bf
       -0.20746635 0.8386744 1.6381274 -0.82702
000080 36 f5 26 3f fd 18 a4 bf c4 67 c2 bf 2f 19 9c bd
       0.6521791 -1.2820126 -1.5187917 -0.07621991
000090 ee fb 19 bf ad 32 ea be df 55 32 bf 93 72 fb 3f
       -0.6015004 -0.45741788 -0.6966228 1.964434
0000a0 64 87 84 bf c7 58 67 bf 3e d2 0a 3f ef c5 a0 bf
       -1.0353818 -0.9036984 0.54227054 -1.2560405
0000b0 1c 10 8c 3f 54 47 0e 3e 9b 58 f2 3d c2 6f 4c 3f
       1.0942416 0.13894397 0.118333064 0.7985803
0000c0 5c 93 08 be 71 df 9b bd 6c 0a 48 be f0 91 16 3f
       -0.13337463 -0.076109774 -0.19535226 0.5881643
0000d0 e5 18 ff bf 1e ef b8 bf d5 64 67 3e 33 b7 e0 bf
       -1.9929472 -1.4447973 0.22597058 -1.7555908
0000e0 0c b3 3a be 1d d7 53 3f 81 b3 ee bc d0 d9 0d 40
       -0.18232363 0.8275011 -0.029138329 2.2164192
0000f0 d6 47 37 be f3 c2 05 3f 65 45 0f c0 58 77 89 3f
       -0.17898497 0.52250594 -2.2386105 1.0739546
000100 bd f7 cb be 4a 21 ad bf 88 b7 c3 bf 0b 1a 15 bd
       -0.39837447 -1.3525784 -1.5290384 -0.03640179
000110 ad 5b 5f 3f cf d0 c9 bd 1f 0a 86 3f 99 6a 12 c0
       0.8724926 -0.0985428 1.0471839 -2.2877562
000120 9f 4d 98 bf b8 5f 64 3f 72 45 60 bd 92 14 9a 3d
       -1.1898688 0.89208555 -0.05475373 0.07523455
000130 a1 2f 4a 3e 56 53 48 be 0e 7a 7f 3f b0 f0 d4 bf
       0.19744731 -0.1956304 0.99795616 -1.6635952
000140 ff 8c 66 3f 7b f5 80 be 2f 75 26 3e 38 7c 71 bf
       0.9005889 -0.25187287 0.1625564 -0.9433017
000150 2f 1a 8d bf 63 0c 1c 3f 6d ef fa 3f 20 af 22 c0
       -1.1023616 0.609564 1.9604317 -2.5419388
000160 c2 db ac be d5 66 85 3f 51 2d 55 3f 0d 33 08 3e
       -0.33761412 1.0422007 0.8327227 0.13300724
000170 4b b8 82 bf 08 d4 d6 3f fc bb 5e bf eb 0a 8f bd
       -1.0212492 1.6783457 -0.8700559 -0.06984504
000180 a4 b5 e2 be b4 da c8 bf 33 68 37 bc 75 c8 9f 3e
       -0.44279206 -1.5691743 -0.011194277 0.31207624
000190 37 8c ef 3e 84 61 2e be 39 70 8c 3f e8 aa 2c bf
       0.46786663 -0.17029387 1.0971748 -0.6744828
0001a0 ec 8e fd 3b ab cc 7a 3f a6 60 fe 3f ff ff 05 3e
       0.007737985 0.9796855 1.9873245 0.13085936
0001b0 98 89 cb be 41 0c 37 3f 43 c4 aa be d7 8a 76 3f
       -0.39753413 0.7150307 -0.3335286 0.963056
0001c0 cb 3d c6 3f e6 50 bc 3f 33 0f 60 3f 91 bb 90 3e
       1.5487608 1.4712188 0.8752319 0.28268102
0001d0 69 9d 47 3e 8d 1d 88 bf 77 b1 c0 3e 5e 45 3d be
       0.19493641 -1.0634018 0.37635395 -0.18483493
0001e0 3c 76 81 3f 2f 7a 2c bf 5b 04 8a 3e 0b eb 77 3f
       1.0114207 -0.6737394 0.26956448 0.9684302
0001f0 de 19 5f be d9 ba 1d 3f 8a a7 57 be c3 ea 96 bf
       -0.21787211 0.6161323 -0.21060005 -1.1790394
000200 da 62 4d be 73 68 d3 3e bd c0 70 bf 2d 5f e3 3d
       -0.2005724 0.41290626 -0.94044095 0.11102138
000210 69 83 c6 bf 7a 05 4c 3f f4 aa 3d 3d d9 81 78 bc
       -1.5508853 0.79695857 0.04630561 -0.015167677
000220 a4 c4 4a bf de a5 c3 3c 48 3a a5 be e4 32 80 bf
       -0.792063 0.023882803 -0.32271028 -1.001553
000230 0e f8 70 bc f8 92 c8 3f 82 24 70 3d c2 90 a3 bf
       -0.014707578 1.5669851 0.058628567 -1.2778552
000240 6f e9 06 3f 8f 2d 39 bf 41 e4 d9 3e e5 06 8e bf
       0.5269994 -0.7233514 0.42556956 -1.1095854
000250 74 10 06 c0 f2 5e dd be 0d a9 39 be 42 d1 45 bf
       -2.0947542 -0.432365 -0.18130894 -0.7727243
000260 b1 99 35 bf 74 47 80 3e 79 48 c0 3e 49 62 3b 3f
       -0.7093764 0.25054514 0.37555292 0.73196846
000270 c8 d6 cf 3d 81 02 b2 3f 4f 9b 95 3d 7f 24 f2 3f
       0.10148388 1.3907014 0.073050134 1.8917388
000280 30 36 27 3f 08 5f 08 3f 58 ae 21 be 5a 6e 0d 3f
       0.6531706 0.53270006 -0.15789163 0.5524651
000290 96 d0 f2 be 3d 8d cc bf 04 01 9e 3f e0 96 c0 3f
       -0.47424763 -1.5980603 1.234406 1.5046043
0002a0 67 86 d8 be a6 cc 27 be 6a 9f 38 bf 7a 86 90 3e
       -0.4229004 -0.16386661 -0.72118247 0.28227597
0002b0 30 e2 1c bf 01 49 1e bf 29 52 df 3f b8 d7 31 3f
       -0.61282635 -0.61830145 1.7446948 0.69469786
0002c0 40 90 81 3f f8 05 d3 3e d2 3a b2 be ab 1c 16 3f
       1.0122147 0.4121549 -0.348105 0.58637494
0002d0 24 01 c0 3e f7 5d 5f 3f 4f 7e 0f 3f 0a 59 98 3d
       0.3750087 0.87252754 0.56052107 0.07438858
0002e0 3e ef f6 3f 75 41 f0 3f 04 ab 82 bf e3 de a2 be
       1.9291761 1.8769976 -1.020844 -0.31810674
0002f0 b4 85 9c 3c bc 3a 59 bf 9b 82 d3 be d9 4e e7 be
       0.019106723 -0.84855247 -0.41310582 -0.45177343
000300 f1 95 2c bc b4 e8 1a bf e1 1f 3b 3f d2 2b 97 3d
       -0.010533796 -0.60511327 0.7309552 0.07381405
000310 a7 61 a8 3f 29 56 a5 bd 85 b6 f9 3e ed 75 47 3f
       1.3154801 -0.08073074 0.48772064 0.77914315
000320 07 db cd bd 2a 91 8f be b1 9c ba 3d bb f3 84 bf
       -0.10051542 -0.2804044 0.09111918 -1.0386881
000330 04 8c 1f 3f c9 4e 39 3e 6e 76 8a bf b5 71 0d 3f
       0.6232302 0.1809646 -1.0817392 0.5525163
000340 69 f6 31 3e c9 af c3 3f
       0.17379154 1.528802

branch.hidden_layers.0.bias f4 [21]
000000 0c 07 9f 3d 3f f7 10 3d 69 87 75 3c 8b 99 d6 bd
       0.07765016 0.035392042 0.014985898 -0.10478505
000010 a9 fb 76 bc cd 6a 32 3d 87 c9 3a 3c 9d 69 12 3d
       -0.015074649 0.043558884 0.011400587 0.035745252
000020 60 ef ea bc 29 4e de 3b e6 f9 9f 3c a9 1c 41 be
       -0.028678596 0.0067842198 0.01952834 -0.18858589
000030 82 12 40 bd b3 23 2d bd 53 b7 1c 3d c8 4b dd bd
       -0.04689265 -0.042270374 0.03826077 -0.1080547
000040 db 1f 14 3c f2 05 8b bd a3 3f 8b 3d c5 5f d2 bd
       0.009040798 -0.06788243 0.06799247 -0.10272173
000050 d7 8e 97 bb
       -0.004625182

branch.hidden_layers.1.thetas f4 [210]
000000 d7 c9 88 bf bf 5d fa 3f 60 4d 91 3e 94 f1 a6 3e
       -1.0686597 1.9559859 0.28379345 0.32606184
000010 b9 b3 1d 3e f4 6d 8a bf bc d5 88 3f 36 15 24 bf
       0.1540059 -1.0814805 1.0690227 -0.64094865
000020 b1 6c d8 3f 32 9b 77 bf 2d 9f e0 be 8a 4f 4d be
       1.690817 -0.96721184 -0.4387144 -0.20049873
000030 55 27 17 3f b6 67 85 be 47 d3 02 be 5d ab 0d bf
       0.5904439 -0.26055688 -0.12775908 -0.55339605
000040 1c 57 6a 3f 49 5b 2a bf b6 f0 60 3f 2a 99 d0 be
       0.9153917 -0.6654554 0.87867296 -0.40741855
000050 6f 81 5b bf 67 e2 6a 3f 1f 0f e0 3f da fd 2e bf
       -0.85744375 0.9175171 1.7504615 -0.68356097
000060 4a 31 ae 3f 13 03 22 bf 2c 3a c6 bf ea c1 c8 be
       1.3608792 -0.6328594 -1.5486503 -0.39210445
000070 d4 a3 04 3f 19 c6 ea bf 73 0b 92 bd 6d a7 9b 3d
       0.5181248 -1.8341705 -0.0713109 0.07600293
000080 de 1c 2e 3f be fe c8 3f 2d dc b8 3e 37 f0 e9 bc
       0.680128 1.5702741 0.3610548 -0.028556926
000090 67 40 86 bf e7 d4 25 c0 96 a3 02 bf 4d c5 1c bf
       -1.0488404 -2.5911195 -0.5103086 -0.6123856
0000a0 1f 40 58 3d 78 4c 13 bd 1e 76 8c bf 60 d0 2a bf
       0.052795526 -0.0359616 -1.0973547 -0.66724205
0000b0 b5 76 83 bf ac 08 93 3f 6d af 81 be a6 10 cb be
       -1.0270602 1.1487021 -0.25329152 -0.3966114
0000c0 f0 32 89 bf 21 01 00 3f f7 b5 de bf 42 f9 3b 3f
       -1.071867 0.5000172 -1.7399281 0.7342721
0000d0 ea a8 54 bf 1f 24 b3 bf 51 0a a6 bf f7 b6 3b c0
       -0.8307024 -1.3995398 -1.2971898 -2.9330423
0000e0 16 6b 31 bf c4 02 e0 3f c0 4f 8b be 19 f4 30 3f
       -0.69304025 1.7500844 -0.27209282 0.69122463
0000f0 6e 1b 2b bc d9 98 8d 3f e3 79 00 3f 81 c4 76 3f
       -0.0104435515 1.106227 0.50185984 0.9639359
000100 d8 29 08 3f 9f 91 94 3f 7a 88 17 bf ad 82 0d bf
       0.5318885 1.160694 -0.5919262 -0.5527752
000110 6e cc 0c bf 29 e5 54 3f 24 bf 58 bf 38 4f d7 be
       -0.54999435 0.8316217 -0.8466666 -0.42052627
000120 24 07 a7 be 52 7d 9a bf fa 49 7d 3e 00 0a 1f bf
       -0.32622635 -1.2069495 0.24735251 -0.62124634
000130 46 43 ea 3f ef 82 73 bf 47 23 1c 3f 54 b4 e9 3e
       1.830178 -0.95121664 0.6099133 0.45645392
000140 a7 55 4f be 6d 7c fe bd ac 29 19 3f 64 2e dd bd
       -0.20247518 -0.12426076 0.5982921 -0.10799864
000150 32 db 0d c0 08 9f 97 bf c2 8f 5f be dd 47 27 c0
       -2.2165036 -1.1845407 -0.21832183 -2.6137612
000160 ca 28 4b 3e 4a 79 78 bf 93 d5 0d 3e d6 50 99 bf
       0.19839779 -0.9706007 0.13851003 -1.1977794
000170 5f b1 a4 3f 13 2b 1b c0 d8 9c ca 3f 9d 41 03 40
       1.2866629 -2.424504 1.5829115 2.0508797
000180 57 55 15 c0 f0 fc 66 be 2b 86 cc bf c0 d2 2b bf
       -2.3333337 -0.22557425 -1.5978445 -0.67118454
000190 99 69 5f be ce d0 99 bd 1a c8 4a bf 4d ad 32 3f
       -0.21817626 -0.075105295 -0.7921158 0.69795686
0001a0 c8 45 1e bf 0d 0f a5 bf 81 52 be be 78 f0 5d 3f
       -0.6182523 -1.2895218 -0.3717232 0.8669505
0001b0 04 9d 70 3e 55 0e cc 3f fb df 4b 3f a2 6a 11 3e
       0.23497397 1.5941874 0.7963864 0.14200833
0001c0 6f ff 98 3f 1e 92 95 3f 6c cd d7 3f eb fd ff bf
       1.1952952 1.1685216 1.6859565 -1.9999365
0001d0 4c fa 9b be d3 a4 57 3f 6c 43 11 3f 63 04 35 bf
       -0.304644 0.84235877 0.567435 -0.7070982
0001e0 f5 70 14 bf f9 7f 97 3f 03 ee 11 3f b8 16 07 bf
       -0.5798486 1.1835929 0.570038 -0.5276904
0001f0 ec 22 9a bf 39 a8 26 bf f5 f1 fb 3f 94 b6 91 be
       -1.2041907 -0.6510044 1.9683214 -0.2845961
000200 10 f1 bc 3d 3d 43 39 3f e9 f1 f0 be 2a ec c5 3f
       0.092256665 0.7236822 -0.47059563 1.5462697
000210 40 d1 5f bf 5a 27 80 3e 8f 9c ec bf 3d 1e 27 3f
       -0.87428665 0.25030023 -1.8485278 0.65280515
000220 eb b8 c2 bf 99 34 4a 3f d6 4b 2d 3e df 0b 3c 3d
       -1.5212682 0.7898651 0.1692346 0.04590976
000230 86 db a9 3f 7b 8f 26 be 55 b3 b0 be 11 cd e3 be
       1.3270118 -0.16265671 -0.3451182 -0.4449239
000240 d8 25 ea bf 90 68 2f bf ab 7f 0d bf d5 2d a8 3f
       -1.8292799 -0.68518925 -0.5527293 1.3138987
000250 96 77 9e 3f 01 8b 93 3f e5 42 d3 3f 8d f8 93 be
       1.2380245 1.1526796 1.650479 -0.28900567
000260 0b cf a9 3f cb 00 28 bf 62 17 a6 3f 03 c3 3c bf
       1.326631 -0.6562621 1.2975886 -0.73735064
000270 7d 10 48 bf 39 1b 63 bf 16 18 fc 3f cf 83 dc be
       -0.7815016 -0.88713413 1.969485 -0.43069312
000280 00 be a3 3f 0a 89 f9 bf 20 0c c0 3f c9 5c f8 bc
       1.2792358 -1.9494946 1.50037 -0.03031768
000290 bc 9c b8 be 43 99 5a 3f 06 01 b7 bf 53 47 0c bf
       -0.3605708 0.8539011 -1.4297187 -0.5479633
0002a0 d6 37 ca bf d7 97 16 c0 51 cf 5d 3e 76 cf 89 3f
       -1.579829 -2.3530176 0.21661116 1.0766437
0002b0 54 b8 ac 3f 46 70 c8 bf 97 7b 90 be 13 c3 80 be
       1.3493752 -1.5659263 -0.28219292 -0.2514883
0002c0 4e d8 22 be c6 2b aa 3e 36 cf 49 bf 73 d6 d7 bf
       -0.15902826 0.3323652 -0.78831804 -1.686232
0002d0 ab 32 f4 3f c7 cb 73 be af ba 2f bf 40 30 1e bf
       1.9077963 -0.23808204 -0.6864423 -0.61792374
0002e0 a8 1e 65 3e 7f 11 0d bf db cf 85 3f 13 db 02 c0
       0.22374976 -0.5510482 1.0454057 -2.0446212
0002f0 2e 0f b4 3f 42 99 25 3e 2c 8e 0c 3f b9 4c 11 40
       1.4067132 0.16171744 0.5490444 2.2703078
000300 26 00 b6 3f 9c 4a 59 3f 15 1e a2 3f 3a 18 87 bf
       1.4218795 0.8487947 1.266543 -1.0554268
000310 6a 14 bf 3d 13 8f 0c 3f 20 35 65 3f c1 f9 87 3f
       0.093300655 0.54905814 0.8953419 1.0623094
000320 2e b5 c7 3a 1b b3 be be 34 98 bc bf 62 05 63 bf
       0.0015236491 -0.37246022 -1.4733949 -0.8868009
000330 19 47 9f bf 82 3b 37 bf 98 b7 91 3f 3d 2a a2 3e
       -1.2443572 -0.71575177 1.1384153 0.3167285
000340 b5 b8 21 bf ee 7f 08 40
       -0.63172466 2.1328082

branch.hidden_layers.1.bias f4 [21]
000000 e4 34 b1 3d 3d 48 0e 3d 1d ec 57 bc 9b f4 ba bd
       0.08652666 0.03473686 -0.013178852 -0.09128686
000010 fa 3b bd bd 33 9d 93 3d c7 40 81 3d f7 81 c5 bd
       -0.09239955 0.07207718 0.063111834 -0.096439295
000020 54 16 38 bd ff aa 38 3d d0 37 89 bc 9f 76 17 be
       -0.04494317 0.04508495 -0.016750246 -0.14791344
000030 6e 1b 66 bd ce 89 ce 3c 73 f1 27 3d 24 8f 90 bc
       -0.056178503 0.025212195 0.04100175 -0.01764638
000040 44 7b 7d 3d fa 24 e4 bc fa b0 82 3d ff 97 4e 3d
       0.061885133 -0.027849663 0.06381412 0.050437924
000050 e2 1b a7 bd
       -0.08159615

branch.hidden_layers.2.thetas f4 [210]
000000 bf 56 fa 3f 53 23 24 3d f0 9a 88 bf 79 3c a6 3f
       1.9557723 0.04007275 -1.0672283 1.2987205
000010 55 f0 02 3f 66 00 cb bf 35 1d 52 3f 89 e2 ab 3f
       0.5114797 -1.5859497 0.82075816 1.3428508
000020 fa 5a 52 bf d8 84 7f bf 30 5b 00 c0 9a ce 0d be
       -0.8217007 -0.9981208 -2.0055656 -0.13848343
000030 63 fa 03 c0 3b 35 65 3f 4d 86 00 bf eb b2 3f bf
       -2.0621574 0.8953435 -0.50204927 -0.7488238
000040 9f c7 08 3f 26 08 a9 3c 49 db c0 be 22 98 a8 3f
       0.534296 0.020633768 -0.376673 1.3171427
000050 bd 48 3a 3f 50 2a aa bf 4f c8 9f 3f 68 b7 cc be
       0.7276724 -1.3294163 1.2483004 -0.39983678
000060 7b 1a 6a 3f 31 e7 4e 3f b9 d7 77 40 68 e0 95 bf
       0.91446656 0.8082152 3.8725417 -1.1709108
000070 b8 3a 10 c0 c7 3e 22 bf 87 05 37 40 b1 12 72 bf
       -2.253584 -0.6337704 2.8597124 -0.9455977
000080 1c 7b 0f 40 4a dd 17 bf 95 2d 19 bf 32 47 fe bf
       2.241889 -0.59322035 -0.5983518 -1.9865477
000090 dd 19 5c 3f 3e 1d 6b 3e a1 84 71 bf 05 38 fe bf
       0.85976964 0.22960374 -0.94343 -1.9860846
0000a0 e0 35 20 bf 69 da 3e be a6 61 f1 3e 20 86 ce 3f
       -0.62582207 -0.18638004 0.47144812 1.6134682
0000b0 0b 71 d6 3e 86 fd 69 bf 8c 29 90 3e 83 98 3c 40
       0.4188312 -0.9140247 0.28156698 2.9468086
0000c0 80 47 89 bf 06 4c ab 3f 2d 3f 19 c0 b8 b9 e3 3f
       -1.0724945 1.3382576 -2.394481 1.7791052
0000d0 ef 0c ba be 16 eb 3c be fb 51 54 3f 28 ee 3d bf
       -0.36337993 -0.18449053 0.8293759 -0.7419152
0000e0 5f 6f 3a 3f c4 2c 01 3f ed 1a 66 bf e7 40 0b 3f
       0.7282619 0.5045893 -0.89884835 0.5439591
0000f0 9c b2 1f bf 13 f9 92 3e 39 13 a7 bf b8 24 73 3e
       -0.6238191 0.28705654 -1.3052741 0.23744476
000100 a0 67 10 3e 65 60 be bf a8 71 91 bd 5c c1 d2 bf
       0.1410203 -1.4873167 -0.07101756 -1.6465259
000110 60 34 51 3e f5 82 69 bd 93 15 28 3f 92 ce 31 3e
       0.20430136 -0.057009656 0.6565792 0.17363957
000120 d0 af bd 3e cb 9e 9e 3e 71 ea 1d 40 57 74 24 3f
       0.37048197 0.30980524 2.4674342 0.6424002
000130 f0 e0 a0 bf 0d f9 06 bf 23 7d e0 3e 9c 8f c6 3f
       -1.2568645 -0.5272377 0.43845472 1.5512576
000140 f2 7a e9 3d a1 3b 03 3f 48 10 11 3f 86 7d 0c 40
       0.11400403 0.5126286 0.5666547 2.1951613
000150 08 ab 14 3f 58 bd 43 bf 51 f3 54 3f a0 fc b5 bf
       0.5807347 -0.7646079 0.8318377 -1.421772
000160 be 88 0f c0 17 2b 26 3e 2f 7e 0c 3f 8d 74 45 be
       -2.242721 0.16227375 0.5488004 -0.19282742
000170 04 fd d6 3f 52 40 48 3f e2 60 12 bf ee 96 da 3f
       1.6795964 0.78223145 -0.5717908 1.707731
000180 7a 7c c5 be 48 ed 50 3f c5 52 a3 bf 0a 33 02 bd
       -0.3857153 0.8161206 -1.2759634 -0.031786956
000190 7b 1c 66 bf 4a 74 c5 3e a2 81 15 bd 27 d5 cb 3e
       -0.8988721 0.38565284 -0.03650058 0.3981106
0001a0 50 c1 60 be bf 10 84 3f 20 4f dc bd db 2d 80 3f
       -0.21948743 1.031761 -0.107572794 1.0013994
0001b0 78 d1 7a bf d1 cf b5 3f f9 b6 e6 3f 40 9d 86 bf
       -0.97975874 1.4204046 1.8024589 -1.0516739
0001c0 cb 4f 29 bf 3a 7c c4 be 45 86 84 3f 03 d3 95 3f
       -0.6613738 -0.38376027 1.0353476 1.1705021
0001d0 be 35 d8 be 9f 71 43 3f 10 8d a8 3d 57 88 e1 bf
       -0.42228502 0.7634525 0.082300305 -1.7619733
0001e0 2e 43 df 3d 97 bb 8f be 53 f9 f2 3f 1e bc a5 bf
       0.109014854 -0.28072807 1.8982338 -1.2948034
0001f0 71 ab e9 3f 37 b0 e2 3e 79 a4 36 bf b7 b9 76 3f
       1.8255445 0.44275066 -0.71344715 0.9637713
000200 77 95 33 3f e4 ee 12 bf 9d 96 9d 3e 97 02 32 bf
       0.7014994 -0.5739577 0.3077897 -0.695352
000210 2b bb 8a 3e 80 11 41 3f 91 64 da 3e 19 5f 5e be
       0.27095923 0.7541733 0.4265485 -0.21715964
000220 b1 83 ad be 2e 95 85 3f 09 a8 06 3f 0c 3f 5d be
       -0.33889535 1.0436151 0.5260015 -0.21606082
000230 26 27 cc 3f fb fc 5d 3e 7f b3 e5 be d6 7f 54 3e
       1.5949447 0.21678536 -0.44863507 0.2075189
000240 d1 7d ee be 70 9a 9e 3f a4 c8 6a 3f 19 fb 16 3d
       -0.46580365 1.239088 0.91712403 0.03686056
000250 d5 77 7d 3f 53 24 e3 3d 5d 30 10 3f 9a 88 c6 be
       0.99010974 0.11090913 0.56323797 -0.38776094
000260 fe e2 de bd dd 39 51 be 59 7f a6 3e 0e d6 df bf
       -0.10883139 -0.2043223 0.32519034 -1.7487199
000270 c4 25 aa bf 0f 03 70 3e 25 91 91 be 29 77 a7 3f
       -1.3292775 0.23438667 -0.2843105 1.308324
000280 47 4d 27 3f 02 37 22 bf 17 88 0e bf ca 82 9e bf
       0.6535229 -0.63365185 -0.55676407 -1.2383664
000290 db a9 6c 3f 90 85 79 bf 8b f1 7e 3e 5b b1 4d 3f
       0.9244668 -0.97469425 0.24896829 0.8034875
0002a0 27 56 e4 3f 85 12 36 bf 47 e7 0a bf 8e 00 f6 bf
       1.7838792 -0.7112201 -0.5425915 -1.9218919
0002b0 d3 9f 1d bd 49 33 d9 3d a8 a2 c5 bf 26 01 90 3d
       -0.0384825 0.10605485 -1.5440264 0.07031469
0002c0 ab b3 83 be f1 ca c3 be f2 5e 3a be f4 81 c4 3f
       -0.25723013 -0.3824077 -0.18200281 1.5352159
0002d0 84 e5 8d be 65 26 37 bb fa 7e 89 bf 14 d9 c0 be
       -0.2771417 -0.002794647 -1.0741875 -0.37665617
0002e0 d5 1a 76 3e f4 60 e4 be c4 ba 7e be cd 9f 73 3f
       0.24033673 -0.4460522 -0.24875933 0.9516571
0002f0 ac 86 c4 bf ab 42 76 be 4a 7b d6 3f ca 0a 81 bd
       -1.5353599 -0.2404887 1.6756375 -0.06300886
000300 90 07 57 be 0c 61 b5 be ca c3 85 3f 4d 01 8c bf
       -0.20998979 -0.35425603 1.0450375 -1.0937897
000310 00 d7 cd 3e ae 1f 09 40 5f f5 ad bf c6 dc 2f bf
       0.40203094 2.1425586 -1.3590506 -0.6869625
000320 c9 67 5c bf 65 09 eb bd b1 fc 8f 3f 82 42 88 3f
       -0.86095864 -0.11476401 1.124899 1.0645297
000330 09 dc bf bc 36 45 c8 bf 8b 6c e0 be f9 30 1e 3f
       -0.02342035 -1.5646122 -0.43832812 0.61793476
000340 69 3f c7 be 01 fe 4e 3e
       -0.38915566 0.20214082

branch.hidden_layers.2.bias f4 [21]
000000 fa 8c db bc 7f 97 9a 3c f4 2e 95 bd 15 9a 35 3c
       -0.026800621 0.018871067 -0.07284346 0.011084099
000010 c3 0e 71 bd ac e1 51 3d 16 b8 70 3c 70 87 2c ba
       -0.05885197 0.051240608 0.014692327 -0.0006581461
000020 51 96 f7 bd 4e fa 40 bd 3e f5 9c 3c 68 41 dd 3c
       -0.120892175 -0.04711371 0.01915991 0.027008727
000030 62 80 f0 bd 94 dd dd 3d e3 5f 98 3c 6c 43 05 3e
       -0.11743237 0.10833278 0.01860041 0.13014
000040 44 74 6a 3d 19 75 d4 bd 66 ff 44 3e b1 ab c2 3d
       0.057239786 -0.10373897 0.19238052 0.09505404
000050 c4 d9 ec bd
       -0.11564973

branch.hidden_layers.3.thetas f4 [210]
000000 bb ca bb 3f 75 2f e2 3e cc 39 94 3e 7c e4 d4 be
       1.4671243 0.44176832 0.28950346 -0.4158057
000010 19 11 74 3f 12 f9 00 bf af 59 12 bf 6e dc 05 bd
       0.9533859 -0.5038005 -0.57168096 -0.03268092
000020 9a 43 65 be 08 06 77 3e eb 8f 69 be a0 be 5c 3e
       -0.22389069 0.24123394 -0.22808807 0.21557093
000030 61 49 a0 be f6 a2 05 bf 66 b1 1b be 30 ac 7f 3f
       -0.31305984 -0.52201784 -0.15204391 0.9987211
000040 80 b8 45 bf ec 55 28 3f 22 53 89 3f 4f c0 13 3f
       -0.7723465 0.65756106 1.0728495 0.57715315
000050 1a c6 05 3f 6a 05 85 3f bf e0 81 3f 23 b4 61 3f
       0.52255404 1.0392277 1.0146712 0.8816549
000060 74 02 a6 3f d8 88 c3 3e 61 94 cd bb 63 31 a3 bf
       1.2969499 0.3819034 -0.0062737917 -1.2749447
000070 9b f8 2c 3f 40 9c db 3f 2f 84 a8 3e 5b 01 ab bf
       0.6756684 1.7157059 0.32913348 -1.3359789
000080 54 44 bb bf 49 91 18 3e 60 32 b2 3f 58 a3 41 bf
       -1.4630227 0.14899172 1.3921623 -0.7563987
000090 1c 73 95 bf 73 18 cc 3e 22 8a 11 bf cd 88 82 3f
       -1.1675754 0.39862403 -0.568514 1.0197998
0000a0 a1 cf 92 be b8 36 79 bf 6d 45 88 be c3 c6 04 3e
       -0.28674033 -0.9734912 -0.26615468 0.12966447
0000b0 1a 96 94 3f 63 61 0e c0 2b 51 3d 3e f6 aa ae bf
       1.1608307 -2.224694 0.18487994 -1.3645923
0000c0 f2 02 d3 bf 88 71 c2 3f a9 70 0e bf e1 76 28 3e
       -1.6485274 1.5190897 -0.55640656 0.16451599
0000d0 a5 ee e0 be 0f c7 00 3f c6 f9 1f 3f b6 cc 79 be
       -0.4393207 0.5030374 0.624905 -0.24394497
0000e0 e7 e5 31 3f 6a 46 09 bf 1e 1a b9 3e 58 ba aa bf
       0.6949143 -0.5362307 0.36152738 -1.3338118
0000f0 d1 d7 45 3f e9 81 41 3f c6 3e 00 be 47 02 08 3f
       0.77282435 0.7558885 -0.12523946 0.53128475
000100 d8 a5 13 3f 95 d8 2c be c9 27 01 bf 90 17 89 3f
       0.5767493 -0.16879494 -0.5045133 1.0710316
000110 78 7d 2c bf 63 27 92 3f 37 8c 5c 3f 9e c0 5b 3f
       -0.6737895 1.141827 0.8615145 0.85840786
000120 94 8a a2 be 45 87 66 be 68 13 25 bf 4e eb 0f bf
       -0.31746352 -0.22512539 -0.64482737 -0.5621842
000130 5c 98 3c 3f 1c 52 e5 bf 55 6e 6e bd 8e 54 87 3d
       0.7366998 -1.7915683 -0.05821069 0.066079244
000140 23 8c bb 3e 24 4e a7 3f be 08 48 bf 10 44 3b 3f
       0.36630353 1.3070722 -0.7813834 0.7315073
000150 dc 92 d6 3d 87 46 09 3f ac e5 98 be 2b 81 04 40
       0.1047723 0.5362324 -0.29862726 2.0703838
000160 b9 34 ac be 23 e2 15 3e f7 d9 bf bd 81 08 b6 3e
       -0.33633974 0.14637046 -0.09367745 0.35553363
000170 f2 fb 80 be 1e 36 49 be 93 53 95 bf ce 42 04 c0
       -0.2519222 -0.1964955 -1.166613 -2.0665774
000180 9f d7 a2 3f 42 b1 8d bf 42 66 0a c0 7d b4 0a 3d
       1.2722052 -1.106972 -2.1624913 0.033863533
000190 12 2d 5f 3f c7 ff e5 be 77 38 8a bf 4e 7c 02 3f
       0.87178147 -0.44921705 -1.0798482 0.50970924
0001a0 6c c4 c6 bf 06 fd 83 3f c7 34 67 3e ec 3d b3 bd
       -1.5528693 1.0311592 0.22578727 -0.08752045
0001b0 bc 11 40 bf 1d 83 3d 3f bc 62 7e 3e bc 6a fb 3f
       -0.7502706 0.7402819 0.24842352 1.9641948
0001c0 f8 50 9d 3e 90 ca b8 3f ac b2 e6 bd cb 9b a2 bf
       0.30725837 1.4436817 -0.11264548 -1.2703794
0001d0 6d ce fb 3e a1 fe dd 3e 9c 9f 08 c0 a2 f6 a7 3f
       0.49180928 0.4335833 -2.1347418 1.3122141
0001e0 17 19 9f bf 42 5b 55 3f 60 fe 9b 3d 2f 18 0e 3f
       -1.2429532 0.83342373 0.076168776 0.5550565
0001f0 04 75 e0 bd 0a 05 da bf 5e 2b 4c 3f 10 0c b2 3f
       -0.10959819 -1.7032788 0.79753673 1.3909931
000200 63 ab 58 3f a9 8d aa 3f 21 c0 14 3f 8c 29 a3 3f
       0.84636515 1.3324481 0.58105665 1.2747054
000210 d8 bb 80 be 29 20 59 bf bf 53 6f bf e5 31 3b 3f
       -0.25143313 -0.848147 -0.9348716 0.7312301
000220 8f 55 e5 3f 3a 6e 04 40 3b 92 09 bf 4b e0 58 bf
       1.7916735 2.0692277 -0.53738755 -0.84717244
000230 c8 36 bc bf d7 53 3f 3e d8 9c 0d bf ab 03 3b bf
       -1.4704218 0.18684326 -0.5531745 -0.7305247
000240 b3 69 0f bf b7 a4 2a bf 55 c6 17 3f 18 56 1f bf
       -0.5602066 -0.66657585 0.59287006 -0.62240744
000250 b0 65 01 bf 7b a2 f9 3d 77 42 a1 bf 5b 1a 1c bd
       -0.5054579 0.12189194 -1.2598408 -0.038111072
000260 ed 77 0b 3e fb 1c 99 3e 8e 68 0a c0 94 89 9a 3f
       0.13619967 0.29904923 -2.1626315 1.2073236
000270 35 d3 70 3e f3 38 38 3f 94 ad 6b bd e0 ab 38 3e
       0.23518069 0.719619 -0.057538584 0.18034315
000280 fb 39 9e 3e 2b 38 f4 3e 31 a5 98 bf 72 1c 5f bf
       0.3090361 0.47699103 -1.1925412 -0.8715278
000290 3c 2b a0 3d 1f 3d 5e 3f 2a 24 d4 bd 85 df 85 3f
       0.07820746 0.86812013 -0.1035846 1.0458838
0002a0 52 5a d2 3f 76 52 2d 3e a7 de c9 be 23 e2 2a bf
       1.6433814 0.16925988 -0.39427683 -0.6675131
0002b0 33 cb 67 3e 6a ad 02 be c9 aa 7f be 7e dd 57 bd
       0.22636108 -0.12761465 -0.24967493 -0.052701466
0002c0 bb 3e 4c bf bd 7d c0 3e 9f 81 14 3f 7f 5f e9 3c
       -0.7978322 0.3759593 0.58010286 0.028487919
0002d0 fe 4a e9 3f f4 a5 12 3f 8f 72 9a bf 7d b5 49 3f
       1.8226011 0.57284474 -1.206621 0.78792554
0002e0 90 3d 7c be a8 ba c2 be 98 8d 8a bf 0e 6d 7a bf
       -0.24632859 -0.38033032 -1.0824461 -0.97822654
0002f0 a6 f7 45 be 5c 6b b4 3e da e4 2f 3f 94 8b 9d be
       -0.19332752 0.3523816 0.68708575 -0.30770552
000300 50 0d f6 3e c1 ee b0 bf f8 3a c9 bf bf 0f c1 bf
       0.48057032 -1.3822862 -1.5721121 -1.508293
000310 89 07 e1 3d 10 05 72 bf 08 63 8c bc 67 76 23 bf
       0.10987765 -0.94538975 -0.017137066 -0.6385254
000320 43 41 14 3f 94 36 80 3f 8c 48 d1 3e 7d 74 05 bf
       0.5791208 1.0016656 0.4087566 -0.5213087
000330 fe c6 3e bf b0 95 1a 3f 6c 07 06 3e b1 5f e0 3f
       -0.7452239 0.60384655 0.13088769 1.7529203
000340 7e 53 96 bd f7 07 43 bf
       -0.073401436 -0.7618403

branch.hidden_layers.3.bias f4 [21]
000000 9f 43 59 bd ba 06 ac 3d 57 c2 56 bc b1 6d 88 3d
       -0.053043004 0.083997205 -0.013107858 0.06661547
000010 6b bd b4 3d aa 2f 8e bd 8f af 90 bd e0 4b 53 bd
       0.08825191 -0.06942685 -0.07064735 -0.051586032
000020 86 16 2a 3d 32 b3 a5 bd c0 f9 79 3d 38 60 0c 3e
       0.041525386 -0.080908194 0.061029196 0.1370858
000030 f9 0f 38 3d 88 e7 18 3c c5 ef ea 3b 40 d8 be bd
       0.044937108 0.009332545 0.007169696 -0.0931859
000040 96 07 5b be 92 2e 05 3d 2d 57 ff 3c 66 13 4f 3e
       -0.21389613 0.032515116 0.031169498 0.20222244
000050 94 4a 7a be
       -0.24442512

branch.hidden_layers.4.thetas f4 [210]
000000 2c 06 02 3e 7a 0f 01 bf d1 9e 4f 3e e7 68 37 3f
       0.12697667 -0.5041424 0.20275427 0.71644443
000010 c4 42 37 bf 83 2b c8 bf 5c b3 29 bf f9 e5 62 3d
       -0.7158625 -1.5638279 -0.66289306 0.0553951
000020 ed b1 06 be 1f 80 2b 3e 5f d5 29 3f 4b 80 c6 3c
       -0.13153811 0.16748093 0.66341203 0.024231097
000030 9f 0e 4b 3e ab dc 35 bf 41 4d 56 3f 3b b5 1d 3e
       0.19829796 -0.7103984 0.8371163 0.15401165
000040 26 17 91 3f 6d c0 6f 3f 84 db d7 3e d6 a1 4d bf
       1.1335189 0.93652993 0.42159665 -0.8032507
000050 d1 68 d2 bf 48 a2 94 3f 05 d7 51 bf e5 53 95 bf
       -1.6438237 1.1612024 -0.8196872 -1.1666228
000060 52 30 1e 3f 36 07 44 3f 75 b1 6f 3f e6 5f fd 3e
       0.6179248 0.76573503 0.9363015 0.49487227
000070 0b 6c 5a 3f 16 11 b7 bf 6b 89 50 bf 46 f4 b3 be
       0.8532111 -1.4302089 -0.81459683 -0.35147303
000080 41 f5 4a bf 0f bd 38 40 43 b9 04 bf aa d5 92 bf
       -0.7928048 2.8865392 -0.51845187 -1.1471455
000090 4e 82 e0 3e 30 7a e8 bf bb a8 1f bf 38 aa 90 bd
       0.43849415 -1.8162289 -0.6236684 -0.07063717
0000a0 7a 59 7c 3f bf 26 ae 3f c9 b3 04 bf d2 fb bc 3f
       0.9857403 1.3605574 -0.5183683 1.476435
0000b0 9a 0a cb 3c 44 cc b6 bf 59 91 e3 be 0c b3 76 bf
       0.024785329 -1.4281087 -0.4444683 -0.96366954
0000c0 6f c3 96 bf 4f 91 b0 3e e1 e1 56 3f dd 2f 0d bf
       -1.1778392 0.34485862 0.83938414 -0.5515116
0000d0 05 42 2f bd af 60 34 bf 13 c4 92 bf 93 15 aa 3e
       -0.04278757 -0.7046003 -1.1466087 0.33219585
0000e0 cd 19 dd bf c5 40 81 bf 7a 99 2e 3f b3 ca bf bd
       -1.7273499 -1.0097891 0.68202937 -0.09364834
0000f0 b7 0a d7 bf af 13 b5 3e 45 f0 cc bf 5f b1 81 bf
       -1.6800145 0.3536658 -1.6010824 -1.0132254
000100 68 34 e0 be 3c 7b 32 be a4 bb b1 bf de 9b 17 3f
       -0.43789983 -0.17429823 -1.3885388 0.5922221
000110 ed 92 c5 be f1 78 ea be 6f bb 19 bf 43 69 ae bf
       -0.38588658 -0.45795396 -0.60051626 -1.3625873
000120 64 3d 18 3f 76 f8 b9 be 01 1f df 3f e8 eb cb 3e
       0.59468675 -0.36322373 1.7431337 0.3982842
000130 6a c1 57 bf 72 9b 07 3f f1 98 2c bf 6a b1 d1 bc
       -0.842795 0.52971566 -0.6742087 -0.025597293
000140 1b f6 a2 3c 30 b3 d3 3f ff c5 4a 3f 9b 43 07 be
       0.019892743 1.6539059 0.7920837 -0.13209383
000150 0a af 16 bf 43 92 97 3f a8 ec ff bd d1 19 91 3f
       -0.5886084 1.184151 -0.124963105 1.1336004
000160 e7 11 59 3f a0 4b a9 be 34 94 b2 bf 15 06 26 bf
       0.8479294 -0.3306551 -1.3951478 -0.6485303
000170 a5 11 93 be e0 c8 83 3e 38 99 8d bf 44 ec eb 3f
       -0.287244 0.25739193 -1.1062384 1.8431478
000180 0b 57 bb 3d 55 e1 59 bc 6a b2 05 bf 4f f4 22 be
       0.091474615 -0.013298352 -0.52225363 -0.15913509
000190 dc a4 bf bf 5e 33 90 bd 3a 96 c7 3f e5 ed ec be
       -1.4972186 -0.070410475 1.559272 -0.4627525
0001a0 a1 ef 96 3f cf 58 d1 3f 12 7a 52 bf e5 05 17 bf
       1.1791879 1.6355227 -0.82217515 -0.5899337
0001b0 aa 68 cd 3e 8b 43 9b 3f 25 d8 b7 3f d4 3e a8 bf
       0.40118915 1.2129987 1.4362837 -1.3144174
0001c0 d2 ab 26 3f 97 54 c0 3e 94 f4 3d 3f bb a7 03 be
       0.65105927 0.37564537 0.7420132 -0.12856953
0001d0 df 8a d0 3e b9 f8 ab be 48 a7 39 bf cb f3 eb 3e
       0.4073095 -0.33588198 -0.72520876 0.46084437
0001e0 10 72 9b 3d b6 25 2f c0 9b ec 2c bf 84 92 14 3f
       0.07590115 -2.7366767 -0.6754853 0.58036065
0001f0 89 f7 00 c0 40 cb 36 bf 49 ca aa 3f 00 2f 84 3f
       -2.0151083 -0.71403885 1.3342983 1.0326843
000200 9a 7d 80 3e 23 fc 2d 3f 9f 59 8b bf 0c 93 22 bf
       0.25095826 0.67962855 -1.0886725 -0.63505626
000210 7d b3 63 bf 6b ed ab 3d 83 04 56 bf bd 91 b7 bd
       -0.8894575 0.08394893 -0.83600634 -0.08963344
000220 1d 3e 42 bd 97 b1 1a 3f 04 77 f2 3d 26 ee 28 3f
       -0.047422517 0.6042723 0.11839107 0.65988386
000230 d7 ee 83 bd 1c 05 87 be 72 e9 a6 3e 3d 0a 34 3f
       -0.064420395 -0.26371086 0.3259998 0.7032812
000240 dd c7 a7 bf e3 34 c4 3e 07 13 c5 3f 50 08 8e 3f
       -1.3107868 0.383216 1.5396432 1.1096287
000250 21 f2 14 40 dd 1d 22 3f 58 61 c0 be 39 a9 19 bf
       2.3272784 0.6332682 -0.37574267 -0.6002384
000260 f1 a1 08 40 f2 a9 95 3f d7 5b 34 bf 52 a0 15 3f
       2.134884 1.1692488 -0.70452636 0.58447754
000270 d5 15 ea bd b3 e7 aa 3e e7 b8 ef bf 50 21 f8 bf
       -0.114299454 0.33379897 -1.8728303 -1.9385166
000280 18 23 99 3e 43 38 b3 bf c6 7a a5 3f d4 16 b6 be
       0.29909587 -1.4001545 1.2928092 -0.3556429
000290 b9 e2 5a 3f 3d c1 0c bf af e7 4a 3f 4d 72 da bf
       0.855022 -0.5498236 0.7925977 -1.7066132
0002a0 3e e0 96 3f 54 b5 9d 3e 56 b7 1c 40 2d 08 c4 3d
       1.1787183 0.30802405 2.44869 0.09571872
0002b0 61 e7 c8 3f 2b 5f 7e be 78 b2 6d be 42 eb 84 3f
       1.5695611 -0.24840991 -0.23212612 1.0384295
0002c0 f2 5e fb 3e 53 86 3c 3f 3f 2d 7f bf 97 b2 3b be
       0.49095875 0.7364246 -0.99678415 -0.18329845
0002d0 5c 0c b8 bf e1 e5 27 3f f0 04 5f bf c4 41 73 be
       -1.4378772 0.6558514 -0.8711691 -0.23755556
0002e0 12 33 af 3f 87 c2 f5 bd d5 b8 2b 3f e3 22 f2 3d
       1.368746 -0.11999994 0.67078906 0.1182306
0002f0 bc b4 ab 3d 17 41 df be 4d 6d 55 3f 68 e3 2e bf
       0.08384082 -0.43604347 0.83369905 -0.68315744
000300 32 e0 bc bd 5f 0b 73 3f c5 77 b1 bf ed 82 23 bf
       -0.09222449 0.94939226 -1.3864676 -0.6387165
000310 f3 6d 48 3b 2c 8a 10 bf f9 a6 21 bf 90 e1 0e c0
       0.0030583113 -0.56460834 -0.63145405 -2.2325172
000320 55 a2 57 3f ce eb 17 3d 70 95 e6 be 83 88 3f bd
       0.84232074 0.037090115 -0.45035887 -0.046761047
000330 20 b4 79 bf e7 0f e6 3f be 11 d5 3c ec 64 20 3f
       -0.97540474 1.7973603 0.026009437 0.62653995
000340 b2 8b 6f 3f 57 f9 7c bf
       0.93572533 -0.9881796

branch.hidden_layers.4.bias f4 [21]
000000 0a 23 a2 3d fb 23 ec 3d cc 5d 7c 3e 7a f0 04 3e
       0.079168394 0.115303 0.24645156 0.1298236
000010 b3 f8 79 3e 51 6f 1e 3e e2 99 7b 3e 90 07 c2 3e
       0.24411277 0.15472151 0.2457042 0.37896395
000020 ca 88 8b 3e ad 90 89 3d d1 8d 86 3d 99 75 3b 3d
       0.272528 0.06717048 0.06570018 0.045766447
000030 5a ac 14 3d 14 ff ee 3e 63 03 09 3e e9 de d7 3e
       0.03629718 0.46678984 0.13380198 0.42162254
000040 66 f2 07 3e 37 ed f4 3c c2 9d 2d 3e a3 08 2d 3e
       0.13276061 0.02989827 0.16954711 0.16897826
000050 4b ce 28 3e
       0.16484945

branch.output_layer.weight f4 [21, 21]
000000 43 70 2d be 02 22 8a bc 28 7d 2d 3e ea 42 68 3e
       -0.16937356 -0.01686192 0.16942275 0.22681776
000010 0a 56 50 3e 82 02 86 be 8d f9 33 be 86 57 a1 3e
       0.20345321 -0.26173788 -0.17575665 0.31512088
000020 90 60 00 3e 7f 7c 52 be bb 3a 46 3e d2 eb a1 bc
       0.12536836 -0.20555304 0.19358341 -0.019765768
000030 dc 14 3c 3e 82 f2 88 be 48 6a 3e bd dd 82 28 be
       0.18367332 -0.2674752 -0.046488076 -0.1645617
000040 13 e6 cf bd 69 4e 68 3e 64 06 74 bd 37 de 42 be
       -0.10151305 0.22686161 -0.059576407 -0.1903008
000050 d1 08 5c 3d 40 d7 a9 be 15 14 76 be b1 8c 23 be
       0.053719345 -0.33172035 -0.24031098 -0.15971638
000060 11 e3 57 3d 05 e1 24 3e f0 b7 19 3f 91 c7 60 3e
       0.05270678 0.16101463 0.6004629 0.21951129
000070 93 aa b3 bd 9c 38 45 bf 74 58 d0 bd 67 b3 dd bc
       -0.08772769 -0.77039504 -0.10173121 -0.027063085
000080 95 81 c1 3e 3d f1 64 be a0 90 36 3e b5 8b 35 3d
       0.37794176 -0.2235765 0.17828608 0.044322688
000090 40 c8 96 3e 8b 8a c9 3e 9b ba 9d be 9c c7 49 3f
       0.29449654 0.39363512 -0.3080643 0.78820205
0000a0 e2 c8 5f 3e e0 e7 30 3e f8 ed ec be 2e 2a d5 bc
       0.21853974 0.17275953 -0.46275306 -0.02602109
0000b0 c5 0e b1 3d 04 c0 ed 3e 4c 96 24 3e dc 36 9d 3e
       0.08645395 0.4643556 0.16072959 0.30705917
0000c0 b7 48 be 3e 94 49 5a be 4c 8b 60 be 39 b9 85 bd
       0.37164852 -0.2131713 -0.21928138 -0.06529469
0000d0 10 9c 95 be 34 91 bd be c0 58 89 3d 78 45 a8 3d
       -0.2922063 -0.37024844 0.06706381 0.08216375
0000e0 4f e5 b4 3d a3 1b 5f be 56 a0 dc 3d d1 1a 77 3e
       0.088328 -0.21787886 0.10772769 0.24131323
0000f0 6c ad af 3e 9c fb 32 be 68 a9 22 3e 4c cf 8b 3e
       0.34311998 -0.17478794 0.15884936 0.27306592
000100 75 78 2a 3d b8 1a 73 be f5 5d 21 be 00 d6 7f be
       0.041618783 -0.23740661 -0.15758498 -0.24983978
000110 6e 1b 53 be 3c f1 e8 3e 44 0a ec 3e b8 92 3f 3f
       -0.20615932 0.45496547 0.46101582 0.7483325
000120 fe fb a6 be a6 d5 cb 3e e4 77 d5 bd 2a cc 6e be
       -0.3261413 0.39811438 -0.10423258 -0.2332007
000130 77 18 eb be bd 4d 60 bd e7 c4 da be e7 86 93 be
       -0.45917103 -0.054761637 -0.4272835 -0.2881386
000140 79 e3 93 3e e0 a9 0b bf bc 26 70 be d7 46 6a be
       0.28884485 -0.54556084 -0.23452276 -0.22878586
000150 d2 75 a5 be b3 2c 82 3e 59 07 97 bd be c5 be 3e
       -0.32316452 0.25424728 -0.07374448 0.3726024
000160 32 0e 2c bc 77 9f 0f 3f 6a 14 dd 3d 26 b2 8b be
       -0.010501431 0.561027 0.10794909 -0.27284354
000170 38 35 71 be 48 07 9e 3d 56 50 be be 64 80 78 bd
       -0.23555458 0.077162325 -0.37170666 -0.060669318
000180 b7 ea 79 bd c5 de 55 3e 0a 28 cc 3e ee 3f 05 be
       -0.061014857 0.20885761 0.39874297 -0.13012668
000190 e5 1e 4b bd 0c a7 e2 3e 93 28 2b 3e 9f e8 92 bd
       -0.04959001 0.44268072 0.16714697 -0.07173275
0001a0 87 b9 bb 3e 5f 1a 6d be 45 79 0a 3f 98 e6 3a 3f
       0.36664984 -0.23154591 0.5409129 0.7300811
0001b0 af 8d 00 3f eb 3e 7e 3e ef 70 68 3e aa 88 93 be
       0.5021619 0.24828689 0.22699331 -0.28815204
0001c0 f9 67 06 bf 17 46 a2 3b 9c fd fe bd 56 dd 6e bf
       -0.525024 0.004952203 -0.12450716 -0.9330648
0001d0 2e 6e a6 bf ce 0e 0b 3f 67 61 e6 be 99 e8 31 be
       -1.3002374 0.54319465 -0.44996187 -0.17373885
0001e0 c8 52 e6 3e 23 bf 54 be 72 1c e4 3e 25 bb 0c bf
       0.44985032 -0.20776038 0.44552952 -0.5497306
0001f0 f9 67 2b 3d f3 b7 9b 3e c7 75 83 be 07 0f b3 bb
       0.041847203 0.3041378 -0.25675794 -0.005464438
000200 5f 8d 0a 3f 94 5b 14 3f 37 9e 8b 3e 7b fc b3 bd
       0.54121965 0.5795224 0.27269146 -0.08788391
000210 e9 49 22 bf 71 d8 99 bd fd ab a2 be 24 6e fd bd
       -0.6339403 -0.07511986 -0.31771842 -0.12374523
000220 90 60 d7 3d c6 8a 14 bf 73 59 a2 3e 23 59 d3 3d
       0.10516465 -0.5802425 0.3170887 0.10319736
000230 2a 1b ee 3e 4f f6 93 3d e8 0d 64 be 7c 74 88 3e
       0.465051 0.07224714 -0.2227093 0.2665137
000240 f9 d5 d9 3e 6f 79 bf be 69 4e 0d 3f 09 f2 ff bd
       0.4254606 -0.37397334 0.5519777 -0.124973364
000250 53 f7 1a be 75 98 34 bb ec af c4 3e 90 18 3d bd
       -0.15133409 -0.0027556692 0.38415468 -0.046166003
000260 a7 fa 4c 3f f8 f2 c5 3e bd 4e 5c be 78 5c e2 be
       0.80069965 0.38661933 -0.21514411 -0.44211173
000270 1a 67 a2 3e f6 06 3b bf 39 10 17 3d 8c 80 26 be
       0.31719285 -0.73057497 0.036880706 -0.16259974
000280 05 07 83 be 2c 28 19 bc 5f 60 0c be 94 63 5e bd
       -0.25591293 -0.009347957 -0.13708638 -0.054294184
000290 51 26 a0 bd 8f 49 43 bc 51 9d 9f 3c 86 a2 60 3d
       -0.07819808 -0.011919393 0.019484194 0.054842494
0002a0 8d 91 ea 3c aa 33 b9 bc 5e e0 fd bd a9 e6 c9 bd
       0.028633857 -0.022607643 -0.1239631 -0.09858448
0002b0 15 15 40 be 42 ca 97 3d 8c 73 d4 3e f5 5c 4c 3e
       -0.18758042 0.074116245 0.41494405 0.19957335
0002c0 d1 65 0b 3f 58 e3 12 3d 1c 11 76 3e fa 7b e1 3d
       0.54452235 0.035861343 0.24029964 0.11009975
0002d0 05 e8 7f 3e 82 1e 9f be f6 ed b0 3c 36 4b db be
       0.24990852 -0.31077963 0.021597844 -0.4283082
0002e0 7e 13 a0 be f5 51 a1 3e 22 28 72 be 17 41 a8 be
       -0.3126487 0.3150784 -0.23648122 -0.3286216
0002f0 83 0c 88 be 5a c4 89 be 48 1e 64 3e 2a fb 89 3e
       -0.26572046 -0.26907617 0.22277176 0.26949435
000300 29 a9 44 3e 80 d7 81 3d 90 1b 23 3d ca b0 95 be
       0.19205154 0.063399315 0.039821208 -0.29236442
000310 f6 62 1d 3e 40 0a 11 3e 5d 51 6c be 4a 86 8a 3d
       0.15369782 0.14164066 -0.23077913 0.06763895
000320 01 85 d2 be 4c e6 b5 bd f1 be 86 be a4 23 0c 3e
       -0.411171 -0.08881816 -0.26317552 0.13685471
000330 8f bc 73 3d 32 d3 93 bc f4 ba 1d 3e a5 22 00 3e
       0.059505995 -0.018045042 0.15403348 0.12513216
000340 c3 46 22 be 0b 6c c2 bd e9 4d 96 be bb 73 84 3e
       -0.15847306 -0.09493264 -0.29356316 0.25869545
000350 53 91 67 3e 4f b3 d8 3d c6 5e 61 bd e7 ac 95 be
       0.2261403 0.105810754 -0.055022024 -0.29233477
000360 24 d6 56 be 59 f9 61 3e 5d 4b 2d 3e 00 90 f2 bc
       -0.20980126 0.22067775 0.1692328 -0.02960968
000370 a8 16 17 be ab c3 31 bf 17 3a 86 3d bb 0d a8 be
       -0.14754736 -0.6943919 0.065540485 -0.32822976
000380 a0 62 78 3e f5 92 4c bc ac 00 14 be 65 8f 6d bc
       0.24256372 -0.012486209 -0.14453381 -0.01449952
000390 2f f5 26 3e 48 81 4e bd 3b 92 97 bb 84 90 ac 3e
       0.16304468 -0.05041626 -0.0046255863 0.33704007
0003a0 0a 92 7e be f3 ec 16 bf c6 4f ef be 02 68 fc bd
       -0.24860397 -0.58955306 -0.4674055 -0.123245254
0003b0 32 2d 02 bf 6e 37 c4 be b3 d3 0d 3f ba c6 d5 be
       -0.5085021 -0.3832354 0.5540115 -0.4175318
0003c0 c6 4b 8d bd 48 62 d0 3e 9e 76 83 3f 13 d0 72 be
       -0.06899218 0.40699983 1.0270574 -0.23712187
0003d0 30 14 ba 3e f0 c5 96 3e ad 44 dd 3d 8b 2f f6 3e
       0.36343527 0.2944789 0.108041145 0.48083147
0003e0 e5 61 4d bf 07 a6 9f 3e 47 ed f7 3c 6b 6b 41 be
       -0.802275 0.31181356 0.03026451 -0.18888633
0003f0 bd d6 54 3e 0c 18 5e bd df e2 cb bd 44 1f 19 be
       0.20785041 -0.05422215 -0.099553816 -0.14953333

branch.output_layer.bias f4 [21]
000000 37 e2 77 3e 8e 90 11 bd 7f 09 68 bd 06 86 89 3d
       0.24207388 -0.03553825 -0.05664968 0.06715016
000010 9c 43 f2 3d e4 2a 2e 3e 9d 43 9f bb 82 08 a9 bd
       0.11829302 0.17008549 -0.004860355 -0.08253576
000020 4b d9 e3 3c 9d f4 40 3e 12 45 ca bc a0 48 cc bd
       0.027813574 0.18843313 -0.024691138 -0.099747896
000030 e1 aa 2e 3e 41 33 d0 bd a1 c2 3d 3a 0c 91 93 3e
       0.17057373 -0.10166026 0.000723878 0.288216
000040 90 84 37 be e1 7c a9 3d 7a 91 08 be 28 18 e7 3d
       -0.17921662 0.08275772 -0.13336745 0.11283904
000050 b9 37 20 bd
       -0.03911564

trunk.hidden_layers.0.thetas f4 [57]
000000 fe eb 40 bf 91 2b ff 3f f2 55 70 bf a8 84 c2 3f
       -0.75360096 1.993517 -0.9388114 1.5196733
000010 f3 d0 8f 3f f1 68 e5 bf 22 11 b1 3f 7b db 73 bf
       1.1235641 -1.792265 1.3833354 -0.95256776
000020 9e 58 ac 3f bf a0 92 be 84 28 85 be 57 4b ec be
       1.3464544 -0.28638265 -0.26007473 -0.4615123
000030 4c a8 57 bf d5 a8 aa 3f ff 4c 12 40 2f 9e bf 3f
       -0.84241176 1.3332773 2.2859495 1.4970149
000040 64 89 a1 3f 41 2b 28 be 4b 59 4f bf a5 92 9a 3f
       1.2620053 -0.1642275 -0.80995625 1.2076002
000050 41 05 28 bf 7b 35 80 bf 8c c3 b4 3d ff bd a5 bf
       -0.65633017 -1.0016321 0.0882636 -1.2948607
000060 43 44 84 3f da 48 62 3c f1 4f aa bf 78 d7 7b 3f
       1.0333332 0.0138113145 -1.3305646 0.98375654
000070 ba cc bf 3f de 51 84 bf 0b f6 90 3f 8a 76 2a bf
       1.4984353 -1.0337484 1.1325086 -0.66587126
000080 5c e5 09 c0 a2 7b b6 3e f5 22 eb 3e 2a 03 ac 3f
       -2.154624 0.356412 0.45925108 1.3438466
000090 24 a5 82 3f 9d ce 15 3f 33 ba b9 be 32 ca 30 3f
       1.0206647 0.5851839 -0.3627487 0.69058526
0000a0 73 5a 06 40 6a f0 da bf ed 5d 6b bf 64 31 19 40
       2.0992706 -1.7104619 -0.91940194 2.3936396
0000b0 1a 6e 1e 3f 0a b9 b9 3e e9 6b 0d 3e 49 24 90 bf
       0.6188675 0.36273986 0.13810696 -1.1261073
0000c0 98 29 4d 3e a8 8a 7d bf 40 87 0c c0 09 63 a5 3e
       0.20035398 -0.990397 -2.195755 0.3230212
0000d0 10 57 89 3f 37 60 aa bf 01 11 72 bf 6c c9 21 3f
       1.0729694 -1.3310612 -0.94557196 0.6319797
0000e0 b3 00 55 bf
       -0.8320419

trunk.hidden_layers.0.bias f4 [21]
000000 df 99 cc 3d 11 a5 43 bc 85 4e 94 3c d5 c5 f9 3d
       0.09990286 -0.01194121 0.018103847 0.121959366
000010 45 0b e5 3c c5 22 1c 3c 32 db fc bc 9a 13 83 bd
       0.027959475 0.009529774 -0.03086624 -0.06400223
000020 5e 37 82 3d 6f 1e 66 be 43 ee 0f 3e d3 dd 40 be
       0.06358217 -0.22472547 0.14055733 -0.18834619
000030 8b 64 67 3b 9d cc 05 3c 00 ea 24 3d 03 9a 5a 3e
       0.003530773 0.008166459 0.040262222 0.21347813
000040 c5 de 0b bf 97 ae 06 bc c4 da 23 be d3 d9 00 bf
       -0.54636794 -0.008220336 -0.16001421 -0.50332373
000050 1d b7 16 be
       -0.1471829

trunk.hidden_layers.1.thetas f4 [210]
000000 bf 9b 08 bf 39 cf 2e 3f 24 27 10 40 04 e8 f5 3e
       -0.5336265 0.68284947 2.252389 0.48028576
000010 b1 8f 36 be 66 ec 0c bf 50 6f e2 be f3 f3 e7 bf
       -0.17828251 -0.55048215 -0.4422555 -1.8121322
000020 34 04 ae 3e 79 ca 2e 40 a0 0f 30 3f 16 ee 99 3d
       0.33987582 2.731108 0.6877384 0.075161144
000030 d0 fd e1 be 3c 73 8f 3f 0c a5 c5 bf 4e b2 6d 3f
       -0.44138956 1.1207042 -1.5440993 0.92850196
000040 37 d5 76 3f b7 7b ee 3f 1a 5c a0 bf 2c 1a 9c bc
       0.9641909 1.8631505 -1.2528107 -0.019055448
000050 ee 9c 72 3f d9 24 37 3f d4 3a ff bd 88 25 99 3f
       0.94770706 0.715406 -0.124623924 1.1964579
000060 db 82 ff 3e 6f 2f 5c bf 2e a4 d1 3e f9 c3 38 3f
       0.49904522 -0.8600988 0.40945572 0.7217403
000070 56 90 b0 3f 48 c3 9d 3f 58 0b 4d be b2 c6 ea 3e
       1.3794048 1.232522 -0.20023859 0.45854717
000080 45 21 72 be 7e a5 f7 3f 51 bc 26 3f 70 cb a4 3f
       -0.23645504 1.9347379 0.651311 1.2874584
000090 42 9b ed 3f 3d 21 e5 3f c7 56 a9 bf 77 52 46 bf
       1.8563006 1.7900769 -1.3229607 -0.7746958
0000a0 75 ca 3f 3f 91 76 39 be 2b 49 11 bf a8 6a 89 bf
       0.749183 -0.18111636 -0.5675227 -1.0735674
0000b0 f5 54 4b 3f f7 17 c8 bf 0e ae fb be 90 7e 13 3f
       0.7942651 -1.5632313 -0.4915623 0.57614994
0000c0 6a 6c 02 3e 91 9a 64 bf 46 b8 ab 3e 93 e1 5d bd
       0.12736669 -0.8929835 0.33539027 -0.054170202
0000d0 c6 79 8b bf f9 2a 9a 3f e3 cb 5a 3e df 9a 0f c0
       -1.0896537 1.2044364 0.21366839 -2.2438276
0000e0 7c 57 18 3f 57 e0 2b bf 56 a3 d2 3f 4c 94 81 bf
       0.5950849 -0.6713919 1.6456096 -1.0123382
0000f0 b2 dd 35 3e dd c2 04 bf 7d 22 0f 3e 83 39 46 3f
       0.17760351 -0.5185984 0.13978 0.77431506
000100 d5 77 b0 be 73 84 b3 be 49 ca 66 3e 0d 3b 38 3e
       -0.34466425 -0.35061988 0.22538103 0.17991276
000110 ca 39 83 3f fe af 19 bf a8 d6 a5 3f 82 f6 c3 3f
       1.0252011 -0.6003417 1.2956133 1.5309603
000120 99 f4 9e 3f 4a 9e 09 3f e9 98 8d 3f 43 77 2c 3f
       1.2418395 0.53757155 1.106229 0.6736948
000130 93 15 88 3f f9 d6 1e 3e 2c 06 07 3f 1b 6a 76 bf
       1.0631584 0.15511693 0.5274379 -0.96255654
000140 67 69 03 40 cc 29 14 bf 67 a0 6a bf ae 8f 84 3f
       2.0533082 -0.57876277 -0.91651005 1.0356348
000150 70 9b 9d 3f c6 e1 98 be 6c e9 ff 3f 51 b2 61 3f
       1.2313061 -0.2985975 1.999311 0.88162714
000160 cf 86 83 bf 22 d7 e4 3f 3c 8b bd bf fa bd 04 bf
       -1.0275515 1.7878153 -1.4808116 -0.5185238
000170 db 20 f6 be 59 16 59 3f 61 ab 82 3f 6e 69 18 bf
       -0.48071942 0.84799725 1.0208551 -0.5953587
000180 90 89 95 bf 8d d6 dc 3f cf f6 93 bb 2f 69 26 bf
       -1.1682606 1.7252976 -0.004515506 -0.6500425
000190 a7 59 bc 3f 18 6b 76 3e c7 11 f4 be 18 db d3 3f
       1.471486 0.2406429 -0.47669813 1.6551237
0001a0 25 34 1c 3f eb 57 a8 bf c1 fc ca 3e 1c f7 9e bf
       0.61017066 -1.315183 0.3964596 -1.2419162
0001b0 6c 6a 92 3e e6 f3 b5 3f 53 eb 95 bf 6a 27 1e 3d
       0.28596818 1.4215057 -1.171244 0.038611807
0001c0 ef 41 06 3e 6c a6 8c 3f 9b 31 f3 3f be 62 db 3f
       0.13111089 1.0988288 1.8999513 1.7139509
0001d0 3f 86 05 bf e5 8f 4e bf 50 c7 c5 3e 33 06 67 3d
       -0.5215797 -0.80688316 0.38628626 0.056402396
0001e0 66 19 f2 3e 79 84 2d bf df 79 3c 3f ea c0 3f 3f
       0.47285002 -0.6778026 0.7362346 0.7490374
0001f0 1e c8 e0 bf 7f da 24 bf 3b 73 1e 3f 01 a0 1c 40
       -1.7561071 -0.643959 0.6189458 2.4472659
000200 67 00 e6 be 0a 61 29 3c 3d 50 92 3f c5 61 1a bf
       -0.44922182 0.010338077 1.1430737 -0.60305434
000210 e9 2c 98 bf 28 cd 92 3f 13 2f 5f 3e 71 c1 bf 3e
       -1.1888705 1.1468859 0.21795301 0.37452272
000220 0e c0 d8 be 12 7c 7a bf 19 ae f8 3e 79 08 d9 3f
       -0.42334026 -0.97845566 0.48570326 1.6955711
000230 0d 45 84 3c ff 51 07 bf d1 04 06 3f 04 1a 22 ba
       0.016146207 -0.5285949 0.523511 -0.0006183686
000240 73 c4 c1 bf 75 87 c4 3f 3d d5 7e 3f bb 95 5f be
       -1.5138077 1.5353838 0.99544126 -0.21834461
000250 90 a4 c0 bf 7e d5 83 3d cd 4b 3a bf f4 1a 09 3e
       -1.505022 0.06437205 -0.7277191 0.13389188
000260 b5 2e 2f 3c 7a dd d2 3e a9 fc 21 be 15 d4 0f 3e
       0.010692288 0.41184598 -0.15819038 0.14045747
000270 c8 86 93 bf a1 db 8f bf fb da a0 3f be 05 b5 3f
       -1.1525507 -1.12389 1.2566828 1.4142377
000280 fd 1e 03 bf ec db 39 bf f9 09 9f 3e 60 12 63 bf
       -0.5121916 -0.726012 0.31062296 -0.88699913
000290 91 cf 40 3d 3a 52 d7 bf eb 62 69 3f 0b d5 e0 be
       0.04707295 -1.6821969 0.9116656 -0.4391254
0002a0 6c f2 6c 3f 1e 9b 2f 3f 67 56 76 bf 6e a7 27 3f
       0.92557406 0.68596065 -0.9622559 0.6548985
0002b0 a5 6e 27 40 9e 85 87 bf 80 7d 50 3f f5 64 55 bf
       2.6161282 -1.0587652 0.814415 -0.83357173
0002c0 39 a3 07 3c 0f e0 55 3d d0 00 e4 3c c9 fa b8 3e
       0.008278661 0.052215632 0.027832419 0.36128834
0002d0 c2 d4 a5 3e 01 6a 88 be 94 2b 05 c0 d2 fd 33 3f
       0.32388884 -0.26643375 -2.0807848 0.70309174
0002e0 5a 5b 01 bf 0d d5 39 3f 21 30 4f bf 89 7c 3f 3e
       -0.50530016 0.72590715 -0.80932814 0.1869985
0002f0 ad ea 25 bf 76 c6 ab bf f8 a2 f6 3e 17 1a f8 bd
       -0.6481121 -1.341994 0.4817121 -0.12114351
000300 14 10 d3 bf 8b fc 58 bf 7b 0b e2 bf 6c 20 6c bf
       -1.6489282 -0.8476035 -1.7659754 -0.9223697
000310 4c 09 98 3f a5 e7 dc 3f bc 30 39 bd c3 da ac 3e
       1.1877837 1.7258192 -0.045212492 0.33760652
000320 b8 58 dc bf b6 11 7a 3f 6d 6d 52 3e 23 a8 81 3c
       -1.7214575 0.97683275 0.20549555 0.015827244
000330 33 94 d3 bd 1c 82 30 3f 25 5a 07 40 6f ab 8e 3f
       -0.10331001 0.6894853 2.114877 1.1146067
000340 17 52 05 3d 15 b2 b7 3d
       0.03254899 0.08969513

trunk.hidden_layers.1.bias f4 [21]
000000 b4 b2 1f be aa 79 01 bd 96 5e a8 bc 7d 7f 49 be
       -0.15595514 -0.03161017 -0.020552915 -0.19677539
000010 a6 e4 fa bc 68 e0 d5 3c e1 88 1b bc 0c a7 96 bd
       -0.030626606 0.026107982 -0.009493084 -0.073560804
000020 ba 6c c4 bb 6f de c8 3d 1c f6 51 be ca a8 5b 3e
       -0.0059944065 0.09808051 -0.2050404 0.21451107
000030 55 71 26 3e 7a 2c 40 be 38 50 94 bc e9 cf ee be
       0.1625417 -0.18766966 -0.018104658 -0.46642998
000040 e2 53 8e bd 38 29 1f bd 4f 24 3d bd 97 8f c0 3e
       -0.06949593 -0.03885767 -0.046177205 0.3760955
000050 2c 23 94 be
       -0.28933084
