models/ensembles/bootstrap_test/model0/model_checkpoint-10000.pt (torch, 14893 bytes, 24 tensors)

branch.hidden_layers.0.thetas f4 [55]
000000 1a 02 b9 3f a7 ad 89 bf b7 0c eb 3d ef 47 3b 3e
       1.4453766 -1.075612 0.114770345 0.18289159
000010 6c 62 53 3f f8 71 43 3f 6e 22 8d be 0c 6c f5 bf
       0.82572055 0.7634578 -0.2756533 -1.9173598
000020 4b e8 2d bf 31 4f fd bd 63 66 03 3f 89 e9 5a bd
       -0.67932576 -0.1236862 0.51328105 -0.053445373
000030 49 ff f1 be 86 9b 80 bf b1 8e de 3e 4c 83 68 3f
       -0.4726508 -1.0047462 0.4346824 0.90825343
000040 e5 95 d5 be d0 02 7a 3e 37 7d da 3f 3d 1f ba 3e
       -0.41715923 0.24415135 1.7069463 0.36351958
000050 c2 4e 06 c0 42 26 2e 3f 58 e8 13 3f e9 23 81 bf
       -2.098557 0.68027127 0.57776403 -1.0089084
000060 07 7a 32 3e b1 83 83 bf d4 24 b3 3e 22 d5 b4 3e
       0.17429362 -1.0274564 0.34989035 0.35318857
000070 9c f3 e7 3e 85 92 1b c0 61 87 cb 3e d7 0e 1b bf
       0.45303047 -2.4308178 0.39751723 -0.6056952
000080 7f 52 25 bf 46 e8 f1 be bf 2b 7f 3f d6 64 29 bf
       -0.64579004 -0.47247523 0.99676126 -0.6616949
000090 63 16 81 bf 0e 08 26 c0 30 ff 66 3f a1 bd 06 bf
       -1.0084957 -2.5942416 0.90233135 -0.526331
0000a0 f2 77 6a 3f a5 f6 75 bf b3 9a 95 bd 15 f7 8c 3e
       0.9158927 -0.96079475 -0.07304897 0.2753226
0000b0 c4 4b 63 bf 4d d9 b1 3f f1 c3 22 3f 1c 3f 59 be
       -0.88787484 1.389444 0.6358023 -0.2121548
0000c0 a1 9b 4e 3f dd c3 6c 3e 3f a3 fd 3e 06 3a 27 bf
       0.8070622 0.23121591 0.4953861 -0.6532291
0000d0 dc a6 8a be a9 1f 91 bf e0 b9 20 bf
       -0.2708043 -1.1337787 -0.6278362

branch.hidden_layers.0.bias f4 [10]
000000 8f 8b fa 3e b4 eb cc 3e 13 a1 06 3f 81 4c 03 3f
       0.489346 0.40023577 0.5258953 0.5128861
000010 94 69 df 3e c5 7e 03 3f f5 da 22 3f 8f 8c 1c 3e
       0.43635237 0.5136531 0.6361535 0.15287994
000020 25 8f 56 3e 36 18 0c 3f
       0.20953043 0.5472444

branch.output_layer.weight f4 [10, 10]
000000 1c f7 5e 3d 87 eb 1d bf 01 d7 d4 3e 47 8d 86 be
       0.05443488 -0.6168751 0.41570285 -0.2627966
000010 16 e9 60 be 59 f5 29 3f 36 3e 8f 3e ed 4b 48 3c
       -0.21963915 0.66389996 0.2797715 0.012225133
000020 b1 9b 58 be 9e 6f ea bd f7 10 29 3f 1d da 36 bf
       -0.21153142 -0.114470705 0.6604151 -0.71426564
000030 74 51 23 3f 81 54 d6 3d b2 9d 50 be 90 7c e2 3e
       0.6379616 0.104653366 -0.20372656 0.4423566
000040 97 7a 91 3d 16 2f 8c be d5 ac b0 be 00 58 a9 3c
       0.0710346 -0.27379674 -0.3450686 0.020671844
000050 f6 77 9c 3e 92 47 16 3f 4f fb 1f bf a4 2d 64 3f
       0.30560273 0.5870296 -0.6249284 0.8913214
000060 8c 4b 3b 3f ce 0f 1f bf 44 87 57 bf da 56 ff 3e
       0.7316215 -0.6213349 -0.84190774 0.4987095
000070 b0 2e 0b 3f 46 8c 4b bf da 2f 9d 3e e9 d2 40 be
       0.54368114 -0.79510915 0.3070057 -0.18830456
000080 c0 b2 59 3f af 78 3a bf d1 90 75 be 49 cb 17 3f
       0.85038376 -0.728404 -0.23981024 0.59294564
000090 e4 a8 19 bf 9b 98 82 3d a7 97 20 be 45 30 09 bf
       -0.6002333 0.063767634 -0.15682851 -0.5358928
0000a0 db e5 7d bd 87 c3 8a be 85 5d b9 3e 7f 7f 3f be
       -0.061986785 -0.271023 0.36204162 -0.1870098
0000b0 2c 75 e7 be 7d 82 8e 3e 3f ff 04 3f 21 28 9a be
       -0.45206583 0.2783393 0.51951975 -0.3010874
0000c0 06 41 92 be d1 07 06 3f 31 48 34 3f e5 25 dd be
       -0.28565234 0.52355677 0.70422655 -0.43192974
0000d0 07 fd 95 3e 82 aa d5 bd 77 18 0b bf 44 13 74 3e
       0.29294607 -0.104329124 -0.54334205 0.23835474
0000e0 57 44 b0 be 4e d4 b8 be 18 44 f7 bd f4 52 5c 3d
       -0.3442714 -0.36099476 -0.12073535 0.053790048
0000f0 5c 81 9a bc 3a ae b1 be c8 35 28 3e 80 e8 c4 bc
       -0.018860511 -0.34703237 0.16426766 -0.024036646
000100 b5 d5 e2 be 82 3e d2 3e 17 48 c9 3e e9 34 04 3e
       -0.4430367 0.41063315 0.39312813 0.12910809
000110 f4 07 c2 be 3d f2 7d 3e 67 09 59 bf f5 3b 4d 3f
       -0.37896693 0.24799438 -0.8477997 0.8016961
000120 e2 8f a1 3e 03 03 93 bf 44 9e f4 be b6 95 06 3f
       0.31555086 -1.1485294 -0.47776997 0.5257219
000130 37 d6 3c 3e c4 80 87 3f d8 8f a6 bd 63 1a eb be
       0.18441091 1.0586171 -0.08132905 -0.4591857
000140 af ea bd be 46 c8 9d 3e d6 84 21 bf 13 54 3a bd
       -0.37093112 0.3081686 -0.63093317 -0.045490336
000150 42 58 17 3f 90 76 72 bf 43 53 ce 3e 8b 3c 9f 3e
       0.59119046 -0.9471216 0.402979 0.31100878
000160 dd ce c2 3d c7 d9 a9 3e 8b 5f 1d 3f 72 a5 2e bf
       0.09512112 0.33173963 0.6147391 -0.682212
000170 95 6a bb 3e fa 1e 1d 3e db cd 6b bc d2 04 13 3f
       0.36604753 0.15343848 -0.0143923415 0.5742923
000180 ee 95 4d bd 40 25 07 be a7 11 85 be 79 6a cb 3e
       -0.050191812 -0.13197803 -0.2599003 0.3972967

branch.output_layer.bias f4 [10]
000000 8d 0b 08 3e 50 04 2e be b3 af 2e 3e 1d 0f 78 3e
       0.13285656 -0.16993833 0.17059211 0.24224515
000010 17 cf 88 3d 92 1c f3 bd eb d4 f3 bc 13 5e 81 3e
       0.06680124 -0.11870684 -0.029764613 0.25267085
000020 70 14 21 3e 4b b3 9e be
       0.15730453 -0.30996165

trunk.hidden_layers.0.thetas f4 [17]
000000 90 85 83 3f 2b f2 9d bf 56 e2 b0 3f a6 22 87 bf
       1.0275135 -1.2339529 1.3819072 -1.0557449
000010 d4 dd 9f bf 65 b7 d9 bf 49 bf 5d 40 e4 c3 a4 3f
       -1.2489572 -1.7009093 3.4648001 1.2872281
000020 f8 7e c1 bf a9 9b e5 3f 35 3f 7e bf c2 96 52 bf
       -1.5116873 1.7938129 -0.99315196 -0.8226129
000030 ee b2 14 40 63 60 86 3d 70 2b fe 3d dd b2 ec bf
       2.323421 0.06561353 0.12410629 -1.8492085
000040 19 fc bf be
       -0.37497023

trunk.hidden_layers.0.bias f4 [10]
000000 71 1f 0b be 8d 80 1e 3e 29 da 00 3f ac ef 6a 3e
       -0.13586213 0.15478726 0.50332886 0.2294299
000010 5a c3 27 3e fc 28 12 3f 87 5a 67 be 4a d2 c2 3e
       0.16383114 0.5709379 -0.22593127 0.38051063
000020 e7 45 86 3f 61 94 d2 3e
       1.0490083 0.4112883

trunk.output_layer.weight f4 [10, 10]
000000 af d2 30 3e 9c e4 17 3e a2 3e 8e be 4e 2a 11 3f
       0.1726787 0.14833301 -0.2778216 0.56705177
000010 32 52 e2 3e b9 5b 68 be 5f dc 04 3e c1 07 b1 3d
       0.44203335 -0.2269124 0.1297469 0.08644057
000020 c4 30 fc bd e7 bf ff be 3f 54 0b bd 28 8e b3 3e
       -0.12313989 -0.49951097 -0.03401589 0.35069394
000030 77 fd 81 bf 53 b5 58 3f cc e1 b1 3f 26 4b 0b bf
       -1.0155476 0.8465168 1.3897033 -0.5441154
000040 07 ec 97 3e e7 39 a9 be 82 95 8d be 15 a7 2a bf
       0.29672262 -0.33051988 -0.27653128 -0.66661197
000050 7b 4d 59 be 47 90 5e bf 3b a3 5d 3f 97 f9 11 bf
       -0.21220963 -0.869389 0.86577195 -0.5702147
000060 d8 cc 82 bf 45 07 6d 3f a6 93 00 bf 1b 7e df bc
       -1.0218763 0.9258922 -0.50225294 -0.027281811
000070 dd d3 68 3e 44 a6 25 3f 1b ad f3 3e d6 d1 4e 3f
       0.2273707 0.64706826 0.47593006 0.80788934
000080 9e d9 b6 bf 86 e5 cd 3f ed 8e e7 3f 43 43 d6 bf
       -1.4285161 1.608567 1.8090492 -1.6739277
000090 62 aa 06 3f 3f df b6 3f b7 b5 0a c0 30 c5 32 bf
       0.52603734 1.4286879 -2.167341 -0.69832134
0000a0 0d 15 95 3e fc 16 40 be 21 d9 0d be d4 e0 c7 bd
       0.29117623 -0.18758768 -0.1385236 -0.097596794
0000b0 36 75 83 be 8f 1f 7f bd fa de 91 be 6c 48 9e 3e
       -0.25675362 -0.062285956 -0.2849043 0.30914629
0000c0 82 7a c5 be 0c 23 2f be c9 40 f5 3e 7b 4e 4a 3f
       -0.3857003 -0.17103213 0.4790099 0.79026
0000d0 df c5 39 bf a0 41 51 3f 2d 0b e8 3f 92 d5 42 bf
       -0.7256755 0.8174076 1.812841 -0.7610713
0000e0 7f 92 65 3e b9 78 a7 bd 2d e0 07 bf ba 3d e1 be
       0.22419165 -0.08177323 -0.5307644 -0.43992406
0000f0 45 6c b0 3e 7c 9c 30 3f c2 68 e0 bb 62 aa ab bd
       0.34457603 0.68988776 -0.0068484256 -0.08382107
000100 10 c0 a2 be 6a fb e6 be f9 f5 fc bd af 9a 92 bb
       -0.31787157 -0.4511369 -0.12351603 -0.004474006
000110 1b 5c b9 bc 4e 17 1f be 80 72 6e 3d c4 f7 ca be
       -0.022626927 -0.15536234 0.058214664 -0.39642155
000120 77 3c 08 c0 c0 c1 cf 3f cc dc f2 3e b7 43 c5 bf
       -2.1286905 1.6231003 0.4743408 -1.541129
000130 90 8a 94 be 48 29 1a 40 60 b2 03 c0 ac 98 34 bf
       -0.29011965 2.4087696 -2.0577621 -0.7054546
000140 c5 53 2e bf ff f3 6b be 80 f0 05 3f c5 f8 06 bf
       -0.6809657 -0.23042296 0.523201 -0.5272334
000150 76 44 33 bf d6 50 eb 3e c0 7a 4c bf 47 03 ed 3f
       -0.7002634 0.4596011 -0.798748 1.8516625
000160 4d 91 fc bd 70 75 d1 3e 60 85 67 bd 3a 63 0f 3f
       -0.123324014 0.4090991 -0.05652368 0.5601078
000170 86 21 af be e8 b0 0a 3f 66 40 61 3f 64 82 11 bf
       -0.34205264 0.5417619 0.8798889 -0.56839585
000180 63 90 73 3e 2e c0 0a bf 49 ac c8 be 37 16 1f bf
       0.23785548 -0.5419949 -0.39193943 -0.6214327

trunk.output_layer.bias f4 [10]
000000 1a 01 ad be ec e4 4f 3c 30 da 21 3e 08 9e 38 be
       -0.33789903 0.012688857 0.15805888 -0.18029034
000010 45 9e b4 be 59 0b 33 be 24 cb bc be d1 f0 65 3e
       -0.35277 -0.17484798 -0.36873734 0.22455145
000020 21 06 0d 3f 35 9d 6d be
       0.55087477 -0.23204501

exp_avg f4 [55]
000000 42 ad da 34 e5 31 2e 36 5b ff 0e b6 fe a6 a9 34
       4.0731726e-07 2.5957063e-06 -2.1308285e-06 3.1600206e-07
000010 7c 69 09 36 f1 ad fe b4 9f 8e 14 b5 79 a8 aa 34
       2.047599e-06 -4.7437746e-07 -5.534184e-07 3.1787548e-07
000020 44 e1 af b6 44 9b b9 35 94 c9 2e b4 af 95 d2 b5
       -5.241631e-06 1.3828762e-06 -1.6278346e-07 -1.5689783e-06
000030 85 57 3f b5 e2 09 79 35 e4 31 3b b6 78 e6 ce 34
       -7.12804e-07 9.277411e-07 -2.7894212e-06 3.8538178e-07
000040 c2 c1 21 b5 74 35 ed b4 17 4f c2 33 40 5c 89 b5
       -6.025913e-07 -4.4183582e-07 9.048215e-08 -1.0234144e-06
000050 97 fe 4a b4 11 ba 11 36 60 b3 6c b5 cb 5b 81 35
       -1.8905335e-07 2.1714989e-06 -8.8177876e-07 9.637964e-07
000060 e2 d2 b3 33 42 ad 26 b4 37 92 62 35 c0 b6 86 b5
       8.3736964e-08 -1.5522986e-07 8.440433e-07 -1.0036965e-06
000070 1b ad 3d b6 59 7a cc b5 42 5a 55 34 dc fa 1c 36
       -2.8263955e-06 -1.5234792e-06 1.9870006e-07 2.339183e-06
000080 d4 c8 b0 b5 60 59 21 b4 95 51 d4 b5 ca f8 ad b3
       -1.317147e-06 -1.5026808e-07 -1.5818974e-06 -8.101195e-08
000090 09 bc 83 35 81 90 20 34 f4 89 ab b6 06 87 92 b3
       9.814986e-07 1.4953731e-07 -5.112257e-06 -6.8232154e-08
0000a0 f9 3d de 33 c9 c2 84 35 c1 6b 0e 36 ed 24 27 30
       1.0348953e-07 9.891456e-07 2.122237e-06 6.080672e-10
0000b0 3a 0d d6 b5 66 2f 64 35 b0 50 aa b4 4e a6 0f 35
       -1.5948092e-06 8.500559e-07 -3.1723675e-07 5.3513656e-07
0000c0 60 88 a7 36 c4 e6 37 35 74 5d 8d 35 63 07 83 b4
       4.992864e-06 6.850862e-07 1.0532517e-06 -2.4406026e-07
0000d0 23 90 65 35 e5 3d 97 35 eb bc 24 b5
       8.5518894e-07 1.126839e-06 -6.136967e-07

exp_avg_sq f4 [55]
000000 b3 a0 05 32 3c d3 ae 32 70 66 68 30 f5 ac a5 32
       7.778158e-09 2.0352324e-08 8.454668e-10 1.928718e-08
000010 a2 39 18 32 26 0a bd 32 8b 09 90 31 dd 9d 84 32
       8.860669e-09 2.200711e-08 4.1920365e-09 1.543861e-08
000020 0d ac 31 32 6e 40 7c 33 11 bc 2c 32 c7 8f 8f 30
       1.0341876e-08 5.873192e-08 1.0054479e-08 1.0445483e-09
000030 68 5b 4a 31 92 ed 3a 33 d0 78 a1 31 8c 0f 05 30
       2.9446827e-09 4.352257e-08 4.6994515e-09 4.840721e-10
000040 96 25 2a 30 a6 4b 36 32 9b dd ec 2e 1d 27 be 30
       6.189905e-10 1.0610995e-08 1.07714025e-10 1.3835436e-09
000050 05 c6 99 30 1d d8 ce 33 39 47 51 30 73 b4 23 30
       1.1188496e-09 9.631933e-08 7.613497e-10 5.955549e-10
000060 6a fe 5f 2f e4 3a 4b 31 e3 1e b2 32 b3 51 06 31
       2.0372118e-10 2.9573863e-09 2.0735973e-08 1.9546007e-09
000070 a6 cb 51 30 e1 46 78 33 30 09 47 32 66 2e 15 31
       7.632316e-10 5.7806464e-08 1.15854135e-08 2.1708728e-09
000080 80 4b f1 2f b8 b4 08 30 e6 1a 10 35 15 06 2e 32
       4.389129e-10 4.973333e-10 5.368332e-07 1.0129516e-08
000090 03 45 ab 31 79 59 e0 30 02 eb 96 34 2c e5 34 31
       4.9846007e-09 1.6323575e-09 2.8110668e-07 2.6323717e-09
0000a0 21 92 a5 31 67 d8 8e 32 60 56 29 34 be 67 00 32
       4.818745e-09 1.6629384e-08 1.5770775e-07 7.474169e-09
0000b0 3a da 1f 32 2d 46 97 32 a1 38 11 31 cc 8c d1 2f
       9.304637e-09 1.7610626e-08 2.1132467e-09 3.811692e-10
0000c0 a8 d5 10 32 fb 0b 88 30 7a 96 fd 2f ef 71 c1 30
       8.430483e-09 9.898707e-10 4.6127352e-10 1.407498e-09
0000d0 2b 34 16 30 3f 43 88 2f 65 51 ad 2f
       5.464382e-10 2.4786037e-10 3.152635e-10

exp_avg f4 [10]
000000 a9 6c 34 b5 f2 44 fc b6 0e 1c 2f b6 2a 28 5d 34
       -6.7213347e-07 -7.5182115e-06 -2.6093362e-06 2.059684e-07
000010 77 1d dc b4 50 33 96 b6 b9 9c 45 b6 04 8a d5 b6
       -4.0999632e-07 -4.476322e-06 -2.9446512e-06 -6.363962e-06
000020 93 f0 d2 b5 4f c1 7f 35
       -1.5716236e-06 9.5276204e-07

exp_avg_sq f4 [10]
000000 1d 0a 32 36 f6 69 a1 36 bd e6 13 37 2b 5e 97 34
       2.6529954e-06 4.8105094e-06 8.815606e-06 2.8194458e-07
000010 e4 ae d1 36 be 56 85 37 3f ab 4d 34 7b 08 87 35
       6.2490453e-06 1.5895228e-05 1.9154412e-07 1.0060752e-06
000020 1d 9b be 35 65 40 f6 30
       1.4201247e-06 1.7917158e-09

exp_avg f4 [10, 10]
000000 82 b4 97 b4 d6 d1 87 34 d5 09 8d b4 c8 f8 9b b4
       -2.8257278e-07 2.5298385e-07 -2.627045e-07 -2.9052012e-07
000010 83 0e 1b b4 b8 dc 8b 33 c5 1d be 34 7a 59 91 34
       -1.4440779e-07 6.5128404e-08 3.5411918e-07 2.7073457e-07
000020 08 c6 c5 33 b8 f3 85 b4 37 39 fd b4 c4 53 8c b5
       9.209549e-08 -2.495051e-07 -4.7166552e-07 -1.0455192e-06
000030 7b 7d 94 b5 7e 9a 57 34 14 3e 21 36 1b ee ae 34
       -1.1063379e-06 2.0079639e-07 2.4027004e-06 3.258327e-07
000040 3d 3a 39 b6 74 98 d4 35 9d e6 a9 b3 64 77 97 34
       -2.7601047e-06 1.58396e-06 -7.911624e-08 2.821281e-07
000050 25 ee 20 36 31 9a d1 b6 a8 91 9f 34 b7 ce 86 36
       2.3980476e-06 -6.2466356e-06 2.9722037e-07 4.017576e-06
000060 db 1b 9a 35 ac c5 9d b6 b1 5d 8c 35 9a 6f 92 b6
       1.1482001e-06 -4.7019766e-06 1.0458081e-06 -4.364131e-06
000070 72 6b 90 b5 06 f2 8c 35 9f f1 61 b6 2f 6f 29 35
       -1.0760107e-06 1.0501251e-06 -3.3668255e-06 6.31192e-07
000080 bd 30 ab b5 b7 97 0c 36 52 12 7e 36 dd 8a 51 b6
       -1.2754678e-06 2.0949935e-06 3.7859613e-06 -3.1224256e-06
000090 f7 b1 a3 35 4f bc 36 34 57 5a b4 b4 38 81 22 b4
       1.2196241e-06 1.7018577e-07 -3.3593344e-07 -1.5134435e-07
0000a0 9a b8 cd b4 1e 11 8c 35 c8 c3 ce 32 a6 c7 d8 b4
       -3.831854e-07 1.0435795e-06 2.4070587e-08 -4.03784e-07
0000b0 c0 c2 ad b5 87 01 8a b4 37 87 d5 35 81 f3 c8 b4
       -1.2946184e-06 -2.5705614e-07 1.5909089e-06 -3.7430075e-07
0000c0 e1 2b 48 34 96 cc f7 b4 0c c6 fc b4 cc d3 b4 b5
       1.8642415e-07 -4.615619e-07 -4.7082756e-07 -1.3472686e-06
0000d0 8d 41 a6 b5 ca 1e a7 33 50 62 04 36 49 8f 54 34
       -1.2387042e-06 7.782144e-08 1.9726758e-06 1.9796165e-07
0000e0 f0 65 ff b5 5d b9 b6 35 69 7e 9f b4 61 10 94 34
       -1.9028648e-06 1.3614005e-06 -2.9708033e-07 2.7579065e-07
0000f0 ec 8f 91 b4 5f d5 1a 35 d0 38 87 b3 3c 2f 31 b4
       -2.7113072e-07 5.7679966e-07 -6.2967615e-08 -1.6501593e-07
000100 76 74 20 b5 3c 1e a1 b4 21 9e 74 35 16 3a 3f b4
       -5.977412e-07 -3.0010585e-07 9.112719e-07 -1.7809393e-07
000110 1e 13 76 34 45 2d dc b4 45 ba b6 35 25 fa 8c b6
       2.291749e-07 -4.101113e-07 1.3614268e-06 -4.201446e-06
000120 c0 0a 79 35 39 ba f4 34 cc 08 88 35 c0 e5 35 b5
       9.277537e-07 4.5584036e-07 1.013535e-06 -6.7762085e-07
000130 10 20 d9 36 89 e2 a5 b5 b6 ee a2 b5 66 64 63 b4
       6.4708365e-06 -1.2359388e-06 -1.2139415e-06 -2.1177547e-07
000140 af a9 81 b6 64 d3 14 37 e0 f2 c7 35 c9 7f b9 b5
       -3.8642534e-06 8.870706e-06 1.4897341e-06 -1.3820764e-06
000150 37 77 43 b6 79 25 2a 36 3b bc b8 b5 90 e7 be 34
       -2.9126657e-06 2.5353786e-06 -1.3763851e-06 3.5558742e-07
000160 01 9c f5 b5 df bb 4f 36 98 e4 b3 b4 40 02 c1 33
       -1.8299326e-06 3.095476e-06 -3.3507672e-07 8.987672e-08
000170 d6 32 dc b4 fe 4b 8b 33 2f 08 af 34 1b 28 a3 b4
       -4.101518e-07 6.486515e-08 3.2602244e-07 -3.0390297e-07
000180 bf 37 b6 b4 b1 63 8f 34 7c 53 57 34 0d 2b 75 b4
       -3.3940702e-07 2.670836e-07 2.0053807e-07 -2.2833065e-07

exp_avg_sq f4 [10, 10]
000000 24 21 47 32 00 14 9a 31 e5 f2 32 32 fd 39 35 32
       1.159086e-08 4.4842636e-09 1.04161915e-08 1.0548772e-08
000010 5f 00 d6 31 5e 62 60 32 44 02 81 33 4a 8b 3c 30
       6.228262e-09 1.3060882e-08 6.007443e-08 6.8591943e-10
000020 4e 62 52 32 ac 65 1b 30 3e 9d 85 32 c7 79 c1 31
       1.2245961e-08 5.6533156e-10 1.5554743e-08 5.6308838e-09
000030 9a c8 6f 32 1a 18 72 32 cb 05 0c 32 40 4d 95 32
       1.39572425e-08 1.4091734e-08 8.15039e-09 1.7381012e-08
000040 a9 9d ad 33 2c 08 7a 30 d7 9b 8b 32 32 da 51 30
       8.0846185e-08 9.0961083e-10 1.6252597e-08 7.634383e-10
000050 78 59 32 34 15 32 72 33 bc 32 1f 34 7a 18 21 34
       1.661009e-07 5.6390565e-08 1.4826486e-07 1.5003198e-07
000060 1a 11 b7 33 36 48 45 34 04 64 68 35 87 db 23 32
       8.524712e-08 1.8373325e-07 8.6572277e-07 9.5377635e-09
000070 e2 a6 38 34 c8 ba 0c 32 56 e2 ca 31 59 26 29 31
       1.7197047e-07 8.191542e-09 5.904705e-09 2.4614535e-09
000080 1d 74 b8 31 5d 4e b9 31 1b 80 5f 31 82 b9 ea 31
       5.3683054e-09 5.3931175e-09 3.252359e-09 6.831386e-09
000090 5c dd 02 33 96 ec c2 2f bd f1 d7 31 b7 49 9a 2f
       3.046931e-08 3.54565e-10 6.284806e-09 2.8064814e-10
0000a0 87 23 38 32 f1 18 8f 31 4c 65 25 32 dd 4a 27 32
       1.0718288e-08 4.1646833e-09 9.627296e-09 9.737701e-09
0000b0 75 54 c5 31 57 c0 4f 32 d5 12 6f 33 80 b5 2a 30
       5.7430563e-09 1.2092719e-08 5.566365e-08 6.2103567e-10
0000c0 ee 09 43 32 13 e9 0e 30 b1 6f 63 32 eb 35 b1 31
       1.1352752e-08 5.199052e-10 1.3238535e-08 5.1575078e-09
0000d0 1f bc 4c 32 e3 a0 4f 32 01 77 f6 31 84 e1 7f 32
       1.1917137e-08 1.2085567e-08 7.1730715e-09 1.489423e-08
0000e0 45 f1 92 33 6a 45 5d 30 cd 28 70 32 d2 ce 32 30
       6.8425415e-08 8.0497975e-10 1.3979116e-08 6.504993e-10
0000f0 3a b7 88 32 4f 9a d0 31 8c 27 75 32 a8 9b 78 32
       1.5915806e-08 6.0711396e-09 1.4269869e-08 1.4470892e-08
000100 79 64 12 32 8a 49 99 32 23 08 b1 33 d9 db 81 30
       8.521163e-09 1.7844986e-08 8.243685e-08 9.44847e-10
000110 e0 16 90 32 8b 3f 55 30 a8 b2 9a 32 55 b2 d2 31
       1.6774209e-08 7.757925e-10 1.8009203e-08 6.1320784e-09
000120 c9 89 89 32 2f a3 8b 32 54 4e 1e 32 e6 78 aa 32
       1.6011557e-08 1.6255937e-08 9.21462e-09 1.9845583e-08
000130 46 2b ca 33 8a 61 8c 30 b7 d4 a0 32 fd 70 73 30
       9.4142294e-08 1.0214063e-09 1.8723183e-08 8.856345e-10
000140 10 e3 df 35 be ed 14 35 47 4b c6 35 bd df c8 35
       1.6680879e-06 5.5480257e-07 1.4774058e-06 1.4966278e-06
000150 c8 5b 62 35 70 a1 f5 35 e8 31 12 37 45 78 c8 33
       8.432512e-07 1.8300907e-06 8.713898e-06 9.335103e-08
000160 10 b7 e7 35 a8 d7 ae 33 ee bf af 32 22 10 01 32
       1.7264119e-06 8.141734e-08 2.045996e-08 7.512456e-09
000170 04 09 9d 32 03 88 9f 32 e7 e3 39 32 ff d4 c3 32
       1.8281305e-08 1.8571887e-08 1.0820236e-08 2.2797847e-08
000180 8f 31 e4 33 24 36 a6 30 cb 51 b8 32 d4 c4 89 30
       1.0626092e-07 1.2093477e-09 2.1457614e-08 1.0024004e-09

exp_avg f4 [10]
000000 61 e1 44 b4 6f 8d 9b 35 cc 0d 42 b6 a7 52 ae 34
       -1.8335915e-07 1.1589563e-06 -2.8916284e-06 3.2470163e-07
000010 0c 2f 5a b5 4b 20 28 35 c6 63 0c b5 23 72 f6 b5
       -8.127979e-07 6.263187e-07 -5.2299254e-07 -1.8361646e-06
000020 62 60 72 36 65 95 ca b3
       3.6116912e-06 -9.433533e-08

exp_avg_sq f4 [10]
000000 41 f1 d7 33 78 a7 11 34 9f 07 c3 35 6f fd 5a 33
       1.00556015e-07 1.3565102e-07 1.453085e-06 5.0987577e-08
000010 9d 7d c7 33 ff 82 f6 33 c7 3e 14 34 c5 24 29 34
       9.2895085e-08 1.1479096e-07 1.3806412e-07 1.5752728e-07
000020 d9 8c 74 37 ef 03 3f 34
       1.4576327e-05 1.7789692e-07

exp_avg f4 [17]
000000 9e 97 ab b5 24 a0 01 34 3d 0a 7a 35 bc dc 12 35
       -1.2784619e-06 1.207232e-07 9.3147156e-07 5.471045e-07
000010 e9 60 0a 35 62 fd 6d b3 a6 8f 9a b4 15 f6 be 33
       5.155003e-07 -5.5411313e-08 -2.8789253e-07 8.8923265e-08
000020 4f 5c 0a 34 12 36 dc b3 22 89 42 33 99 18 8a b4
       1.2885833e-07 -1.0254384e-07 4.5293866e-08 -2.57224e-07
000030 fa 80 b4 34 bb 28 e5 31 09 05 9e b3 5c db a4 b4
       3.3621455e-07 6.6694077e-09 -7.358364e-08 -3.0706985e-07
000040 13 11 84 b0
       -9.609117e-10

exp_avg_sq f4 [17]
000000 14 45 2d 31 25 d1 07 2f e3 14 87 32 a5 58 e2 2e
       2.521408e-09 1.2352482e-10 1.5725567e-08 1.02930366e-10
000010 26 19 3f 31 d9 e8 35 2d 13 f0 d0 31 94 1d 2d 2d
       2.7808453e-09 1.0340361e-11 6.08089e-09 9.840479e-12
000020 ab 5b ed 2e bb d9 bd 2c b5 b0 2c 2e ca c5 e8 2e
       1.0793796e-10 5.395876e-12 3.926522e-11 1.0585273e-10
000030 ed ac 8f 2e 57 73 d9 2c a1 ce a0 2e 00 7f aa 2d
       6.533605e-11 6.1803162e-12 7.312662e-11 1.9383162e-11
000040 b8 62 b5 2c
       5.1552894e-12

exp_avg f4 [10]
000000 79 15 30 34 75 da 90 b5 60 52 b8 b5 12 72 a4 b4
       1.6399089e-07 -1.0792415e-06 -1.3733043e-06 -3.0630378e-07
000010 47 97 d1 b5 ea 51 a7 b5 e5 b0 f9 34 96 14 e4 b5
       -1.5615741e-06 -1.246631e-06 4.6508572e-07 -1.6993315e-06
000020 bd 35 b4 b5 3d 90 7d b5
       -1.3426685e-06 -9.445974e-07

exp_avg_sq f4 [10]
000000 98 1a ce 30 59 92 68 30 4c d1 2c 32 e2 6c bc 31
       1.4996031e-09 8.460908e-10 1.0059306e-08 5.4838987e-09
000010 01 b1 34 31 c6 5f 05 32 ba 13 17 30 c3 45 88 30
       2.6294062e-09 7.763395e-09 5.4961513e-10 9.91513e-10
000020 df 32 74 31 09 b1 ac 32
       3.553559e-09 2.0103942e-08

exp_avg f4 [10, 10]
000000 2a f0 44 b3 90 6f 5a b2 e8 d6 51 34 eb 2d 81 34
       -4.5853234e-08 -1.27146365e-08 1.9542824e-07 2.4061532e-07
000010 df 80 3d 34 7f 16 02 33 4f 79 96 b3 d3 8a aa 35
       1.764888e-07 3.0288444e-08 -7.006985e-08 1.270639e-06
000020 e4 5a 19 32 07 1f c5 34 35 9f 30 32 03 da c1 b4
       8.926438e-09 3.6716685e-07 1.0280748e-08 -3.6107676e-07
000030 af 9f d3 34 c1 ba 5d b4 15 02 ba b4 3a 3a 9a b3
       3.9417998e-07 -2.065017e-07 -3.4646715e-07 -7.181775e-08
000040 30 23 77 33 ab 81 ae 34 f1 9f 2e b5 34 60 0e 35
       5.7541172e-08 3.2504371e-07 -6.5052797e-07 5.3039116e-07
000050 f1 46 22 33 24 8e ef 34 18 73 c5 34 89 cc 3a b4
       3.7783085e-08 4.462064e-07 3.677785e-07 -1.739701e-07
000060 8f 47 b4 b3 97 56 87 b3 71 27 c4 32 8b 42 c7 b5
       -8.3949196e-08 -6.302178e-08 2.2835339e-08 -1.4846022e-06
000070 2e 77 0d 33 26 48 e3 34 cb f4 a8 b2 3e c6 99 b3
       3.2937514e-08 4.233454e-07 -1.9669093e-08 -7.160678e-08
000080 7f ab 84 35 c3 b5 23 b5 e0 c8 2e b5 a7 27 73 35
       9.884678e-07 -6.098673e-07 -6.511236e-07 9.0582256e-07
000090 49 09 89 31 e7 6f 47 b6 1e 18 ba 35 94 48 df 34
       3.9882804e-09 -2.9718447e-06 1.3865099e-06 4.1589794e-07
0000a0 65 5c b6 af fb a5 87 b4 70 d0 4b 33 1c c4 75 b1
       -3.3171257e-10 -2.5266476e-07 4.7454193e-08 -3.5763668e-09
0000b0 f4 c0 c7 b3 e8 2d 12 b4 8a e2 c7 32 09 24 5e 35
       -9.3017576e-08 -1.361401e-07 2.3269667e-08 8.275388e-07
0000c0 7a ed 09 b5 6d f2 50 34 0b 39 9a b1 40 c2 ab b4
       -5.138205e-07 1.9459704e-07 -4.488475e-09 -3.1992568e-07
0000d0 ef f8 1e 35 9f 1a 7f b4 1b 30 c7 b4 9d a2 0e 34
       5.922183e-07 -2.375841e-07 -3.710164e-07 1.3283939e-07
0000e0 b7 41 16 33 6d a3 8e b3 c2 c0 99 b4 b9 56 25 35
       3.4984364e-08 -6.642117e-08 -2.863872e-07 6.159349e-07
0000f0 c3 93 37 31 66 5a 9c b4 c8 31 33 34 9c ef 9b b3
       2.6713998e-09 -2.9123038e-07 1.6688784e-07 -7.2613346e-08
000100 ce 2b 2a b4 84 a5 55 b3 99 72 12 33 b8 e8 04 35
       -1.584842e-07 -4.9743463e-08 3.40975e-08 4.951248e-07
000110 7e c8 f9 b4 a3 9e 74 34 c7 2c 95 b2 81 c4 12 34
       -4.6525741e-07 2.2781983e-07 -1.7366245e-08 1.3668797e-07
000120 4a f2 e4 34 0c d0 99 b3 e2 38 49 31 25 b1 f2 34
       4.2644598e-07 -7.162461e-08 2.9281684e-09 4.5204902e-07
000130 bb 07 0a b3 ff f3 a6 b5 77 70 46 35 9f f5 9c 33
       -3.213766e-08 -1.2438976e-06 7.3924406e-07 7.308994e-08
000140 46 0c cb 33 cf e5 84 b4 0a 1d cf b2 9b b8 56 b4
       9.455157e-08 -2.4754124e-07 -2.4111177e-08 -1.9997462e-07
000150 4f 2b 81 b4 f1 03 44 b5 d8 13 32 34 ba b0 e8 34
       -2.4059634e-07 -7.3021425e-07 1.6584761e-07 4.3341953e-07
000160 ec 3f 00 b6 51 11 bd 34 ee 18 71 b2 cc a2 8e 34
       -1.9110694e-06 3.5216593e-07 -1.4033715e-08 2.6568011e-07
000170 b2 09 f4 b3 f5 57 9f 34 a8 5d bf 34 93 59 20 b4
       -1.1363899e-07 2.9680055e-07 3.5644666e-07 -1.4933748e-07
000180 56 c6 67 b3 72 84 3d 35 4e 97 40 b3 0f 80 28 33
       -5.3964264e-08 7.060072e-07 -4.4841094e-08 3.9232017e-08

exp_avg_sq f4 [10, 10]
000000 07 52 07 2f f2 3b c8 2e 79 07 3f 31 33 01 ab 30
       1.230732e-10 9.1055954e-11 2.7798406e-09 1.2442228e-09
000010 df 8f 40 30 29 c5 e7 30 3c cf a4 2f bc 0b b2 32
       7.0053646e-10 1.6863498e-09 2.9978675e-10 2.0727263e-08
000020 41 06 d4 31 43 fa 9d 31 e1 0b 30 2d 54 ad e4 2d
       6.170723e-09 4.597753e-09 1.0007079e-11 2.5997572e-11
000030 0e 72 82 2e 18 b8 0c 2f 08 f7 e1 2e 2c c0 90 2e
       5.931976e-11 1.2798329e-10 1.0275697e-10 6.5824984e-11
000040 39 17 a8 2d 7e 2b bf 30 20 4b a6 2f 88 98 2a 30
       1.9109702e-11 1.390944e-09 3.0248604e-10 6.20624e-10
000050 bf 6e e0 2e 89 3d eb 2e f2 42 35 30 4d 8b 95 2f
       1.0206013e-10 1.06974936e-10 6.594255e-10 2.720192e-10
000060 3c f8 4b 2f d8 5b d9 30 f6 5c a7 2e 66 38 02 31
       1.8550933e-10 1.5814932e-09 7.610794e-11 1.8949549e-09
000070 8b a8 6f 30 99 e8 57 32 f1 57 5b 2c f9 ec 49 2c
       8.718721e-10 1.2567534e-08 3.117059e-12 2.8695364e-12
000080 8c eb aa 2d 0b 54 e3 2c c5 28 ce 2c 35 f2 14 2e
       1.9431366e-11 6.4610587e-12 5.8593985e-12 3.3866427e-11
000090 65 30 3a 2c fe e5 e7 2e d6 62 04 2e c9 9e dc 2f
       2.6459054e-12 1.05455186e-10 3.010111e-11 4.013059e-10
0000a0 11 71 e1 2e b9 13 2c 2e 4e 17 40 31 be 4c 63 30
       1.02519e-10 3.912579e-11 2.7952924e-09 8.2691176e-10
0000b0 bf 09 dc 2f 37 4a df 30 37 db 85 2f 33 03 89 32
       4.0024692e-10 1.6246479e-09 2.434832e-10 1.5950354e-08
0000c0 12 84 b3 31 6e 47 8d 31 f4 f8 88 2d 67 a6 2b 2e
       5.2246003e-09 4.1117607e-09 1.5571967e-11 3.9028693e-11
0000d0 a8 71 3e 2f ab a1 8d 2f 93 fa 52 2f e5 b4 0c 2f
       1.7320778e-10 2.5762623e-10 1.918841e-10 1.2797192e-10
0000e0 e9 8f 32 2e 4e 0f 5b 31 52 20 3f 30 e5 4b 17 30
       4.0600332e-11 3.1877394e-09 6.9531325e-10 5.504133e-10
0000f0 6e ca 21 2d a8 e5 bc 2c 8a 5f 65 2f f4 f3 99 2e
       9.196739e-12 5.3687783e-12 2.0861371e-10 7.000969e-11
000100 bf a6 20 2e 18 f8 0d 2f 3f 1c a9 2d 30 ab a6 30
       3.652789e-11 1.2912016e-10 1.922562e-11 1.2126744e-09
000110 fd 9d eb 2f 3f 87 07 30 a1 28 c2 2b 39 a6 81 2b
       4.2858508e-10 4.930491e-10 1.3795806e-12 9.212137e-13
000120 4f e2 18 2d b8 1b 41 2c a8 ca ec 2b e2 fa a6 2d
       8.69045e-12 2.7442337e-12 1.6825057e-12 1.898343e-11
000130 fd e5 20 2c 44 ef e9 2e b3 8b 3b 2e 2e 96 18 2f
       2.2865037e-12 1.06381154e-10 4.2642955e-11 1.3877674e-10
000140 17 3b 17 2e 04 47 16 2e 00 9e af 2f 61 c0 f4 2e
       3.4385907e-11 3.4169126e-11 3.194458e-10 1.1130009e-10
000150 68 ae a1 2e f4 dc 1c 30 5a 5d 22 2e 16 a5 aa 30
       7.352413e-11 5.706646e-10 3.6917448e-11 1.2416048e-09
000160 60 b6 f0 2f 81 d8 83 31 c1 f7 14 2c 41 e7 1d 2c
       4.378533e-10 3.8372154e-09 2.1169596e-12 2.2439414e-12
000170 38 26 93 2c 19 fc 6a 2c 51 f2 66 2c 20 92 7f 2d
       4.1822344e-12 3.3393342e-12 3.2819478e-12 1.4527518e-11
000180 8a a2 96 2b 3e f8 88 2d aa a5 fe 2c cf 7a a0 2f
       1.0703255e-12 1.5571652e-11 7.2375066e-12 2.919109e-10

exp_avg f4 [10]
000000 55 e7 11 35 79 94 8d b5 a5 87 ba 34 51 b5 80 b3
       5.435334e-07 -1.054853e-06 3.4743894e-07 -5.993446e-08
000010 e9 e5 1b b5 da 03 56 b5 5e 72 45 b5 af 93 f3 34
       -5.8076563e-07 -7.9726817e-07 -7.3554645e-07 4.536973e-07
000020 c0 2b 02 b6 06 99 53 35
       -1.9396975e-06 7.8826304e-07

exp_avg_sq f4 [10]
000000 6a 68 f8 32 49 8d 4f 31 71 a0 6c 32 64 6d 87 30
       2.8918482e-08 3.0202776e-09 1.3773488e-08 9.853633e-10
000010 98 c7 bb 32 c9 4a aa 31 5e 81 0d 31 22 ef 08 30
       2.186043e-08 4.9561533e-09 2.0591737e-09 4.981634e-10
000020 12 4e 92 31 ee e3 27 30
       4.258035e-09 6.1078154e-10
