src/data_driven/antiderivative/classical_training_seed707/model_checkpoint-15000.pt (torch, 20717 bytes, 36 tensors)

branch.hidden_layers.0.thetas f4 [55]
1.15735 0.06804388 1.1695757 -0.6988974 0.80206615 -0.5948255 -1.1888624 -0.92783016
-1.3605243 1.0507855 -0.82040924 -0.7227052 0.57054484 -0.3251621 0.47340238 0.93266344
-0.817033 -0.6983745 -1.4150739 1.7524955 1.4388872 1.4200398 0.54223186 -1.5218039
-2.0272102 -1.3304292 -1.2189353 -0.30970654 -0.62446666 -0.86056274 0.62386477 1.9827347
0.37737185 0.4593898 0.7900382 0.3251738 0.8202463 -0.31351382 0.9263451 0.6475762
-0.3620149 0.9396807 -1.8035207 1.8366716 -0.16178355 0.55219233 0.4790556 -2.146087
-0.284022 -0.37305605 -1.3180138 1.0386417 1.5473584 0.83603233 0.64957184
00000000: 0b24 943f 975a 8b3d a8b4 953f f1ea 32bf
00000010: 3554 4d3f 7c46 18bf a52c 98bf 4786 6dbf
00000020: a925 aebf 2480 863f 5706 52bf 3503 39bf
00000030: 3a0f 123f a67b a6be cc61 f23e 08c3 6e3f
00000040: 1329 51bf acc8 32bf 2421 b5bf c651 e03f
00000050: 752d b83f ddc3 b53f b5cf 0a3f 78ca c2bf
00000060: d0bd 01c0 814b aabf 1206 9cbf db91 9ebe
00000070: 0cdd 1fbf d74d 5cbf 9ab5 1f3f 40ca fd3f
00000080: e236 c13e 2435 eb3e f23f 4a3f 2e7d a63e
00000090: a9fb 513f e284 a0be f424 6d3f 8ec7 253f
000000a0: 045a b9be ea8e 703f c4d9 e6bf 0e18 eb3f
000000b0: 96aa 25be 7a5c 0d3f c746 f53e 7d59 09c0
000000c0: 556b 91be 3401 bfbe adb4 a8bf 36f2 843f
000000d0: d70f c63f 3706 563f 574a 263f

branch.hidden_layers.0.bias f4 [10]
0.02986497 -0.13316008 0.10182354 0.15051018 -0.060310494 -0.18971178 -0.029209105 0.049515028
-0.09980269 -0.17455994
00000000: 62a7 f43c 1e5b 08be dc88 d03d 571f 1a3e
00000010: 2308 77bd ce43 42be ef47 efbc 45d0 4a3d
00000020: 5a65 ccbd d7bf 32be

branch.hidden_layers.1.thetas f4 [45]
0.062416073 0.00010114152 -0.86948735 -0.5938213 0.27996892 0.34346434 2.2300334 -0.39202976
-0.23806493 0.27432927 0.43090948 0.8352785 0.06768826 -0.5908726 1.5257877 -0.023694439
0.34640157 -0.35399377 -1.0695975 0.36397368 1.0234692 -1.0895623 0.13451579 1.0855775
-1.6188881 0.012866481 -0.31043953 1.8394036 -0.0028617647 -0.37801412 -0.96380424 1.06526
-0.64064777 1.4595903 0.73874736 0.52852815 0.7256118 0.25259653 1.6473727 0.7890013
1.9529372 0.6668766 0.055748068 -0.03555467 -0.1803517
00000000: ffa7 7f3d f11b d438 b996 5ebf ac04 18bf
00000010: 1658 8f3e 8fda af3e deb8 0e40 20b8 c8be
00000020: 4bc7 73be e374 8c3e 2ba0 dc3e d0d4 553f
00000030: 24a0 8a3d 6d43 17bf 034d c33f d71a c2bc
00000040: 8c5b b13e ac3e b5be 92e8 88bf c25a ba3e
00000050: 0a01 833f c776 8bbf 82be 093e 34f4 8a3f
00000060: ba37 cfbf efcd 523c eef1 9ebe 9471 eb3f
00000070: 728c 3bbb 118b c1be e0bb 76bf 715a 883f
00000080: 7e01 24bf dbd3 ba3f 8c1e 3d3f 9f4d 073f
00000090: b2c1 393f 5554 813e 1cdd d23f fdfb 493f
000000a0: d9f9 f93f 6db8 2a3f 1658 643d c6a1 11bd
000000b0: 1eae 38be

branch.hidden_layers.1.bias f4 [10]
0.23568878 0.31993562 0.16831857 0.0992661 0.27152646 -0.028098684 0.20155178 0.18691266
0.017924055 -0.15794866
00000000: 6658 713e 9ace a33e b45b 2c3e 064c cb3d
00000010: 8405 8b3e 362f e6bc 9763 4e3e 0866 3f3e
00000020: 78d5 923c 4bbd 21be

branch.output_layer.weight f4 [10, 10]
-0.021759933 0.19132158 -0.35734954 0.41292155 -0.3791923 -0.31849438 0.3657749 0.0253192
0.26004818 0.21169378 0.40465108 -0.99666893 -0.07728913 0.33022267 -0.3870233 -0.044793747
0.58962715 0.4151606 0.28305212 0.14751872 0.1321017 -0.5017383 0.47023344 -0.2738919
0.22714907 -0.21095616 0.2799485 -0.17380689 0.09224156 0.12679875 -0.11804123 0.21149461
-0.4538474 0.33561674 -0.5310363 0.3009808 0.3331932 0.57473093 0.31386548 0.0866107
-0.17962721 0.05319435 0.0415705 -0.4376098 -0.019111749 -0.22218575 -0.2441578 0.12099929
0.17918283 -0.006360434 0.44684055 -0.63257253 0.34632996 -0.18481548 -0.09522428 -0.10446005
-0.26640683 0.26854452 -0.18759719 -0.01207093 -0.51246804 0.4586956 -0.40281528 0.1881171
0.027963525 0.29700607 -0.12491502 0.126618 -0.21715938 0.006728872 -0.4175356 0.3500909
0.10376879 0.19719005 -0.18720126 0.2982961 0.4711436 0.2766306 0.22729068 0.43524522
-0.22629987 0.4321095 -0.34173366 0.12117262 -0.5882434 -0.17250162 0.22751535 0.50511736
0.05002274 0.40954 -0.3377057 -0.14797339 -0.3630888 0.5194369 -0.4460478 0.18768328
0.3043006 0.42566213 0.10372383 0.23515487
00000000: e341 b2bc cee9 433e 85f6 b6be 746a d33e
00000010: 7e25 c2be b211 a3be d946 bb3e 366a cf3c
00000020: 0925 853e 41c6 583e 6d2e cf3e b225 7fbf
00000030: c349 9ebd f212 a93e eb27 c6be a679 37bd
00000040: cef1 163f ee8f d43e 35ec 903e 260f 173e
00000050: ab45 073e ec71 00bf 70c2 f03e 8f3b 8cbe
00000060: c499 683e e404 58be 6955 8f3e 6ffa 31be
00000070: 25e9 bc3d 88d7 013e 9abf f1bd 0b92 583e
00000080: b05e e8be f5d5 ab3e fff1 07bf 281a 9a3e
00000090: 4d98 aa3e 9121 133f fab2 a03e f360 b13d
000000a0: 32f0 37be 52e2 593d d445 2a3d 640e e0be
000000b0: 3e90 9cbc a984 63be 8104 7abe 7ace f73d
000000c0: b47b 373e 306b d0bb 49c8 e43e 46f0 21bf
000000d0: 2952 b13e 4540 3dbe f304 c3bd 27ef d5bd
000000e0: 7a66 88be ab7e 893e 7a19 40be 26c5 45bc
000000f0: 1b31 03bf 26da ea3e ce3d cebe c5a1 403e
00000100: c313 e53c 2e11 983e 72d3 ffbd 26a8 013e
00000110: 075f 5ebe df7d dc3b 3ac7 d5be 1d3f b33e
00000120: bb84 d43d 30ec 493e b0b1 3fbe 44ba 983e
00000130: bc39 f13e 87a2 8d3e e3be 683e 76d8 de3e
00000140: 27bb 67be 753d dd3e b7f7 aebe 5a29 f83d
00000150: 1f97 16bf 44a4 30be c9f9 683e 5f4f 013f
00000160: a5e4 4c3d 3aaf d13e c3e7 acbe 5686 17be
00000170: c6e6 b9be d1f9 043f 6160 e4be 0c30 403e
00000180: 4acd 9b3e 63f0 d93e 296d d43d 70cc 703e

branch.output_layer.bias f4 [10]
0.061317746 0.24348237 0.048860494 0.05716644 0.22677907 0.097049564 0.0044150404 -0.0036939834
0.13824552 -0.34360623
00000000: 5128 7b3d 7153 793e f121 483d 5b27 6a3d
00000010: c638 683e ecc1 c63d 0bac 903b c216 72bb
00000020: 3c90 0d3e 28ed afbe

trunk.hidden_layers.0.thetas f4 [17]
0.9345496 -1.304516 0.7249283 1.6819868 2.3310332 -0.4167239 -0.493877 -1.0290908
1.8780532 1.2708771 -1.8045926 1.0390344 -0.4955693 -2.51577 0.6486941 2.0718777
0.04093167
00000000: a53e 6f3f 61fa a6bf e794 393f 584b d73f
00000010: a62f 1540 d65c d5be 72dd fcbe 3fb9 83bf
00000020: 0c64 f03f 1aac a23f e4fc e6bf 14ff 843f
00000030: 42bb fdbe 6002 21c0 d110 263f a599 0440
00000040: f8a7 273d

trunk.hidden_layers.0.bias f4 [10]
0.09266742 0.08492732 -0.09305986 -0.047967304 -0.09968288 -0.06039311 0.21990937 -0.040196035
-0.14201215 -0.18245205
00000000: 6bc8 bd3d 60ee ad3d 2b96 bebd 5d79 44bd
00000010: 8a26 ccbd c45e 77bd ec2f 613e 99a4 24bd
00000020: a26b 11be b6d4 3abe

trunk.hidden_layers.1.thetas f4 [45]
-0.6478433 0.472445 0.28693095 0.5660095 0.17699438 0.38409367 0.43869996 -0.12647893
0.18205425 -0.0969431 -0.9045599 1.192144 2.5189192 1.1003401 1.8394803 0.29287478
-0.71976626 1.1933955 -0.965489 0.9112174 1.0442116 -1.7330593 -0.93350255 -0.9869557
0.6924035 -0.17265975 0.39007443 0.09726265 1.3929471 0.26461393 0.82536674 -0.8167037
2.2989793 -0.57614535 -1.0804555 -0.18327847 1.6809481 -2.5318434 0.4344262 1.7681959
-0.036374554 -0.4736438 -0.745967 -0.734721 0.326778
00000000: 0fd9 25bf 50e4 f13e 9de8 923e 00e6 103f
00000010: 043e 353e eda7 c43e 489d e03e b183 01be
00000020: 6e6c 3a3e 1b8a c6bd 3d91 67bf 2d98 983f
00000030: f935 2140 f2d7 8c3f 1774 eb3f aff3 953e
00000040: 9a42 38bf 2fc1 983f 492a 77bf 8b45 693f
00000050: baa8 853f e3d4 ddbf 06fa 6ebf 21a9 7cbf
00000060: 5b41 313f b8cd 30be d6b7 c73e a431 c73d
00000070: 174c b23f 7a7b 873e 3c4b 533f 7e13 51bf
00000080: 7a22 1340 437e 13bf 5e4c 8abf 5aad 3bbe
00000090: 4f29 d73f b909 22c0 1c6d de3e 3e54 e23f
000000a0: 7cfd 14bd 7181 f2be b1f7 3ebf ad16 3cbf
000000b0: 724f a73e

trunk.hidden_layers.1.bias f4 [10]
0.19472885 0.142826 0.19339035 0.15297994 0.23790723 -0.09767439 -0.050453946 0.06341514
0.012149183 -0.032250162
00000000: 0067 473e fb40 123e 1f08 463e c6a6 1c3e
00000010: f49d 733e 8309 c8bd cca8 4ebd ccdf 813d
00000020: 5e0d 473c bf18 04bd

trunk.output_layer.weight f4 [10, 10]
0.4976051 0.03008491 0.066717125 0.301663 0.24527508 -0.24165839 0.017662862 -0.08793131
-0.37271357 0.07665535 1.1289718 -0.20607334 0.8001768 0.15221596 1.151945 -0.43391338
0.090581566 -0.09701299 0.030851675 -0.26663938 0.07173496 -0.049078725 -0.29590118 -0.32990912
-0.20893076 0.3805508 0.2345739 0.55578685 -0.02405829 -0.106854476 0.4052622 0.15492153
0.45632154 0.04814898 0.4874455 -0.30937517 -0.19991848 0.25432175 -0.46331352 -0.31159902
-0.16026106 0.4398371 0.18937756 -0.07676767 -0.17898569 -0.64013284 -0.012946738 -0.055142816
0.28266913 -0.022614429 -0.4847059 -0.72846115 -0.31950685 -0.69513404 -0.6636679 0.01761001
0.89350474 0.27997723 0.102693364 -0.32618016 0.465439 0.2780111 -0.0239655 0.5625606
-0.12582164 -0.19044146 -0.55941755 -0.21116221 -0.13335684 0.5221891 0.3970973 -0.08572547
0.24984004 -0.00409585 0.43838686 -0.4042703 -0.43722895 0.16574028 -0.45621938 0.35924998
0.3624478 -0.16467613 0.036831614 0.46261618 0.13709657 -0.33429387 -0.22623622 -0.39659712
-0.35648224 -0.12704064 0.30506626 0.18413265 0.21274708 -0.021325523 0.6610021 -0.13630965
-0.2690734 -0.15396997 -0.061584923 -0.18103355
00000000: 18c6 fe3e a174 f63c fda2 883d 9373 9a3e
00000010: 6429 7b3e 4c75 77be b5b1 903c 5515 b4bd
00000020: 50d4 bebe 7bfd 9c3d 2682 903f e404 53be
00000030: 63d8 4c3f 80de 1b3e ef72 933f e529 debe
00000040: d482 b93d bfae c6bd a7bc fc3c f584 88be
00000050: c7e9 923d c606 49bd 5c80 97be d9e9 a8be
00000060: f2f1 55be 8ed7 c23e 2434 703e 0c48 0e3f
00000070: e415 c5bc 85d6 dabd 877e cf3e c0a3 1e3e
00000080: faa2 e93e dd37 453d 7592 f93e 6c66 9ebe
00000090: 6eb7 4cbe 7636 823e 6e37 edbe e889 9fbe
000000a0: 7a1b 24be 5432 e13e 31ec 413e 5e38 9dbd
000000b0: 0648 37be bfdf 23bf 8e1e 54bc 6fdd 61bd
000000c0: 02ba 903e e541 b9bc 5f2b f8be 6e7c 3abf
000000d0: 6796 a3be 4ef4 31bf 24e6 29bf de42 903c
000000e0: babc 643f 2d59 8f3e e650 d23d 1601 a7be
000000f0: 054e ee3e 7957 8e3e 4c53 c4bc f903 103f
00000100: 63d7 00be 1603 43be fd35 0fbf e83a 58be
00000110: b28e 08be 2fae 053f 5650 cb3e d690 afbd
00000120: 11d6 7f3e 7b36 86bb 3e74 e03e 84fc cebe
00000130: 79dc dfbe d2b7 293e 9695 e9be 9def b73e
00000140: c292 b93e dca0 28be bfdc 163d 07dc ec3e
00000150: 0b63 0c3e 9128 abbe 78aa 67be c70e cbbe
00000160: d784 b6be f116 02be a531 9c3e 458d 3c3e
00000170: 5fda 593e ddb2 aebc 6f37 293f c294 0bbe
00000180: fdc3 89be 4eaa 1dbe 7940 7cbd dc60 39be

trunk.output_layer.bias f4 [10]
0.30122307 -0.13462962 -0.17951202 0.22632276 -0.11415037 -0.2944645 0.3509625 0.06486762
0.20448825 0.23543009
00000000: e939 9a3e 59dc 09be 00d2 37be 27c1 673e
00000010: abc7 e9bd 0dc4 96be 5bb1 b33e 51d9 843d
00000020: 5e65 513e 9614 713e

exp_avg f4 [55]
-1.9321702e-08 -6.379984e-08 -1.8980174e-08 5.0187797e-08 7.916997e-09 4.9093632e-08 4.3805727e-08 -4.700257e-09
1.8455532e-08 8.382355e-08 1.5509325e-08 8.209599e-08 2.5431257e-09 3.6652033e-08 -1.8095257e-08 -2.882932e-08
8.466275e-08 2.146406e-08 -3.4453514e-08 1.45220405e-08 5.4523164e-09 9.214067e-08 4.7868863e-08 6.273059e-08
-4.695642e-08 -9.260016e-09 -2.3863779e-08 -7.633601e-09 5.5798722e-08 1.5303135e-07 -1.1755853e-08 -4.1282078e-10
-5.8098596e-08 -1.2396061e-08 -4.2565347e-08 6.797506e-09 -5.704319e-10 -3.603633e-08 -4.4144496e-08 -1.9747652e-08
-4.506297e-08 -6.809436e-08 3.0045917e-09 2.5517353e-09 -9.2779196e-08 3.225148e-08 1.688443e-08 -2.8066646e-08
-7.915596e-08 2.2703501e-09 4.2665455e-08 -4.873404e-09 -8.915893e-08 -1.6347567e-08 1.1583153e-07
00000000: dff8 a5b2 5502 89b3 d809 a3b2 118e 5733
00000010: 5203 0832 05db 5233 e824 3c33 e67f a1b1
00000020: 2588 9e32 7c02 b433 5e39 8532 bf4c b033
00000030: 24c3 2e31 566b 1d33 e46f 9bb2 58a4 f7b2
00000040: d7cf b533 f85f b832 0afa 13b3 9c7c 7932
00000050: 1557 bb31 dede c533 5f98 4d33 82b6 8633
00000060: 21ad 49b3 fb15 1fb2 01fd ccb2 ef24 03b2
00000070: 58a7 6f33 f050 2434 caf6 49b2 5cf3 e2af
00000080: 1588 79b3 74f6 54b2 18d1 36b3 7f8f e931
00000090: 94cc 1cb0 5dc6 1ab3 6399 3db3 8ca1 a9b2
000000a0: 428b 41b3 453b 92b3 5679 4e31 9a5a 2f31
000000b0: e73d c7b3 e184 0a33 4109 9132 3517 f1b2
000000c0: 73fc a9b3 6c04 1c31 2a3f 3733 ea72 a7b1
000000d0: a477 bfb3 ae6c 8cb2 0fbf f833

exp_avg_sq f4 [55]
1.1041804e-12 4.5636e-11 8.846036e-13 8.0580135e-12 2.096203e-12 4.220872e-12 2.747239e-11 3.7891076e-11
3.0759705e-12 8.1596445e-11 9.3101034e-11 2.0511487e-11 5.678992e-11 2.9619562e-10 1.6628353e-11 1.06533955e-10
1.3674369e-11 1.5424861e-10 3.4836488e-11 1.0766014e-12 5.534859e-13 4.3677417e-10 1.7810334e-10 4.1606007e-12
2.440817e-12 9.5349735e-11 5.076514e-10 7.72097e-12 6.5920195e-12 1.9312908e-07 1.05431965e-11 1.3644959e-12
1.2449324e-11 2.5753285e-13 8.435056e-10 2.1114632e-10 7.842469e-11 5.0775727e-11 2.4145526e-09 1.6025976e-13
3.4803144e-10 3.7809533e-11 2.1130994e-08 1.2216099e-11 1.00419596e-10 7.643613e-08 9.708124e-11 1.2391041e-10
1.4549822e-08 2.860776e-11 2.3472368e-10 2.761543e-10 7.764073e-10 1.0918364e-09 1.9437736e-10
00000000: 4b66 9b2b 91b5 482e 68fe 782b 11c2 0d2d
00000010: d681 132c 3c82 942c 53a6 f12d 8fa5 262e
00000020: c273 582c b76e b32e 39bb cc2e c36b b42d
00000030: c4c3 792e d4d5 a22f b943 922d 4945 ea2e
00000040: e28f 702d 2099 292f 6636 192e a784 972b
00000050: ddca 1b2b 801e f02f a2d3 432f 5c63 922c
00000060: dac1 2b2c 21ad d12e cb8a 0b30 28d4 072d
00000070: a2ef e72c eb5e 4f34 567a 392d 2509 c02b
00000080: c502 5b2d 65fa 902a 6edc 6730 6828 682f
00000090: 2d75 ac2e 6350 5f2e 42ed 2531 bb6f 342a
000000a0: 1255 bf2f c049 262e 8c83 b532 6be8 562d
000000b0: 35d3 dc2e 3525 a433 e17b d52e ae3d 082f
000000c0: cbf6 7932 f3a2 fb2d 6c0a 812f 43d1 972f
000000d0: cf6a 5530 940f 9630 5db8 552f

exp_avg f4 [10]
-1.17366e-07 -1.5891189e-07 9.111814e-08 -3.3394073e-08 -1.7195701e-07 -2.1655399e-07 1.8463274e-07 1.2094578e-07
6.0097454e-07 5.113626e-07
00000000: a40a fcb3 5ea1 2ab4 baac c333 2c6d 0fb3
00000010: 2fa3 38b4 e885 68b4 763f 4634 53dd 0134
00000020: a852 2135 9244 0935

exp_avg_sq f4 [10]
1.9155671e-07 6.2105306e-07 2.0656267e-07 3.8112926e-08 8.588429e-08 2.0308183e-07 1.2980296e-07 1.960117e-09
5.8197152e-08 6.8671206e-08
00000000: b5ae 4d34 71b6 2635 84cb 5d34 9bb1 2333
00000010: 636f b833 b50e 5a34 f75f 0b34 beb2 0631
00000020: 72f4 7933 6578 9333

exp_avg f4 [45]
-4.825919e-08 -4.8202278e-08 -4.825707e-08 8.029699e-09 2.9377826e-08 5.3812037e-08 -2.6360825e-08 -3.4234762e-09
2.2816273e-08 -1.03815076e-07 1.1800839e-08 6.312897e-08 -3.255081e-08 -3.813519e-08 -3.672785e-08 1.01825455e-08
-1.072162e-07 -4.513357e-08 6.06804e-08 1.9599936e-08 -4.5276288e-08 -2.0832104e-08 -8.916249e-08 4.8745843e-08
2.5449463e-08 -1.6881172e-08 -5.1778322e-08 -2.78791e-08 2.1127784e-08 -4.639865e-08 -2.8971627e-08 8.604646e-08
6.4128834e-08 -3.377127e-08 7.3749746e-08 -1.0844731e-07 -3.1735773e-08 -5.413476e-09 1.8564997e-08 -3.455726e-08
1.4736847e-07 -3.2990947e-08 -9.594426e-08 -4.732115e-08 -3.230591e-08
00000000: 8a45 4fb3 f706 4fb3 3643 4fb3 fdf2 0932
00000010: 865a fc32 f61e 6733 1170 e2b2 6e42 6bb1
00000020: 84fd c332 f1f0 deb3 a4bc 4a32 8591 8733
00000030: fecd 0bb3 16ca 23b3 b3be 1db3 4fef 2e32
00000040: bb3e e6b3 e3d8 41b3 674f 8233 b75c a832
00000050: ce75 42b3 48f2 b2b2 9979 bfb3 9f5c 5133
00000060: f69b da32 1702 91b2 de62 5eb3 ca7a efb2
00000070: 7d7c b532 db47 47b3 48dd f8b2 8bc8 b833
00000080: 33b7 8933 e70b 11b3 5a60 9e33 8ae3 e8b3
00000090: da4d 08b3 7001 bab1 dc78 9f32 1c6c 14b3
000000a0: 563c 1e34 eeb1 0db3 ea09 ceb3 283e 4bb3
000000b0: b9c0 0ab3

exp_avg_sq f4 [45]
3.4135832e-09 1.8390763e-08 3.4159464e-09 2.5213225e-09 3.7801076e-08 1.9033093e-09 8.8873076e-10 8.808596e-09
2.320862e-08 1.9143802e-09 3.8870756e-09 3.5044763e-09 9.089351e-09 5.194775e-09 3.191851e-08 4.043046e-10
6.404369e-09 7.3069955e-09 1.4446062e-09 5.063221e-10 2.9088108e-08 2.2073548e-11 9.911137e-10 5.1126452e-08
3.6241882e-08 6.771801e-11 4.6956647e-08 3.0188327e-09 9.17823e-08 2.9098208e-08 4.1970913e-11 8.14935e-08
5.3046585e-09 4.488414e-08 1.4531962e-09 4.6365506e-10 2.8799552e-09 7.639973e-08 6.6288868e-09 5.3053224e-08
6.046668e-08 5.794378e-10 7.3126802e-09 2.4042814e-08 9.43587e-10
00000000: 6494 6a31 b7f9 9d32 f7bd 6a31 9343 2d31
00000010: b95a 2233 5fcb 0231 de4a 7430 9d54 1732
00000020: 4c5c c732 228e 0331 148f 8531 66d3 7031
00000030: 6327 1c32 b97d b231 c616 0933 d044 de2f
00000040: 6d0d dc31 0311 fb31 908b c630 402d 0b30
00000050: 6ddd f932 3629 c22d b737 8830 2196 5b33
00000060: 5fa8 1b33 dae9 942e 61ad 4933 de73 4f31
00000070: da19 c533 a3f3 f932 0c97 382e 8701 af33
00000080: 4544 b631 a2c6 4033 ccb9 c730 a6e5 fe2f
00000090: b5e8 4531 3211 a433 4ec4 e331 a3dc 6333
000000a0: e9d9 8133 4f46 1f30 0443 fb31 b586 ce32
000000b0: 84af 8130

exp_avg f4 [10]
-2.0829125e-07 2.5479672e-09 -1.7486579e-07 4.0802647e-08 -1.2261903e-07 8.842344e-08 8.68836e-08 8.051018e-08
1.7308238e-08 -7.090508e-08
00000000: aaa6 5fb4 5018 2f31 bec2 3bb4 fc3e 2f33
00000010: 43a9 03b4 4de3 bd33 c494 ba33 f1e4 ac33
00000020: 38ad 9432 7b44 98b3

exp_avg_sq f4 [10]
1.3200497e-07 9.517749e-08 4.3997923e-07 2.6428998e-07 1.5043015e-07 3.6407812e-08 1.4330733e-07 2.2697309e-07
7.87176e-08 1.2705947e-08
00000000: 40bd 0d34 6164 cc33 4936 ec34 bde3 8d34
00000010: ed85 2134 d05e 1c33 05e0 1934 e3b5 7334
00000020: 750b a933 5949 5a32

exp_avg f4 [10, 10]
7.2974924e-09 -2.2012403e-08 1.9171244e-08 -1.4814916e-08 -3.2926724e-08 -7.7941555e-09 1.9818906e-08 -1.7164807e-09
-1.3180895e-07 -6.8017294e-09 2.8446298e-08 6.2773445e-08 -4.794474e-09 3.4812754e-08 3.874318e-08 4.6689266e-08
-2.4117986e-08 -1.3018293e-08 6.287775e-08 -4.1049674e-08 -4.363012e-08 -1.5810606e-08 -2.15447e-08 1.621167e-08
1.1390861e-08 -1.2312974e-08 -2.5660166e-08 -6.6690835e-09 1.4912334e-08 3.395663e-08 7.332966e-10 -1.2013235e-08
1.3557571e-08 -3.060587e-09 -9.470196e-09 8.112459e-09 -3.1336718e-08 -1.0308457e-08 -9.104081e-09 -2.0156483e-08
1.1439773e-08 1.0577148e-08 -1.1427321e-09 1.1974998e-09 7.916039e-09 7.216116e-09 5.6419367e-09 5.9614236e-10
1.8805794e-08 -5.550083e-09 -5.6459555e-08 3.677155e-08 -2.2208994e-08 3.8144595e-08 2.2832104e-08 1.0051332e-08
-1.1030898e-08 -1.3975991e-08 -6.7128234e-08 4.4743857e-08 1.4115153e-07 9.0279606e-08 1.1823498e-07 -6.981236e-08
-7.307759e-08 3.615414e-08 1.1117053e-07 3.648259e-08 -1.5974537e-07 -1.2528565e-07 1.0124372e-07 5.8460703e-08
4.070188e-08 -1.5350471e-08 2.1008097e-09 3.910802e-08 8.168118e-08 6.1760184e-09 -1.0946646e-07 -6.260409e-08
4.2415184e-08 1.8272058e-08 9.6715995e-09 -2.7026925e-09 1.1762303e-09 1.92639e-08 3.8128643e-08 -2.9033604e-09
-7.779641e-08 -2.166437e-08 3.836568e-08 1.2661492e-08 1.0968315e-08 5.958812e-10 3.6319943e-09 2.369595e-08
1.3537436e-08 -9.065202e-09 -5.408442e-08 -2.962523e-08
00000000: 6cbd fa31 c915 bdb2 03ae a432 b184 7eb2
00000010: 516b 0db3 0fe7 05b2 3c3e aa32 4ce9 ebb0
00000020: 5e87 0db4 a5b4 e9b1 125a f432 11ce 8633
00000030: a4bc a4b1 0785 1533 9466 2633 6487 4833
00000040: 032c cfb2 0fa7 5fb2 6907 8733 984e 30b3
00000050: d363 3bb3 e4cf 87b2 4c11 b9b2 d741 8b32
00000060: 89b1 4332 0889 53b2 4d6b dcb2 e125 e5b1
00000070: 9218 8032 b6d7 1133 2991 4930 c462 4eb2
00000080: d4ea 6832 6a52 52b1 5db2 22b2 f95e 0b32
00000090: 1697 06b3 1319 31b2 2c68 1cb2 9324 adb2
000000a0: a788 4432 cab6 3532 500e 9db0 4795 a430
000000b0: 1cff 0732 a1f1 f731 00db c131 cadd 2330
000000c0: 618a a132 0cb3 beb1 f07d 72b3 bfee 1d33
000000d0: 18c6 beb2 6dd4 2333 5420 c432 3aae 2c32
000000e0: 6782 3db2 0f1b 70b2 2328 90b3 642c 4033
000000f0: 708f 1734 bddf c133 5ee8 fd33 c0eb 95b3
00000100: d4ee 9cb3 e647 1b33 a5bc ee33 08b1 1c33
00000110: 7986 2bb4 4286 06b4 536b d933 3916 7b33
00000120: 31d0 2e33 0bdc 83b2 d65d 1031 b9f7 2733
00000130: b468 af33 d534 d431 d313 ebb3 f670 86b3
00000140: fd2b 3633 aef4 9c32 2528 2632 45ba 39b1
00000150: eda8 a130 c479 a532 e3c2 2333 7584 47b1
00000160: 0711 a7b3 7418 bab2 83c7 2433 d585 5932
00000170: 296f 3c32 69cb 2330 b896 7931 f28b cb32
00000180: 4692 6832 2ebd 1bb2 734a 68b3 927a feb2

exp_avg_sq f4 [10, 10]
8.9077734e-10 1.835717e-08 1.0955888e-08 2.0367717e-10 6.163589e-10 4.2570975e-10 3.0988256e-10 2.1079958e-09
2.8836945e-08 8.1920195e-09 9.69174e-10 1.996367e-08 1.1928564e-08 2.1971998e-10 6.7065553e-10 4.6320398e-10
3.3796743e-10 2.2920037e-09 3.1378274e-08 8.918833e-09 1.3582932e-10 2.8018636e-09 1.6725031e-09 3.1004827e-11
9.403474e-11 6.4969904e-11 4.734594e-11 3.2172265e-10 4.4018265e-09 1.2507277e-09 5.3121996e-10 1.0949741e-08
6.538376e-09 1.2100226e-10 3.6753087e-10 2.5394267e-10 1.8517853e-10 1.2575101e-09 1.7205956e-08 4.8891655e-09
2.4799567e-11 5.0511334e-10 3.0165506e-10 5.6509073e-12 1.7035534e-11 1.1772824e-11 8.540094e-12 5.8053472e-11
7.936736e-10 2.2538019e-10 3.4077197e-10 7.032589e-09 4.1985446e-09 7.7726915e-11 2.3570626e-10 1.6312533e-10
1.1922768e-10 8.077764e-10 1.10479785e-08 3.140138e-09 1.9098525e-09 3.9379184e-08 2.3500009e-08 4.3696866e-10
1.3225075e-09 9.1308755e-10 6.6419087e-10 4.520676e-09 6.1853086e-08 1.7571573e-08 5.9639127e-10 1.2285254e-08
7.3353745e-09 1.3600428e-10 4.1260745e-10 2.8492378e-10 2.0754198e-10 1.410643e-09 1.9302412e-08 5.484481e-09
2.8327837e-10 5.8332685e-09 3.4831913e-09 6.457112e-11 1.9602008e-10 1.3527174e-10 9.8431964e-11 6.696307e-10
9.165128e-09 2.6040874e-09 6.739821e-10 1.3889624e-08 8.294534e-09 1.5343592e-10 4.665071e-10 3.2212544e-10
2.3471314e-10 1.5946998e-09 2.1825562e-08 6.2018684e-09
00000000: e2da 7430 d8af 9d32 8138 3c32 07f2 5f2f
00000010: 676c 2930 5209 ea2f 185c aa2f 41dc 1031
00000020: 1db5 f732 e2bc 0c32 c733 8530 937c ab32
00000030: 61ee 4c32 ad95 712f 3059 3830 2aa6 fe2f
00000040: b0cc b92f 5b81 1d31 c7c4 0633 7139 1932
00000050: 8e58 152f e88a 4031 f9dd e530 555c 082e
00000060: dac8 ce2e cede 8e2e ca3a 502e 70de b02f
00000070: e03e 9731 12e6 ab30 4805 1230 781d 3c32
00000080: 2aa8 e031 1c0b 052f 5f0d ca2f 419b 8b2f
00000090: 1f9b 4b2f b4d4 ac30 4ccc 9332 8efd a731
000000a0: a923 da2d 31d8 0a30 2dd6 a52f d9d2 c62c
000000b0: 9dd8 952d 161c 4f2d 2a3d 162d 6652 7f2e
000000c0: d129 5a30 e2ce 772f 6457 bb2f 4fa3 f131
000000d0: ca42 9031 5dec aa2e b594 812f b35b 332f
000000e0: 9c17 032f 360a 5e30 86cd 3d32 e4c9 5731
000000f0: 7b3e 0331 df21 2933 11dd c932 df39 f02f
00000100: 99c3 b530 d3fc 7a30 4792 3630 4954 9b31
00000110: 18d4 8433 4cf0 9632 4eef 2330 1e0f 5332
00000120: a30a fc31 cd89 152f 56d5 e22f 75a3 9c2f
00000130: e031 642f 97e0 c130 74ce a532 0172 bc31
00000140: e3bb 9b2f f96d c831 f35c 6f31 4ffe 8d2e
00000150: bf86 572f 9cbb 142f 4574 d82e 1211 3830
00000160: a974 1d32 97f3 3231 4643 3930 369f 6e32
00000170: bf7f 0e32 5fb4 282f 853b 0030 2017 b12f
00000180: f008 812f 832c db30 eb7a bb32 3618 d531

exp_avg f4 [10]
2.4753344e-08 1.3875804e-07 -5.414279e-08 7.295024e-08 8.615242e-11 -3.615608e-08 2.8160392e-07 1.0722469e-07
2.4718533e-08 5.9136806e-08
00000000: 2ea1 d432 85fd 1434 a18a 68b3 d2a8 9c33
00000010: 8073 bd2e 084a 1bb3 592f 9734 6643 e633
00000020: a154 d432 9bfd 7d33

exp_avg_sq f4 [10]
1.8668463e-07 2.0318791e-07 2.8500077e-08 1.11400375e-07 5.136433e-09 7.155081e-08 4.0043605e-07 1.2496899e-07
5.9335047e-08 1.4130877e-07
00000000: 7b73 4834 de2b 5a34 55d0 f432 013b ef33
00000010: 8b7c b031 79a7 9933 83fb d634 372f 0634
00000020: 93d7 7e33 a9ba 1734

exp_avg f4 [17]
-2.7984123e-08 -4.6985484e-08 -4.173052e-08 -7.3960194e-08 -3.683982e-08 4.2738222e-08 -3.6088146e-08 -1.6042597e-08
-6.748294e-08 2.4256401e-08 -5.870875e-09 1.5785931e-09 -1.7109684e-08 -7.2247737e-09 1.9122637e-09 -6.662e-09
2.3030724e-09
00000000: bd61 f0b2 16cd 49b3 313b 33b3 0cd4 9eb3
00000010: cf39 1eb3 2c8f 3733 56ff 1ab3 0bce 89b2
00000020: 23eb 90b3 645c d032 c3b8 c9b1 cff5 d830
00000030: 98f8 92b2 c83d f8b1 e668 0331 92e7 e4b1
00000040: 1444 1e31

exp_avg_sq f4 [17]
6.1701484e-11 5.7233548e-11 2.5191155e-10 1.35922775e-11 1.347146e-11 2.255726e-11 2.7061771e-11 2.9558933e-12
1.9359066e-10 3.1187497e-11 3.4371943e-11 7.302121e-12 4.375951e-10 3.1360532e-11 8.732476e-13 6.8379794e-12
3.9438526e-12
00000000: d9ae 872e 3fb7 7b2e 667d 8a2f 2d1e 6f2d
00000010: 10fe 6c2d 6f6a c62d b109 ee2d a400 502c
00000020: edda 542f 002a 092e 5e2b 172e d475 002d
00000030: 0992 f02f d2ec 092e 1fcc 752b 0b97 f02c
00000040: 11c3 8a2c

exp_avg f4 [10]
-3.8188386e-09 -2.6117306e-08 6.415455e-10 5.806899e-09 6.119498e-08 -1.9105386e-08 9.058309e-08 -2.2034683e-08
7.268178e-09 3.800318e-08
00000000: dc36 83b1 9058 e0b2 c058 3030 0686 c731
00000010: 4c6a 8333 301d a4b2 9586 c233 c846 bdb2
00000020: 92bb f931 f038 2333

exp_avg_sq f4 [10]
2.5473534e-09 2.1237027e-10 6.4576287e-09 7.946269e-09 1.735077e-09 7.1002165e-10 2.5565474e-09 1.4997996e-10
3.4733757e-12 6.024342e-11
00000000: 840d 2f31 eb80 692f e7e1 dd31 1084 0832
00000010: 9877 ee30 552b 4330 42af 2f31 9be7 242f
00000020: c66a 742c 087a 842e

exp_avg f4 [45]
1.2265104e-09 -2.822512e-09 7.689732e-09 2.7177838e-09 -2.6219522e-09 -2.3338252e-08 7.916132e-09 1.0575602e-09
-8.577943e-09 -4.7452278e-09 -2.1192353e-08 -1.4265794e-08 7.826151e-09 1.7264522e-10 1.6569663e-08 2.620911e-08
2.5904912e-09 3.220859e-08 -9.508351e-10 1.1508478e-08 -2.507547e-09 4.0849027e-08 -5.7692323e-10 -2.0991323e-10
1.661439e-08 2.5855512e-08 8.629011e-09 -7.719803e-09 -1.597594e-08 -4.7254214e-09 2.5179043e-08 -2.3598958e-09
-1.5150253e-08 4.127609e-09 5.0830713e-09 -1.120748e-08 -1.2351076e-08 9.979367e-09 6.617432e-08 7.3462183e-09
-1.5523858e-08 1.0504468e-08 6.7313954e-09 -4.2238533e-09 9.425937e-09
00000000: 0092 a830 28f6 41b1 cd1b 0432 c2c3 3a31
00000010: df2d 34b1 5c79 c8b2 84ff 0732 9759 9130
00000020: 315e 13b2 770b a3b1 7a0a b6b2 a015 75b2
00000030: c773 0632 4fd3 3d2f 1355 8e32 7122 e132
00000040: 6704 3231 b855 0a33 89ae 82b0 d2b6 4532
00000050: 3c51 2cb1 fb71 2f33 5d95 1eb0 52cd 66af
00000060: 6eb7 8e32 df18 de32 cb3e 1432 0da0 04b2
00000070: 773b 89b2 3f5d a2b1 4d49 d832 ba2b 22b1
00000080: c223 82b2 d5d2 8d31 2ba7 ae31 058b 40b2
00000090: 9b30 54b2 b871 2b32 b81b 8e33 056a fc31
000000a0: 5359 85b2 2477 3432 fb49 e731 6821 91b1
000000b0: b6ef 2132

exp_avg_sq f4 [45]
5.0113306e-11 4.5575543e-11 2.1510331e-10 2.3858976e-11 1.0679368e-11 1.7534552e-09 2.1202212e-10 1.2278365e-11
6.391025e-11 2.2352196e-12 1.5952362e-09 6.838573e-11 2.0511344e-10 2.4356407e-12 1.870202e-09 6.6138813e-12
1.15806996e-10 8.25007e-10 2.250543e-12 9.949324e-14 4.4970343e-12 4.0200354e-09 4.1020308e-12 2.3511458e-11
1.1961744e-10 1.6223378e-10 1.1854925e-12 5.0155106e-12 1.547517e-10 6.3336267e-13 3.3011578e-09 6.5274265e-11
2.0493718e-11 1.0909342e-10 3.9156992e-10 1.8623987e-10 1.5538525e-11 2.1084269e-10 9.932606e-10 1.0077002e-11
3.7866144e-10 4.1117398e-10 1.8501765e-12 1.0813501e-10 2.932554e-10
00000000: 9166 5c2e 8071 482e 3382 6c2f a3dd d12d
00000010: 99df 3b2d 38fe f030 ec1e 692f d700 582d
00000020: 468a 8c2e 234a 1d2c 623f db30 be61 962e
00000030: 4d86 612f 9a64 2b2c f184 0031 8cb4 e82c
00000040: 8ba9 fe2e b5c6 6230 2e5e 1e2c f309 e029
00000050: af39 9e2c 9b20 8a31 cf53 902c 19cf ce2d
00000060: 5185 032f c060 322f ded7 a62b b477 b02c
00000070: bb26 2a2f 9746 322b 95da 6231 258a 8f2e
00000080: c043 b42d 23e6 ef2e 9144 d72f ddc5 4c2f
00000090: a6ad 882d f1d2 672f 4083 8830 c846 312d
000000a0: dc2b d02f 980b e22f d131 022c 99ca ed2e
000000b0: 0738 a12f

exp_avg f4 [10]
-5.6356114e-08 -2.6385223e-08 -3.1452316e-08 -3.1619127e-08 -6.3093644e-08 1.4996239e-08 3.200622e-08 -2.078385e-08
5.089587e-08 7.3202626e-09
00000000: 340c 72b3 b8a5 e2b2 3016 07b3 99cd 07b3
00000010: 197e 87b3 14d1 8032 3677 0933 2b88 b2b2
00000020: 9a98 5a33 b685 fb31

exp_avg_sq f4 [10]
8.195899e-09 2.0905806e-10 6.214239e-09 3.4846992e-09 9.1028206e-11 1.3750138e-08 1.5375163e-11 4.1155146e-10
5.3003215e-09 3.4611855e-11
00000000: f2cd 0c32 9ddc 652f 0685 d531 7a77 6f31
00000010: 532c c82e bf39 6c32 ca3d 872d b840 e22f
00000020: 1f1e b631 7c39 182e

exp_avg f4 [10, 10]
-1.9306311e-08 -1.0300993e-08 -1.26043345e-08 -1.11020295e-08 -1.648711e-08 1.2763952e-09 1.2723866e-08 4.046134e-10
-2.1449005e-09 -2.3403118e-08 -3.0630771e-09 9.679368e-09 -2.7339053e-09 -6.895929e-09 -3.652049e-08 4.917391e-09
8.814666e-09 2.2868054e-08 5.41245e-09 2.1661508e-08 1.2625164e-08 7.055023e-09 8.328479e-09 8.6442515e-09
1.8034635e-08 2.5016043e-09 -7.4043345e-09 -2.874678e-10 2.852249e-10 1.2641722e-08 -1.34193145e-08 -1.6606263e-08
-7.464005e-09 -1.7506244e-08 8.483479e-09 -4.1280934e-09 -1.8050423e-08 -1.2464265e-08 -1.2822721e-09 -5.78444e-08
-7.724194e-09 3.5297345e-09 -4.07443e-09 -3.0778398e-09 -2.4845257e-08 7.084874e-09 3.945518e-09 1.5010196e-08
-4.0220915e-10 2.0724663e-08 8.31537e-09 6.312868e-09 5.7394587e-09 9.28342e-09 1.2916461e-08 3.4470806e-09
9.964926e-10 1.1569607e-09 -3.045479e-10 1.790579e-08 -2.9721398e-10 -1.4767532e-08 3.7126078e-09 -5.933825e-09
3.713928e-08 -6.537993e-09 2.5328657e-08 -3.9593004e-09 -2.3122757e-09 -7.471143e-08 -1.9086793e-08 -9.966599e-09
-1.2869933e-08 -6.213324e-09 -1.30230635e-08 2.126959e-09 3.6842158e-09 -6.493049e-09 -4.107353e-09 -8.228246e-09
-1.3793148e-08 -2.9216671e-09 -8.295597e-09 2.5877556e-10 -1.7847338e-08 3.7548524e-09 2.725751e-08 7.054956e-09
-3.0452003e-09 1.1182164e-08 -2.156174e-08 -9.917425e-09 -1.7421751e-08 -5.4884604e-09 -3.3968657e-08 -9.42592e-09
6.370749e-08 -1.0846499e-10 1.3077355e-09 -1.6024572e-08
00000000: 07d7 a5b2 3ff8 30b2 738a 58b2 3ebb 3eb2
00000010: 8a9f 8db2 2a6d af30 2898 5a32 4670 de2f
00000020: 7d65 13b1 0008 c9b2 397e 52b1 504a 2632
00000030: 5fdf 3bb1 3cf1 ecb1 b4da 1cb3 d4f5 a831
00000040: 506f 1732 626f c432 6af8 b931 2912 ba32
00000050: 0fe6 5832 a368 f231 0a15 0f32 d281 1432
00000060: 95ea 9a32 b0e8 2b31 3769 feb1 7f09 9eaf
00000070: d6cd 9c2f e22e 5932 c58a 66b2 8fa5 8eb2
00000080: 0b3b 00b2 a360 96b2 bcbe 1132 18d7 8db1
00000090: 4d0d 9bb2 6b22 56b2 f03b b0b0 9770 78b3
000000a0: 5db3 04b2 bf8f 7231 11ff 8bb1 ee81 53b1
000000b0: 4c6b d5b2 366f f331 2591 8731 c5ef 8032
000000c0: e81d ddaf 0406 b232 62db 0e32 93e8 d831
000000d0: d034 c531 ea7c 1f32 32e7 5d32 afe1 6c31
000000e0: f7f4 8830 f002 9f30 4e6d a7af 40cf 9932
000000f0: 2665 a3af 4bb4 7db2 e320 7f31 7ae2 cbb1
00000100: 1283 1f33 cba4 e0b1 4e92 d932 600a 88b1
00000110: fce5 1eb1 0b71 a0b3 4df4 a3b2 9139 2bb2
00000120: 901a 5db2 fa7c d5b1 0abc 5fb2 dc29 1231
00000130: 692d 7d31 7719 dfb1 a920 8db1 355c 0db2
00000140: e8f6 6cb2 83c6 48b1 6c84 0eb2 6c43 8e2f
00000150: b64e 99b2 0804 8131 e623 ea32 0d68 f231
00000160: bb43 51b1 ad1b 4032 c536 b9b2 4c61 2ab2
00000170: d6a6 95b2 0295 bcb1 efe4 11b3 a2ef 21b2
00000180: 90cf 8833 5c84 eeae dabb b330 68a6 89b2

exp_avg_sq f4 [10, 10]
5.2914734e-10 1.680284e-10 2.5443528e-10 3.38482e-10 8.543544e-10 1.437905e-12 2.8293706e-11 2.068131e-13
1.0135121e-12 1.2470177e-09 2.9219968e-10 8.065009e-11 1.4173332e-10 1.6658495e-10 5.2800303e-10 2.7388608e-13
2.56404e-11 5.1031526e-13 4.4002768e-13 5.2127763e-10 9.362372e-12 3.5350561e-12 4.4786817e-12 6.8880405e-12
1.29763995e-11 7.383825e-14 1.895668e-13 5.5905645e-14 1.0360053e-13 2.9676137e-11 2.2218902e-09 6.599629e-10
1.0750185e-09 1.341503e-09 3.788709e-09 3.8910064e-12 1.4522696e-10 1.1653668e-12 3.3726331e-12 4.560331e-09
1.4330728e-09 4.826237e-10 6.871008e-10 9.618745e-10 2.19715e-09 5.23643e-12 5.5363058e-11 6.899714e-13
1.9326099e-12 3.7597023e-09 5.511844e-14 6.329215e-14 2.4116844e-14 1.0575606e-13 6.391481e-14 1.2971551e-14
1.7507769e-13 4.985438e-14 2.599217e-14 9.0234986e-13 7.260545e-11 2.38329e-11 3.4700753e-11 4.7862856e-11
1.14325396e-10 2.7625252e-13 4.1413726e-12 7.918358e-14 4.3279199e-13 1.8472238e-10 1.0125258e-09 3.1383302e-10
4.8665477e-10 6.3572e-10 1.6679987e-09 2.2748908e-12 6.4348624e-11 4.9626264e-13 1.4319654e-12 2.2955622e-09
1.3948994e-09 4.300661e-10 6.719606e-10 8.70467e-10 2.307625e-09 3.0871495e-12 8.4619325e-11 5.6835244e-13
2.1436613e-12 3.106351e-09 9.368707e-09 2.7775184e-09 4.5272985e-09 5.6544835e-09 1.6004522e-08 1.5868069e-11
6.459229e-10 6.0900065e-12 1.3527544e-11 1.9259133e-08
00000000: 6f73 1130 cabf 382f 95e0 8b2f 1b15 ba2f
00000010: d9d7 6a30 fd5d ca2b c3df f82d d1d9 682a
00000020: 9fa3 8e2b 8963 ab30 73a3 a02f f759 b12e
00000030: 62d6 1b2f 7f29 372f e922 1130 252f 9a2a
00000040: 0c89 e12d 17a4 0f2b acb6 f72a a749 0f30
00000050: 60b4 242d e9c1 782c 6194 9d2c f459 f22c
00000060: 8248 642d da44 a629 e96e 552a d2c6 7b29
00000070: a449 e929 5c84 022e e8af 1831 c368 3530
00000080: dabf 9330 f15f b830 d62d 8231 12e7 882c
00000090: c1ad 1f2f c402 a42b f553 6d2c 18b1 9c31
000000a0: c4f5 c430 a0a9 0430 6cde 3c30 f332 8430
000000b0: acfc 1631 923d b82c 437d 732e ae35 422b
000000c0: cefe 072c b12e 8131 3c3b 7829 7185 8e29
000000d0: a839 d928 3824 ee29 61ec 8f29 b8ac 6928
000000e0: b51e 452a 3086 6029 dd1d ea28 29fd 7d2b
000000f0: 3ca9 9f2e eba2 d12d 939d 182e c980 522e
00000100: 7a67 fb2e 2f84 9b2a 2bb6 912c 3a4e b229
00000110: e6a3 f32a ba1a 4b2f 1629 8b30 1288 ac2f
00000120: 49c5 0530 d1be 2e30 7d3f e530 ca14 202c
00000130: 0e81 8d2e 7eaf 0b2b fe87 c92b f5bf 1d31
00000140: a9b6 bf30 6c6e ec2f 06b5 3830 ab45 6f30
00000150: 2b94 1e31 243d 592c 7214 ba2e 1cfa 1f2b
00000160: c5d8 162c 8177 5531 02f4 2032 9fde 3e31
00000170: 8a8e 9b31 5d49 c231 517a 8932 b793 8b2d
00000180: c98c 3130 e745 d62c a4fa 6d2d 486f a532

exp_avg f4 [10]
-5.5465502e-08 3.543967e-08 1.1244128e-08 -9.688299e-08 1.7149887e-08 2.5154174e-08 -8.670358e-09 -6.113611e-08
2.2324375e-08 3.1337425e-08
00000000: f738 6eb3 5436 1833 332c 4132 fd0d d0b3
00000010: 0051 9332 9d12 d832 a3f4 14b2 ef49 83b3
00000020: d2c3 bf32 dd97 0633

exp_avg_sq f4 [10]
6.8160495e-09 3.2554797e-09 1.494901e-10 2.6831572e-08 1.9654102e-08 4.070249e-12 9.586877e-10 1.2605881e-08
1.739303e-08 1.12311405e-07
00000000: 9b32 ea31 01b7 5f31 b95d 242f 407b e632
00000010: d4d3 a832 8b35 8f2c d3c2 8330 4091 5832
00000020: ad67 9532 d92f f133
