models/ensembles/ensemble_25_unbootsrapped/model2/model_checkpoint-10000.pt (torch, 14893 bytes, 24 tensors)

branch.hidden_layers.0.thetas f4 [55]
000000 95 45 8a bf 5e 6b 64 bf 4f f9 8a 3f 0e f9 b0 bf
       -1.0802485 -0.8922633 1.0857333 -1.3826005
000010 ee e3 9c 3e 03 0a 03 40 41 38 87 bf 10 cb 8c 3f
       0.30642647 2.047486 -1.0564042 1.099947
000020 68 d2 74 bf 90 d6 42 3e 3c 5f 83 3f 29 96 cb 3f
       -0.95633554 0.19027162 1.0263438 1.59052
000030 fe c7 c5 be f2 5a 25 bf e6 e3 cf 3e 5c b6 c8 bf
       -0.38629144 -0.64591897 0.4060356 -1.5680652
000040 99 80 19 3e a1 26 89 bc db 5e 92 3f f6 32 4b 3f
       0.14990462 -0.016742053 1.1435198 0.79374635
000050 28 4d 22 3f b4 23 0a c0 21 66 ed 3e da 10 95 3f
       0.6339898 -2.1584291 0.4636698 1.1645768
000060 c8 4b ea be 0a cc 3e 3e cd 10 b4 bf 49 bf a4 bd
       -0.45760942 0.18632522 -1.4067627 -0.08044297
000070 b6 12 c6 be 22 ea e7 3e e4 f5 3c bf a6 22 94 bf
       -0.3868615 0.45295817 -0.738127 -1.1573074
000080 94 7f c5 3e 7d 28 64 be ce c5 39 3f 6a 63 33 bf
       0.38573897 -0.2228107 0.7256745 -0.7007357
000090 a9 17 b5 3e ec bd 7c 3f da a1 45 3f c0 56 fd 3e
       0.35369614 0.987273 0.7720009 0.49480247
0000a0 d2 83 6a bf 4a 74 a0 bf 7f 85 c4 3f d6 b5 22 3f
       -0.9160739 -1.2535489 1.535324 0.6355871
0000b0 ac d8 2f 3f 96 cc 48 3c 63 1c ac 3f 1e 93 d7 bc
       0.6868999 0.012255808 1.3446163 -0.026315268
0000c0 76 8b 9c bf 94 6b 2c bf 5e c1 36 bf f3 fa 57 3e
       -1.223006 -0.6735165 -0.71388805 0.21091823
0000d0 ca a1 5c 3f 29 dc a3 be d3 d9 0b 40
       0.8618437 -0.32003906 2.18517

branch.hidden_layers.0.bias f4 [10]
000000 3f 7e b4 3e 50 1e f3 3e 50 fd d1 3e 3a 9c 1e 3f
       0.35252568 0.47484064 0.41013575 0.6195713
000010 7a 0f 8a 3e 68 fd 85 3e 77 bc ef 3e ac f7 18 3e
       0.26964933 0.26169896 0.46823475 0.1493823
000020 6a 88 e0 3e a0 a6 64 3e
       0.43854076 0.22329187

branch.output_layer.weight f4 [10, 10]
000000 99 c1 13 3d c1 92 78 3e 08 3c df 3d ce f9 ab be
       0.0360733 0.24274732 0.10900122 -0.33589023
000010 c7 49 04 bf 7f 3f 1e bf c9 92 5f 3e 04 c5 c5 be
       -0.51675075 -0.6181564 0.21833338 -0.38626873
000020 bf ee 32 bf 89 7c 52 3d fe a6 14 3f b1 5b 07 bf
       -0.6989555 0.051388297 0.5806731 -0.52874285
000030 fa 74 2a 3f 1d fc 77 3e 94 37 d2 3e ff 71 bb 3e
       0.6658474 0.24217267 0.41058028 0.3661041
000040 11 1d 0a bf 8d 6e 19 be 4c 07 a6 be 31 8e bd be
       -0.539506 -0.14983578 -0.32427442 -0.37022546
000050 18 8e cf be 8f 06 72 3e 03 fa 75 be 7c 7b e5 3e
       -0.40538096 0.23635314 -0.24021153 0.44820774
000060 e5 b2 2a bf 5a 31 60 be 28 f4 f5 3d a8 2c 54 3e
       -0.6667922 -0.21893826 0.1200946 0.2072016
000070 b5 78 9f be 98 0f 70 bc b4 17 9d be 90 c3 3a 3f
       -0.3114678 -0.014652155 -0.30682147 0.72954655
000080 44 4f 0c 3d 1d 63 17 bf e5 dc 7f 3d 76 cd 34 be
       0.03425528 -0.5913561 0.06246652 -0.17656502
000090 0f c8 17 3f 8e eb 9a be 18 eb b6 3e 15 cb 37 bd
       0.5928964 -0.3025784 0.35726237 -0.04487141
0000a0 e0 55 12 bf b0 b6 07 3f 71 eb 01 bf f6 44 36 3e
       -0.57162285 0.53013134 -0.5074988 0.17799744
0000b0 72 31 dd be c3 0c f8 be 90 4f 15 3f 9f 23 3d 3d
       -0.43201786 -0.48447236 0.5832453 0.04617655
0000c0 f4 c2 e8 3b 4b 4e 52 3e 06 e0 6c 3e 1f ff cd 3e
       0.0071033183 0.20537679 0.23132333 0.40233704
0000d0 54 7b 0d 3f af 50 9d bf 08 94 07 bd 31 ab 04 bf
       0.5526631 -1.2290248 -0.033100158 -0.5182372
0000e0 86 8f 1a 3e 65 54 0d bf e7 98 31 3f 2f 5b 5f 3e
       0.15093812 -0.552069 0.69373935 0.21812128
0000f0 ab 6f 62 bb fc 5a e7 be 54 f6 82 3e 8e 8d c0 be
       -0.0034551423 -0.45186603 0.25578558 -0.37607998
000100 7e 90 e7 3e 1a c3 04 3f d1 03 24 be 47 2d 21 be
       0.45227426 0.518602 -0.16017081 -0.15739928
000110 b1 d0 7e be bf 47 d6 3d ca 44 04 3e f3 62 c2 3c
       -0.24884297 0.10462903 0.12916866 0.023728823
000120 b3 62 ce bc c5 c6 22 be 86 54 46 3f 47 15 c9 3e
       -0.025193548 -0.15896137 0.7747272 0.39274046
000130 62 51 84 bd 82 01 8b 3e ec e8 ee 3e 6f 53 31 be
       -0.06460835 0.27149588 0.4666208 -0.17316984
000140 de 7b 40 3f 6a 24 2a bf 79 d5 3a 3e 94 cd 83 be
       0.75189006 -0.66461813 0.18245496 -0.2574278
000150 23 79 07 3f 9e 39 1f 3f 6a 20 b4 be 45 aa 70 bd
       0.52919215 0.6219729 -0.3518098 -0.05875613
000160 ac ef 0f 3e 67 99 57 be 24 cd 57 3f 9f f1 0f bd
       0.14056271 -0.21054612 0.84297395 -0.035142537
000170 6b a0 0f 3f c3 a1 9e bd 9f 19 98 3e 50 f9 df 3e
       0.56104153 -0.07745697 0.29707047 0.43744898
000180 d3 61 13 bf 10 7a 9f be 8f 62 4a bf 3b 92 5b 3e
       -0.5757114 -0.31147814 -0.7905664 0.21442501

branch.output_layer.bias f4 [10]
000000 41 32 bb 3e 75 47 11 be 50 e9 de bd ef 1e 5d 3d
       0.36561778 -0.14187415 -0.108843446 0.05398458
000010 ed 96 90 bc 59 01 a6 3c 1c 6e 94 3d 4f db 80 be
       -0.017650092 0.020264314 0.07247564 -0.2516732
000020 76 1e d0 be 3f 71 75 3d
       -0.4064824 0.059922453

trunk.hidden_layers.0.thetas f4 [17]
000000 29 14 d3 bf 54 62 a6 bf 19 c7 c6 3e ae cf 7e bf
       -1.6490527 -1.2998757 0.38823774 -0.99535644
000010 ca cd 38 3f 59 17 db 3e 8b 5d 5d be 91 fd 51 3f
       0.7218901 0.4279125 -0.21617715 0.82027537
000020 f6 5f e6 bf 7d 11 3b bf b2 d9 dc bf 84 7b 07 bf
       -1.7998035 -0.7307356 -1.7253935 -0.52922845
000030 56 28 37 bf b7 98 10 3e 57 de 89 be 0a 74 80 be
       -0.7154592 0.14120756 -0.26927444 -0.2508853
000040 19 db 1d 3e
       0.1541561

trunk.hidden_layers.0.bias f4 [10]
000000 d3 aa a4 be 52 74 c4 3e d1 1b c6 3e 5d 52 34 3f
       -0.3216158 0.38369995 0.38693097 0.70438176
000010 c3 b5 db 3e f4 ab 04 3f 3b ab 86 3f 32 af ac 3e
       0.4291211 0.5182488 1.0521005 0.33727413
000020 92 32 53 be e5 54 8f 3e
       -0.2062476 0.27994457

trunk.output_layer.weight f4 [10, 10]
000000 f7 63 05 3e 76 9e 28 3e 7a 6b ff 3e df 3c 03 3f
       0.13026415 0.16466698 0.49886686 0.51264757
000010 19 2b 4b 3f 00 46 06 3f e0 d5 bd bf 31 4e 05 3f
       0.79362637 0.5245056 -1.4830894 0.52072436
000020 de cb 15 bf d8 c8 64 3f 13 8a 57 3e fb 87 3c bf
       -0.585142 0.89368963 0.21048765 -0.7364499
000030 e0 54 4e bf d4 6c a7 bf be 39 6c bf 7f bf f9 be
       -0.8059826 -1.3080087 -0.9227561 -0.48778912
000040 1e 05 93 3f 9f b8 23 bf ec 6b 3a be af 3a cd bc
       1.1485937 -0.63953584 -0.18205231 -0.025052397
000050 55 20 9c be 48 9b 12 3e 6b 05 eb bc b8 40 19 bd
       -0.30493417 0.14317048 -0.028689107 -0.037415236
000060 40 52 bb bd 27 1b d1 3e f3 aa ad 3e 51 ac cf 3e
       -0.09146547 0.40841028 0.33919486 0.40561154
000070 32 48 1f bf 5c d1 61 3f 94 15 39 bf ee 81 3f 3f
       -0.62219536 0.8821008 -0.7229855 0.7480763
000080 73 e1 61 3f 01 85 7d 3f 7a c9 18 3f 84 cd fc 3e
       0.88234633 0.9903107 0.5968243 0.49375546
000090 31 e2 7e 3e 03 ab ed 3e 38 58 2c bb f5 33 cb be
       0.24890973 0.46419534 -0.00262977 -0.39688078
0000a0 4f 0b 2b bf b9 d8 f4 3e 19 7f 18 3e ea 13 05 3f
       -0.6681413 0.47821596 0.14892234 0.5198351
0000b0 14 d9 4b 3f 43 56 2f 3f 68 af 30 3f 9b c6 74 3e
       0.7962811 0.68491 0.6901765 0.23903887
0000c0 00 5e db be e7 17 a9 3e 7b 08 10 bf 9d d9 52 3f
       -0.42845154 0.3302605 -0.5626294 0.823633
0000d0 03 b9 9d 3f da 95 7c 3f bd 91 28 3f 92 8f 15 3f
       1.2322086 0.98666155 0.6584738 0.58422196
0000e0 c2 d1 a8 bf d2 32 18 3f 9b 08 bf 3e b9 da 00 bc
       -1.3189013 0.59452546 0.37311253 -0.007864648
0000f0 ce 44 ca 3e ff 87 f3 3c e1 af a4 bc b6 cb 3c bf
       0.3950562 0.029727934 -0.020103397 -0.7374834
000100 5b 6d 4a be b0 dd 81 bc 8a 73 5a be 95 2d 36 bd
       -0.19768278 -0.01585278 -0.21333137 -0.044477064
000110 76 24 b2 3d 2b 7c a2 be 9b 6a 84 3e b1 96 96 be
       0.086983606 -0.31735358 0.25862584 -0.29411843
000120 af 92 86 be c2 de 76 bf c2 2d 97 be 66 cc 85 be
       -0.26283786 -0.9643365 -0.29527098 -0.26132506
000130 29 0e c1 3f e0 46 af be c7 1e d8 bd 4c 58 b9 3e
       1.5082446 -0.3423376 -0.10552745 0.36200178
000140 96 fd a9 3c 97 9a 20 bd 9b 82 10 bf 46 5a 5d bf
       0.020750802 -0.03920993 -0.5644929 -0.8646587
000150 20 ae 38 bf a6 72 0c bf 42 ba 79 3f ea 77 b3 bd
       -0.72140694 -0.5486244 0.9754983 -0.08763106
000160 45 76 2c be df e4 91 3d 75 e4 29 3d 23 fe 82 be
       -0.16841991 0.07123732 0.04147764 -0.25584516
000170 ad e1 8e bf bf ba cc bf 12 fd 67 bf 33 e6 73 bf
       -1.1162621 -1.599449 -0.9062053 -0.9527313
000180 0f 9a c9 3f eb 80 db be 64 76 84 3d 9b 14 36 3e
       1.575014 -0.42871794 0.06467894 0.17781298

trunk.output_layer.bias f4 [10]
000000 72 e3 aa 3e f8 4c 15 be 5a 9d f2 3e cf 45 83 3e
       0.33376652 -0.14580142 0.47385675 0.25639197
000010 8e 26 0f 3f b5 1c c1 3c 63 2f 9c be 7f 26 97 bd
       0.55918205 0.023573259 -0.30504903 -0.073803894
000020 0a d2 83 be 42 31 65 bc
       -0.25746185 -0.013988795

exp_avg f4 [55]
000000 d7 1d 03 b6 9f 2e f4 35 95 d3 00 36 37 f7 1e 36
       -1.953789e-06 1.8192985e-06 1.9196643e-06 2.3687733e-06
000010 10 e6 e7 36 17 f8 3d b5 12 61 00 36 a9 c9 9b 35
       6.9111193e-06 -7.0769005e-07 1.9129989e-06 1.1607091e-06
000020 fe 9f 94 36 45 0c 4e 34 bd 8c 85 b6 e6 87 18 b6
       4.4293693e-06 1.9189709e-07 -3.980093e-06 -2.2728868e-06
000030 77 5a b3 35 5e 4a 4e 36 f2 4a 99 b6 2f 86 b5 b5
       1.3362868e-06 3.073968e-06 -4.56848e-06 -1.3524603e-06
000040 f9 05 14 b5 c4 8d 62 b6 d8 23 87 36 a2 8f d6 b5
       -5.514299e-07 -3.3759143e-06 4.0274863e-06 -1.5986045e-06
000050 18 8e 7e 34 eb 58 53 36 d2 a6 3f b6 8f c1 5b 35
       2.3707287e-07 3.1493207e-06 -2.855832e-06 8.186552e-07
000060 69 c4 35 36 ff 2f f1 34 a0 29 26 36 e3 5a c5 35
       2.7085428e-06 4.492467e-07 2.4760157e-06 1.4704095e-06
000070 54 71 04 35 04 dd 31 37 1e b3 bb 34 1e 6e dc 35
       4.9338746e-07 1.0601481e-05 3.496179e-07 1.6423326e-06
000080 b9 ac 85 b6 e7 70 ca 35 99 3f ad b6 07 f1 e1 35
       -3.9838164e-06 1.5083032e-06 -5.1632055e-06 1.6833955e-06
000090 e9 a8 06 35 8e 9a e2 b4 b9 11 11 36 06 7f 3f b5
       5.0164687e-07 -4.2208234e-07 2.1617e-06 -7.133789e-07
0000a0 a9 3a 62 34 f9 f5 bb 35 03 54 fe b5 d8 42 d7 b4
       2.106923e-07 1.4004173e-06 -1.8948925e-06 -4.0095506e-07
0000b0 f7 8f 82 b6 ca 5a c8 b6 45 00 dd 35 21 c1 af 35
       -3.8910616e-06 -5.9710337e-06 1.6465862e-06 1.3094724e-06
0000c0 dc 12 e0 35 30 ff 6f b6 72 fa a8 b5 c1 52 92 35
       1.6694789e-06 -3.5762314e-06 -1.2589865e-06 1.0901932e-06
0000d0 f1 1c 16 35 3f 31 ef 35 bc 94 50 34
       5.592147e-07 1.782122e-06 1.9425619e-07

exp_avg_sq f4 [55]
000000 58 37 d0 30 0d 57 aa 32 9d 34 6a 33 f9 2c 83 33
       1.5149721e-09 1.983019e-08 5.4530222e-08 6.108343e-08
000010 79 37 d8 33 b4 a4 c6 31 84 a8 f7 32 5b 80 b2 32
       1.0068374e-07 5.781283e-09 2.8831217e-08 2.0780297e-08
000020 6d 1f 88 31 36 9d 5b 31 ac 29 4a 32 c8 e7 0a 31
       3.9616936e-09 3.1958058e-09 1.1767423e-08 2.0213395e-09
000030 d3 75 c6 32 7d 24 69 32 fe 5d fb 32 1f b9 6f 32
       2.3103814e-08 1.35706815e-08 2.9262988e-08 1.3953723e-08
000040 f3 bc af 32 03 95 ca 32 d3 7e cf 32 80 50 2e 32
       2.0458605e-08 2.3583658e-08 2.4155645e-08 1.0146437e-08
000050 b4 3f 6b 32 90 26 76 32 b5 19 42 33 c6 ba 3e 32
       1.3693285e-08 1.4327853e-08 4.5192525e-08 1.1101923e-08
000060 b6 64 c6 32 51 d4 85 30 b5 46 62 33 fd 0d 36 31
       2.3096032e-08 9.737368e-10 5.2684033e-08 2.6492437e-09
000070 19 0a fe 32 cd e2 4f 37 37 92 62 32 4c 4a 14 32
       2.9574084e-08 1.2390968e-05 1.3188177e-08 8.631627e-09
000080 af e6 5e 33 f7 bf ef 31 68 db f4 35 5c 29 ca 31
       5.189821e-08 6.9776394e-09 1.8243272e-06 5.8836758e-09
000090 0c 53 01 33 87 9a 22 32 bf 85 9e 35 57 2f 05 33
       3.0110684e-08 9.4647765e-09 1.1810843e-06 3.100953e-08
0000a0 ea 52 97 31 19 b0 00 33 6f bd 61 35 80 8a c1 31
       4.4041046e-09 2.9962482e-08 8.4094694e-07 5.632785e-09
0000b0 12 91 37 30 1b fd 11 36 f7 b0 d6 32 30 dc 8e 32
       6.678117e-10 2.175401e-06 2.4993353e-08 1.6631105e-08
0000c0 a2 8e 3d 32 78 9c d8 31 55 9e 0d 33 40 6a a4 32
       1.1033679e-08 6.304216e-09 3.2973123e-08 1.914043e-08
0000d0 f6 c6 80 33 7d 12 11 33 cd 06 92 32
       5.996655e-08 3.377726e-08 1.699973e-08

exp_avg f4 [10]
000000 38 8e a5 36 2e 60 64 b7 30 05 e6 b5 48 8e fe b6
       4.9339396e-06 -1.3612253e-05 -1.7137845e-06 -7.5863536e-06
000010 08 1e 86 36 1c 17 5b 37 02 6c 11 b7 8c a4 8d b5
       3.9970073e-06 1.3058798e-05 -8.667821e-06 -1.0553208e-06
000020 d2 b3 bd b6 39 50 82 b6
       -5.6535728e-06 -3.883641e-06

exp_avg_sq f4 [10]
000000 3f d0 a4 37 8f 77 3d 38 e7 43 cc 36 48 27 46 36
       1.9647296e-05 4.517246e-05 6.0875786e-06 2.9527164e-06
000010 67 d5 aa 37 79 1f 09 38 64 ae f9 37 7c 2f a0 35
       2.0364952e-05 3.2692657e-05 2.976432e-05 1.1934749e-06
000020 d3 c5 cf 32 d3 b4 20 36
       2.4187932e-08 2.3947111e-06

exp_avg f4 [10, 10]
000000 1b 98 8a b7 57 8b 19 b7 b2 fb e9 b7 c8 73 45 b7
       -1.6521712e-05 -9.151953e-06 -2.789297e-05 -1.1769072e-05
000010 1d 05 7e 37 19 8c 32 36 db 0b eb b6 55 2a 47 36
       1.514077e-05 2.6605614e-06 -7.004926e-06 2.9677951e-06
000020 41 26 35 37 b7 64 77 36 e5 8f 38 b6 65 21 00 34
       1.0797347e-05 3.6864492e-06 -2.7501894e-06 1.1933078e-07
000030 56 b5 aa b6 e0 b6 81 b4 ca 2f b5 36 c5 c7 31 36
       -5.087505e-06 -2.4161181e-07 5.3997837e-06 2.6491336e-06
000040 a0 74 07 b6 96 b9 68 36 48 98 8d 36 1e 5c 8a 36
       -2.0184452e-06 3.467872e-06 4.2198553e-06 4.1234443e-06
000050 ef 24 4e b7 a5 2b f4 b6 9b bf 92 b7 4d aa 45 b7
       -1.2287156e-05 -7.2768476e-06 -1.749378e-05 -1.1781766e-05
000060 81 6b 1e 36 6f 5d 17 b6 94 77 86 b6 9f c4 12 b6
       2.360641e-06 -2.255514e-06 -4.007432e-06 -2.1870144e-06
000070 27 64 b7 36 d4 b9 dd b6 f4 03 d1 36 9d fa fa b5
       5.4654843e-06 -6.6079465e-06 6.2291456e-06 -1.869939e-06
000080 65 1a 01 37 08 24 70 35 37 b7 ed b6 f1 a9 1e b6
       7.695145e-06 8.94594e-07 -7.0844794e-06 -2.3642754e-06
000090 42 97 55 35 5b 1a 97 34 5c 70 89 b6 06 5e c5 34
       7.956879e-07 2.8145118e-07 -4.0959985e-06 3.676252e-07
0000a0 22 45 98 b6 c5 3e cb b6 44 99 f3 b6 21 f5 0c b7
       -4.538001e-06 -6.057179e-06 -7.259807e-06 -8.401724e-06
0000b0 4f a2 4a b6 03 d5 39 b6 fd 98 52 b6 d6 75 1b b5
       -3.0194822e-06 -2.7691137e-06 -3.138149e-06 -5.7913473e-07
0000c0 80 cc 25 36 f8 98 93 b6 de 2a 85 b5 af 7e b0 b6
       2.470595e-06 -4.3987493e-06 -9.921748e-07 -5.2599567e-06
0000d0 66 34 56 b6 1a a3 5a b3 c3 59 83 b5 b1 00 07 b6
       -3.1918985e-06 -5.090542e-08 -9.786385e-07 -2.011697e-06
0000e0 e5 ee b4 35 5b 22 3f b3 4f da 7c b6 18 ec 2e 36
       1.3480573e-06 -4.45019e-08 -3.7677999e-06 2.6065445e-06
0000f0 34 9d 54 b4 76 9d fa 34 bc 0b 0c b4 10 ac 06 35
       -1.9801229e-07 4.6680697e-07 -1.3042785e-07 5.0169274e-07
000100 e4 ac 42 35 80 ea a0 34 f2 e5 4b 34 fa cc 6e b3
       7.252222e-07 2.9972944e-07 1.8989502e-07 -5.560012e-08
000110 51 62 49 32 90 6c 5d 34 f7 11 c3 34 05 30 3d b5
       1.1722094e-08 2.0621724e-07 3.6334652e-07 -7.0477864e-07
000120 27 be 5e 36 26 1e 0d b6 2a 60 ea b6 a3 78 6f b6
       3.319126e-06 -2.1028186e-06 -6.9849384e-06 -3.5683995e-06
000130 be 99 9b b4 b4 e5 1a b6 d2 70 21 b6 4a 10 0b b7
       -2.8982862e-07 -2.3081493e-06 -2.405654e-06 -8.288838e-06
000140 17 28 94 b5 fc fe 99 b3 c4 cb 92 b5 cf fc ca b4
       -1.1038527e-06 -7.170999e-08 -1.0937151e-06 -3.7809374e-07
000150 48 03 81 34 1f 93 45 b2 bf bc 21 b5 52 46 0e 35
       2.403051e-07 -1.1500361e-08 -6.0251836e-07 5.300145e-07
000160 e4 6a 32 35 ac d2 4b b5 9a 0d 63 b6 0c a9 da b4
       6.6465714e-07 -7.592996e-07 -3.3833553e-06 -4.0728662e-07
000170 79 38 9a b6 e1 db f3 34 75 a4 1f 36 69 32 aa 35
       -4.596132e-06 4.542226e-07 2.3788573e-06 1.2680658e-06
000180 f0 29 cb 33 16 67 2c 36 35 9f 0a 36 fc f6 70 36
       9.4605525e-08 2.5690001e-06 2.0656273e-06 3.590655e-06

exp_avg_sq f4 [10, 10]
000000 a1 fa c4 34 11 1b 3a 35 76 f2 0f 35 c5 17 9b 35
       3.6690201e-07 6.9329786e-07 5.362448e-07 1.1555318e-06
000010 b9 7e 43 34 21 d5 26 35 56 94 08 35 ae a2 c4 34
       1.8206892e-07 6.214996e-07 5.0879805e-07 3.662621e-07
000020 06 dc 01 33 a6 df a3 36 4e 96 6f 32 54 9c df 32
       3.0235263e-08 4.8838147e-06 1.3945806e-08 2.6031707e-08
000030 c5 8c ac 32 2f 00 3a 33 5f 52 eb 31 d1 23 cb 32
       2.008745e-08 4.3306667e-08 6.8487647e-09 2.3648598e-08
000040 b0 61 a4 32 db 29 70 32 52 b2 a2 30 07 af 43 34
       1.9136536e-08 1.39793555e-08 1.1837733e-09 1.8224465e-07
000050 a2 60 6d 35 a7 e9 e2 35 ae ef ad 35 62 f1 3b 36
       8.843e-07 1.6906314e-06 1.295926e-06 2.8005675e-06
000060 da 09 ec 34 2b 58 c9 35 2f 54 a6 35 31 f5 6d 35
       4.3965593e-07 1.5001327e-06 1.2392464e-06 8.864618e-07
000070 1f ab ac 33 ab 46 47 37 dd 18 33 35 e6 6d aa 35
       8.040501e-08 1.1877778e-05 6.671888e-07 1.2697972e-06
000080 18 d1 82 35 70 fd 0d 36 09 a2 b1 34 65 3f 97 35
       9.746609e-07 2.1158157e-06 3.3086715e-07 1.1268827e-06
000090 6b be 79 35 cd 9d 33 35 f4 98 83 33 b4 d5 15 37
       9.3036823e-07 6.6912327e-07 6.127985e-08 8.930849e-06
0000a0 6d 0d ee 35 b8 6d 63 36 5f 38 2e 36 04 ab bc 36
       1.7736289e-06 3.38895e-06 2.5960833e-06 5.6227454e-06
0000b0 ad 8e 6c 35 2a bc 49 36 41 aa 26 36 f1 c0 ee 35
       8.812447e-07 3.006086e-06 2.4835028e-06 1.7788535e-06
0000c0 cb 55 2f 34 55 b6 c7 37 4a c6 32 34 0e 32 a8 34
       1.6329356e-07 2.3807554e-05 1.6649679e-07 3.1328858e-07
0000d0 5a 7d 82 34 82 6b 0d 35 8a f5 b0 33 bf 4d 96 34
       2.4305592e-07 5.268304e-07 8.240302e-08 2.7996245e-07
0000e0 5a 9d 76 34 58 92 32 34 25 95 6a 32 b7 96 14 36
       2.296778e-07 1.6630781e-07 1.3654504e-08 2.2141446e-06
0000f0 04 fa fa 32 02 a9 6e 33 5d 47 37 33 88 b8 c5 33
       2.9217524e-08 5.5567405e-08 4.2672912e-08 9.2070934e-08
000100 34 df 78 32 55 6b 54 33 e1 20 2f 33 e7 b5 fb 32
       1.448625e-08 4.9457714e-08 4.0775266e-08 2.9302965e-08
000110 59 6e 32 31 6a a4 d1 34 32 87 8c 32 fd 8a 08 33
       2.5965134e-09 3.904891e-07 1.6359625e-08 3.1791377e-08
000120 0b 64 cb 32 fd 24 5a 33 51 50 0b 32 ca fc f2 32
       2.3677805e-08 5.079072e-08 8.109127e-09 2.8287463e-08
000130 c4 49 c9 32 1b c0 8e 32 4b 4d 06 31 b1 2a 6b 34
       2.3433024e-08 1.6618335e-08 1.9543502e-09 2.1901612e-07
000140 63 db 16 32 84 98 8c 32 67 b3 5a 32 be 49 eb 32
       8.781032e-09 1.6367501e-08 1.27300614e-08 2.7391135e-08
000150 1c e9 94 31 97 31 80 32 dd 98 4e 32 65 f2 15 32
       4.3338684e-09 1.4923712e-08 1.2025535e-08 8.728056e-09
000160 86 c0 31 30 ce 81 f7 33 08 00 2c 31 fc 5d 92 31
       6.4665817e-10 1.1525445e-07 2.5029312e-09 4.259844e-09
000170 89 59 69 31 a9 81 f9 31 6e 5a a1 30 11 b2 8f 31
       3.3956857e-09 7.2615944e-09 1.1739993e-09 4.1820916e-09
000180 20 47 59 31 54 09 2a 31 93 6d 2d 2f 1a 1d ff 32
       3.1618086e-09 2.4743558e-09 1.5773187e-10 2.9699141e-08

exp_avg f4 [10]
000000 92 68 bb b7 9e 0a 93 b5 76 8c b7 b7 38 d1 55 36
       -2.2340831e-05 -1.0955443e-06 -2.1880707e-05 3.1861255e-06
000010 b6 92 69 b7 7e f0 22 b6 c4 ec 24 35 96 da bc b6
       -1.3922041e-05 -2.4279866e-06 6.14393e-07 -5.6282834e-06
000020 07 f3 f0 b5 4a fd 8f b5
       -1.7952124e-06 -1.0728047e-06

exp_avg_sq f4 [10]
000000 b2 c8 f9 36 93 2b 95 34 ce a2 97 37 aa 28 64 37
       7.4441423e-06 2.7785117e-07 1.8076415e-05 1.3599327e-05
000010 d3 fa 17 38 03 a9 62 36 e4 8e 1f 35 5b 0d b2 34
       3.6234804e-05 3.3775002e-06 5.944005e-07 3.31648e-07
000020 2d f0 3c 34 23 da 43 33
       1.759624e-07 4.560037e-08

exp_avg f4 [17]
000000 53 42 d0 34 3e 8f 3f 33 97 97 3d b4 37 65 41 34
       3.8791276e-07 4.460093e-08 -1.7657145e-07 1.8011347e-07
000010 64 1f 51 b6 5b 61 c8 35 c4 7c 85 36 ff 92 17 b4
       -3.1161699e-06 1.4929495e-06 3.9782335e-06 -1.4116448e-07
000020 7b 70 24 35 84 16 9a b4 ee f6 aa b3 47 bd 57 34
       6.125844e-07 -2.8701118e-07 -7.961158e-08 2.0092294e-07
000030 11 4d f2 33 c8 59 0f 32 be ef cd b4 fa 22 3a 34
       1.12830215e-07 8.344109e-09 -3.835866e-07 1.7335324e-07
000040 60 4a b7 32
       2.1337826e-08

exp_avg_sq f4 [17]
000000 fe 48 4d 2f d1 c6 ed 30 74 16 52 31 0a 5e 48 30
       1.8670573e-10 1.7300527e-09 3.0571785e-09 7.2893214e-10
000010 e9 3d f9 30 0a 04 5a 30 3f d3 95 31 45 9b ad 2f
       1.813473e-09 7.931368e-10 4.3604866e-09 3.1578842e-10
000020 46 2c d9 2f 0a 16 d2 2e 41 e1 ec 2f ab 71 c7 2d
       3.9503528e-10 9.553609e-11 4.3088202e-10 2.267416e-11
000030 11 46 3b 2f 5d 3d d7 2b 6f 16 15 30 90 30 db 2e
       1.7032444e-10 1.5293701e-12 5.4237764e-10 9.9675934e-11
000040 cc 3a 58 2c
       3.0728085e-12

exp_avg f4 [10]
000000 a0 88 16 35 bd 6e 03 b6 30 0f 94 b6 31 15 f7 b6
       5.607817e-07 -1.958498e-06 -4.4125118e-06 -7.3636406e-06
000010 60 45 56 b6 80 56 30 b6 b0 32 15 b7 42 cc 14 b6
       -3.1928867e-06 -2.6276393e-06 -8.892894e-06 -2.2172612e-06
000020 60 1a 1a b6 20 dc 10 b7
       -2.296314e-06 -8.634321e-06

exp_avg_sq f4 [10]
000000 6d 7a 4e 31 35 d0 64 32 61 7d 5a 33 51 c2 cf 32
       3.0046536e-09 1.33186875e-08 5.087111e-08 2.4186336e-08
000010 77 2e 63 33 36 80 76 32 4e d7 d8 31 0f 47 fd 32
       5.2894816e-08 1.4348236e-08 6.3109047e-09 2.948539e-08
000020 62 dd d4 30 60 4e 83 33
       1.5487951e-09 6.114419e-08

exp_avg f4 [10, 10]
000000 93 81 84 b4 aa bd fc b2 06 9e d4 b4 f4 09 b0 b5
       -2.4681194e-07 -2.942291e-08 -3.9603054e-07 -1.3115919e-06
000010 0b b4 9f b5 96 f6 b6 34 89 7e 5d 37 af ae e5 b6
       -1.1898823e-06 3.4079557e-07 1.3202088e-05 -6.8450677e-06
000020 2e 6a 6c 36 8d d9 db b7 88 03 f2 32 0f 94 b0 34
       3.5228545e-06 -2.620814e-05 2.8174114e-08 3.2890281e-07
000030 eb dd 24 35 4b a2 ab 35 79 eb 33 35 f5 f3 c8 34
       6.1417694e-07 1.2787726e-06 6.7025354e-07 3.7430405e-07
000040 d6 7b b3 b6 e3 c7 b1 35 f8 2b a5 b4 e6 1e 7c 36
       -5.349032e-06 1.3245702e-06 -3.0765636e-07 3.7568911e-06
000050 3a 65 8b b3 17 51 92 34 61 a9 de 34 a2 dc 5b 35
       -6.491105e-08 2.725362e-07 4.1473962e-07 8.190492e-07
000060 4f 97 db 34 f4 eb c0 34 bf e0 9e 33 a9 cc dc 34
       4.090202e-07 3.5934465e-07 7.3983294e-08 4.1127103e-07
000070 96 7d 2a b4 5c 8e 44 35 e6 2f 49 34 12 09 16 b5
       -1.5878172e-07 7.322285e-07 1.8737009e-07 -5.5892554e-07
000080 63 58 42 b5 66 2b b0 b5 fb c2 09 b5 f6 20 61 b5
       -7.239925e-07 -1.3125652e-06 -5.132021e-07 -8.3866996e-07
000090 fb 77 51 35 e4 f0 7f 35 ae fd 88 b5 ee f9 b1 36
       7.803316e-07 9.5345445e-07 -1.020662e-06 5.3041067e-06
0000a0 4b 7d 2b 34 09 2f 9b b4 97 86 8d b4 07 b8 b0 b4
       1.5971197e-07 -2.8905222e-07 -2.6361224e-07 -3.2916452e-07
0000b0 a8 11 2f 32 d9 44 0b b5 65 21 a9 b5 f1 f6 03 36
       1.0190355e-08 -5.188172e-07 -1.26012e-06 1.966426e-06
0000c0 f0 89 c7 b5 af b1 04 37 b2 2e 3e 34 1a 9e 36 b5
       -1.48668e-06 7.909183e-06 1.7712117e-07 -6.803035e-07
0000d0 64 79 82 b5 1c 0d 08 b6 6a 51 90 b5 29 c8 6a b5
       -9.721084e-07 -2.027321e-06 -1.0752531e-06 -8.7463064e-07
0000e0 30 ac 9b 36 16 6d dc b5 ba 74 dd 34 65 9c 87 b6
       4.6394052e-06 -1.6423025e-06 4.1249388e-07 -4.0415202e-06
0000f0 45 a4 2d 31 af 31 36 b3 27 0b 98 b3 1b b8 17 b4
       2.526819e-09 -4.2420364e-08 -7.08008e-08 -1.4129948e-07
000100 29 43 96 b3 8b d9 65 b3 b2 15 f3 34 19 eb bc b3
       -6.997136e-08 -5.351607e-08 4.5278063e-07 -8.797196e-08
000110 e9 3f 43 b0 eb 26 57 b4 78 9f 76 33 b3 49 30 35
       -7.103141e-10 -2.0037594e-07 5.7421374e-08 6.5672356e-07
000120 3d 71 a4 35 af b5 1a 36 00 2d 4d 35 3a 64 80 35
       1.2251909e-06 2.3053542e-06 7.6433935e-07 9.565913e-07
000130 f0 84 f0 b6 c1 45 e1 b5 be d1 d8 35 d6 45 52 b7
       -7.1680333e-06 -1.6784107e-06 1.6154297e-06 -1.2533235e-05
000140 4c c8 60 33 dd be 6f b3 c4 50 e7 b2 f3 0f aa b3
       5.2336233e-08 -5.5820113e-08 -2.6928667e-08 -7.919143e-08
000150 b4 07 12 b4 6b 5c 54 b3 6b e8 0b b4 bb dd 49 b5
       -1.3600112e-07 -4.944415e-08 -1.3029937e-07 -7.5200995e-07
000160 0d 2b c3 34 ae e8 7d b6 3c f9 c2 b4 76 19 76 35
       3.6352904e-07 -3.7835375e-06 -3.6316658e-07 9.167919e-07
000170 43 ba 9a 35 f5 df 20 36 ef fd b3 35 ee 3a a2 35
       1.1528103e-06 2.3972218e-06 1.3410444e-06 1.2087091e-06
000180 b4 fe 1a b6 a4 20 0c 36 e5 0e 3a b5 b9 51 bf 36
       -2.3096045e-06 2.0880625e-06 -6.9312074e-07 5.7017573e-06

exp_avg_sq f4 [10, 10]
000000 35 6e c8 2f 8b fb 90 30 9a 69 af 30 ef b2 9d 31
       3.6458095e-10 1.0548872e-09 1.276294e-09 4.5896438e-09
000010 10 68 29 31 f3 f0 15 31 22 c5 9d 31 e0 72 b6 31
       2.465189e-09 2.1819317e-09 4.591713e-09 5.309957e-09
000020 74 bf 5a 30 35 e7 55 32 bc 16 df 2e 57 1b 31 2f
       7.958001e-10 1.2450802e-08 1.01449044e-10 1.6107769e-10
000030 aa bc c2 2e 71 43 d9 2f ca dc 81 2f 52 42 a5 2f
       8.855612e-11 3.951999e-10 2.3621843e-10 3.0060449e-10
000040 1d 60 19 32 fc 3b 98 30 05 8d ab 2f 06 61 79 31
       8.927626e-09 1.1076504e-09 3.120492e-10 3.628942e-09
000050 51 30 69 31 cf 0e 2c 32 9a 44 41 32 6c 8e 40 33
       3.3933427e-09 1.0015085e-08 1.1249677e-08 4.4833016e-08
000060 bb 7b 88 32 97 af aa 32 8c 81 91 33 08 bd c8 32
       1.588875e-08 1.9870454e-08 6.775653e-08 2.3369026e-08
000070 94 7d da 31 2b 1e fb 33 d0 e7 5b 2f 8f 10 1d 30
       6.3589116e-09 1.1693586e-07 2.000029e-10 5.71398e-10
000080 4c 16 31 30 e1 4d 2f 31 0a 6f c1 30 44 e1 9f 30
       6.442391e-10 2.551012e-09 1.4074157e-09 1.1632797e-09
000090 db 25 88 31 6c 43 3a 31 f2 6d e0 2f 63 e7 e3 31
       3.9624246e-09 2.7104887e-09 4.0823483e-10 6.632875e-09
0000a0 3d 13 87 30 55 a7 42 31 65 50 5b 31 83 fc 59 32
       9.828011e-10 2.8325833e-09 3.1914393e-09 1.2688477e-08
0000b0 4d 1b c2 31 56 5a c2 31 de 85 aa 32 0a 36 4e 32
       5.649247e-09 5.656413e-09 1.985148e-08 1.2003065e-08
0000c0 a5 fc 06 31 4f 68 0b 33 57 7b 22 31 eb 25 04 32
       1.9643178e-09 3.2458328e-08 2.3644213e-09 7.692033e-09
0000d0 4e 2a 22 32 3e 1a 1e 33 4c f0 5c 32 ff 9b 84 32
       9.43926e-09 3.681111e-08 1.2860323e-08 1.5437761e-08
0000e0 3b 8b f8 32 b1 74 97 32 1d c1 8a 31 ca 55 a6 33
       2.8934314e-08 1.7631779e-08 4.038283e-09 7.745582e-08
0000f0 f0 70 94 2c ae 6f cf 2c bf 5d 11 2d 75 eb 5c 2d
       4.2189516e-12 5.895693e-12 8.2631115e-12 1.2557834e-11
000100 1d 37 b8 2e 56 da 7d 2d c9 0a bd 2d 77 53 0a 30
       8.377141e-11 1.4429865e-11 2.1491602e-11 5.032272e-10
000110 98 50 f4 2d 79 d5 dc 2e f6 33 84 30 23 60 27 31
       2.777538e-11 1.0042362e-10 9.619032e-10 2.4356346e-09
000120 30 5e 1e 31 4a 26 23 32 ec 57 75 31 8f 81 a1 31
       2.3045565e-09 9.496555e-09 3.570217e-09 4.700446e-09
000130 64 9a 03 33 02 0a c4 31 d3 7b 10 31 ab 12 1f 33
       3.064123e-08 5.7054885e-09 2.1025144e-09 3.703705e-08
000140 56 e5 0f 31 8c 16 a3 31 72 22 8a 31 cd 1e 97 32
       2.0939601e-09 4.7464876e-09 4.0202446e-09 1.759272e-08
000150 02 d0 e7 31 e1 49 1d 32 32 ff dd 33 60 25 55 32
       6.7466326e-09 9.155401e-09 1.0337534e-07 1.240673e-08
000160 47 73 a3 31 4d 54 a9 33 0a a6 c7 30 85 76 45 31
       4.75703e-09 7.88501e-08 1.4526347e-09 2.8734644e-09
000170 32 a8 09 31 5f 20 1c 32 97 8d 7f 31 79 17 ba 31
       2.0031732e-09 9.087755e-09 3.7187868e-09 5.415981e-09
000180 46 ba c5 33 5f 12 ea 31 6c 9d 76 31 87 dd 73 33
       9.20741e-08 6.812385e-09 3.5887195e-09 5.6779324e-08

exp_avg f4 [10]
000000 47 66 2c 36 24 25 32 b5 c8 3d ba 34 2e d4 99 b5
       2.568953e-06 -6.6364214e-07 3.4690152e-07 -1.1461141e-06
000010 02 4f 9d b5 6a 75 62 b5 57 42 de 32 5b 5b 9c b5
       -1.1720406e-06 -8.436242e-07 2.587437e-08 -1.1649494e-06
000020 c4 7f cf b4 6d 71 1a 36
       -3.8649716e-07 2.301381e-06

exp_avg_sq f4 [10]
000000 74 02 d6 32 02 6f 12 32 56 6d 4d 34 04 21 6d 32
       2.4913994e-08 8.523559e-09 1.9131889e-07 1.38027225e-08
000010 44 ec 8c 33 dc 61 0a 34 d2 46 d1 30 a6 83 73 33
       6.5622345e-08 1.2887853e-07 1.522688e-09 5.669758e-08
000020 eb 76 09 34 18 fc c2 33
       1.2802381e-07 9.0796846e-08
