models/ensembles/bootstrap_test/model7/model_checkpoint-10000.pt (torch, 14893 bytes, 24 tensors)

branch.hidden_layers.0.thetas f4 [55]
-0.35765162 -0.119004585 0.5079311 1.2235262 0.5008719 0.35899803 1.1162465 0.63755727
1.3220115 0.2416248 -1.1254244 -0.79860955 -1.1989472 1.251098 1.4125376 -1.2466005
1.2858914 -0.52375275 0.96936756 0.6364105 0.042619683 0.052538108 -2.0184462 1.3614243
-0.72891617 1.3224809 -0.2592736 1.9001944 -0.16376121 0.41255647 0.11057549 -0.2595795
0.20034687 -1.9326378 -0.9396137 -1.7428703 -0.95932883 -0.47333315 -0.60308003 0.35040164
-0.94414634 1.4027231 1.6639558 1.2968354 1.4541116 0.72521937 -1.0242753 0.98661757
0.10233705 -0.34534618 -0.30127954 -0.96211207 0.016623838 -0.5205116 1.3922442
00000000: 1d1e b7be adb8 f3bd c607 023f 829c 9c3f
00000010: 2439 003f 97ce b73e 2ae1 8e3f f436 233f
00000020: ac37 a93f 7e6c 773e e80d 90bf ad71 4cbf
00000030: 1a77 99bf fb23 a03f 08ce b43f 9b90 9fbf
00000040: 1798 a43f a914 06bf 7928 783f cceb 223f
00000050: fa91 2e3d 3332 573d 392e 01c0 2743 ae3f
00000060: 409a 3abf 0e47 a93f 82bf 84be 9239 f33f
00000070: 05b1 27be 9a3a d33e 6775 e23d 9be7 84be
00000080: bb27 4d3e ad60 f7bf 868a 70bf 6016 dfbf
00000090: 9396 75bf b958 f2be 7463 1abf d867 b33e
000000a0: 93b3 71bf 6e8c b33f 81fc d43f b4fe a53f
000000b0: 5420 ba3f faa7 393f 741b 83bf f892 7c3f
000000c0: 1696 d13d 37d1 b0be 5041 9abe fa4c 76bf
000000d0: b72e 883c 4040 05bf 0f35 b23f

branch.hidden_layers.0.bias f4 [10]
0.45509082 0.27727315 0.43614298 0.46379837 0.30782992 0.5275958 0.50842136 0.059921905
0.66320765 0.19191255
00000000: aa01 e93e bff6 8d3e 224e df3e fb76 ed3e
00000010: e29b 9d3e 8510 073f e727 023f ac70 753d
00000020: fac7 293f b984 443e

branch.output_layer.weight f4 [10, 10]
0.5712875 0.26734436 0.5693307 -0.5106086 0.5627486 0.6453811 -0.4063519 0.02526468
-0.26079828 0.07816212 -0.085745245 0.23920783 -0.32452622 0.8751105 -0.875176 -0.5760818
0.17093708 0.46299738 -0.065411106 0.03140089 -0.57179165 -0.5169933 -0.6854232 0.565814
-0.05240306 -0.07036924 0.52456534 -0.37166262 -0.39340025 0.10951613 0.0062328503 0.18075548
-0.074182235 0.7665657 -0.79082924 -0.65824425 0.5071712 0.24679986 -0.49798948 -0.024830507
-0.1593837 -0.51957095 -0.54179686 0.25342712 -0.38835233 -0.15094188 0.67821944 -0.25680164
0.111453116 0.27708495 -0.64764047 -0.13349515 -0.2765078 0.74470186 -0.47384125 -0.26899454
0.42171794 -0.22542602 -0.2935485 -0.03057464 0.33705053 0.43100715 -0.22138865 -0.22405426
0.44420403 0.7092184 1.4627296 0.7053761 -1.0595669 -0.25408924 -0.8466274 -0.75590855
-0.6158644 0.29146338 0.036224987 0.25145692 0.40166652 -0.11231411 -0.12292237 0.02388326
-0.56550825 -0.57275534 -0.36372662 0.48722798 -0.2656988 0.23194605 0.48521632 -0.16171439
-0.0444958 -0.17653212 -0.8967296 -0.3760673 -0.47624698 0.63056475 -0.45628795 -0.086833924
0.3310177 -0.33640543 -0.43999124 -0.20617017
00000000: e63f 123f 5ce1 883e a8bf 113f 3fb7 02bf
00000010: 4b10 103f b237 253f 5b0d d0be e0f7 ce3c
00000020: 5a87 85be 7613 a03d 349b afbd e6f2 743e
00000030: 4d28 a6be 3e07 603f 890b 60bf 197a 13bf
00000040: 210a 2f3e fe0d ed3e 42f6 85bd 389e 003d
00000050: f060 12bf ac59 04bf e577 2fbf 30d9 103f
00000060: 97a4 56bd c01d 90bd ea49 063f 904a bebe
00000070: c26b c9be fe49 e03d f03c cc3b f717 393e
00000080: dbec 97bd a63d 443f c973 4abf b282 28bf
00000090: f9d5 013f 1ab9 7c3e 7af8 febe 5969 cbbc
000000a0: 7b35 23be 9a02 05bf 33b3 0abf 33c1 813e
000000b0: 1ed6 c6be 8290 1abe ca9f 2d3f 817b 83be
000000c0: 8841 e43d 14de 8d3e c4cb 25bf f4b2 08be
000000d0: 6e92 8dbe c8a4 3e3f 529b f2be a7b9 89be
000000e0: 6aeb d73e 14d6 66be fd4b 96be ab77 fabc
000000f0: e391 ac3e f8ac dc3e b5b3 62be 7b6e 65be
00000100: b66e e33e 568f 353f b93a bb3f 8793 343f
00000110: e39f 87bf fc17 82be 93bc 58bf 3983 41bf
00000120: 4aa9 1dbf b03a 953e a760 143d f6be 803e
00000130: 3ca7 cd3e f104 e6bd b9be fbbd d4a6 c33c
00000140: 26c5 10bf 18a0 12bf 603a babe f275 f93e
00000150: ac09 88be 4483 6d3e 466e f83e 7598 25be
00000160: 3a41 36bd d6c4 34be 1290 65bf e58b c0be
00000170: a5d6 f3be b16c 213f 939e e9be fcd5 b1bd
00000180: 277b a93e 553d acbe 8846 e1be 461e 53be

branch.output_layer.bias f4 [10]
-0.37751186 0.34618813 0.26705098 -0.14988586 0.09220646 0.17149067 -0.35293922 0.0340674
0.33872783 0.030602513
00000000: 3c49 c1be 923f b13e e8ba 883e ae7b 19be
00000010: bed6 bc3d 409b 2f3e 73b4 b4be 428a 0b3d
00000020: bc6d ad3e 1fb2 fa3c

trunk.hidden_layers.0.thetas f4 [17]
1.2113117 -1.6738681 0.5307678 -0.77708703 -1.3469642 2.5912757 -3.2301319 0.49705392
-0.52070624 1.6949658 -0.10858853 0.20620327 1.620184 0.82999 0.8650433 -2.4820182
0.032820787
00000000: 430c 9b3f 4f41 d6bf 66e0 073f 2def 46bf
00000010: 5369 acbf 76d7 2540 7bba 4ec0 da7d fe3e
00000020: 014d 05bf a4f4 d83f aa63 debd f326 533e
00000030: 3062 cf3f 3a7a 543f 7a73 5d3f 63d9 1ec0
00000040: 176f 063d

trunk.hidden_layers.0.bias f4 [10]
-0.46758094 0.523766 0.23284674 0.06879547 -0.3178537 0.6158554 0.53385717 0.46763805
0.41432393 0.50365037
00000000: c566 efbe 8715 063f 606f 6e3e a4e4 8c3d
00000010: b8bd a2be b3a8 1d3f ddaa 083f 416e ef3e
00000020: 4422 d43e 3bef 003f

trunk.output_layer.weight f4 [10, 10]
-0.75647813 1.0794672 -0.012793056 -0.21891461 -0.8787357 0.9699019 0.73257893 -0.027511807
0.7485097 0.78281134 0.21912421 -0.7338156 0.47330266 0.780006 0.3446922 -1.2632303
-0.69772285 1.4018767 -0.25039053 0.1805951 0.5516731 -0.39571676 0.5102193 0.55620074
0.6973206 -0.8344753 -0.32104042 -0.17230502 -0.0072045713 -0.26677918 0.045693647 -0.81037843
0.28626022 0.715531 0.36741784 -1.2010449 -0.66364264 1.2586192 -0.6325841 0.51642203
0.19886722 -0.8519316 -0.17615247 0.48961076 0.25987145 -0.7360548 -0.36513802 -0.050027
-0.23238385 -0.38479087 0.21684894 -0.7875119 0.4578917 0.67228454 0.5100549 -1.1542112
-0.53063524 1.1733392 -0.52445096 0.13481358 0.0541838 0.7744313 -1.019989 -1.0368
-0.47205466 0.46918005 0.8787368 -1.2598684 0.85868084 0.20910408 -0.060212012 -1.0388275
1.8535899 1.0014863 -0.07803104 -1.3181835 -0.8917693 1.3860226 0.19409302 -1.0521402
-0.08126012 -0.899924 1.674564 1.0325668 0.14480679 -1.2327927 -0.5950819 1.2302014
-0.4132546 -0.86076367 0.16936532 -0.32346806 0.5695125 0.18071368 0.36509502 -1.1130332
-0.7975331 0.7856695 -0.009905845 -0.6053871
00000000: 8da8 41bf fb2b 8a3f f799 51bc 272b 60be
00000010: d3f4 60bf 7e4b 783f 4b8a 3b3f 7160 e1bc
00000020: 559e 3f3f 5366 483f 1962 603e 57db 3bbf
00000030: ba54 f23e 79ae 473f 7f7b b03e 88b1 a1bf
00000040: f79d 32bf b270 b33f 3033 80be eced 383e
00000050: 733a 0d3f 639b cabe bb9d 023f 2c63 0e3f
00000060: 9a83 323f 2ca0 55bf 695f a4be ba70 30be
00000070: 5314 ecbb 4897 88be 4329 3b3d f674 4fbf
00000080: b390 923e 0a2d 373f 311e bc3e d7bb 99bf
00000090: 7ce4 29bf 6f1a a13f 08f1 21bf 3c34 043f
000000a0: d9a3 4b3e 3018 5abf 5061 34be 43ae fa3e
000000b0: df0d 853e 166e 3cbf 5ff3 babe 1de9 4cbd
000000c0: 08f6 6dbe 4f03 c5be a60d 5e3e 619a 49bf
000000d0: c870 ea3e d71a 2c3f f592 023f 31bd 93bf
000000e0: b6d7 07bf fb2f 963f 6b42 06bf 920c 0a3e
000000f0: d5ef 5d3d 2141 463f 008f 82bf ddb5 84bf
00000100: 26b1 f1be 5e38 f03e e5f4 603f 5e43 a1bf
00000110: 82d2 5b3f 611f 563e dfa0 76bd 4df8 84bf
00000120: 6f42 ed3f b430 803f bdce 9fbd 3dba a8bf
00000130: fe4a 64bf 3069 b13f 52c0 463e 88ac 86bf
00000140: b56b a6bd 6b61 66bf 1d58 d63f 262b 843f
00000150: 3b48 143e 27cc 9dbf 4a57 18bf 3d77 9d3f
00000160: 1b96 d3be 025b 5cbf 1a6e 2d3e 9b9d a5be
00000170: 92cb 113f 020d 393e bced ba3e df77 8ebf
00000180: 212b 4cbf a321 493f 204c 22bc a6fa 1abf

trunk.output_layer.bias f4 [10]
0.66848457 0.25003353 -0.5157235 -0.21680884 -0.45454934 -0.5531502 0.14141183 -0.28750268
-0.34654236 -0.14159095
00000000: ce21 2b3f 6504 803e 7506 04bf 2303 5ebe
00000010: b1ba e8be 409b 0dbf 43ce 103e 8d33 93be
00000020: 006e b1be 38fd 10be

exp_avg f4 [55]
8.011475e-06 1.0998683e-06 9.382877e-06 7.994143e-06 -3.8912553e-06 -7.4380055e-06 2.616159e-06 1.0522389e-05
-9.70139e-06 1.2381872e-06 -5.4745956e-06 -1.5319326e-06 3.874854e-07 1.7119521e-06 -3.9555985e-06 -1.3850853e-06
-7.8121675e-06 -4.7417518e-07 -2.7400932e-07 9.917754e-07 4.256031e-06 -2.3412338e-07 1.5545572e-06 -2.001548e-06
2.0757865e-07 -8.008069e-06 2.868642e-06 -2.5183979e-06 5.0657655e-07 6.4687714e-07 2.1753904e-06 1.4885618e-06
-7.8954736e-07 -2.2282968e-06 -5.7476045e-06 -6.597398e-06 1.7587018e-06 3.5433927e-06 2.1665774e-06 6.8381823e-06
-2.9384134e-06 -1.3812979e-06 -3.5611924e-07 -7.987719e-06 1.4411357e-06 1.2639077e-05 2.3868993e-06 3.1601317e-06
-1.360783e-06 -5.4080947e-06 2.6776636e-06 1.9346444e-06 5.3281597e-06 -1.6933701e-06 -9.541172e-07
00000000: 0669 0637 309f 9335 266b 1d37 951e 0637
00000010: a191 82b6 fb93 f9b6 4591 2f36 5189 3037
00000020: 27c3 22b7 ca2f a635 6bb2 b7b6 ce9c cdb5
00000030: 9607 d034 3ac6 e535 55ba 84b6 2be7 b9b5
00000040: 0111 03b7 2492 feb4 8e1b 93b4 251d 8535
00000050: 07cf 8e36 5863 7bb4 2ea6 d035 5552 06b6
00000060: c9e2 5e34 655a 06b7 e582 4036 bf01 29b6
00000070: adfb 0735 0fa5 2d35 ecfc 1136 98ca c735
00000080: 48f1 53b5 d989 15b6 8cdb c0b6 385f ddb6
00000090: 890c ec35 06cb 6d36 8465 1136 8a73 e536
000000a0: 8f31 45b6 0965 b9b5 a830 bfb4 fe02 06b7
000000b0: 0c6d c135 6c0c 5437 9e2e 2036 a612 5436
000000c0: 26a4 b6b5 2e77 b5b6 e9b1 3336 f0d4 0136
000000d0: 8bc8 b236 c147 e3b5 380f 80b5

exp_avg_sq f4 [55]
4.526929e-09 2.0561586e-09 7.839597e-09 1.1099907e-08 2.8746827e-08 6.703457e-09 1.6134335e-08 2.3040325e-08
1.4116272e-08 4.2117005e-08 1.125269e-08 1.246052e-09 7.656997e-09 1.7684214e-09 1.1716318e-09 6.365979e-10
3.799539e-08 2.022857e-08 2.0673868e-10 7.3104145e-10 2.1173065e-08 1.3089439e-08 3.3715447e-10 3.1247044e-10
1.2664908e-10 3.7531358e-08 1.1536875e-09 2.9976714e-09 6.0404654e-10 2.4012843e-07 6.6599304e-10 5.663774e-09
1.2107476e-10 3.8845802e-10 1.777413e-07 1.8353104e-08 1.1782796e-09 1.695215e-09 4.8825036e-08 2.3035089e-08
5.08103e-09 2.2201387e-09 4.793613e-08 1.9758088e-08 9.353288e-10 3.0927004e-07 5.5184874e-09 2.8516745e-09
1.4281431e-08 1.4437675e-08 4.753706e-09 3.377012e-09 4.990007e-09 4.2666845e-10 5.957548e-10
00000000: 4a8b 9b31 534c 0d31 eaae 0632 e8b1 3e32
00000010: f1ee f632 3b54 e631 c797 8a32 36ea c532
00000020: 0584 7232 23e4 3433 db51 4132 8f41 ab30
00000030: d48b 0332 cc0c f330 2107 a130 98fc 2e30
00000040: 6030 2333 19c3 ad32 c44f 632f 78f2 4830
00000050: 10e0 b532 f6df 6032 465a b92f 4ec8 ab2f
00000060: 8c40 0b2f 2a32 2133 c58f 9e30 98ff 4d31
00000070: ff09 2630 00eb 8034 1811 3730 159b c231
00000080: 841f 052f 9b8e d52f 28d9 3e34 e7a6 9d32
00000090: 07f1 a130 13fd e830 b2b3 5133 b2de c532
000000a0: 3695 ae31 1891 1831 55e2 4d33 7fb8 a932
000000b0: f58c 8030 c009 a634 219d bd31 30f7 4331
000000c0: 665a 7532 9109 7832 0a56 a331 0611 6831
000000d0: 9174 ab31 3f90 ea2f 84c2 2330

exp_avg f4 [10]
-7.70299e-05 -4.798787e-05 -5.573729e-05 5.5026216e-05 -4.9962917e-05 -6.4600295e-05 3.4998953e-05 -1.6281607e-05
2.1681048e-05 -3.3802853e-06
00000000: 1d8b a1b8 9546 49b8 76c7 69b8 f3cb 6638
00000010: 468f 51b8 057a 87b8 d7cb 1238 7c94 88b7
00000020: b2df b537 dcd8 62b6

exp_avg_sq f4 [10]
9.893693e-06 2.8514203e-06 6.1296028e-06 7.866193e-06 4.9336245e-06 8.845732e-06 1.5883187e-06 2.8683752e-07
1.4859389e-06 1.7213267e-08
00000000: 16fd 2537 075b 3f36 e3ac cd36 0bf9 0337
00000010: 838b a536 2168 1437 372e d535 a6fe 9934
00000020: 7970 c735 60dc 9332

exp_avg f4 [10, 10]
-2.8183102e-05 -1.012211e-05 -3.6665024e-05 -3.0284302e-05 -1.6731728e-05 -4.777809e-05 -3.863071e-05 7.73771e-06
-4.990353e-05 -4.932341e-05 -5.082076e-06 -4.376645e-06 -4.781196e-06 -3.6382921e-06 1.5284052e-06 4.0940226e-06
-2.1706558e-06 -2.1842233e-07 -1.3728826e-06 -1.8806671e-06 3.025636e-06 9.726117e-07 3.994569e-06 2.8919658e-06
1.412282e-06 3.8026349e-06 3.171842e-06 -9.198231e-07 4.7981907e-06 4.271861e-06 -5.216053e-06 -5.846504e-06
-1.3229088e-06 -2.659926e-06 2.686162e-06 6.945674e-06 -2.3271405e-06 -2.2661293e-06 4.317928e-06 -3.5523663e-06
2.8263696e-06 8.6260036e-07 4.0389364e-06 2.79766e-06 1.3517509e-06 3.7030957e-06 2.8857044e-06 -1.0270053e-06
4.9134173e-06 3.929468e-06 9.79481e-07 -2.729346e-06 2.1982057e-06 1.3874262e-06 2.6289676e-06 4.889577e-06
1.6868768e-06 -1.7578517e-06 5.1423112e-06 2.2360095e-06 -7.764052e-06 -1.4864402e-05 -8.369329e-06 -8.246846e-06
5.7481902e-06 3.984421e-06 -3.304411e-06 -1.4057996e-06 -1.4737435e-06 -1.6292917e-05 9.674966e-06 4.62803e-06
-1.4955131e-06 5.7456673e-06 -4.5096277e-07 -7.201493e-06 8.715745e-06 3.8346975e-06 -6.60164e-06 1.1719485e-05
7.485792e-06 2.8838174e-06 1.1212606e-07 4.74301e-06 3.5141034e-07 -3.6754059e-06 6.7763835e-06 2.1544577e-06
-2.8677873e-06 9.232806e-06 5.1086404e-06 1.8828979e-06 2.137548e-06 3.5837618e-06 1.1981709e-06 1.3744417e-06
5.1006973e-06 5.851515e-07 1.2521164e-06 7.1890545e-06
00000000: c06a ecb7 22d2 29b7 c5c8 19b8 0b0b feb7
00000010: 1d5b 8cb7 5565 48b8 6907 22b8 36d1 0137
00000020: 824f 51b8 9ce0 4eb8 b386 aab6 18db 92b6
00000030: 296e a0b6 6229 74b6 9a23 cd35 635f 8936
00000040: 95ab 11b6 7987 6ab4 e343 b8b5 3b6b fcb5
00000050: 080c 4b36 af8a 8235 1609 8636 9813 4236
00000060: a48d bd35 c530 7f36 d5db 5436 c3e9 76b5
00000070: 2500 a136 0257 8f36 8e05 afb6 162d c4b6
00000080: cd8e b1b5 2e81 32b6 e943 3436 e30e e936
00000090: f82b 1cb6 ce13 18b6 b8e2 9036 3065 6eb6
000000a0: a9ac 3d36 728d 6735 3386 8736 6fbf 3b36
000000b0: cf6d b535 b382 7836 06a8 4136 a2d7 89b5
000000c0: efdd a436 e0d9 8336 b676 8335 cf29 37b6
000000d0: e384 1336 9a37 ba35 526d 3036 2611 a436
000000e0: a568 e235 53ef ebb5 1e8c ac36 5a0e 1636
000000f0: 5942 02b7 1f62 79b7 ff69 0cb7 ef5b 0ab7
00000100: 94e0 c036 eab1 8536 59c1 5db6 e8ae bcb5
00000110: 71cd c5b5 c6ac 88b7 aa51 2237 7a4a 9b36
00000120: 70b9 c8b5 e8ca c036 da1b f2b4 5ba4 f1b6
00000130: d739 1237 cdab 8036 a883 ddb6 ce9e 4437
00000140: 772e fb36 9b87 4136 f4c9 f033 2526 9f36
00000150: 78a9 bc34 fea6 76b6 b160 e336 4d95 1036
00000160: 3674 40b6 9ae6 1a37 e36a ab36 e1b7 fc35
00000170: cc72 0f36 8f80 7036 d7d0 a035 7579 b835
00000180: a826 ab36 4e13 1d35 640e a835 8239 f136

exp_avg_sq f4 [10, 10]
1.6217135e-06 3.6709082e-07 1.2779453e-06 2.1138387e-06 2.5678793e-07 3.484333e-06 2.6639948e-06 1.9542819e-07
1.5315051e-06 1.32888645e-05 2.5702367e-09 6.429211e-10 2.052864e-09 3.3145795e-09 4.2697415e-10 5.5935976e-09
4.1150896e-09 3.048662e-10 2.2922473e-09 2.051389e-08 1.6534146e-08 3.77881e-09 1.314939e-08 2.1639085e-08
2.60266e-09 3.5376086e-08 2.676998e-08 2.0538198e-09 1.529217e-08 1.3420721e-07 2.953647e-09 7.448059e-10
2.5087667e-09 4.0133754e-09 4.601878e-10 6.1438965e-09 4.3184603e-09 4.5871376e-10 2.4048075e-09 2.2616893e-08
1.6000067e-08 3.6862824e-09 1.2877234e-08 2.104692e-08 2.515225e-09 3.4181838e-08 2.5752536e-08 2.020478e-09
1.4707478e-08 1.2905102e-07 1.1738052e-08 2.678481e-09 9.385372e-09 1.5451777e-08 1.8510636e-09 2.5028553e-08
1.8889175e-08 1.4909733e-09 1.0806628e-08 9.497119e-08 8.073084e-08 1.854961e-08 6.342522e-08 1.05543236e-07
1.2797398e-08 1.7355575e-07 1.3044576e-07 1.0254106e-08 7.4188236e-08 6.634831e-07 1.14303305e-08 2.6491789e-09
9.280923e-09 1.5110935e-08 1.7801463e-09 2.4227104e-08 1.803396e-08 1.5140724e-09 1.0315624e-08 9.087876e-08
1.2494208e-08 2.926583e-09 1.0315384e-08 1.6628542e-08 1.9506043e-09 2.6558043e-08 1.9774086e-08 1.6657404e-09
1.1300182e-08 9.9274054e-08 1.3963347e-08 3.1682106e-09 1.1050935e-08 1.8278527e-08 2.2038027e-09 2.9770005e-08
2.2552566e-08 1.7365461e-09 1.2921034e-08 1.1312349e-07
00000000: a7a9 d935 9414 c534 de85 ab35 79db 0d36
00000010: aadc 8934 63d4 6936 15c7 3236 e4d6 5134
00000020: 1d8e cd35 3df3 5e37 15a0 3031 8db9 3030
00000030: 5e12 0d31 b3c6 6331 45bb ea2f ce31 c031
00000040: b664 8d31 1a9a a72f a485 1d31 8536 b032
00000050: f906 8e32 c4d6 8131 a1e7 6132 dae0 b932
00000060: 7bda 3231 6bf0 1733 cff3 e532 2e23 0d31
00000070: d65b 8332 991a 1034 1cf9 4a31 0ebb 4c30
00000080: b166 2c31 06e6 8931 adfd fc2f 491a d331
00000090: 9461 9431 392e fc2f d241 2531 1347 c232
000000a0: 8570 8932 c451 7d31 ad3a 5d32 abca b432
000000b0: 4ed8 2c31 54cf 1233 6d36 dd32 a0d8 0a31
000000c0: 2cac 7c32 4691 0a34 80a8 4932 5610 3831
000000d0: 4d3d 2132 d1ba 8432 8368 fe30 5ffe d632
000000e0: bc41 a232 f6ea cc30 0da8 3932 f7f2 cb33
000000f0: 405e ad33 0657 9f32 6234 8833 02a7 e233
00000100: 8ddb 5b32 a45a 3a34 a810 0c34 092a 3032
00000110: 6a51 9f33 361a 3235 205f 4432 d90c 3631
00000120: ee71 1f32 4ccd 8132 54a9 f430 f71b d032
00000130: 19e9 9a32 b017 d030 9838 3132 2029 c333
00000140: 1ca6 5632 fe1c 4931 8a37 3132 8dd6 8e32
00000150: 650b 0631 c121 e432 addb a932 08f0 e430
00000160: ba22 4232 7d30 d533 73e3 6f32 c0b7 5931
00000170: 87da 3d32 e802 9d32 b571 1731 efb8 ff32
00000180: 9eb9 c132 49ab ee30 4ffb 5d32 4cee f233

exp_avg f4 [10]
-0.000107388936 -5.0876542e-06 9.947013e-06 -3.245761e-07 9.640524e-06 7.4308205e-06 -1.3193617e-05 5.524994e-06
6.7722467e-06 9.226718e-06
00000000: ff35 e1b8 9eb6 aab6 18e2 2637 6641 aeb4
00000010: bcbd 2137 4356 f936 275a 5db7 5663 b936
00000020: 283d e336 74cc 1a37

exp_avg_sq f4 [10]
2.061599e-05 3.166985e-08 2.0762832e-07 3.4178424e-08 1.9965472e-07 1.4676579e-07 1.0207337e-06 1.4016113e-07
1.5336893e-07 1.7503982e-07
00000000: 80f0 ac37 5e05 0833 70f0 5e34 93cb 1233
00000010: ac60 5634 ac96 1d34 2500 8935 337f 1634
00000020: bbad 2434 94f2 3b34

exp_avg f4 [17]
-1.7659986e-06 -1.2808542e-06 -1.2766836e-05 1.0910936e-06 9.3615785e-07 -3.6013472e-07 -2.5879942e-06 -4.2734236e-08
9.538193e-07 -2.8093273e-08 -2.5397262e-07 -4.3114216e-08 7.5392805e-08 6.902602e-09 -2.296953e-08 -1.276657e-07
1.07903375e-08
00000000: 4007 edb5 d1e9 abb5 2531 56b7 b171 9235
00000010: 474c 7b35 8a58 c1b4 67ad 2db6 ca8a 37b3
00000020: fb04 8035 c351 f1b2 bb59 88b4 952c 39b3
00000030: a2e7 a133 ee2b ed31 884e c5b2 7b14 09b4
00000040: 6860 3932

exp_avg_sq f4 [17]
1.7807163e-10 1.758656e-10 1.155686e-08 1.0504602e-09 3.4430794e-10 1.8707511e-11 1.4190321e-09 5.2179417e-11
4.0244705e-10 7.880606e-13 1.08208914e-10 6.273141e-13 4.676972e-12 8.0557583e-14 2.2466239e-11 1.2610284e-11
1.1600146e-13
00000000: b5ca 432f c45d 412f 9c8b 4632 c85f 9030
00000010: 0949 bd2f 928d a42d c107 c330 cd7c 652e
00000020: 633f dd2f c0d1 5d2b 34f4 ed2e bf92 302b
00000030: 6b8e a42c 4966 b529 799d c52d acd7 5d2d
00000040: 259b 022a

exp_avg f4 [10]
4.986598e-07 1.0862664e-06 -9.725956e-06 -3.837281e-06 -3.5315225e-08 -1.9750496e-06 2.3405657e-06 -9.482193e-06
1.4739326e-06 -1.8525734e-06
00000000: a4db 0535 d4cb 9135 aa2c 23b7 fec1 80b6
00000010: 80ad 17b3 188b 04b6 9d12 1d36 b515 1fb7
00000020: f0d3 c535 f0a5 f8b5

exp_avg_sq f4 [10]
6.006945e-10 7.2935507e-09 2.3548559e-09 2.5109894e-09 1.770612e-09 7.418968e-09 8.89603e-09 1.03610684e-08
6.0180003e-09 8.9159915e-09
00000000: 1e1e 2530 c09a fa31 10d3 2131 cb8d 2c31
00000010: df59 f330 efe9 fe31 27d5 1832 7600 3232
00000020: e4c6 ce31 f22c 1932

exp_avg f4 [10, 10]
1.4862586e-08 2.9472454e-07 -2.8925697e-07 -1.10725544e-07 6.517282e-09 7.739768e-07 2.889647e-07 -1.0440441e-06
4.0451642e-08 -1.4615291e-07 -7.8334605e-10 9.586878e-07 -3.9623387e-08 -9.542491e-08 -9.582691e-09 4.57422e-06
5.835777e-07 -8.425676e-06 1.3014849e-06 -1.3120724e-05 -1.8459417e-07 7.2199704e-08 3.8631876e-07 1.2986513e-07
-1.3346e-07 -2.8795887e-07 1.11507e-07 1.1643912e-06 1.5728426e-07 1.2162816e-06 -1.1127955e-06 2.8906884e-06
9.99215e-07 1.9465723e-07 -8.341856e-07 7.1770214e-06 2.6831617e-06 -4.6510736e-06 2.511383e-06 -8.195097e-06
-2.2769991e-07 2.43038e-07 3.3891507e-07 1.0813841e-07 -1.6678028e-07 6.752238e-08 2.8176623e-07 1.1174283e-06
2.2345752e-07 1.2364363e-06 -9.371966e-09 -2.0435567e-07 4.2555922e-07 1.3744395e-07 -2.7124019e-09 -1.5643656e-07
-3.0497358e-07 -9.803312e-07 2.8715536e-07 -3.1610946e-06 -1.3553912e-06 2.210005e-06 1.5773651e-06 4.5617708e-07
-1.002014e-06 2.7744495e-06 2.0354405e-06 6.6357325e-07 2.4747617e-06 -3.3277513e-06 3.4156568e-07 1.1167564e-07
-1.0701746e-06 -3.6256986e-07 2.4272927e-07 1.1458347e-06 2.7535805e-07 1.0764932e-08 -9.0341325e-07 3.6161266e-06
3.6553104e-07 2.0719185e-07 -1.2034285e-06 -4.1063913e-07 2.5867362e-07 1.5057374e-06 3.2690753e-07 -1.0985891e-06
-7.752288e-07 2.3475307e-06 -1.0013906e-07 -7.772709e-08 3.419608e-07 1.1571493e-07 -7.0670865e-08 -4.1780427e-07
-8.036281e-09 1.8087061e-06 -1.0190891e-07 1.8753476e-06
00000000: 5856 7f32 a23a 9e34 2d4b 9bb4 03c8 edb3
00000010: 9eee df31 48c3 4f35 0223 9b34 1521 8cb5
00000020: 0dbd 2d33 35ee 1cb4 1453 57b0 43ac 8035
00000030: 602e 2ab3 66ec ccb3 1fa1 24b2 407c 9936
00000040: 27a7 1c35 015c 0db7 aeae ae35 1521 5cb7
00000050: dc34 46b4 350c 9b33 3f67 cf34 0e71 0b34
00000060: 354d 0fb4 c498 9ab4 9f75 ef33 2d48 9c35
00000070: f8e1 2834 1e3f a335 5d5b 95b5 a6fd 4136
00000080: c41c 8635 f902 5134 ccec 5fb5 25d2 f036
00000090: 5e10 3436 6b10 9cb6 3b89 2836 ac7d 09b7
000000a0: ad7d 74b4 e37a 8234 22f4 b534 b839 e833
000000b0: 3714 33b4 d200 9133 a845 9734 8bfa 9535
000000c0: 89ef 6f34 a1f3 a535 5802 21b2 dc6c 5bb4
000000d0: 6a78 e434 4e94 1334 1465 3ab1 f4f8 27b4
000000e0: 40bb a3b4 ec93 83b5 552a 9a34 3123 54b6
000000f0: e3ea b5b5 994f 1436 dab5 d335 80e8 f434
00000100: f07c 86b5 ae30 3a36 9a98 0836 6820 3235
00000110: 1514 2636 5552 5fb6 6e60 b734 55d2 ef33
00000120: eba2 8fb5 39a7 c2b4 7550 8234 95ca 9935
00000130: ecd4 9334 acf0 3832 1682 72b5 95ac 7236
00000140: 343e c434 7678 5e34 7d85 a1b5 d075 dcb4
00000150: d5df 8a34 be18 ca35 d481 af34 3c73 93b5
00000160: 5119 50b5 458a 1d36 080c d7b3 ebea a6b3
00000170: bc96 b734 f57e f833 b8c3 97b3 954e e0b4
00000180: f00f 0ab2 abc2 f235 04d9 dab3 74b4 fb35

exp_avg_sq f4 [10, 10]
1.9763295e-10 6.309032e-10 6.432689e-11 1.1001716e-10 1.5335588e-10 1.2450623e-09 2.4528957e-09 1.0595814e-09
2.9048757e-09 9.3735215e-09 1.0556191e-09 3.1092555e-09 3.856883e-10 4.1989752e-11 5.8022404e-10 3.945019e-09
3.9826187e-09 1.3968883e-08 1.2005423e-09 3.422003e-08 1.3667335e-11 5.6987262e-11 3.3238525e-12 7.983504e-12
1.0892534e-11 1.4826909e-10 1.5793325e-10 4.049797e-11 3.2180797e-10 1.1076511e-09 7.419792e-10 2.077417e-09
3.0943284e-10 3.4937355e-11 4.061788e-10 2.4499431e-09 2.6412916e-09 1.0463333e-08 7.7303014e-10 2.3641974e-08
3.6756792e-11 1.920301e-10 1.9744887e-12 2.3683664e-12 2.2469556e-11 4.658462e-10 2.6732913e-10 1.9918069e-10
9.31079e-11 1.4570681e-09 5.6279733e-12 7.818982e-12 3.9273563e-12 4.9875056e-12 4.9776984e-12 6.7805635e-12
4.6119216e-11 3.65363e-11 1.0358569e-10 5.2991056e-10 1.1442251e-10 4.794922e-10 3.006656e-11 5.4993222e-11
8.5724365e-11 1.0975658e-09 1.7460347e-09 6.008815e-10 1.6476464e-09 4.3640127e-09 2.7242195e-12 8.310046e-12
8.694553e-12 3.4192239e-12 2.3698524e-12 4.0723237e-11 2.9109045e-11 3.7859514e-11 6.761036e-11 2.512057e-10
4.4414164e-12 1.7136084e-11 3.106951e-11 6.996643e-12 2.9204204e-12 1.413625e-10 3.6328895e-11 1.849063e-10
4.6136494e-11 1.9577628e-10 3.6024125e-11 2.5515201e-11 7.669756e-11 2.0111935e-11 1.926423e-11 8.13721e-11
8.377287e-11 9.637401e-10 1.9361389e-10 1.2028744e-09
00000000: bb4c 592f de6b 2d30 d274 8d2e 28ee f12e
00000010: d89d 282f bc1e ab30 cc8f 2831 b5a0 9130
00000020: 1d9f 4731 2f09 2132 4c15 9130 9aaa 5531
00000030: cd08 d42f 42ac 382e a37d 1f30 c18c 8731
00000040: 7cd7 8831 ccfb 6f32 5400 a530 52f9 1233
00000050: 3470 702d f4a1 7a2e 34e5 692c 8172 0c2d
00000060: 9d9f 3f2d 0a06 232f 42a6 2d2f a91c 322e
00000070: 72ea b02f 023c 9830 25f4 4b30 4ec2 0e31
00000080: cd1c aa2f f7a7 192e 964c df2f db5b 2831
00000090: 1882 3531 3ac2 3332 297d 5430 4015 cb32
000000a0: 78a8 212e ab23 532f 3af1 0a2c b2a8 262c
000000b0: f1a4 c52d 030d 0030 3bf7 922f 6100 5b2f
000000c0: 17bf cc2e 0742 c830 4704 c62c 908d 092d
000000d0: 7b2e 8a2c 757b af2c 1f23 af2c e391 ee2c
000000e0: 9fd5 4a2e 37b0 202e 8fc9 e32e 24a9 1130
000000f0: 269e fb2e 44cd 0330 f03b 042e dddc 712e
00000100: 8782 bc2e 2ad9 9630 22f9 ef30 472b 2530
00000110: 6773 e230 43f2 9531 2db3 3f2c 1f31 122d
00000120: c9f4 182d 439b 702c 77c3 262c 4a1a 332e
00000130: df05 002e 0682 262e 40ad 942e 0f1a 8a2f
00000140: b944 9c2c 08bb 962d 29a5 082e 282c f62c
00000150: 9e81 4d2c 026e 1b2f b3c6 1f2e 7f4e 4b2f
00000160: 13e9 4a2e 2042 572f 8f6f 1e2e 206f e02d
00000170: e3a8 a82e 0de8 b02d 3173 a92d 6bf0 b22e
00000180: ef37 b82e 9774 8430 77e1 542f 6152 a530

exp_avg f4 [10]
-4.5595698e-08 8.928873e-08 9.926853e-07 6.2422637e-06 1.2427547e-06 1.6977594e-08 7.483396e-06 -1.8041037e-06
-1.9203524e-06 5.22775e-07
00000000: 00d5 43b3 00bf bf33 683c 8535 a374 d136
00000010: bacc a635 20d6 9132 e219 fb36 8824 f2b5
00000020: 67df 00b6 d354 0c35

exp_avg_sq f4 [10]
1.7516275e-08 3.70289e-08 2.4960896e-09 2.5156323e-08 1.579137e-09 1.1686454e-09 6.581324e-09 5.9855326e-10
4.024979e-10 2.7557956e-09
00000000: b276 9632 b509 1f33 ac87 2b31 5717 d832
00000010: f208 d930 0e9e a030 f021 e231 7187 2430
00000020: 8b46 dd2f 7860 3d31
