models/ensembles/ensemble_25_unbootsrapped/model20/model_checkpoint-10000.pt (torch, 14893 bytes, 24 tensors)

branch.hidden_layers.0.thetas f4 [55]
-0.52382284 -0.38157138 -0.24259834 -0.08105266 1.1229883 0.24017033 -0.26430008 0.07175578
-1.7793506 -0.7639227 1.4509759 -1.2086424 -0.22376157 0.07380543 -0.10687374 -1.7507026
-0.30254003 -0.25514948 -0.8528805 0.72854686 -1.753763 -0.8371332 1.0501927 1.0419036
-1.2819787 -1.0449396 0.12650639 0.47279418 0.21067213 -1.5558559 -0.11458161 1.0508806
0.7731381 -0.40241984 1.5212665 2.5747786 -0.017240908 -1.0316093 -1.1932287 -0.93643075
-0.2859595 0.7061706 2.0517945 -0.21206643 0.9167677 1.0107938 0.05659803 0.22456427
0.928486 0.29611593 -1.0932473 0.6679496 -0.64737296 -0.23370789 0.013743638
00000000: 4119 06bf 535d c3be b36b 78be f0fe a5bd
00000010: 15be 8f3f 36ef 753e 5752 87be b2f4 923d
00000020: c3c1 e3bf 7090 43bf 94b9 b93f cbb4 9abf
00000030: c121 65be 4d27 973d 9fe0 dabd 0617 e0bf
00000040: 87e6 9abe f4a2 82be 6056 5abf 0c82 3a3f
00000050: 4e7b e0bf 5d4e 56bf b76c 863f 195d 853f
00000060: e117 a4bf 95c0 85bf e48a 013e 1412 f23e
00000070: 6fba 573e 4926 c7bf c3a9 eabd 4183 863f
00000080: 61ec 453f f909 cebe dcb8 c23f 2cc9 2440
00000090: ce3c 8dbc c60b 84bf b8bb 98bf edb9 6fbf
000000a0: 4969 92be 99c7 343f 9a50 0340 f127 59be
000000b0: 4ab1 6a3f b161 813f 56d3 673d 2df4 653e
000000c0: 42b1 6d3f 829c 973e 87ef 8bbf bffe 2a3f
000000d0: 3cba 25bf 1f51 6fbe ff2c 613c

branch.hidden_layers.0.bias f4 [10]
0.34877777 0.28570777 0.41161826 0.3885167 0.8038821 0.33107245 0.35097507 0.4841344
0.037997253 0.13387685
00000000: 0093 b23e 4a48 923e a1bf d23e a9eb c63e
00000010: 38cb 4d3f 5482 a93e 01b3 b33e 77e0 f73e
00000020: 02a3 1b3d 0317 093e

branch.output_layer.weight f4 [10, 10]
-0.48516917 0.4561518 0.17897142 -0.2500077 0.081054255 0.0008274756 -0.5709856 0.19860029
-0.04531191 0.18971933 -0.43747783 0.107128754 0.657459 -0.62338763 0.2532193 0.35262433
-0.13842401 0.0883668 0.2833323 -0.05975796 0.6307818 -0.3412175 -0.49457368 0.12908512
-0.5194165 -0.014094446 0.36381423 -0.3866219 -0.34806505 -0.292038 -0.59847784 0.46174553
0.20239332 -0.57116747 0.49342525 0.64868873 -0.2718801 0.075258546 -0.39383692 -0.678944
-0.26383415 0.44012958 0.6832883 -0.49877337 0.52822393 0.0034324867 -0.10749822 0.3624845
0.5225752 -0.392429 0.23691915 0.053142328 -0.41953492 -0.5056884 -1.6023874 0.34629983
-0.016098531 1.706011 0.5018722 -0.5722183 0.48436132 -0.5012255 -0.37728524 0.018900026
-0.30378482 -0.22064763 0.2752601 -0.37210652 -0.6024254 -0.051991045 -0.37429887 0.47386983
0.42712557 -0.40891194 0.07897477 0.23356034 0.014294578 0.10774905 0.062864825 -0.20853296
0.543431 -0.18241876 -0.4593568 0.30054763 -0.67929673 -0.46268287 0.38502765 0.059104286
-0.49018312 -0.1619488 -0.35785392 0.12436396 0.22892106 -0.3328933 -0.3092407 0.636871
-0.5212763 0.004479603 -0.6213098 -0.44098005
00000000: 1868 f8be bb8c e93e 4944 373e 0201 80be
00000010: c6ff a53d f3ea 583a 1d2c 12bf e05d 4b3e
00000020: fb98 39bd c945 423e 18fd dfbe 5266 db3d
00000030: 3c4f 283f 5596 1fbf f6a5 813e 2d8b b43e
00000040: 06bf 0dbe a7f9 b43d ee10 913e c3c4 74bd
00000050: eb7a 213f 0fb4 aebe c338 fdbe e42e 043e
00000060: 7bf8 04bf 64ec 66bc dc45 ba3e 4ef3 c5be
00000070: 9535 b2be 0186 95be d835 19bf e969 ec3e
00000080: 3240 4f3e 0838 12bf 3ca2 fc3e 7710 263f
00000090: de33 8bbe 2721 9a3d fea4 c9be 46cf 2dbf
000000a0: 4515 87be aa58 e13e fbeb 2e3f 395f ffbe
000000b0: af39 073f 92f3 603b 0728 dcbd 9297 b93e
000000c0: 7dc7 053f 74ec c8be ef9a 723e c5ab 593d
000000d0: 48cd d6be cc74 01bf 081b cdbf 364e b13e
000000e0: 11e1 83bc 925e da3f b27a 003f e67c 12bf
000000f0: 35fe f73e 5050 00bf 882b c1be 3ad4 9a3c
00000100: af89 9bbe 74f1 61be e4ee 8c3e bf84 bebe
00000110: 8d38 1abf 90f4 54bd 1aa4 bfbe 119f f23e
00000120: 34b0 da3e e85c d1be 86bd a13d 712a 6f3e
00000130: ce33 6a3c 89ab dc3d 46bf 803d aa89 55be
00000140: 4b1e 0b3f fccb 3abe d130 ebbe 61e1 993e
00000150: 64e6 2dbf c5e4 ecbe 5822 c53e 5617 723d
00000160: 48f9 fabe e8d5 25be a138 b7be 88b2 fe3d
00000170: 486a 6a3e fe70 aabe cc54 9ebe fa09 233f
00000180: 5d72 05bf a2c9 923b 290e 1fbf 23c8 e1be

branch.output_layer.bias f4 [10]
-0.044703964 -0.12654562 0.4184295 0.12818821 -0.13514051 0.37455854 0.4350724 0.15781443
0.15460745 -0.07804797
00000000: 811b 37bd 2d95 01be 643c d63e c543 033e
00000010: 4662 0abe 23c6 bf3e cfc1 de3e 1b9a 213e
00000020: 6a51 1e3e 9dd7 9fbd

trunk.hidden_layers.0.thetas f4 [17]
1.3512201 1.6962067 0.8232324 1.2832248 -0.516262 -0.37594658 -0.9691567 0.48495847
0.38369268 -0.51989865 0.7481206 -0.7861443 -0.84975713 0.15523541 2.1708405 1.0670745
0.77228665
00000000: c8f4 ac3f 4d1d d93f 5cbf 523f b640 a43f
00000010: bf29 04bf 127c c0be a71a 78bf 7a4c f83e
00000020: 5e73 c43e 1418 05bf d584 3f3f c140 49bf
00000030: af89 59bf 08f6 1e3e 0def 0a40 e695 883f
00000040: 94b4 453f

trunk.hidden_layers.0.bias f4 [10]
-0.12780702 0.5117405 -0.38426375 -0.25092062 0.5409206 0.19299273 -0.21423644 -0.15173198
-0.39438564 0.4040989
00000000: d8df 02be 6d01 033f 38be c4be ab78 80be
00000010: c679 0a3f e39f 453e cc60 5bbe a15f 1bbe
00000020: eaec c9be 0de6 ce3e

trunk.output_layer.weight f4 [10, 10]
-0.19497444 0.17962536 -0.5188292 -0.5598387 0.7554108 -0.14739095 -0.32383096 -0.13454828
-0.30816934 0.3279114 -0.2973358 0.31149992 -0.70116246 -0.37280482 0.8436494 -0.09115018
0.029374652 -0.48669618 0.2576481 -0.084006995 1.3211519 -1.261783 0.9250947 0.8714472
-1.0579299 1.6366111 -0.42301047 -0.122596696 -0.031394154 -0.31042832 -0.76249224 0.5119772
-0.39596066 -0.60649776 0.71499455 -1.1927546 -0.6120283 -0.722281 -0.26326397 0.44843766
-0.24651976 0.39481184 -0.7249464 -0.33477432 0.24427067 0.21327786 -0.110498786 -0.46413568
-0.1239779 -0.08564743 -1.5977077 1.900784 -1.1929871 -1.2561913 0.9590119 -1.9704915
1.6355758 -0.621907 0.6629885 0.106962085 0.9547591 -1.0134267 0.43514255 0.30512032
-0.47505015 1.1255735 -0.006561437 0.04626204 0.22833718 -0.5900995 -0.64752764 0.4414653
-0.26902902 -0.41261724 0.19031806 -0.31391072 -0.26630518 -0.27628306 -0.25700396 0.24454793
1.0221709 -0.85131866 0.20417242 0.8284765 -0.43667787 2.2273188 -0.27432495 0.61987036
-0.24492769 -0.28124106 -0.6783674 0.70276284 -0.71601677 -0.85286415 0.5733419 -1.6443357
-0.007006903 -0.6127748 -0.18809015 0.71091896
00000000: 61a7 47be b6ef 373e fed1 04bf 9751 0fbf
00000010: 9a62 413f a7ed 16be 2ccd a5be 06c7 09be
00000020: 5fc8 9dbe 01e4 a73e 663c 98be eb7c 9f3e
00000030: 627f 33bf 46e0 bebe 68f9 573f f2ac babd
00000040: 1ca3 f03c 3e30 f9be 74ea 833e dc0b acbd
00000050: 811b a93f 1b82 a1bf 02d3 6c3f 2a17 5f3f
00000060: 3f6a 87bf 797c d13f d494 d8be fa13 fbbd
00000070: 2897 00bd 76f0 9ebe b132 43bf f010 033f
00000080: 5bbb cabe 7043 1bbf e209 373f 2fac 98bf
00000090: e3ad 1cbf 68e7 38bf 89ca 86be 9f99 e53e
000000a0: ad6f 7cbe c724 ca3e 1696 39bf 8a67 abbe
000000b0: 1722 7a3e 8365 5a3e 304d e2bd 31a3 edbe
000000c0: 20e8 fdbd eb67 afbd b081 ccbf e44c f33f
000000d0: cdb3 98bf e0ca a0bf ce81 753f 1139 fcbf
000000e0: 8c5a d13f 4c35 1fbf 9db9 293f f00e db3d
000000f0: 186b 743f f7b7 81bf 01cb de3e bb38 9c3e
00000100: c639 f3be cb12 903f 5301 d7bb 447d 3d3d
00000110: 39d1 693e c310 17bf 5fc4 25bf bd07 e23e
00000120: 2cbe 89be 9142 d3be bde2 423e e8b8 a0be
00000130: 2759 88be f974 8dbe 0696 83be c66a 7a3e
00000140: 7fd6 823f 05f0 59bf 9312 513e 0917 543f
00000150: 3e94 dfbe 648c 0e40 5274 8cbe d3af 1e3f
00000160: 53ce 7abe d4fe 8fbe 7ca9 2dbf 44e8 333f
00000170: e04c 37bf 4e55 5abf 89c6 123f 9879 d2bf
00000180: 2a9a e5bb cfde 1cbf b49a 40be c9fe 353f

trunk.output_layer.bias f4 [10]
0.54102004 0.65363157 -0.2942027 0.17104273 0.49694058 -0.3964884 -0.5046442 0.46480292
-0.07463638 0.011490276
00000000: 4a80 0a3f 6654 273f bca1 96be d325 2f3e
00000010: ff6e fe3e 8700 cbbe 5d30 01bf a6fa ed3e
00000020: f5da 98bd b641 3c3c

exp_avg f4 [55]
1.2868193e-07 -6.8510445e-07 -4.5621604e-07 1.4654927e-07 -2.047748e-07 -9.4566485e-07 7.5119175e-07 2.402503e-06
2.2289198e-06 1.3611226e-07 1.8928766e-06 -1.3962415e-06 -4.164699e-07 4.098943e-06 1.3070172e-06 -1.2692581e-07
3.7401034e-07 1.4579638e-06 2.393408e-06 2.9762006e-07 -9.4190693e-07 3.6229028e-06 3.7221691e-06 2.6001075e-08
-3.2027044e-06 -3.7342472e-06 -3.1408122e-06 -6.325135e-07 -2.4482668e-07 -3.7810962e-06 8.746788e-07 4.9297487e-06
2.911284e-06 9.852321e-07 1.1740298e-05 -1.6413347e-06 4.4958006e-06 5.922214e-07 4.790502e-06 -1.8826853e-07
-6.0839257e-06 1.8015982e-06 2.3756522e-08 -2.3214875e-06 9.771619e-07 5.16556e-06 -2.1840482e-07 -3.5518226e-06
-5.2813944e-06 -1.7798293e-06 -3.281679e-06 1.8626346e-07 -4.320883e-07 -8.874829e-06 8.470949e-07
00000000: d22b 0a34 05e8 37b5 dbed f4b4 285b 1d34
00000010: 12e0 5bb4 98d9 7db5 81a5 4935 b03a 2136
00000020: 8d94 1536 4126 1234 bf0e fe35 7e66 bbb5
00000030: 3097 dfb4 a789 8936 c56c af35 1a49 08b4
00000040: 97cb c834 41af c335 709e 2036 97c8 9f34
00000050: 5ad7 7cb5 ff20 7336 61ca 7936 f858 df32
00000060: 0bee 56b6 e199 7ab6 bec6 52b6 ffc9 29b5
00000070: b970 83b4 bdbe 7db6 78cb 6a35 386a a536
00000080: 7a5f 4336 513c 8435 32f8 4437 d54b dcb5
00000090: a2da 9636 25f9 1e35 19be a036 dc26 4ab4
000000a0: 8624 ccb6 71ce f135 2511 cc32 daca 1bb6
000000b0: 0727 8335 d353 ad36 a982 6ab4 d95b 6eb6
000000c0: d536 b1b6 78e2 eeb5 d13a 5cb6 b6ff 4734
000000d0: c4f9 e7b4 1ae5 14b7 eb63 6335

exp_avg_sq f4 [55]
1.3180576e-08 1.0832005e-09 3.28963e-08 5.3829456e-08 3.422218e-09 2.1332463e-08 5.6655867e-09 3.288299e-08
1.0617287e-08 8.035798e-09 2.6111236e-08 3.0448832e-09 4.4616013e-09 6.3936774e-08 2.1633632e-08 7.418332e-09
1.3928333e-08 1.7033322e-08 4.5859014e-09 7.7407053e-10 1.0581509e-08 1.3071096e-07 3.875054e-08 5.3558886e-09
1.6334223e-09 9.124389e-08 2.3299814e-08 1.564462e-09 3.3856862e-09 6.4761302e-06 1.002294e-08 9.773437e-08
1.8206629e-08 6.624741e-09 1.4276553e-07 1.1975513e-07 1.8207704e-08 2.3988729e-09 1.0047508e-05 2.7852506e-08
1.1107797e-07 1.24160735e-08 2.7290114e-05 5.2438967e-08 5.8714416e-08 7.614571e-06 1.1214235e-08 1.5083573e-07
2.1916471e-06 5.325326e-08 1.9090034e-05 2.8226394e-08 1.5572188e-07 4.256928e-06 1.835504e-08
00000000: c970 6232 bbdf 9430 dd49 0d33 1d32 6733
00000010: 4c2c 6b31 953e b732 07ab c231 3b3b 0d33
00000020: 5267 3632 d00d 0a32 374b e032 273e 5131
00000030: a94c 9931 9d4d 8933 dcd4 b932 57e4 fe31
00000040: 7549 6f32 ac50 9232 0492 9d31 5fc6 5430
00000050: f8c9 3532 8e59 0c34 ab6e 2633 e506 b831
00000060: f07e e030 dcf1 c333 d524 c832 9d04 d730
00000070: 9fa9 6831 894d d936 5b31 2c32 0ae2 d133
00000080: cd64 9c32 d79f e331 174b 1934 0a96 0034
00000090: 2a67 9c32 6bd9 2431 b891 2837 4f40 ef32
000000a0: c389 ee33 784e 5532 13ed e437 4139 6133
000000b0: 2f2d 7c33 ab80 ff36 baa8 4032 69f5 2134
000000c0: 3614 1336 94b8 6433 8923 a037 7f76 f232
000000d0: 8134 2734 bcd6 8e36 29ab 9d32

exp_avg f4 [10]
-2.6865314e-06 -3.5765888e-07 3.4519169e-06 -1.2813809e-05 9.75198e-06 -1.5076631e-05 5.9827607e-06 -1.9306572e-06
-3.166137e-08 2.0092617e-07
00000000: 424a 34b6 4304 c0b4 7ba7 6736 e4fa 56b7
00000010: 6f9c 2337 a3f1 7cb7 86bf c836 7090 01b6
00000020: 0bfc 07b3 2abe 5734

exp_avg_sq f4 [10]
2.8561857e-05 2.3260896e-05 2.5683687e-05 3.9910305e-05 6.042957e-07 2.5658272e-05 2.003236e-05 8.8229635e-06
1.6373991e-07 7.0382735e-06
00000000: 1f98 ef37 6520 c337 4c73 d737 5d65 2738
00000010: e236 2235 b83c d737 2a0b a837 5706 1437
00000020: 7cd0 2f34 4f2a ec36

exp_avg f4 [10, 10]
1.6653293e-06 -2.4718838e-06 -7.4260356e-07 -2.1755445e-06 2.031599e-07 -2.8235843e-06 -4.3007617e-07 -2.8118427e-07
3.10369e-06 1.686252e-06 1.19011e-05 7.2991697e-06 2.7133378e-06 1.2325728e-05 3.8943876e-06 1.4413507e-05
6.7756323e-06 -8.1019755e-07 -2.008869e-06 1.022646e-06 -1.5802298e-06 2.4862748e-06 2.7775493e-06 -1.2571867e-06
-1.696422e-06 -3.4235243e-06 3.626859e-06 5.0422483e-07 4.557e-06 2.6888558e-06 -5.1200664e-06 -3.82781e-06
2.0129257e-06 -7.2263138e-06 -4.121299e-06 -1.3931242e-05 8.2372566e-07 1.725249e-07 8.394868e-06 3.8227276e-06
7.3262286e-06 3.5412074e-06 1.0068128e-06 6.291448e-06 2.686097e-06 8.070479e-06 3.3460155e-06 -5.452458e-07
-6.8063594e-07 8.6880516e-07 3.8818175e-06 3.2083428e-06 -5.246659e-06 9.190665e-06 -3.1727936e-06 1.0286111e-05
-2.836164e-06 -3.5934688e-06 -6.294854e-06 -2.714413e-06 -1.2413115e-06 2.5847985e-06 3.7741236e-06 -9.988344e-08
-8.708313e-07 -2.7643125e-06 3.9424467e-06 5.2407535e-07 3.5377943e-06 2.2631405e-06 1.5356164e-07 -2.2898528e-06
-4.86703e-07 -2.3239295e-06 -6.051796e-07 -3.673407e-06 -5.5793225e-07 -2.611289e-07 2.7503663e-06 1.3411565e-06
-1.3846084e-06 1.6619692e-06 -8.7792394e-08 -3.0283309e-06 -1.6267446e-06 -3.0233025e-06 9.821922e-07 -2.916105e-07
4.7350695e-06 2.8630632e-06 -7.90289e-06 -3.1864786e-06 4.945958e-06 -9.700275e-06 -6.2053537e-06 -1.9956282e-05
3.7359152e-06 8.453592e-07 1.3068057e-05 6.2165223e-06
00000000: 4784 df35 a4e2 25b6 5457 47b5 92ff 11b6
00000010: 2b24 5a34 cf7c 3db6 38e5 e6b4 acf5 96b4
00000020: fd48 5036 2d53 e235 d6aa 4737 64eb f436
00000030: ca16 3636 99ca 4e37 89ac 8236 8bd1 7137
00000040: 3d5a e336 5a7c 59b5 1bd0 06b6 d941 8935
00000050: 4818 d4b5 e0d9 2636 ef65 3a36 9bbc a8b5
00000060: 9eb0 e3b5 b3bf 65b6 f764 7336 115a 0735
00000070: 55e8 9836 3172 3436 09cd abb6 a370 80b6
00000080: cd15 0736 9079 f2b6 b049 8ab6 3bba 69b7
00000090: ff1d 5d35 493f 3934 afd7 0c37 fb44 8036
000000a0: d3d3 f536 7ba5 6d36 d321 8735 201b d336
000000b0: cc42 3436 7266 0737 1c8c 6036 025d 12b5
000000c0: f2b4 36b5 d637 6935 8f40 8236 e94e 5736
000000d0: 750c b0b6 9b31 1a37 2eec 54b6 8392 2c37
000000e0: ed54 3eb6 5327 71b6 6238 d3b6 4329 36b6
000000f0: 239b a6b5 8076 2d36 f346 7d36 807f d6b3
00000100: 12c3 69b5 8782 39b6 5c49 8436 2fae 0c35
00000110: d86a 6d36 75e0 1736 b4e2 2434 5fab 19b6
00000120: faa5 02b5 cef4 1bb6 a073 22b5 a784 76b6
00000130: d0c4 15b5 4831 8cb4 ef92 3836 c901 b435
00000140: c8d6 b9b5 d410 df35 6188 bcb3 543a 4bb6
00000150: 8556 dab5 f1e3 4ab6 ded3 8335 a48e 9cb4
00000160: f0e1 9e36 0d23 4036 a796 04b7 49d7 55b6
00000170: 75f5 a536 5dbe 22b7 9537 d0b6 ca67 a7b7
00000180: 89b6 7a36 a4ec 6235 e13e 5b37 8597 d036

exp_avg_sq f4 [10, 10]
7.673088e-07 1.42102e-06 2.681477e-06 1.7780777e-06 5.4027976e-07 2.5149411e-06 2.8686593e-06 5.975617e-08
2.3722308e-08 7.992773e-08 4.6084688e-07 8.530903e-07 1.6105257e-06 1.0677769e-06 3.2461355e-07 1.5102405e-06
1.7230243e-06 3.5891475e-08 1.4220184e-08 4.795921e-08 3.8470603e-08 7.1239526e-08 1.3434101e-07 8.916394e-08
2.7213748e-08 1.2591478e-07 1.4386865e-07 2.980194e-09 1.2011977e-09 4.0263624e-09 6.335772e-07 1.1729335e-06
2.2140964e-06 1.4680121e-06 4.4522127e-07 2.0771809e-06 2.3676969e-06 4.9397258e-08 1.9640304e-08 6.5917526e-08
2.9048513e-07 5.3770134e-07 1.0154165e-06 6.730364e-07 2.0472797e-07 9.5201e-07 1.0863441e-06 2.2623412e-08
8.945946e-09 3.0218786e-08 1.8710651e-07 3.4613828e-07 6.5562705e-07 4.3393914e-07 1.3422614e-07 6.125161e-07
7.035575e-07 1.4506096e-08 5.650857e-09 1.9495328e-08 4.416974e-08 8.222229e-08 1.5398136e-07 1.023776e-07
3.1242305e-08 1.4469067e-07 1.6505098e-07 3.4353298e-09 1.4037245e-09 4.681741e-09 4.5018848e-07 8.3364966e-07
1.5732813e-06 1.0432099e-06 3.1741772e-07 1.4750927e-06 1.6834592e-06 3.5036578e-08 1.3890942e-08 4.6893373e-08
1.6695555e-08 3.133155e-08 5.7726965e-08 3.873944e-08 1.1787437e-08 5.4482108e-08 6.20529e-08 1.2922496e-09
5.7859095e-10 1.8274414e-09 5.875304e-07 1.0875972e-06 2.0535906e-06 1.3613449e-06 4.1304443e-07 1.9266179e-06
2.196238e-06 4.580486e-08 1.8266409e-08 6.1139374e-08
00000000: 0ff9 4d35 e0b9 be35 6df3 3336 49a6 ee35
00000010: be07 1135 5cc6 2836 3183 4036 4d53 8033
00000020: e8c5 cb32 bca4 ab33 506a f734 ebff 6435
00000030: 3e29 d835 8950 8f35 8c46 ae34 78b3 ca35
00000040: aa42 e735 1827 1a33 084d 7432 b6fb 4d33
00000050: e03a 2533 58fc 9833 603f 1034 657a bf33
00000060: aac3 e932 3133 0734 507a 1a34 21cc 4c31
00000070: 6317 a530 4258 8a31 1813 2a35 b06d 9d35
00000080: e395 1436 8308 c535 bf06 ef34 b265 0b36
00000090: b9e4 1e36 dc28 5433 7cb5 a832 8b8e 8d33
000000a0: f9f3 9b34 8e56 1035 7249 8835 b6aa 3435
000000b0: 32d3 5b34 a18d 7f35 80ce 9135 6955 c232
000000c0: b0b0 1932 e8c9 0133 72e7 4834 e2d4 b934
000000d0: 59fe 2f35 24f8 e834 cd1f 1034 c96b 2435
000000e0: 1adc 3c35 7c36 7932 7729 c231 ae76 a732
000000f0: 25b5 3d33 2f92 b033 1356 2534 aeda db33
00000100: 472f 0633 455c 1b34 de38 3134 f612 6c31
00000110: 2aed c030 08dd a031 6fb1 f134 f8c7 5f35
00000120: 8929 d335 6b04 8c35 8f69 aa34 cdfb c535
00000130: 38f3 e135 207b 1633 02a5 6e32 cf67 4933
00000140: ea69 8f32 6791 0633 78ef 7733 7762 2633
00000150: b281 4a32 b6ff 6933 f141 8533 fe9a b130
00000160: b80a 1f30 6129 fb30 c8b6 1d35 8ef9 9135
00000170: 6bd0 0936 74b7 b635 65c0 dd34 0b4b 0136
00000180: 1563 1336 faba 4433 42e8 9c32 ba4b 8333

exp_avg f4 [10]
-7.7261024e-07 2.5289002e-05 -2.2126185e-06 -1.52250805e-05 1.4746486e-05 5.4740567e-06 -6.491246e-07 -3.0871206e-06
-3.2993526e-06 -2.0799682e-05
00000000: 5f65 4fb5 b823 d437 7f7c 14b6 396f 7fb7
00000010: ad67 7737 caad b736 813f 2eb5 542c 4fb6
00000020: 726a 5db6 fa7a aeb7

exp_avg_sq f4 [10]
1.0252488e-05 6.157672e-06 5.139031e-07 8.465095e-06 3.8824373e-06 2.5083648e-06 5.8841874e-07 6.015372e-06
2.2057324e-07 7.852682e-06
00000000: 1a02 2c37 009e ce36 27f3 0935 4e05 0e37
00000010: e245 8236 6155 2836 d4f3 1d35 a7d7 c936
00000020: b6d6 6c34 03bf 0337

exp_avg f4 [17]
1.5952883e-06 -3.1088787e-06 2.143129e-05 -4.1493604e-07 3.838196e-06 -5.696068e-07 -8.431366e-07 1.2098376e-06
-1.0842832e-07 3.6730157e-07 1.5447615e-06 1.7545851e-08 -2.469715e-06 8.346166e-08 -3.898937e-08 1.5827054e-07
1.1779801e-07
00000000: b01d d635 21a2 50b6 58c7 b337 60c4 deb4
00000010: dac9 8036 15e7 18b5 e853 62b5 b461 a235
00000020: 19d9 e8b3 8b31 c534 9a55 cf35 bcb7 9632
00000030: 61bd 25b6 883b b333 4475 27b3 13f1 2934
00000040: 24f8 fc33

exp_avg_sq f4 [17]
5.2959237e-09 2.575493e-09 6.6628665e-08 1.2436228e-09 2.0693394e-08 1.884098e-10 4.332786e-10 5.117518e-10
3.5006444e-09 1.6691535e-11 2.5936445e-10 5.659543e-13 2.4154598e-10 4.0749473e-13 4.0430794e-11 4.7299573e-12
2.697676e-11
00000000: 70f7 b531 8dfc 3031 7f15 8f33 16ec aa30
00000010: 41c1 b132 a528 4f2f 8b32 ee2f 55ab 0c30
00000020: fd8f 7031 ffd1 922d 4d96 8e2f 4e4d 1f2b
00000030: 93ca 842f 2e66 e52a 07d1 312e ab6b a62c
00000040: 434a ed2d

exp_avg f4 [10]
-2.0748375e-06 -1.6065308e-06 1.6604477e-06 1.1681608e-06 -8.874394e-06 -8.069767e-06 2.4444614e-06 1.0471507e-06
-9.834561e-07 -9.503036e-06
00000000: 703d 0bb6 fa9f d7b5 8cdc de35 b3c9 9c35
00000010: 3be3 14b7 6363 07b7 870b 2436 d38b 8c35
00000020: 4bff 83b5 3b6f 1fb7

exp_avg_sq f4 [10]
5.626721e-08 2.6061103e-08 2.208172e-09 4.2612283e-09 3.287851e-08 2.9869557e-08 3.6404366e-08 2.5501077e-08
7.346567e-10 7.990299e-08
00000000: 74aa 7133 f9dc df32 93be 1731 296a 9231
00000010: 4e36 0d33 ed49 0033 065b 1c33 760d db32
00000020: dff0 4930 2297 ab33

exp_avg f4 [10, 10]
4.515374e-07 -2.673276e-06 1.1139649e-06 8.578081e-07 -3.1994632e-06 -1.8278457e-06 -1.858567e-06 -1.3973972e-06
-3.8149014e-06 1.1173952e-05 7.902823e-07 -3.6307385e-06 1.2382116e-06 1.0749942e-06 -3.8404974e-06 -1.5792772e-06
-1.6482463e-06 -1.046238e-06 -3.4640484e-06 1.2095178e-05 -3.3399184e-07 2.6689074e-07 -4.865007e-08 -1.8511645e-07
1.2644702e-07 -2.3402356e-06 3.0454984e-07 2.8898523e-07 1.08415925e-07 2.318018e-08 5.794383e-07 2.0155453e-07
7.7851254e-08 2.2243842e-07 7.3381335e-07 6.534077e-06 2.2165962e-06 1.8030848e-06 3.7049817e-06 -1.5902233e-05
7.572518e-07 -3.205794e-06 9.674336e-07 8.952437e-07 -3.193162e-06 -1.1898744e-06 -1.0817683e-06 -4.981635e-07
-2.5569266e-06 9.709234e-06 -1.9902205e-07 1.173864e-06 -7.259701e-07 -4.581181e-07 1.4058994e-06 8.2119636e-09
-5.347199e-07 -4.844669e-07 -7.1366294e-08 3.0997621e-06 -1.743036e-07 7.188769e-08 -9.088459e-09 -7.638317e-08
-4.1134808e-08 -1.4185712e-06 -1.3572134e-07 -1.2703114e-07 -2.8440004e-07 1.5078288e-06 -2.4657435e-08 1.1339385e-07
-9.965432e-08 -9.7546796e-08 4.3020796e-07 -6.6573214e-08 1.3595919e-06 1.1173892e-06 2.4470785e-06 -6.083825e-06
-2.5666887e-07 5.2357876e-07 -2.2319978e-07 -2.2096792e-07 4.2268078e-07 -1.2631031e-06 -3.887156e-07 -3.6988862e-07
-4.9759325e-07 2.467553e-06 1.187323e-06 -2.0200346e-06 1.1846577e-06 1.0601792e-06 -1.7345252e-06 7.74193e-06
2.5287043e-06 2.3695598e-06 2.579833e-06 -1.762606e-05
00000000: d46a f234 8866 33b6 8b83 9535 2044 6635
00000010: 5cb6 56b6 4d54 f5b5 e073 f9b5 348e bbb5
00000020: c101 80b6 c277 3b37 c923 5435 9da7 73b6
00000030: a030 a635 8548 9035 9fdd 80b6 8df7 d3b5
00000040: 5039 ddb5 776c 8cb5 e677 68b6 65ec 4a37
00000050: 7d4f b3b4 2f49 8f34 51f3 50b3 6cc4 46b4
00000060: 7ec5 0734 f10c 1db6 0381 a334 d425 9b34
00000070: 49d2 e833 c11d c732 b28a 1b35 e36a 5834
00000080: 2e2f a733 68d7 6e34 45fb 4435 4b3f db36
00000090: d5c0 1436 8601 f235 1aa3 7836 c965 85b7
000000a0: f345 4b35 1f23 57b6 c4d8 8135 ae50 7035
000000b0: 1b4a 56b6 c6b3 9fb5 4731 91b5 89b9 05b5
000000c0: aa97 2bb6 d8e4 2237 c4b2 55b4 a98d 9d35
000000d0: 49e0 42b5 46f3 f5b4 56b2 bc35 9914 0d32
000000e0: ac89 0fb5 500c 02b5 0942 99b3 8205 5036
000000f0: 3528 3bb4 ad60 9a33 7723 1cb2 1708 a4b3
00000100: 33ac 30b3 bc65 beb5 ccba 11b4 0e66 08b4
00000110: a5af 98b4 9a60 ca35 46ce d3b2 ee82 f333
00000120: 8b01 d6b3 eb7a d1b3 55f7 e634 03f7 8eb3
00000130: 397b b635 33f9 9535 7d38 2436 a923 ccb6
00000140: 4dcc 89b4 0f8c 0c35 b0a8 6fb4 3343 6db4
00000150: ceec e234 e487 a9b5 aab0 d0b4 1b95 c6b4
00000160: 5992 05b5 3d98 2536 1c5c 9f35 ee8f 07b6
00000170: 8700 9f35 7b4b 8e35 d5cd e8b5 56e3 0137
00000180: cfb2 2936 ba04 1f36 3221 2d36 addb 93b7

exp_avg_sq f4 [10, 10]
3.947072e-09 7.7361335e-08 1.5228578e-08 8.486596e-09 6.457667e-08 1.7325968e-09 2.0596223e-08 1.4539454e-08
4.5734893e-08 3.3315342e-07 3.373704e-10 5.0369864e-09 9.716216e-10 6.0227207e-10 4.05432e-09 1.4235875e-10
1.3139739e-09 1.1591317e-09 3.0466074e-09 2.1169619e-08 1.6510094e-11 1.2485138e-11 3.5671353e-12 4.680693e-12
1.20544946e-11 3.8370107e-10 1.2542774e-11 1.2012794e-11 3.9754748e-11 1.555661e-10 2.3682718e-09 4.350033e-08
8.536118e-09 4.854281e-09 3.6427217e-08 6.830085e-10 1.1403201e-08 8.467825e-09 2.4978073e-08 1.8720509e-07
1.7600501e-09 3.3067703e-08 6.4660615e-09 3.6675585e-09 2.7249966e-08 7.7817436e-10 8.75681e-09 6.3761196e-09
1.964335e-08 1.4062599e-07 1.9424674e-10 2.7925666e-09 4.889466e-10 3.2665373e-10 2.0846573e-09 2.5756819e-11
6.2937155e-10 5.058076e-10 1.4000456e-09 1.0074973e-08 5.8881745e-12 2.339274e-11 6.335201e-12 5.571322e-12
2.2451254e-11 1.552091e-11 1.3846219e-11 4.146096e-11 4.3917266e-11 3.4295558e-10 7.963326e-09 1.5453871e-07
3.0294867e-08 1.697178e-08 1.287786e-07 2.9330771e-09 4.0732814e-08 2.8764873e-08 8.9973994e-08 6.6022056e-07
3.694831e-12 2.0179833e-10 5.8093974e-11 1.911979e-11 2.2694219e-10 2.0234776e-10 1.0112505e-10 6.755942e-11
2.4671754e-10 1.5863906e-09 3.6577095e-09 6.51397e-08 1.2421209e-08 7.2752737e-09 5.277266e-08 6.0178906e-10
1.6557838e-08 1.2031725e-08 3.6616854e-08 2.6853223e-07
00000000: d09e 8731 d821 a633 ffcf 8232 72cc 1132
00000010: 66ad 8a33 5520 ee30 93eb b032 32c9 7932
00000020: 0c6e 4433 42dc b234 aa78 b92f cd11 ad31
00000030: e589 8530 218d 2530 2d4e 8b31 6d86 1c2f
00000040: 5997 b430 524f 9f30 7c5c 5131 7cd8 b532
00000050: 6d39 912d 10a4 5b2d cc03 7b2c efaf a42c
00000060: 9e10 542d 20f1 d22f a2a7 5c2d d154 532d
00000070: ded7 2e2e f70b 2b2f 14bf 2231 1ed5 3a33
00000080: 3ea6 1232 b5ca a631 2674 1c33 73be 3b30
00000090: cfe7 4332 e379 1132 5d8f d632 8b02 4934
000000a0: 42e6 f130 5306 0e33 142c de31 5f08 7c31
000000b0: 4f13 ea32 27e7 5530 dc70 1632 f114 db31
000000c0: 2fbc a832 fafe 1634 9993 552f 5ae7 3f31
000000d0: 8f66 0630 6d94 b32f ae41 0f31 338f e22d
000000e0: 1600 2d30 0c09 0b30 ba6b c030 3316 2d32
000000f0: f62b cf2c c4c3 cd2d 6be6 de2c 0206 c42c
00000100: bb7b c52d fb85 882d d495 732d e458 362e
00000110: 7226 412e b58a bc2f 14cf 0832 47ef 2534
00000120: 8f1d 0233 57c9 9132 6446 0a34 3d8f 4931
00000130: 34f2 2e33 a016 f732 ba37 c133 033a 3135
00000140: 1400 822c 2ee1 5d2f 0080 7f2e f12d a82d
00000150: 8c86 792f d57b 5e2f 5860 de2e 9390 942e
00000160: 68a2 872f 2808 da30 1b5b 7b31 eee2 8b33
00000170: 0e65 5532 fcf9 f931 27a8 6233 246b 2530
00000180: 123b 8e32 16b4 4e32 a844 1d33 ca2a 9034

exp_avg f4 [10]
-6.553179e-06 -6.4132164e-06 -5.85055e-07 2.4050627e-07 -4.589946e-06 5.0689114e-06 -3.4241322e-07 4.6887766e-07
1.069481e-06 -6.551048e-06
00000000: 61e3 dbb6 1c31 d7b6 ac0c 1db5 ee1e 8134
00000010: 5603 9ab6 9e15 aa36 ead4 b7b4 0eba fb34
00000020: 168b 8f35 13d1 dbb6

exp_avg_sq f4 [10]
6.756758e-07 4.7837872e-08 6.3663297e-10 3.7596135e-07 2.9305846e-07 2.1359353e-08 1.3115765e-09 1.3311735e-06
3.7399963e-09 5.431409e-07
00000000: 1660 3535 4c76 4d33 10ff 2e30 bcd7 c934
00000010: a655 9d34 b779 b732 ff42 b430 c6aa b235
00000020: 5b81 8031 5ccc 1135
