src/data_driven/antiderivative/classical_training_seed777/model_checkpoint-15000.pt (torch, 14893 bytes, 24 tensors)

branch.hidden_layers.0.thetas f4 [55]
00000000: 8536 683f 9dda c2bf e927 c1bc 4409 0440
00000010: 41d3 51bf 029c 633f 88b5 98bf c8cc 2240
00000020: 552e 84bf d090 08c0 59a4 6e3d 5ff2 52bf
00000030: 7830 afbf 8dbf 8e3f f28a ffbe 5fa5 1abf
00000040: f73e 3bbf 217a 22bf 96cc f1be d091 92bf
00000050: e19c 8dbf 20c6 d23f 4a17 6e3f c6e5 453e
00000060: 7b49 abbe 14d6 b0bf 083d 80bf d5b9 9fbd
00000070: dff0 8fbf c019 85be 9f2b 77bf a929 38bf
00000080: 19ce 07bf 8a77 0abf 9b26 c93e 34f6 113f
00000090: 3060 0dbf 0184 b1be 4d27 8ebe 380b 70be
000000a0: ea05 cc3f b5de 8fbf 0083 c3bf 4f91 5d3e
000000b0: 4cd3 a93f 906d 4b3f c3ba 083f 1704 8e3f
000000c0: aa7c babf b2e7 a03e a8ab c83f 0f89 0e40
000000d0: 8831 113e 7f28 223f 86d8 833f
0.9070819 -1.5222965 -0.023578601 2.0630655 -0.8196297 0.88909924 -1.1930399 2.5437489
-1.032664 -2.1338387 0.058262203 -0.8240108 -1.3686666 1.1152207 -0.49910694 -0.60408586
-0.7314295 -0.63467604 -0.472264 -1.1450748 -1.1063501 1.6466713 0.93004286 0.19325933
-0.334545 -1.3815331 -1.0018625 -0.077991165 -1.1245383 -0.25996208 -0.96550936 -0.7193857
-0.53048855 -0.5408865 0.39287266 0.570163 -0.55224895 -0.34671023 -0.2776436 -0.2344178
1.5939305 -1.123984 -1.5274353 0.21637462 1.3267608 0.79464054 0.53409976 1.1094998
-1.4569294 0.3142677 1.5677385 2.2271154 0.14179051 0.6334304 1.0300453

branch.hidden_layers.0.bias f4 [10]
00000000: bcdb 9a3e eafa 973e 936f 9a3e 19e6 b43e
00000010: 2687 eb3e f4d5 913e 024b d53e 48df 973e
00000020: e9a1 e93e d455 603e
0.3024577 0.2968362 0.3016325 0.353318 0.46001548 0.28483546 0.4165879 0.29662538
0.4563134 0.21907741

branch.output_layer.weight f4 [10, 10]
00000000: 6d17 143f aaba e73d 74f1 ad3e 361d 4abf
00000010: 8f87 89bd 1196 d6be 9e65 16bd 6008 36bf
00000020: 010a cd3e b5e2 ce3c 548e a13e 3fdf ef3e
00000030: 5167 013e b879 843d e798 10bf bd94 55be
00000040: d6ef 3a3f b9a3 35be badf e53c 172f 97be
00000050: 02c9 5dbd 50ac ccbe 07bb 4fbc fe7d d43e
00000060: 2136 8a3e d74c 093e 9a26 3abf 1bce 303e
00000070: d76d 8d3e c31b 503e 95e9 27be 24fc 8bbc
00000080: 9b03 15bf 43d6 543e 74c3 563f 1640 093f
00000090: dabd 46bf f737 c63c b30e b83e d03e a0bb
000000a0: 4360 183f abc0 e13e 5e20 4b3e c5a7 24bf
000000b0: cfb7 11be ad9d 04bf e860 873e 8344 9ebd
000000c0: 253a 013f d904 fdbd 8946 babd 8862 07bf
000000d0: c5ae a7be a18d 833e eac2 663f ddf2 893e
000000e0: 4fd5 42bf 1e06 2bbe 746a b83e 0e5b 60bc
000000f0: dcb4 55be 1543 9abe 2236 0ebf 2e7a d7bd
00000100: e152 923e 4fe5 8d3e abd9 3dbf fa13 3b3e
00000110: 8ae4 79be 4505 3abe 06d2 ae3d 2595 253f
00000120: 0dad 013e d3dd 1fbf 9a39 6dbe ead3 f1be
00000130: d39f 733d 2f8d a7be cfed e13e 48b0 1fbe
00000140: fa54 d83c e29a 33bd 3406 5ebe 8317 c03e
00000150: 50c7 273f 7810 f73e 98c1 e8be 72bf 29be
00000160: 8a08 683d 003a 4a3d 7a68 85bd 28cb c1be
00000170: 65f7 ae3e c24e 643f e7c0 9cbd 1dd3 543d
00000180: 9374 6b3f e64e 163f 5023 51bf 1f8f 0a3f
0.57848245 0.113149 0.33973277 -0.7895082 -0.06715309 -0.41911367 -0.036718003 -0.7110653
0.40046695 0.025254587 0.315539 0.4685001 0.12637068 0.064685285 -0.5648331 -0.2085752
0.7302221 -0.17738236 0.028060783 -0.29528114 -0.054146774 -0.39975214 -0.012678868 0.41502374
0.26994422 0.13408218 -0.7271515 0.17266123 0.27622864 0.2032309 -0.16397698 -0.017088003
-0.58208627 0.2078486 0.8389199 0.5361341 -0.7763344 0.024196608 0.35948715 -0.0048903003
0.59521884 0.44092306 0.19836566 -0.64318496 -0.14230274 -0.51803094 0.2644112 -0.07727911
0.50479347 -0.1235444 -0.09095485 -0.5288472 -0.32750526 0.25693992 0.90141165 0.26943102
-0.76106733 -0.16701552 0.36018717 -0.013693584 -0.20869774 -0.30129305 -0.5555135 -0.10521351
0.28578857 0.2771401 -0.7416026 0.18269339 -0.24403587 -0.18166073 0.085361525 0.646807
0.1266367 -0.6244785 -0.23166505 -0.4723199 0.059478592 -0.32724902 0.44126746 -0.1559459
0.026407707 -0.04384888 -0.21682054 0.37517938 0.655385 0.48254752 -0.454602 -0.16576937
0.05664877 0.04937172 -0.06514068 -0.37850308 0.34173122 0.89182675 -0.07653981 0.051959146
0.91974753 0.5871414 -0.8169451 0.54124635

branch.output_layer.bias f4 [10]
00000000: f221 7bbe cb8a 8dbd 003f 9a3d 9c94 6d3e
00000010: 6fdd 823d 9466 0bbe c2ab a43d dd6b a4bc
00000020: 08be f1bd b49d d2be
-0.24524668 -0.06911238 0.075315475 0.23201221 0.06389891 -0.13613349 0.08040573 -0.020070964
-0.11803824 -0.41135943

trunk.hidden_layers.0.thetas f4 [17]
00000000: 5f71 a3bf 9422 bcbf 04c3 303e ae8c 443f
00000010: 18a3 b63f 3a62 a93e cd13 3040 d006 543f
00000020: c91a 13bf 3c62 983f 5154 c5bf b26b 193f
00000030: 5108 1c40 4467 4cbf 337e f8be d51e 943e
00000040: f406 3f3e
-1.2768973 -1.4698052 0.17261893 0.7677716 1.4268522 0.33082753 2.7512085 0.82822895
-0.57462746 1.1904979 -1.5416356 0.59929955 2.4380076 -0.7984507 -0.48533782 0.28929773
0.18654996

trunk.hidden_layers.0.bias f4 [10]
00000000: 30ae 8dbe 160c 013d 158d 8c3e 81d1 913e
00000010: 10c3 9a3e bf3a 8d3e c3dc a23e 117e 873e
00000020: 3e76 6f3e 4289 0d3d
-0.27671957 0.031505667 0.27451387 0.2848015 0.30226946 0.27583882 0.31809053 0.2646337
0.2338495 0.034554727

trunk.output_layer.weight f4 [10, 10]
00000000: 5bab 3bbe b803 30bf 058d 203f a9fb 3e3f
00000010: 029f 493f cc4e 81be 36e5 803e 268d ad3e
00000020: 5426 0c3f 0ea5 82ba 5da2 d3be 0876 6b3e
00000030: 6562 9dbd 45cb c73e 819e 22bd d50a 3a3e
00000040: 1853 433f 7b68 873e dafc d23e c204 203f
00000050: 34b0 c8be 2e38 c63e 46fc b2be 4a8b 5fbf
00000060: 5628 51bf 7ca7 123f b7ec cabd f271 f2be
00000070: 454f 29bf 7177 8ebe a029 c13e ad99 5f3e
00000080: b8bb 8abf 8946 11bf 3aa7 80bf df91 1c3f
00000090: 2e07 a8be c062 1ebf db1b 7dbe d501 a0bd
000000a0: 06c3 ddbe 6189 7cbe 26bf 153f 4621 c83e
000000b0: 121b c53e e53a b6be 9d93 153f 96d8 2d3f
000000c0: 9f33 e73e de4a 4c3e aae5 babe 6281 493f
000000d0: 1630 91bf baa5 62bf 89cc a2bf 3459 ea3e
000000e0: c0cf 2abe 3b78 8bbf 82a8 3fbf b350 f23d
000000f0: 74cb 72bd 4e3a c43e ab76 41bf 1b31 39bf
00000100: c45d 98be 2bc1 e63e c29f 61be 68e1 80bf
00000110: ce76 56bf 1ca3 87be dc50 92bd 9ad3 20bf
00000120: 10a9 5e3f 0d94 4c3f b0c4 2a3f f7cf 02bf
00000130: 0df0 693d ceef 1a3f c3f8 193e 5e25 02bb
00000140: 7657 67be 783d f53e f8f6 36bf a3ce eabe
00000150: 2bee 77bf 4cea 363f bd97 77be b840 58bf
00000160: 6d29 ebbe 40b9 e8bd f6d6 17bf 2cf0 efbe
00000170: 7f7b 213f 5474 eebe 8ee5 58bd 15c6 18be
00000180: a703 eebe 7813 7cbf 2ab7 abbe 8e2c 993f
-0.18327086 -0.68755674 0.6271518 0.7460275 0.7875825 -0.2525543 0.25174874 0.3389675
0.54745984 -0.0009967403 -0.4133481 0.22994244 -0.07684783 0.3902227 -0.039701942 0.18168195
0.76298666 0.264469 0.41208535 0.6250726 -0.39196932 0.38714737 -0.34958094 -0.87321913
-0.8170217 0.5728681 -0.09908431 -0.47352558 -0.6613658 -0.27825502 0.3772707 0.21835966
-1.0838537 -0.56748253 -1.0051033 0.6116008 -0.32817978 -0.6186943 -0.24717657 -0.078128494
-0.43312854 -0.24661781 0.58494794 0.39087886 0.38497216 -0.35591808 0.58428365 0.6790861
0.4515657 0.19950435 -0.36503345 0.7871305 -1.13428 -0.8853413 -1.2718669 0.45771182
-0.16680813 -1.0896066 -0.748665 0.118317984 -0.05927606 0.38325733 -0.755717 -0.72340554
-0.29759037 0.4506925 -0.22033599 -1.0068789 -0.8377503 -0.2649163 -0.07144329 -0.6282288
0.8697672 0.7991341 0.6670637 -0.5109858 0.057113696 0.6052216 0.15036301 -0.0019858698
-0.22591957 0.4789846 -0.71470594 -0.45860776 -0.9684779 0.7145126 -0.24178977 -0.8447375
-0.45930043 -0.11363459 -0.5931238 -0.46862924 0.63079065 -0.46573126 -0.052953295 -0.14919312
-0.46487162 -0.98467207 -0.3353818 1.1966722

trunk.output_layer.bias f4 [10]
00000000: bf21 9a3e 4d6b ce3e 9f0d dfbd 660e bbbe
00000010: 5c05 543e 3fd5 803d d157 ccbe e4c3 963e
00000020: 5e73 91be f208 103e
0.3010387 0.4031624 -0.1089127 -0.36534423 0.2070517 0.062906735 -0.3991075 0.29446328
-0.2840833 0.14065912

exp_avg f4 [55]
00000000: 70a5 4835 5090 feb6 716e d035 9206 bd37
00000010: a8f3 6f37 0476 eab7 478f 38b5 1543 0338
00000020: 5ddc afb6 cde1 11b7 66a9 59b7 b758 ab37
00000030: 7a9e 56b7 4e18 97b7 c63a f3b4 5d11 88b7
00000040: 6d20 26b7 493f 05b6 c1e2 c237 552c 8c37
00000050: 46bf dfb7 734c 4135 fbb8 8437 ac9c deb7
00000060: d922 39b7 518e 57b5 ff45 ff36 8ac9 ee37
00000070: 4e59 5d37 2233 4b39 55fc e1b6 5d0b 6ab7
00000080: 9112 29b6 69bd 89b7 0caa 4bb7 05ad 3eb7
00000090: 8d49 9f37 f7e1 f237 b25a 7bb6 72eb 3bb7
000000a0: bf25 a4b6 cd04 f736 5a16 d936 9a22 29b7
000000b0: d0ef 56b6 0fbd d936 4e36 2db7 786c a237
000000c0: e7df 1937 5a9d a2b7 8bf9 9736 0cfa 7bb7
000000d0: 5b31 4cb7 2031 ae37 dea9 8eb7
7.474655e-07 -7.58659e-06 1.552935e-06 2.2533615e-05 1.4302241e-05 -2.7949929e-05 -6.875384e-07 3.129531e-05
-5.24106e-06 -8.695247e-06 -1.2973649e-05 2.04261e-05 -1.2792292e-05 -1.801192e-05 -4.530504e-07 -1.6220549e-05
-9.901921e-06 -1.9855381e-06 2.3232193e-05 1.6709944e-05 -2.667274e-05 7.200935e-07 1.5821764e-05 -2.6537418e-05
-1.1034973e-05 -8.030084e-07 7.607741e-06 2.846566e-05 1.3193419e-05 0.00019378637 -6.734898e-06 -1.3950133e-05
-2.519377e-06 -1.6419874e-05 -1.2139335e-05 -1.1365167e-05 1.8988527e-05 2.8953871e-05 -3.7454706e-06 -1.12008875e-05
-4.891975e-06 7.3617325e-06 6.469706e-06 -1.0081241e-05 -3.2028074e-06 6.4891133e-06 -1.0324247e-05 1.9362415e-05
9.171642e-06 -1.9385177e-05 4.5292013e-06 -1.5018984e-05 -1.2170839e-05 2.0765292e-05 -1.700682e-05

exp_avg_sq f4 [55]
00000000: 39da a22c 5d02 8330 c85a 022e 2347 d031
00000010: 7f71 2f31 605b 3232 9c0c ed2c 184d 6532
00000020: 68fc f92f ad3b 8430 b503 1a31 5e71 b731
00000030: 96d0 f930 8243 9b31 b349 cf2d 3274 6331
00000040: 434d 8b30 ff6f ab2e 6d73 fc31 e8ba 7731
00000050: 067e 1b32 b48d 862c c1c7 5931 c8d0 2332
00000060: 2e59 e330 33c6 0c2d 6047 3330 c957 3d32
00000070: 4afe 1e31 680f 0a35 7e1c 2730 38f4 3331
00000080: 929e 572f 464d 6231 ac32 1331 aaaa d430
00000090: d8cd 9531 0a98 4032 db6e 952f 1c21 ec30
000000a0: 7c4c a12f 01bd 1530 f83c 8730 214c b130
000000b0: 4841 d22e 041c 8830 7845 cb30 5f21 a931
000000c0: 26e6 9530 0634 a731 9e62 692f 9841 5831
000000d0: d4e8 0b31 87bb c731 2500 8631
4.6285445e-12 9.532176e-10 2.9639208e-11 6.061684e-09 2.5530367e-09 1.038174e-08 6.737345e-12 1.3347083e-08
4.5472182e-10 9.621225e-10 2.2412057e-09 5.3388893e-09 1.8176418e-09 4.5187685e-09 2.3565904e-11 3.3098897e-09
1.013554e-09 7.796074e-11 7.3472877e-09 3.6049475e-09 9.050842e-09 3.8242413e-12 3.1691203e-09 9.53532e-09
1.654177e-09 8.002088e-12 6.522125e-10 1.1021208e-08 2.3136573e-09 5.1431425e-07 6.0794736e-10 2.618675e-09
1.9610472e-10 3.2931253e-09 2.142012e-09 1.5473536e-09 4.3598725e-09 1.1210441e-08 2.718171e-10 1.718067e-09
2.9340075e-10 5.4474475e-10 9.839871e-10 1.2900082e-09 9.5612906e-11 9.903265e-10 1.4789938e-09 4.922341e-09
1.0906589e-09 4.866254e-09 2.1226262e-10 3.1469423e-09 2.035951e-09 5.8129817e-09 3.8999297e-09

exp_avg f4 [10]
00000000: 0ef3 a1b9 6018 b0b9 8098 90b9 384b a639
00000010: 5257 c039 2ef3 b539 3d9c 05ba 9582 2539
00000020: f492 19b9 f6bc 9738
-0.00030889403 -0.00033587497 -0.00027579442 0.0003171803 0.00036686152 0.00034704193 -0.00050968287 0.00015784272
-0.00014645961 7.235438e-05

exp_avg_sq f4 [10]
00000000: bb06 b635 536e d635 ab88 9235 ce4e bb35
00000010: 634a ff35 0775 e035 0d98 7b36 16e8 b634
00000020: 061b a134 730d 8e33
1.3562016e-06 1.5976351e-06 1.0917623e-06 1.3955521e-06 1.902063e-06 1.672336e-06 3.749042e-06 3.4069006e-07
3.000825e-07 6.614837e-08

exp_avg f4 [10, 10]
00000000: b796 73b8 b4ef 85b8 4c57 7ab8 128f 63b8
00000010: b969 8cb8 8c17 12b8 45d7 9eb8 3f5e 9ab7
00000020: b51d 0db9 ea7e 79b9 295d 83b8 69de 8fb8
00000030: 1c39 88b8 ebe9 7bb8 d059 96b8 b66f 1fb8
00000040: 4d8d adb8 cdff 9db7 9d3e 1bb9 4c70 87b9
00000050: 5029 8937 4e2d 9737 605e 8d37 8ea5 7e37
00000060: bb63 9e37 a0ea 2437 c96d b237 8a4f af36
00000070: bf17 1e38 8f8c 8a38 49a2 9537 8fba a337
00000080: 91f8 9a37 941f 8f37 4b22 ab37 9ad2 3337
00000090: 013f c637 463f bd36 9ccf 2e38 09a8 9938
000000a0: b9d0 52b8 aca5 67b8 3c03 59b8 90e6 45b8
000000b0: 5eb7 72b8 8b4f fdb7 21d4 89b8 ceaa 84b7
000000c0: 9707 f5b8 6a2e 58b9 9679 4a37 d4a0 5e37
000000d0: c5ba 4b37 8a67 3537 43d4 6f37 a6c2 ed36
000000e0: 43c9 8237 9eb5 9836 4793 e037 214d 5038
000000f0: 8216 9b37 24e3 a937 49f4 a037 5e62 9437
00000100: 2afa b037 b1c8 3a37 5933 cd37 0619 c036
00000110: aeac 3538 e1ae 9e38 a4ec 62b8 c6d6 79b8
00000120: 5adb 68b8 1bc9 52b8 550c 83b8 07f4 07b8
00000130: a67c 93b8 11b7 90b7 af05 03b9 7df3 67b9
00000140: 087d 8c37 902b 9a37 c5d1 9037 382a 8437
00000150: 46b1 a137 305c 2837 e883 b837 e24a b536
00000160: 159b 2238 71a2 8f38 2043 05b8 80f8 11b8
00000170: 8c31 0bb8 27cb 00b8 3f3b 18b8 a440 a3b7
00000180: a1bd 30b8 2e9b 1cb7 f678 9eb8 8a26 08b9
-5.807608e-05 -6.3865824e-05 -5.9685946e-05 -5.4254262e-05 -6.6954126e-05 -3.4831042e-05 -7.574124e-05 -1.8402117e-05
-0.00013457875 -0.0002379377 -6.263919e-05 -6.8601985e-05 -6.495623e-05 -6.0060916e-05 -7.169286e-05 -3.8012593e-05
-8.275602e-05 -1.8834975e-05 -0.00014805277 -0.00025832874 1.635091e-05 1.80217e-05 1.6852457e-05 1.5178126e-05
1.8881508e-05 9.82979e-06 2.1270376e-05 5.224666e-06 3.769225e-05 6.606534e-05 1.7837754e-05 1.9517987e-05
1.8473978e-05 1.7061633e-05 2.0400757e-05 1.0718266e-05 2.3632778e-05 5.640005e-06 4.1678184e-05 7.3269075e-05
-5.026229e-05 -5.5228986e-05 -5.1739844e-05 -4.7183188e-05 -5.786807e-05 -3.019699e-05 -6.572181e-05 -1.5815163e-05
-0.00011683924 -0.00020616656 1.2068447e-05 1.3269677e-05 1.2143229e-05 1.0812548e-05 1.4294931e-05 7.0858105e-06
1.5590927e-05 4.551096e-06 2.6771462e-05 4.9662896e-05 1.848792e-05 2.025214e-05 1.918724e-05 1.768878e-05
2.1097327e-05 1.1133191e-05 2.4461815e-05 5.724959e-06 4.3314583e-05 7.566601e-05 -5.4102988e-05 -5.956625e-05
-5.5517397e-05 -5.0255196e-05 -6.248864e-05 -3.2413776e-05 -7.032724e-05 -1.7251385e-05 -0.00012495251 -0.00022120583
1.6747523e-05 1.8378516e-05 1.726382e-05 1.5755286e-05 1.9275245e-05 1.0035044e-05 2.1995933e-05 5.402938e-06
3.876824e-05 6.8490284e-05 -3.1772186e-05 -3.4802128e-05 -3.3186327e-05 -3.070678e-05 -3.62948e-05 -1.9461215e-05
-4.2138276e-05 -9.334455e-06 -7.556558e-05 -0.00012984328

exp_avg_sq f4 [10, 10]
00000000: 2340 4b33 00a7 7133 df78 5433 0afc 3233
00000010: 8843 8b33 ba46 9432 986a ad33 5489 b731
00000020: 3a3b 8d34 4aee 5535 aaae 7033 2b40 8f33
00000030: 29fd 7b33 c82b 5333 c9c8 a333 4736 ae32
00000040: 2425 cd33 51b6 d631 7bee a634 d064 7c35
00000050: 5565 8031 8b8f 9831 4b2a 8631 2cf1 6131
00000060: 3a86 af31 7589 bb30 96d2 da31 5e9b e72f
00000070: 1531 b232 19e3 8633 eb78 9831 765d b531
00000080: d085 9f31 0feb 8531 c5ba cf31 699e dd30
00000090: 76ee 0132 7227 0830 4f69 d332 abf0 9f33
000000a0: 4b6b 1b33 70d2 3833 df83 2233 4dc5 0833
000000b0: eeae 5433 4979 6232 1493 8433 90fa 8b31
000000c0: 7ce4 5734 3d75 2335 b148 1531 213c 3131
000000d0: 67c1 1b31 a1ef 0331 2313 4e31 5b79 5b30
000000e0: e8e3 7e31 ddf6 892f 960a 5032 e5aa 1d33
000000f0: 97e5 a331 98e4 c231 fc70 ab31 11e7 8f31
00000100: 9712 df31 3e58 ee30 3d98 0b32 d82b 1230
00000110: 501a e332 f8cc ab33 b974 3433 9a83 5633
00000120: 6f99 3c33 8bf7 1e33 8a79 7733 47c0 8332
00000130: 25f8 9933 856f a331 badf 7a34 9d00 3e35
00000140: cbff 8631 aa7b a031 d022 8d31 f072 6d31
00000150: 4162 b831 d6d2 c430 771e e631 6f8e f22f
00000160: 3950 bb32 54c8 8d33 741d 8932 8856 a332
00000170: d2a9 8f32 7701 7032 90f8 b932 c939 c531
00000180: 058f e932 d527 f530 bf3c be33 9c7c 8f34
4.7322953e-08 5.626407e-08 4.9470028e-08 4.1673083e-08 6.484976e-08 1.726163e-08 8.0753296e-08 5.3416134e-09
2.630639e-07 7.969544e-07 5.603821e-08 6.6706285e-08 5.867074e-08 4.9167085e-08 7.6268016e-08 2.0280948e-08
9.552812e-08 6.2489467e-09 3.1093427e-07 9.4024017e-07 3.7368104e-09 4.440101e-09 3.9047214e-09 3.28789e-09
5.10843e-09 1.3645108e-09 6.368576e-09 4.212905e-10 2.0744247e-08 6.28117e-08 4.437529e-09 5.2784186e-09
4.6427218e-09 3.8975325e-09 6.045726e-09 1.6124889e-09 7.563008e-09 4.9532567e-10 2.4611522e-08 7.447792e-08
3.6186332e-08 4.303223e-08 3.78385e-08 3.184441e-08 4.9519194e-08 1.3182508e-08 6.173482e-08 4.073918e-09
2.0106557e-07 6.0892836e-07 2.1723674e-09 2.579107e-09 2.2665405e-09 1.9199222e-09 2.9987823e-09 7.984419e-10
3.7091414e-09 2.5095562e-10 1.21096e-08 3.670984e-08 4.7700257e-09 5.672131e-09 4.9896e-09 4.188117e-09
6.4922676e-09 1.7341859e-09 8.12548e-09 5.3176796e-10 2.6438244e-08 8.0000916e-08 4.2015674e-08 4.994545e-08
4.3911708e-08 3.701238e-08 5.7619708e-08 1.5337845e-08 7.169755e-08 4.7566027e-09 2.3364456e-07 7.078141e-07
3.9289936e-09 4.670672e-09 4.107598e-09 3.4553373e-09 5.366275e-09 1.43208e-09 6.6973445e-09 4.412075e-10
2.1806146e-08 6.6022636e-08 1.5962293e-08 1.9015047e-08 1.6724616e-08 1.3970172e-08 2.1649868e-08 5.740024e-09
2.7189808e-08 1.7837417e-09 8.858614e-08 2.672649e-07

exp_avg f4 [10]
00000000: 32ed 95b9 d917 a2b9 dc6c a838 ee76 b838
00000010: 11d0 81b9 f87a 7938 a103 bf38 2c98 8bb9
00000020: d7f2 ac38 424c 24b9
-0.0002859622 -0.00030916816 8.031141e-05 8.795956e-05 -0.0002475982 5.948075e-05 9.108266e-05 -0.00026625523
8.2468316e-05 -0.00015668667

exp_avg_sq f4 [10]
00000000: e548 9a35 6f35 b635 229b c233 8be1 e633
00000010: 1fd1 6b35 7d32 6333 e103 f833 c602 8935
00000020: 4197 cc33 d649 cf34
1.1495109e-06 1.3575608e-06 9.0620475e-08 1.07512356e-07 8.7848633e-07 5.2898475e-08 1.15491055e-07 1.0208103e-06
9.527003e-08 3.8610477e-07

exp_avg f4 [17]
00000000: f9dd 6eb6 96eb 3936 4fa7 9d37 7a9e b9b6
00000010: f5ee d3b5 bba8 8cb6 54c1 8936 7d87 2033
00000020: 5889 a936 d804 3ab5 dfc0 a0b6 6702 3135
00000030: fdcf c5b5 b1dd dd34 37a7 b636 934f e535
00000040: 7e4a 3c35
-3.5593969e-06 2.7704277e-06 1.8793768e-05 -5.5318787e-06 -1.5790271e-06 -4.191968e-06 4.1054245e-06 3.737613e-08
5.0525814e-06 -6.929745e-07 -4.7908247e-06 6.5941134e-07 -1.4738176e-06 4.132576e-07 5.443489e-06 1.7084989e-06
7.014386e-07

exp_avg_sq f4 [17]
00000000: b794 512f 84f8 9d2e 67dd bb31 dfda 2030
00000010: 109b 182e 9676 952f 5a49 8c2f c458 8a2a
00000020: 5063 0a30 e630 e22c b7ff b02f 3760 f02c
00000030: 074b c32d 81ba 4a2c 3dbc 0930 c538 7a2e
00000040: b0c8 082d
1.9061273e-10 7.1836787e-11 5.467587e-09 5.8518695e-10 3.4698522e-11 2.7187202e-10 2.551797e-10 2.4575318e-13
5.034524e-10 6.428735e-12 3.219591e-10 6.8318923e-12 2.2202252e-11 2.8809457e-12 5.010781e-10 5.689384e-11
7.7752665e-12

exp_avg f4 [10]
00000000: 6ae7 5d37 840f 1537 dae8 14b8 713d 8c36
00000010: fa24 cbb6 4452 9337 8a9c 5db7 f738 bbb7
00000020: 56d7 e4b6 6a23 8eb7
1.3226507e-05 8.884705e-06 -3.550281e-05 4.179478e-06 -6.054176e-06 1.7562073e-05 -1.3209074e-05 -2.2318663e-05
-6.819998e-06 -1.694421e-05

exp_avg_sq f4 [10]
00000000: f83e 3631 85a4 9b30 ac74 ad32 1952 1d30
00000010: ba06 8530 23dd 9f31 b8d4 3b31 eab1 0632
00000020: 8f83 7930 c848 be31
2.652028e-09 1.1324494e-09 2.0192907e-08 5.7232935e-10 9.678935e-10 4.6526494e-09 2.7332998e-09 7.8402795e-09
9.077263e-10 5.538002e-09

exp_avg f4 [10, 10]
00000000: 8b02 84b6 9e39 a3b4 f020 0037 496e 1637
00000010: c835 3237 8f97 8836 8853 9336 5ad4 ce36
00000020: 401c 9e36 d945 9837 be0a 48b6 dc5e a0b4
00000030: aa08 c836 44a3 ec36 e505 0d37 11f7 4836
00000040: 0563 5436 006c 9236 3c12 6f36 7825 8337
00000050: 72d0 c835 fd27 2db5 b157 96b5 5f83 85b5
00000060: 6791 5fb5 0612 2db6 e26a 1eb6 e296 b134
00000070: bb51 98b5 778b 01b7 8928 1b35 1c89 2db5
00000080: 8c86 1335 8b9b 8035 8b24 c735 0899 ceb5
00000090: 4890 a5b5 3bdc de35 ad5a 8fb3 f12f 8db6
000000a0: 725a 4637 c2e1 6235 f136 bfb7 5490 e0b7
000000b0: def8 04b8 92f8 4eb7 2ef6 5bb7 e547 95b7
000000c0: 044f 6bb7 16f9 6fb8 b30a 43b5 fb76 c534
000000d0: 25fb d434 1840 9534 e752 0534 f406 b235
000000e0: 495a a235 df7b cdb4 73e0 0635 fd5c 7f36
000000f0: 8f2e 73b5 2d76 8635 738a 4eb5 8d37 b7b5
00000100: c8f9 0db6 c959 2036 5ee8 0536 3f22 1cb6
00000110: 2149 2d34 a6de af36 0a49 6c34 ffe4 6e33
00000120: 853f 0cb5 52c4 2ab5 4da0 50b5 9378 3db4
00000130: dfd1 50b4 1bd6 fbb4 46a9 9cb4 6dc8 a2b5
00000140: 9c52 6534 5a32 04b4 35b6 9eb3 1794 c6b2
00000150: 21a5 4033 fa38 ddb4 c0a4 b9b4 54b4 5d34
00000160: d378 05b4 7895 c3b5 2986 0a36 4ef2 0c33
00000170: 8538 69b6 9e45 84b6 f75b 96b6 2ed1 1bb6
00000180: 55fc 23b6 c3f7 12b6 e613 1ab6 681e 38b7
-3.9342026e-06 -3.0403038e-07 7.637063e-06 8.9663745e-06 1.0622149e-05 4.0707596e-06 4.3906657e-06 6.1639994e-06
4.7120557e-06 1.8152337e-05 -2.9808575e-06 -2.9871342e-07 5.961473e-06 7.0523547e-06 8.405627e-06 2.9946134e-06
3.1648099e-06 4.363712e-06 3.562439e-06 1.5633865e-05 1.4961827e-06 -6.450571e-07 -1.1201392e-06 -9.947506e-07
-8.328556e-07 -2.57895e-06 -2.3606049e-06 3.30786e-07 -1.1348669e-06 -7.721471e-06 5.7800986e-07 -6.464704e-07
5.495756e-07 9.582012e-07 1.4837291e-06 -1.5392734e-06 -1.2335449e-06 1.6604384e-06 -6.67545e-08 -4.2077086e-06
1.1822778e-05 8.452008e-07 -2.2794558e-05 -2.6770089e-05 -3.1703028e-05 -1.2336432e-05 -1.3110735e-05 -1.7795663e-05
-1.4025489e-05 -5.721402e-05 -7.265873e-07 3.678068e-07 3.967081e-07 2.7800047e-07 1.241675e-07 1.3264057e-06
1.2096217e-06 -3.8274354e-07 5.0245507e-07 3.8052087e-06 -9.0592306e-07 1.0018172e-06 -7.694245e-07 -1.365073e-06
-2.115603e-06 2.389412e-06 1.99538e-06 -2.3265745e-06 1.6138485e-07 5.241326e-06 2.2005784e-07 5.5621964e-08
-5.22465e-07 -6.361562e-07 -7.7719307e-07 -1.7645861e-07 -1.944786e-07 -4.6908175e-07 -2.9180427e-07 -1.2128272e-06
2.135734e-07 -1.2311776e-07 -7.3905916e-08 -2.3117577e-08 4.4853667e-08 -4.1205914e-07 -3.4578807e-07 2.0647832e-07
-1.2430546e-07 -1.4572133e-06 2.0641694e-06 3.2816665e-08 -3.4752604e-06 -3.942011e-06 -4.4810545e-06 -2.3218558e-06
-2.443577e-06 -2.1899912e-06 -2.295937e-06 -1.0974334e-05

exp_avg_sq f4 [10, 10]
00000000: c1bb 642f d624 a22c eaa2 6030 e41f 9d30
00000010: 3629 da30 bdb7 712f 522b 8c2f 7bc9 fd2f
00000020: 0751 ae2f c962 ac31 bc05 202f 775f 0b2c
00000030: f2c5 0b30 fff6 3f30 982d 8330 b6c5 3c2f
00000040: 1caf 4f2f a042 8a2f 140f 5f2f 0b00 7e31
00000050: 2176 052e 24bd 612c cc58 a72d 9565 8b2d
00000060: 903e 6c2d 7266 b62e 85f3 962e 76e7 6b2b
00000070: 5475 882d 5ffd 8430 8ab5 f82c 79a4 c82c
00000080: a74a 8f2c d507 702d 9871 032e ad1f 3d2e
00000090: a2a3 002e 1d7b 1e2e 9572 062b 3e97 a12f
000000a0: e5d9 0d31 6980 122e 25ff 0432 a8f2 3732
000000b0: d2d8 7e32 7e31 1c31 83ff 3031 b477 9031
000000c0: 011d 4e31 2d3a 5733 76cb fd2c 685b cd2b
000000d0: 9993 ea2b be9b 692b 6856 522a 8cca d22d
000000e0: 401a a62d 04ae 322c 7604 3e2c 2926 852f
000000f0: 0943 842d 9eab 332d f4d3 cf2c 4064 b22d
00000100: b1c0 4f2e 5d5b b72e da0f 7d2e 15bc 872e
00000110: 3712 9a2a b7b8 2430 5d00 812c 9211 182b
00000120: 7db9 4c2d 736c c42d fd34 d32d 1575 d32c
00000130: cd6f 162d ce1d f32c 9c9a 4e2d 6af9 032f
00000140: daac 662b 0c70 442a 2648 542a f850 612a
00000150: 085c f229 f8ee 402c ee68 192c c577 d62a
00000160: 0d9b ea2a 2e82 042e a430 972e db7c e32a
00000170: 0075 642f d739 982f 3160 cc2f e42a c72e
00000180: abfb ce2e 3d9f b92e ac56 bc2e f16e 0431
2.0803183e-10 4.6084065e-12 8.172224e-10 1.1432317e-09 1.58733e-09 2.1984099e-10 2.5496633e-10 4.6163592e-10
3.170799e-10 5.0170894e-09 1.4553952e-10 1.9806082e-12 5.08492e-10 6.98364e-10 9.544463e-10 1.7168741e-10
1.8888752e-10 2.5149394e-10 2.0287089e-10 3.696189e-09 3.034562e-11 3.2079417e-12 1.9025136e-11 1.5847582e-11
1.34289385e-11 8.2946e-11 6.864468e-11 8.380999e-13 1.5513514e-11 9.676276e-10 7.068739e-12 5.702602e-12
4.0725925e-12 1.364416e-11 2.9886843e-11 4.300176e-11 2.9249166e-11 3.6034387e-11 4.776538e-13 2.9393193e-10
2.064206e-09 3.3310608e-11 7.741424e-09 1.0707176e-08 1.4834045e-08 2.272912e-09 2.5756612e-09 4.2045603e-09
2.9993432e-09 5.01115e-08 7.213281e-12 1.4591496e-12 1.6667667e-12 8.2994364e-13 1.8681725e-13 2.3964185e-11
1.8883672e-11 2.539192e-12 2.70031e-12 2.4219673e-10 1.5036432e-11 1.0213079e-11 5.9068254e-12 2.0280777e-11
4.7237495e-11 8.338106e-11 5.753962e-11 6.172499e-11 2.7368534e-13 5.992535e-10 3.666441e-12 5.402563e-13
1.1637244e-11 2.2330781e-11 2.4011454e-11 6.0099794e-12 8.551338e-12 6.9097844e-12 1.17440745e-11 1.200299e-10
8.1952294e-13 1.7447171e-13 1.8854414e-13 2.0012106e-13 1.0762924e-13 2.7417495e-12 2.1800855e-12 3.8097143e-13
4.1674338e-13 3.0128948e-11 6.875325e-11 4.0409936e-13 2.0778046e-10 2.7689737e-10 3.7175732e-10 9.057091e-11
9.4125006e-11 8.4411124e-11 8.564646e-11 1.927159e-09

exp_avg f4 [10]
00000000: bb66 0738 53b5 cc37 a769 5ab7 ac14 b6b6
00000010: 04ae cbb8 cafa d536 2d33 0e37 945a eeb5
00000020: b0f1 fdb5 2266 8fb7
3.2282183e-05 2.440313e-05 -1.3018412e-05 -5.426429e-06 -9.712207e-05 6.3770904e-06 8.475775e-06 -1.7758744e-06
-1.8920309e-06 -1.7094488e-05

exp_avg_sq f4 [10]
00000000: d22f 7232 3a13 2b32 6369 1f31 f80e 2f30
00000010: 034c 1634 1600 1d30 0de3 b430 0b8a b32f
00000020: b7bd 962e e39d a331
1.4097127e-08 9.957882e-09 2.319745e-09 6.36859e-10 1.3997492e-07 5.711639e-10 1.3161255e-09 3.2657996e-10
6.8549104e-11 4.761874e-09
