models/test1/model_checkpoint-30000.pt (torch, 14893 bytes, 24 tensors)

branch.hidden_layers.0.thetas f4 [55]
000000 04 07 14 3e c0 e4 92 bf 0d e0 29 c0 af 24 a3 3f
       0.14455801 -1.1476059 -2.6543 1.274557
000010 b7 c2 81 3d 9c 5c f7 bf c0 52 6d bf 85 7b c2 bf
       0.06335967 -1.9325137 -0.9270439 -1.5193945
000020 bf 64 4e bf c2 4f 1e 3f be 9d 9c 3f 71 ab 6a 3f
       -0.80622476 0.6184045 1.2235639 0.9166785
000030 18 3e 5f bf d9 98 00 bf bb 2e b2 bf f4 14 f8 bf
       -0.8720412 -0.50233227 -1.3920511 -1.9381394
000040 e5 48 17 3d 0a 89 1b 3f 12 f2 3f bf c9 cf 9f 3e
       0.036934752 0.6075598 -0.74978745 0.31213215
000050 18 87 c5 3f 82 dc 6f 3f 8e 5a 2f 3d 7a 3a 7a 3f
       1.5431852 0.93695843 0.04281097 0.9774548
000060 e8 ab e4 bf e1 96 7f bf 08 86 ab 3e cf 81 54 bf
       -1.7864962 -0.998396 0.33500695 -0.8301057
000070 de b7 a8 3f 59 66 dd 3e 33 39 45 3b 08 10 b7 bf
       1.3181112 0.43242148 0.0030093908 -1.4301767
000080 ea 95 d4 be 9b 44 82 bf b9 b4 9e bf a0 2f 8d 3e
       -0.41520625 -1.0177187 -1.2398902 0.27575397
000090 04 3c 85 3f 16 e2 1c bf 57 4b 4f 3f 43 2e c4 be
       1.040894 -0.6128248 0.80974334 -0.38316545
0000a0 81 d8 4b be 78 49 25 bf 22 61 20 be a6 e8 11 be
       -0.19906808 -0.6456523 -0.15662053 -0.14248905
0000b0 54 0f b6 be 77 0c 19 c0 95 e2 59 3f 00 29 03 3f
       -0.3555857 -2.3913858 0.8511136 0.51234436
0000c0 c9 76 2a 40 75 c0 8b 3e b5 a1 d5 bf 89 9c 24 c0
       2.6635 0.2729527 -1.6689974 -2.5720541
0000d0 84 92 23 bf 90 a9 e0 be d6 a2 e3 3f
       -0.6389544 -0.43879366 1.7784069

branch.hidden_layers.0.bias f4 [10]
000000 5c 3d 6a 3e 0f 6c e2 3e fc af 76 3e 9f b2 f5 3e
       0.22874969 0.44223067 0.2409057 0.4798784
000010 75 a1 62 3e 4f e3 40 3e 0a c8 28 3e f5 15 05 3f
       0.22131903 0.18836711 0.16482559 0.5198663
000020 b4 ec b2 3d 7f 4a 19 be
       0.08736554 -0.14969824

branch.output_layer.weight f4 [10, 10]
000000 5c 34 55 3e bb 48 69 be f8 cc 8c 3f e5 a2 4e bf
       0.20820755 -0.2278165 1.1000051 -0.8071731
000010 a4 ed df 3e 52 7d 2c 3e d6 da 4a 3f ae dc 52 be
       0.43735993 0.16844681 0.7924017 -0.20591995
000020 4d ae 70 bf 29 7d 90 be 50 d0 0f bf 5d 02 d7 3e
       -0.9401596 -0.2822049 -0.56177235 0.4199399
000030 8a 0b 26 bb b1 fc 3e 3f 75 5f 96 3f 41 52 45 be
       -0.0025336468 0.74604326 1.1747881 -0.19269659
000040 de eb 94 be 41 f0 95 bf 8e 1a cf bf f3 af 15 bf
       -0.29086202 -1.1713945 -1.6179979 -0.584716
000050 47 54 ca 3d f0 4d 54 3f c9 02 1a 3f 40 ee a2 bc
       0.09879356 0.82931423 0.601605 -0.019888997
000060 bb 51 0a 3f 70 29 21 3f 46 1a ee 3d 15 be 39 bf
       0.5403096 0.62953854 0.11626105 -0.7255567
000070 fa 36 8c bd 84 b0 73 bd 04 f9 9b be 5e d6 61 be
       -0.068464234 -0.05949451 -0.3046342 -0.22054431
000080 8c 94 ab be 1b cb 22 3f 27 dc 64 be 9e 30 ba be
       -0.3351177 0.63591164 -0.22349606 -0.36365217
000090 5e c3 12 bf 5f 09 1e be 17 75 1e be 51 df 35 bc
       -0.57329357 -0.15433262 -0.15474354 -0.011100606
0000a0 d7 9e 8d 3e 6b b0 38 3f 6d 5a ae 3b 70 3c b2 3d
       0.27660248 0.7214419 0.005320838 0.08702934
0000b0 60 12 87 3e 6f 7b 13 3f ea 84 3a bd 11 e0 e1 3c
       0.26381207 0.5761022 -0.045536913 0.027572664
0000c0 e2 96 70 3d 75 7a 04 3d 06 1c 72 be ca 56 28 bf
       0.058737643 0.032343347 -0.23643503 -0.6575743
0000d0 97 68 e9 be b8 e1 24 3f e7 27 bd be a8 bc 08 bf
       -0.45587608 0.6440692 -0.36944506 -0.53412867
0000e0 c2 b4 e0 be c8 98 0c 3e dd 48 ae be 3b 26 32 bd
       -0.43887907 0.13730156 -0.34039965 -0.04349349
0000f0 b1 11 ef be 5d 94 d4 be 9c 7a c9 bd 8d 37 7f 3d
       -0.46693185 -0.41519442 -0.09837839 0.062308837
000100 d3 44 a7 3d 81 41 09 bf 29 94 be bd 99 e7 ac be
       0.08167424 -0.53615576 -0.09305603 -0.33770445
000110 ed 0d 9d be 3f d1 91 be e3 77 21 bf 52 5f 57 be
       -0.30674687 -0.28479955 -0.6307356 -0.21032456
000120 76 2f e5 be e3 1b 84 3e b9 30 09 3f 92 11 a8 bd
       -0.44762772 0.25802526 0.5358997 -0.08206476
000130 1e 2d 69 be 5d 4a 28 bf 88 ec 64 bf 2e 31 b3 bd
       -0.22771117 -0.6573847 -0.8942342 -0.08749615
000140 71 38 0c bf d2 4e 32 bf b3 53 13 bf e8 96 e6 3e
       -0.5477362 -0.6965152 -0.5754959 0.45037007
000150 fb e1 21 bf b6 97 fe be 96 31 56 be ed 4c 1c 3e
       -0.63235444 -0.4972512 -0.20917353 0.1526372
000160 83 06 13 bd de 19 21 bd 89 f6 a7 3f 89 04 86 3f
       -0.035894882 -0.03933131 1.3122112 1.0470134
000170 26 cc 31 bc 14 c1 c0 be c7 6e a1 3e 46 d6 9b 3e
       -0.010851895 -0.37647307 0.3152983 0.30436915
000180 f1 20 e9 be bd 93 2c bd ce d2 a5 3f d1 41 ac 3e
       -0.45532945 -0.04213308 1.2954957 0.33643964

branch.output_layer.bias f4 [10]
000000 83 ad 10 bc cf 9d 8a 3e ce 0f 2d be 16 c6 6c 3e
       -0.008830431 0.27073523 -0.1690056 0.23122439
000010 9a 85 53 bd 31 ca e5 3e 42 35 5c 3e 9d 9f bf 3d
       -0.051641084 0.44880822 0.21504691 0.09356616
000020 51 65 c4 3e a0 f5 dc be
       0.38358548 -0.43156147

trunk.hidden_layers.0.thetas f4 [17]
000000 c4 26 c8 bf 61 d2 4a bf 66 e0 04 3f 48 15 c8 bf
       -1.563683 -0.7922726 0.51904905 -1.5631495
000010 0c a1 3f bf f2 6f 95 3e 5b d6 25 c0 7a 6f 68 bf
       -0.74855113 0.2918697 -2.5912082 -0.907951
000020 73 b8 1f be 1c 20 43 bc a3 b3 b1 bf bc 80 09 bf
       -0.15597706 -0.011909511 -1.3882946 -0.5371206
000030 82 c3 0a bf cf f4 c2 be 93 fd 08 3f c1 c7 0f bf
       -0.5420457 -0.380774 0.53511924 -0.56164175
000040 84 da 71 3e
       0.23618513

trunk.hidden_layers.0.bias f4 [10]
000000 17 a8 f3 3e 74 2c 58 be d0 54 f5 3e c7 40 de 3e
       0.4758918 -0.21110708 0.4791627 0.43408796
000010 19 a7 ef 3e 4d e7 f1 be f9 64 be 3e 78 a1 fe 3e
       0.46807173 -0.4724678 0.3718641 0.49732566
000020 60 ee aa be ab 70 cb 3e
       -0.3338499 0.39734396

trunk.output_layer.weight f4 [10, 10]
000000 4f 49 f7 3e 3e 39 83 3f e7 4b 33 3f ce 76 e4 bf
       0.48298118 1.0251844 0.7003769 -1.7848756
000010 5e 2b 8a c0 ae 46 87 bf 79 f8 b2 bf 04 e7 42 40
       -4.317794 -1.0568445 -1.3982078 3.04535
000020 0b 45 99 bf 31 63 30 3f 41 6d 3f 3e 2f b1 68 bf
       -1.1974195 0.68901354 0.18694021 -0.9089536
000030 56 c6 e1 3c 38 3f 81 3f 9f 30 7e 3f 80 c1 8a 3e
       0.027560394 1.0097418 0.9929294 0.27100754
000040 af aa 20 3f cf 6f 60 bf 57 c0 73 bc b4 08 7a 3e
       0.6276044 -0.87670606 -0.0148774 0.24417382
000050 fa 2d 17 bf 9c 01 23 3f 58 15 d8 be 77 99 27 bd
       -0.5905453 0.6367433 -0.42203784 -0.04091784
000060 e4 eb 73 be 5c 9d ac 3d 48 56 70 bd b6 42 8a bc
       -0.23820454 0.084284514 -0.058676034 -0.016877513
000070 d9 18 95 3e 1f de 00 bf c9 c4 3c 3f ed 58 19 bf
       0.2912052 -0.5033893 0.7373777 -0.59901315
000080 0c ed 14 3f 4a e3 25 3f 8c 41 9b be 24 6c 1c bf
       0.58174205 0.6479994 -0.30323446 -0.6110251
000090 7e 9c 0b 3f f6 c1 d1 bc 5f db eb be e5 10 6b 3f
       0.54535663 -0.025605183 -0.46065804 0.91822654
0000a0 4b 67 d6 be 87 51 e0 3e 22 09 1a bf 2f 11 1a bf
       -0.4187568 0.438122 -0.60170186 -0.6018247
0000b0 eb bc 28 be f2 67 51 3d 20 95 a0 bd 86 73 ed 3e
       -0.16478316 0.05112452 -0.07840943 0.463772
0000c0 12 7d c2 3e ac 74 c0 be 22 26 08 3f 92 d9 f5 be
       0.37986046 -0.37589014 0.53183186 -0.48017555
0000d0 19 73 11 3f ed 29 0a 3f 6f 25 bd 3d ba ae 0e bf
       0.5681625 0.53970224 0.092356555 -0.5573536
0000e0 f4 fb e1 3e 88 1c 59 be fc 15 33 bf d5 a5 85 3e
       0.44137537 -0.2120229 -0.6995542 0.26103082
0000f0 bc 1f 26 3f be 02 c2 be b1 e7 d6 3e 4d 12 6b 3e
       0.6489217 -0.37892717 0.41973642 0.229562
000100 30 a0 04 3e bb a7 9e be 4c 68 0e 3f ea cf ef 3d
       0.12951732 -0.30987343 0.55627894 0.11709578
000110 36 9a 81 bd 92 e1 ab 3d 62 3e 34 3e bb 81 a3 be
       -0.063282415 0.083926335 0.17601922 -0.31934914
000120 69 0c 2c 3f 4c 9f 7f 3f af b2 80 3f 78 7f 0e 3e
       0.67206436 0.9985244 1.005453 0.13915813
000130 f9 14 16 3f de 10 9e be b4 34 01 be 80 ed c0 3e
       0.5862575 -0.30872244 -0.12617761 0.37681198
000140 40 4d 66 3f c2 c9 8c be 5e b4 7e 3f d8 3c 31 be
       0.89961624 -0.2749768 0.9949397 -0.17308366
000150 10 70 c7 bf df 25 b2 bf a5 c3 ca 3e 1d 9b fe 3e
       -1.5581074 -1.3917807 0.3960239 0.49727717
000160 de 0b 3d bf dd bc 1b 3f ee 5c cd be a2 c3 f5 3f
       -0.7384623 0.6083506 -0.40109962 1.9200327
000170 72 32 f4 3f 08 88 27 c0 4a 3b 4a c0 e7 9e c8 bf
       1.9077895 -2.6176777 -3.1598687 -1.5673493
000180 43 24 7c bf ea 32 59 40 ff d9 85 3e e6 41 b4 bf
       -0.9849283 3.3937325 0.2614288 -1.4082611

trunk.output_layer.bias f4 [10]
000000 4b 03 91 3d 77 eb a3 bd 00 2f 6e be cb 1a 0f 3f
       0.07080706 -0.08003896 -0.23260117 0.5590026
000010 65 6f ba be f3 b4 1a 3f a1 cf a6 3e 1a 57 c8 3d
       -0.36413112 0.60432357 0.32580283 0.09782238
000020 c4 f5 0f 3f a0 f7 80 3d
       0.56234384 0.06297231

exp_avg f4 [55]
000000 3e 00 41 35 91 47 00 35 c5 4f c6 35 55 5f 20 b6
       7.1898455e-07 4.778786e-07 1.4775366e-06 -2.3897348e-06
000010 5e 53 8e 36 0c 92 db 34 40 7d d7 35 29 29 51 36
       4.241635e-06 4.0898192e-07 1.6055201e-06 3.1167385e-06
000020 02 d2 85 b4 0c bf 01 36 d2 f6 2c b6 cf d9 82 34
       -2.492598e-07 1.9333702e-06 -2.5773666e-06 2.4372864e-07
000030 48 e9 a4 34 bf 8a db b4 af 81 4c b5 02 ce f5 b4
       3.0717115e-07 -4.089288e-07 -7.6184637e-07 -4.5784697e-07
000040 16 0e e8 b4 1d c1 8f b5 99 62 a4 b5 a9 1e 21 34
       -4.3223616e-07 -1.0710534e-06 -1.2247648e-06 1.5005448e-07
000050 3e d1 8f 34 c4 ca d9 b4 6a ac 92 35 21 e3 22 b5
       2.678807e-07 -4.056693e-07 1.0928027e-06 -6.068022e-07
000060 f0 74 cc 34 51 ba 4e 36 46 ef 4a b5 65 8f 83 b5
       3.8083044e-07 3.0804842e-06 -7.559905e-07 -9.801994e-07
000070 18 e0 05 b5 03 61 99 b7 c2 17 80 35 c1 86 00 b5
       -4.987246e-07 -1.8284196e-05 9.543658e-07 -4.787981e-07
000080 b2 21 9a 35 43 23 d7 b4 97 db 86 b7 6f 9f 3e b3
       1.1483701e-06 -4.0072527e-07 -1.60763e-05 -4.4382826e-08
000090 0f ed 45 b6 b7 e7 cd b4 ee 82 4d 37 f2 7c 83 35
       -2.9493274e-06 -3.835282e-07 1.2249437e-05 9.796624e-07
0000a0 b5 79 31 35 f9 5b a2 b5 fd 46 92 37 a0 47 ad b2
       6.6114745e-07 -1.2096708e-06 1.7437613e-05 -2.0172422e-08
0000b0 0c b6 11 b6 e0 6b 26 36 91 09 7d 35 1a 91 cc b4
       -2.171265e-06 2.479872e-06 9.4263766e-07 -3.8103536e-07
0000c0 c2 16 e2 34 1a 66 05 35 f7 a0 8a 36 e2 9e 80 35
       4.211234e-07 4.969494e-07 4.1314593e-06 9.582984e-07
0000d0 a2 9b ed 35 ff 2e a8 b5 5a 0b f8 35
       1.7703171e-06 -1.2530653e-06 1.8480744e-06

exp_avg_sq f4 [55]
000000 02 2d fb 31 09 5f 23 32 84 e7 06 33 a5 05 22 33
       7.3101782e-09 9.509457e-09 3.140987e-08 3.7723698e-08
000010 86 f2 44 34 63 05 aa 30 c1 73 f6 32 b6 4b d1 33
       1.8342152e-07 1.2370659e-09 2.8690808e-08 9.7460926e-08
000020 8f 07 6c 30 c6 08 39 33 96 2c 8d 33 e7 af 8a 30
       8.586704e-10 4.308165e-08 6.573934e-08 1.0090816e-09
000030 b3 34 0a 30 3e bc 63 31 df 0d 9d 31 3f c1 ec 30
       5.0279e-10 3.313985e-09 4.5708783e-09 1.7226184e-09
000040 62 32 82 30 fb 07 ed 31 8c da 1c 32 e1 ab 1e 31
       9.473065e-10 6.898515e-09 9.130087e-09 2.3089728e-09
000050 26 d9 fc 2f c7 12 25 31 76 45 9a 32 f5 a1 ac 32
       4.5992826e-10 2.4021334e-09 1.7959547e-08 2.0097085e-08
000060 4b d9 38 31 23 31 05 34 ea 58 a8 31 28 99 1c 32
       2.689904e-09 1.2404466e-07 4.899552e-09 9.115219e-09
000070 5c c1 88 31 ed 48 2b 36 83 6f ff 31 2a f8 0f 31
       3.9801034e-09 2.5523434e-06 7.434154e-09 2.0950304e-09
000080 ef f0 9d 32 b2 ff 05 33 b5 23 1a 36 c9 e7 94 30
       1.838677e-08 3.119903e-08 2.2968572e-06 1.0834295e-09
000090 5a 75 c3 33 91 a6 56 32 49 e1 9b 35 61 66 dd 31
       9.101741e-08 1.2494312e-08 1.1613967e-06 6.4435857e-09
0000a0 bf 84 13 31 b4 c8 b7 32 13 59 3a 36 c1 80 b9 30
       2.1466773e-09 2.1395273e-08 2.7768008e-06 1.3497116e-09
0000b0 a1 08 80 33 f0 e7 80 33 4a 7b f5 31 55 9e 78 31
       5.962034e-08 6.002654e-08 7.144455e-09 3.617875e-09
0000c0 8a 28 74 32 33 3d c1 31 1a 7e 1a 34 ea b7 f1 31
       1.4211887e-08 5.623997e-09 1.4388243e-07 7.0349317e-09
0000d0 43 d5 a7 32 3e 20 69 33 39 9c d0 32
       1.9538339e-08 5.4278864e-08 2.4285429e-08

exp_avg f4 [10]
000000 51 40 23 38 ec 54 69 38 a6 df c9 37 a3 ef 37 b8
       3.8922128e-05 5.563062e-05 2.4065212e-05 -4.385378e-05
000010 4d 0d 28 37 39 8c 2b 38 7c d3 f7 37 5f 42 8b 37
       1.0016677e-05 4.090017e-05 2.9543175e-05 1.6600998e-05
000020 aa 62 14 38 3c 9a ad 37
       3.5377838e-05 2.0695028e-05

exp_avg_sq f4 [10]
000000 b7 48 89 37 df b2 0b 38 52 f4 db 36 42 66 9a 37
       1.6365533e-05 3.330677e-05 6.5551512e-06 1.8405848e-05
000010 82 6c 8b 35 d1 6c 97 37 7a a5 14 37 ee 4c 64 36
       1.0387887e-06 1.8051274e-05 8.860015e-06 3.4019426e-06
000020 75 20 75 37 db b9 59 36
       1.4610695e-05 3.2443702e-06

exp_avg f4 [10, 10]
000000 53 07 80 b6 56 aa c5 b6 1d 5d 83 b6 38 53 e0 b6
       -3.81555e-06 -5.890887e-06 -3.914944e-06 -6.685408e-06
000010 82 b2 2e b6 d1 e2 47 b6 6c c9 de b6 2e 38 a3 b6
       -2.6031926e-06 -2.9785335e-06 -6.639564e-06 -4.8643187e-06
000020 fc 27 25 35 2c 34 4a b7 8a a9 95 b5 96 db ec b5
       6.1525475e-07 -1.20522855e-05 -1.1150707e-06 -1.7647278e-06
000030 85 4f 97 b5 2f 50 0e b6 1b 90 9e b5 71 41 26 b5
       -1.127352e-06 -2.1206322e-06 -1.1813858e-06 -6.193505e-07
000040 3a 7c 1d b6 f6 79 ab b5 11 4f 70 34 7f 6d 82 b6
       -2.3467132e-06 -1.2775988e-06 2.2380506e-07 -3.887049e-06
000050 06 b1 77 35 bd 5f dd 35 29 14 63 35 70 94 02 36
       9.2272273e-07 1.6493647e-06 8.4593427e-07 1.9457912e-06
000060 60 5e 56 35 cc 0d 3f 35 ff 70 f4 35 f6 29 8d 35
       7.9858546e-07 7.117312e-07 1.8212303e-06 1.0517531e-06
000070 6f b6 12 b4 49 a2 5b 36 c5 d3 db b6 c0 23 41 b7
       -1.3663679e-07 3.2728005e-06 -6.551362e-06 -1.151202e-05
000080 14 8a c0 b6 05 d6 63 b7 87 22 c1 b6 ed 86 9b b6
       -5.7381203e-06 -1.3580085e-05 -5.7558677e-06 -4.6350674e-06
000090 10 b4 4a b7 37 07 f2 b6 62 ec 4a 35 e2 91 bb b7
       -1.2082062e-05 -7.213002e-06 7.5594846e-07 -2.236007e-05
0000a0 2c 47 70 35 28 5b d8 35 1a 04 65 35 d2 05 01 36
       8.9510536e-07 1.6119784e-06 8.5315116e-07 1.9225886e-06
0000b0 fd 54 52 35 97 99 39 35 8b 72 f1 35 e8 9f 8a 35
       7.835477e-07 6.9141373e-07 1.7989236e-06 1.032834e-06
0000c0 7a 67 1c b4 1b 89 57 36 54 fd 90 b6 8d fd 00 b7
       -1.4566277e-07 3.2117302e-06 -4.3210257e-06 -7.688429e-06
0000d0 b9 c1 85 b6 85 1f 19 b7 9d 85 80 b6 9a f5 58 b6
       -3.986261e-06 -9.126849e-06 -3.830252e-06 -3.2329467e-06
0000e0 d5 bb 0e b7 3c 2f a4 b6 48 13 2b 35 2f 0b 80 b7
       -8.507593e-06 -4.8930797e-06 6.373052e-07 -1.5263997e-05
0000f0 7e 6b 2a b6 55 b6 9a b6 4c f0 1e b6 37 d9 b6 b6
       -2.5394543e-06 -4.610784e-06 -2.3683706e-06 -5.44931e-06
000100 b9 b5 13 b6 c4 05 0a b6 dc 5d ae b6 ac 54 44 b6
       -2.2010483e-06 -2.0566958e-06 -5.1965308e-06 -2.9255561e-06
000110 45 e5 dc 34 c1 66 1a b7 89 75 57 b6 16 fb b8 b6
       4.114501e-07 -9.20304e-06 -3.210591e-06 -5.5128576e-06
000120 b1 a8 43 b6 c1 0c db b6 92 94 49 b6 2b 4a 12 b6
       -2.9155456e-06 -6.5281934e-06 -3.0037813e-06 -2.1798867e-06
000130 d7 59 d2 b6 47 42 6f b6 8c 74 f4 34 2c 6b 3a b7
       -6.2689464e-06 -3.5652354e-06 4.553334e-07 -1.1111417e-05
000140 70 b5 b3 b6 9c d1 25 b7 f3 e8 a5 b6 3a ae 44 b7
       -5.355738e-06 -9.88357e-06 -4.944502e-06 -1.1723076e-05
000150 5c 0f 92 b6 79 f8 92 b6 9c 00 2e b7 c0 ec ce b6
       -4.352927e-06 -4.380065e-06 -1.037135e-05 -6.1668397e-06
000160 e3 41 4d 35 ea 5c a0 b7 9f fb 3e b5 a6 35 a4 b5
       7.646433e-07 -1.9116753e-05 -7.114667e-07 -1.2234566e-06
000170 0e c9 23 b4 65 63 4d b5 fd 07 1e b5 97 c3 0c b5
       -1.5253701e-07 -7.651309e-07 -5.887121e-07 -5.2438685e-07
000180 d5 bc 6d b5 c9 8c 3c b5 22 93 1f b3 d3 75 29 b6
       -8.8564167e-07 -7.0240327e-07 -3.715389e-08 -2.5251545e-06

exp_avg_sq f4 [10, 10]
000000 84 08 0c 34 a7 2b f0 34 43 0c aa 33 86 ba 03 35
       1.3041614e-07 4.4735245e-07 7.918472e-08 4.907273e-07
000010 cb 5e bc 33 93 f1 a4 33 61 24 0c 35 e9 06 27 34
       8.771675e-08 7.680787e-08 5.2207e-07 1.5555601e-07
000020 ea a2 e5 30 75 ac cc 35 bb a2 72 32 7c f5 4b 33
       1.6708246e-09 1.5249376e-06 1.4123255e-08 4.7487887e-08
000030 ad 9b 0e 32 56 e3 5d 33 fd 8e 1e 32 69 05 10 32
       8.300884e-09 5.1662333e-08 9.229322e-09 8.383133e-09
000040 db 59 71 33 30 f5 92 32 21 67 3a 2f 5c 40 2e 34
       5.6193908e-08 1.7108135e-08 1.695324e-10 1.6228427e-07
000050 8c ef 23 32 f7 f4 0a 33 ef 58 c3 31 d4 b0 17 33
       9.542315e-09 3.2353423e-08 5.6853575e-09 3.531825e-08
000060 a8 a9 d8 31 7d fd c1 31 cc 7c 23 33 7d 33 45 32
       6.305715e-09 5.6458576e-09 3.8064897e-08 1.1478616e-08
000070 80 1e 01 2f b5 32 ed 33 8d 36 f2 34 e9 33 cd 35
       1.1743317e-10 1.1045396e-07 4.5115704e-07 1.5288798e-06
000080 80 32 90 34 f8 f6 df 35 6c e9 9f 34 90 52 8f 34
       2.6858834e-07 1.6686672e-06 2.9785895e-07 2.6695898e-07
000090 d4 82 f1 35 c3 b4 11 35 b3 73 be 31 94 1f af 36
       1.7993975e-06 5.427975e-07 5.5428813e-09 5.2190826e-06
0000a0 b9 ec 1d 32 83 ce 05 33 c9 0f bc 31 2e 0b 12 33
       9.192427e-09 3.1154297e-08 5.4733147e-09 3.4003442e-08
0000b0 7d 95 d0 31 1e e8 ba 31 65 79 1d 33 47 07 3e 32
       6.0705916e-09 5.439701e-09 3.666482e-08 1.106111e-08
0000c0 b5 6b f8 2e 9b 6b e4 33 a3 70 63 34 7a 96 40 35
       1.1296867e-10 1.0636651e-07 2.1182e-07 7.1744546e-07
0000d0 75 49 07 34 3b 26 52 35 bc 10 16 34 31 9e 06 34
       1.2599578e-07 7.828673e-07 1.3975927e-07 1.2537272e-07
0000e0 54 bf 62 35 68 e5 88 34 93 8a 32 31 53 63 24 36
       8.446998e-07 2.549889e-07 2.598118e-09 2.4495719e-06
0000f0 50 43 a2 33 9b 82 89 34 c4 49 41 33 42 19 96 34
       7.555957e-08 2.5613267e-07 4.5003404e-08 2.7958055e-07
000100 8b 64 56 33 ae 05 40 33 bf ce a1 34 fa 37 c3 33
       4.99172e-08 4.470865e-08 3.0139014e-07 9.090577e-08
000110 c7 73 7f 30 7d ba 6a 35 54 e9 f3 33 a4 09 ce 34
       9.293299e-10 8.744317e-07 1.13580114e-07 3.8377505e-07
000120 18 84 90 33 e5 99 e0 34 bf 64 a0 33 26 81 90 33
       6.72955e-08 4.1835224e-07 7.468906e-08 6.7290145e-08
000130 9a fd f2 34 f9 19 13 34 a2 05 be 30 35 ed af 35
       4.5260532e-07 1.369989e-07 1.382592e-09 1.3107552e-06
000140 1c 30 ae 34 6d 01 94 35 81 62 50 34 49 ba a1 35
       3.244503e-07 1.1027274e-06 1.9407345e-07 1.2049651e-06
000150 79 04 67 34 aa f3 4d 34 61 d8 ad 35 dd 26 d1 34
       2.1515179e-07 1.9180757e-07 1.2952479e-06 3.895756e-07
000160 cc 3d 8a 31 2b 9b 7c 36 e3 fb 49 31 1e dc 35 32
       4.023354e-09 3.7641246e-06 2.939253e-09 1.05856355e-08
000170 f8 55 04 31 27 8b 4b 32 ee d9 14 31 87 7b e9 30
       1.9257396e-09 1.1847795e-08 2.1660713e-09 1.698809e-09
000180 2f ef 4c 32 d1 4b 6a 31 56 65 4a 2e 2b d6 19 33
       1.1928747e-08 3.4094578e-09 4.6019487e-11 3.5817873e-08

exp_avg f4 [10]
000000 0c 5d ca b7 0c 1c 07 b7 2c b2 e2 36 8c 72 43 b8
       -2.4123605e-05 -8.053157e-06 6.756067e-06 -4.6598303e-05
000010 b6 2e df 36 70 e5 04 b8 9a 46 9f b7 d6 2b c2 b7
       6.6513558e-06 -3.1684933e-05 -1.8987153e-05 -2.3147015e-05
000020 4b b9 25 b8 10 14 5e b6
       -3.9511633e-05 -3.3092256e-06

exp_avg_sq f4 [10]
000000 2a b7 db 36 79 04 3b 35 8c 98 fe 34 ae fe bb 37
       6.5480317e-06 6.9669437e-07 4.742218e-07 2.2410732e-05
000010 41 2c f5 34 39 73 30 37 42 f3 7b 36 35 d3 bc 36
       4.5667005e-07 1.0517245e-05 3.754351e-06 5.6274243e-06
000020 6e 8d 87 37 83 3d 25 34
       1.6159112e-05 1.53892e-07

exp_avg f4 [17]
000000 2e 6f 11 b4 20 56 4b b4 0f 2d db 34 86 58 d8 b3
       -1.3544624e-07 -1.893718e-07 4.0824713e-07 -1.0074386e-07
000010 f9 82 42 b4 02 51 1b 34 1d 3b 71 b4 2e f8 b0 b2
       -1.8115306e-07 1.446497e-07 -2.246638e-07 -2.0601956e-08
000020 bd 5f aa 34 c0 13 71 32 6e 39 fb 32 82 84 ed 2f
       3.1734626e-07 1.4032537e-08 2.9246362e-08 4.32042e-10
000030 09 c3 05 34 49 29 91 af df e0 69 32 c8 44 04 33
       1.2457544e-07 -2.640468e-10 1.3613515e-08 3.07962e-08
000040 f4 54 13 b2
       -8.575842e-09

exp_avg_sq f4 [17]
000000 e7 42 de 2f 1d 7e c6 2f c6 63 74 32 2d 81 a4 2f
       4.0429102e-10 3.61056e-10 1.4225355e-08 2.992321e-10
000010 06 06 94 31 b5 0f 47 2f e2 cd 24 31 d0 cc ca 2c
       4.3080517e-09 1.8104525e-10 2.3982172e-09 5.763924e-12
000020 d2 e3 0d 31 87 63 b2 2c 61 1e c9 2e 2b 76 0d 27
       2.0647701e-09 5.070114e-12 9.145818e-11 1.963174e-15
000030 03 02 e6 2e e8 a5 75 25 84 07 14 2d 32 d1 2c 2c
       1.04595464e-10 2.1306574e-16 8.414495e-12 2.4558797e-12
000040 e7 31 0c 2a
       1.2451811e-13

exp_avg f4 [10]
000000 6c 7b 56 34 f8 6b 08 35 08 77 82 35 40 04 c9 33
       1.9975204e-07 5.0821063e-07 9.720397e-07 9.360565e-08
000010 1c d9 04 36 29 42 04 35 76 05 38 35 16 a0 a6 35
       1.9795907e-06 4.927011e-07 6.855329e-07 1.2414555e-06
000020 52 8a b4 34 cc ed 31 b5
       3.3628254e-07 -6.628368e-07

exp_avg_sq f4 [10]
000000 58 e0 6e 32 fd 4e 90 31 52 b1 22 33 b3 f4 1a 33
       1.3904433e-08 4.1999315e-09 3.7879836e-08 3.607847e-08
000010 01 8b 9a 33 e0 b1 6d 30 f4 78 ef 32 3f f8 dc 32
       7.1964685e-08 8.6472873e-10 2.7878265e-08 2.572426e-08
000020 ba 9c cf 30 52 e2 07 32
       1.5105777e-09 7.9094935e-09

exp_avg f4 [10, 10]
000000 ef 82 ae b2 77 05 0c 32 2a 9f 7a b2 db 3a d1 b2
       -2.0315808e-08 8.150315e-09 -1.4588105e-08 -2.4357567e-08
000010 6b 2b b7 b2 80 4b 32 32 64 4a 9c b0 44 5d 3d b3
       -2.1323748e-08 1.037813e-08 -1.1371637e-09 -4.4089816e-08
000020 bd 93 98 33 72 d9 62 b4 98 d1 28 b5 1f f6 5d 34
       7.104925e-08 -2.1126996e-07 -6.2889876e-07 2.0671767e-07
000030 d7 0c 25 b5 2f a8 1f b5 1c 34 4f b5 b7 4b c2 34
       -6.1485974e-07 -5.9476855e-07 -7.718934e-07 3.6190406e-07
000040 72 a6 a4 b4 84 0f 83 b5 f7 d2 0c 35 cb 15 01 b6
       -3.0668485e-07 -9.764776e-07 5.246106e-07 -1.9235183e-06
000050 8d ce af b2 69 ca d3 31 51 61 be b2 7d 60 8e b2
       -2.046661e-08 6.1639196e-09 -2.2163166e-08 -1.6574853e-08
000060 31 e5 92 b2 d3 80 61 32 35 04 3f b2 b0 df 21 b3
       -1.7100861e-08 1.3126015e-08 -1.111862e-08 -3.7689176e-08
000070 69 80 2f 32 4e 40 1f b3 ea 35 67 b4 0a 27 94 33
       1.0215538e-08 -3.7078557e-08 -2.1533165e-07 6.898888e-08
000080 53 b2 6a b4 5c 79 47 b4 f9 4a 35 b4 bf bb 14 34
       -2.1857822e-07 -1.857747e-07 -1.6884213e-07 1.3851876e-07
000090 e5 cd f3 b2 e1 50 00 b5 79 f0 8b 34 17 d9 93 b5
       -2.8382553e-08 -4.780141e-07 2.6065734e-07 -1.1015535e-06
0000a0 b2 2f c5 b3 79 88 dd 32 28 9b e5 b3 86 df 84 b3
       -9.182203e-08 2.5789847e-08 -1.0691866e-07 -6.187388e-08
0000b0 27 a2 dd b2 ba 04 90 33 40 4d b3 b2 69 69 7c b4
       -2.5801524e-08 6.706382e-08 -2.0873472e-08 -2.3507677e-07
0000c0 8a ac 7e 33 22 9d 9a b4 cc d2 aa b5 d8 f6 db 34
       5.9295907e-08 -2.8799064e-07 -1.2727337e-06 4.097153e-07
0000d0 4b a1 ab b5 a0 cd 9a b5 0f 1f b9 b5 6f 31 4c 35
       -1.2787435e-06 -1.1533739e-06 -1.3792613e-06 7.606786e-07
0000e0 29 f8 14 b5 0b 82 14 b6 49 3d 90 35 d8 33 87 b6
       -5.5495417e-07 -2.2129414e-06 1.0746672e-06 -4.029349e-06
0000f0 6b a3 b7 35 b9 38 e7 b4 d8 73 bd 35 ae e9 9f 35
       1.3682123e-06 -4.3068374e-07 1.4115312e-06 1.1914433e-06
000100 5e ec b5 35 71 9c 61 b5 08 83 1d 35 42 58 23 36
       1.3554343e-06 -8.4046684e-07 5.8677733e-07 2.4340266e-06
000110 4c 87 7f b5 53 7a 84 36 2b 87 92 35 90 84 bb b4
       -9.5191785e-07 3.948147e-06 1.0917187e-06 -3.4927916e-07
000120 54 32 94 35 1e 3d 84 35 42 e3 a2 35 1e 13 2e b5
       1.1041507e-06 9.852554e-07 1.2136081e-06 -6.484787e-07
000130 57 17 05 35 d2 df f9 35 d6 63 5d b5 bb a8 54 36
       4.9580325e-07 1.8617086e-06 -8.2474196e-07 3.1688676e-06
000140 51 54 dd b3 f3 13 00 33 22 d5 fc b3 d5 60 8e b3
       -1.03064515e-07 2.9820466e-08 -1.1773433e-07 -6.630004e-08
000150 0a 5f f4 32 ba be b3 33 28 97 c5 b2 b9 4c 8a b4
       2.8448557e-08 8.37003e-08 -2.3002556e-08 -2.5760326e-07
000160 f5 f3 b7 33 af 51 e4 b4 35 b4 d4 af 92 7f 13 b1
       8.565977e-08 -4.2527742e-07 -3.869062e-10 -2.146383e-09
000170 70 2c 19 b2 b9 cc 22 32 e2 b5 33 32 ff 7b 80 31
       -8.915876e-09 9.47619e-09 1.0460527e-08 3.739387e-09
000180 78 f9 a8 32 66 26 9a b3 7c 56 18 32 5a c8 9e b2
       1.967122e-08 -7.1781685e-08 8.867229e-09 -1.848473e-08

exp_avg_sq f4 [10, 10]
000000 b4 1f 31 2c 7b b7 86 2a 42 16 47 2c 14 f0 ee 2b
       2.5170812e-12 2.3930497e-13 2.8291956e-12 1.6977552e-12
000010 b6 aa ce 2b de 7a 96 2b df dd b2 2a b0 54 2b 2d
       1.4684562e-12 1.0692244e-12 3.1773106e-13 9.739029e-12
000020 f7 99 b8 2b ae be e2 2d 0e a8 68 31 4a d8 ca 2f
       1.311672e-12 2.5777904e-11 3.3855971e-09 3.6897269e-10
000030 ee e5 5c 31 07 01 55 31 22 d2 c7 31 04 e7 93 30
       3.2144913e-09 3.0996163e-09 5.8155516e-09 1.0761316e-09
000040 c3 42 5e 30 e3 da 03 32 9f 7e 0f 31 22 46 fd 32
       8.0858004e-10 7.674973e-09 2.0881215e-09 2.948497e-08
000050 99 42 85 2c 99 8b ac 2a 5f 8a b0 2c 5d aa 02 2c
       3.787481e-12 3.0650203e-13 5.017583e-12 1.8568682e-12
000060 06 10 2a 2b bd f0 07 2c 7e e4 32 2b 7b 88 98 2d
       6.041837e-13 1.931829e-12 6.35554e-13 1.7341009e-11
000070 98 8a 10 2b bf 90 90 2d c4 d5 7f 2f 33 12 d4 2d
       5.1351414e-13 1.6435185e-11 2.326806e-10 2.4109692e-11
000080 53 a8 81 2f ac b7 52 2f 36 06 a1 2f c9 25 b5 2e
       2.3584565e-10 1.9164642e-10 2.9290143e-10 8.237639e-11
000090 b2 ed 4e 2e 0f 68 30 30 fb 5d 0d 2f 9f 61 0c 31
       4.7050093e-11 6.4176303e-10 1.2857264e-10 2.0428172e-09
0000a0 aa d7 cb 2e b7 36 04 2d 4e 04 07 2f 44 72 42 2e
       9.269681e-11 7.51548e-12 1.2279708e-10 4.421198e-11
0000b0 cf 03 1c 2d b7 25 57 2e 5c 36 29 2d f0 5c 03 30
       8.868419e-12 4.8918838e-11 9.618608e-12 4.7789595e-10
0000c0 2e a2 bd 2d eb a7 36 30 3e c1 65 32 76 e0 bc 30
       2.1558835e-11 6.644984e-10 1.33734925e-08 1.3742596e-09
0000d0 f7 25 6b 32 a8 ed 39 32 b6 50 88 32 ed 0e a5 31
       1.36874325e-08 1.0822454e-08 1.5869187e-08 4.803829e-09
0000e0 49 26 36 31 2f 34 22 33 de 8f f7 31 2f 3c fa 33
       2.6506248e-09 3.7766025e-08 7.205002e-09 1.16524795e-07
0000f0 20 6d bb 32 64 30 1a 31 c0 a7 bf 32 a7 e8 97 32
       2.181929e-08 2.2437456e-09 2.231161e-08 1.7684512e-08
000100 84 80 df 32 22 74 06 32 23 f8 94 31 9e fa 83 33
       2.6019059e-08 7.826232e-09 4.335577e-09 6.14575e-08
000110 b3 4d 4a 32 bc 1b 4c 34 08 e3 81 32 5e bc d9 30
       1.1775614e-08 1.900907e-07 1.5120818e-08 1.5842365e-09
000120 f8 c2 81 32 ca e4 5a 32 9c 5c ae 32 f4 af b3 31
       1.5106238e-08 1.2741291e-08 2.029838e-08 5.229589e-09
000130 9d 1a 59 31 f3 f3 2b 33 83 cc 13 32 d8 ff 0e 34
       3.1592784e-09 4.003591e-08 8.603027e-09 1.3317856e-07
000140 55 4d 05 2d b4 d9 59 2b 72 af 09 2d 1d 0e d5 2c
       7.577346e-12 7.739601e-13 7.826505e-12 6.055391e-12
000150 3d 41 1a 2d 6d bf 42 2c 0d 34 cd 2b 3c 52 c2 2d
       8.768372e-12 2.767532e-12 1.4580573e-12 2.2091766e-11
000160 ac bd 8d 2c b6 76 92 2e 9b 46 73 2b 0e 33 97 29
       4.028519e-12 6.6603986e-11 8.6428927e-13 6.7146036e-14
000170 a8 16 a8 2b 99 7b ce 2a b4 73 d6 28 e3 26 0a 2b
       1.1943406e-12 3.6678714e-13 2.3808951e-14 4.9081415e-13
000180 2e 15 91 29 c8 67 b4 2c 48 89 7b 2a fa 13 fa 2c
       6.4429676e-14 5.1274297e-12 2.2340907e-13 7.107645e-12

exp_avg f4 [10]
000000 80 9c 8f b3 29 12 0f b6 3d cc 96 b3 9f 1f 45 b5
       -6.6874236e-08 -2.131923e-06 -7.02207e-08 -7.3434234e-07
000010 56 e5 aa b4 c3 33 91 b6 4a 8d 9c 36 5b 28 79 36
       -3.183183e-07 -4.3273626e-06 4.6656105e-06 3.7127381e-06
000020 5e e2 bf b4 d0 b8 a2 b1
       -3.5741226e-07 -4.7358313e-09

exp_avg_sq f4 [10]
000000 89 fe 01 2e 71 8e 27 33 dc 3a 47 2e 78 89 39 31
       2.9557277e-11 3.9012267e-08 4.529964e-11 2.6999185e-09
000010 24 73 98 30 d6 d5 26 34 3f 16 88 34 f2 24 3c 34
       1.109218e-09 1.5537748e-07 2.534816e-07 1.7522305e-07
000020 2e bc c1 2e bb fa 36 2d
       8.810051e-11 1.0401176e-11
