models/ensembles/calib_ensemble/model1/model_checkpoint-3000.pt (torch, 14787 bytes, 24 tensors)

branch.hidden_layers.0.thetas f4 [55]
0	0xbf5de680	-0.8667984
1	0x3f6c9db0	0.9242811
2	0x3f578300	0.84184265
3	0x3dd41953	0.10356393
4	0x3f0213ea	0.50811636
5	0x3de22969	0.110430546
6	0xbfd2b904	-1.6462712
7	0x3f1fe604	0.6246035
8	0x3f637cbf	0.8886222
9	0x3fa48b92	1.2855093
10	0xbd4a3aaf	-0.04937237
11	0x3feea7f7	1.8645009
12	0xbf2944aa	-0.661204
13	0xbfb3b1e9	-1.4038669
14	0x3f2efa49	0.68350655
15	0x3f8cf4e6	1.1012237
16	0xc01060d7	-2.2559106
17	0x3e13acd8	0.14421403
18	0x3f4c57cf	0.79821485
19	0x3f44f374	0.7693398
20	0x3f84eecd	1.0385376
21	0xbd92cafc	-0.071676224
22	0xc006a833	-2.104016
23	0xbf5e757a	-0.86898005
24	0x3fbd7d0d	1.4803787
25	0xbed74275	-0.4204289
26	0xbe033d24	-0.12816292
27	0x3f85e064	1.0459104
28	0x3ee87379	0.454006
29	0xbee946da	-0.45561868
30	0xc0034ca5	-2.051553
31	0xbfbf960f	-1.4967669
32	0x3f6f14e4	0.9339125
33	0xbe937507	-0.28800222
34	0xbe2b029c	-0.16700214
35	0xbd733e96	-0.05938586
36	0x3f64fbcf	0.8944673
37	0xbf33001c	-0.6992204
38	0xbffb8e96	-1.9652889
39	0x3e1b6207	0.15174113
40	0xbfea2705	-1.8293158
41	0x3fcee863	1.6164669
42	0x3dd3204b	0.10308894
43	0xbf98ba49	-1.193185
44	0xbe8aea46	-0.2713186
45	0x3f56a0fb	0.83839387
46	0xbf02d504	-0.51106286
47	0xbde07215	-0.109592594
48	0x3f9f2916	1.2434413
49	0x3e60517e	0.21906087
50	0x3ea70c1e	0.32626432
51	0xbf15a772	-0.58458626
52	0x3f9f5ee9	1.2450839
53	0xbf14bd58	-0.58101416
54	0xbfb714f9	-1.4303275

branch.hidden_layers.0.bias f4 [10]
0	0x3e940b9a	0.289151
1	0x3e4bae6b	0.19890754
2	0x3f096a01	0.53677374
3	0x3e01ee14	0.12688476
4	0x3e3ef0a0	0.18646479
5	0x3ec259f8	0.37959266
6	0x3e0e96e4	0.13924748
7	0x3f293ce4	0.66108537
8	0x3d9f312f	0.07773053
9	0x3d265689	0.04060987

branch.output_layer.weight f4 [10, 10]
0	0xbebd5a73	-0.3698307
1	0x3f2b47b7	0.66906303
2	0xbf2868a0	-0.65784645
3	0x3de942cb	0.11389693
4	0x3f01826b	0.5058963
5	0x3e977004	0.2957765
6	0x3ec83e30	0.39109945
7	0xbeb77295	-0.35829607
8	0xbabbfd75	-0.0014342504
9	0xbe271a5f	-0.16318654
10	0x3efcd9c6	0.49384898
11	0xbe7729eb	-0.24137084
12	0x3ef64b78	0.48104453
13	0xbeca2c9a	-0.39487153
14	0xbd9dd38a	-0.077063635
15	0xbf077a7c	-0.5292127
16	0xbe3c016c	-0.18359917
17	0xbf079e2c	-0.52975726
18	0x3d1e29f4	0.03861423
19	0xbd0f1c7d	-0.034939278
20	0xbe9433c0	-0.28945732
21	0x3e0c47d6	0.13699278
22	0xbebf07ba	-0.37310582
23	0x3e9c6759	0.30547598
24	0x3f066963	0.5250456
25	0x3e997e6c	0.29979265
26	0x3f06bd1b	0.526323
27	0xbe847fea	-0.2587884
28	0x3ef43d8d	0.4770321
29	0x3e8991aa	0.26868945
30	0x3edb4096	0.42822713
31	0xbea52375	-0.32253614
32	0x3f39c822	0.72571003
33	0xbeba339a	-0.36367494
34	0xbf01ce59	-0.50705487
35	0xbebe9b63	-0.37227926
36	0xbed55169	-0.41663674
37	0xbede75e3	-0.43449315
38	0xbe52108c	-0.20514125
39	0x3e603a0d	0.21897145
40	0xbeed011a	-0.46289903
41	0x3ecb3e3c	0.3969592
42	0xbee987e2	-0.45611483
43	0x3e487667	0.19576417
44	0x3ed64ec4	0.41856968
45	0x3eb44d84	0.3521539
46	0x3e59dfa6	0.21276721
47	0x3ed512d6	0.41615933
48	0x3e870dac	0.26377618
49	0xbdf81f5a	-0.12115355
50	0xbe62da04	-0.22153479
51	0xbe370574	-0.17873174
52	0x3f47bc6f	0.780219
53	0x3c99ae56	0.018759888
54	0x3da19682	0.07890035
55	0xbf2b0ed0	-0.6681948
56	0x3e0ec593	0.13942556
57	0xbf49f0a8	-0.7888284
58	0x3e27ab2c	0.1637389
59	0x3d795c73	0.060879182
60	0xbe82e0bf	-0.25562093
61	0x3e8f85d3	0.28031787
62	0xbf39e0af	-0.72608465
63	0x3f099ab8	0.5375171
64	0x3ee615d6	0.44938534
65	0x3e8ea947	0.27863523
66	0x3ebc5d98	0.36790156
67	0x3e813da5	0.25242344
68	0x3eaf4d25	0.34238544
69	0xbe74b044	-0.23895365
70	0x3f414aa6	0.7550453
71	0x3d7ce22d	0.061739136
72	0x3d5bd1ad	0.05366676
73	0xbed9872d	-0.42485943
74	0xbdb4fcea	-0.08837302
75	0xbf49b27d	-0.78787977
76	0xbf2cc086	-0.6748127
77	0x3cf88b5f	0.030339895
78	0xbea7f7f7	-0.3280637
79	0x3ef4ad4e	0.4778847
80	0x3df87784	0.12132171
81	0xbeaea79c	-0.3411225
82	0x3ed4dc3f	0.41574284
83	0xbe8c4ac9	-0.27400807
84	0xbe884476	-0.26614732
85	0xbed71478	-0.42007804
86	0xbcc7c887	-0.024387611
87	0xbefa9e64	-0.48948967
88	0xbe4a2bb1	-0.1974323
89	0xbe7532dc	-0.23945183
90	0xbefe931f	-0.4972162
91	0xbcc3f7dc	-0.0239219
92	0x3f6d7811	0.9276133
93	0x3b5f8b18	0.0034110006
94	0xbee62a12	-0.44953972
95	0xbf6e9723	-0.93199366
96	0x3f02eb34	0.5114014
97	0xbfa6c8b3	-1.3029999
98	0x3f367fde	0.7128886
99	0xbec7742a	-0.38955814

branch.output_layer.bias f4 [10]
0	0x3ea7a74d	0.32744828
1	0x3e3da404	0.18519598
2	0x3eb7b440	0.35879707
3	0xbda41c32	-0.0801319
4	0xbe1cf1ef	-0.15326665
5	0x3d28700e	0.04112249
6	0xbe07d1e3	-0.13263659
7	0xbbbe73d0	-0.005812146
8	0x3ee28782	0.4424401
9	0x3eed2c40	0.46322823

trunk.hidden_layers.0.thetas f4 [17]
0	0x3f6d6da9	0.92745453
1	0xbf23c9d0	-0.63979816
2	0x3edf7267	0.4364197
3	0x3f98287b	1.1887354
4	0xbfedd436	-1.8580387
5	0x3f71d41e	0.9446429
6	0xc0406a13	-3.0064743
7	0x3f3e82e4	0.74418473
8	0xbf2beb5c	-0.67156005
9	0xc02f6a93	-2.7408798
10	0xbf99ace8	-1.2005892
11	0x3ec12872	0.3772617
12	0x3c971c8b	0.018446228
13	0x3f12ea89	0.5738912
14	0xbfcdd482	-1.6080477
15	0x400abbb9	2.1677077
16	0xbce1127f	-0.02747464

trunk.hidden_layers.0.bias f4 [10]
0	0xbe70e999	-0.2352661
1	0x3e89faa2	0.2694903
2	0x3eaa8f72	0.33312565
3	0x3e8ebaf7	0.27877018
4	0x3eccf8a2	0.40033442
5	0x3eac7483	0.3368264
6	0xbd7d5a39	-0.06185362
7	0x3d530b59	0.051524494
8	0x3f04e5c9	0.51913124
9	0x3e7eefe4	0.24896199

trunk.output_layer.weight f4 [10, 10]
0	0xbdcb7a2d	-0.099354126
1	0x3ef12a90	0.47102785
2	0x3f1aa711	0.60411173
3	0x3f07d722	0.5306264
4	0x3f20dd3e	0.6283759
5	0x3e37a7d2	0.17935112
6	0x3de5df54	0.11224237
7	0xbe58855b	-0.21144621
8	0x3e9e28a8	0.30890393
9	0x3e4435c1	0.1916113
10	0x3d205530	0.03914374
11	0xbf2d0405	-0.6758426
12	0xbee61523	-0.44938
13	0xbcc6b334	-0.024255373
14	0xbf48cf39	-0.78441197
15	0xbf5ff6d9	-0.87486035
16	0xbe872e7d	-0.26402655
17	0x3f245cb1	0.64203936
18	0xbe94740e	-0.28994793
19	0xbdfb5949	-0.12272889
20	0xbc5eaf35	-0.013591577
21	0x3e9fbae4	0.31197274
22	0x3eb31b72	0.34981877
23	0x3db8fb21	0.09032274
24	0x3f070e9b	0.5275666
25	0x3dd4662d	0.10371051
26	0x3e0a87b3	0.13528328
27	0xbf08ce6f	-0.5343999
28	0x3ecb1a65	0.39668575
29	0x3e81305f	0.25232217
30	0x3e25abbb	0.16178791
31	0xbf1b23d2	-0.6060153
32	0x3d22fd59	0.039792392
33	0x3f1872c6	0.5955013
34	0xbf1d9b4c	-0.6156509
35	0xbf3efe14	-0.7460644
36	0xbe9542dc	-0.29152572
37	0x3f6a03fc	0.9141233
38	0xbedc3312	-0.43007714
39	0xbea97dfe	-0.33103937
40	0xbefbd22d	-0.4918379
41	0x3ec749e4	0.38923562
42	0x3f2db729	0.67857605
43	0x3e281b7a	0.16416731
44	0x3e40243e	0.18763825
45	0x3e462661	0.19350578
46	0x3d446788	0.047950298
47	0xbf05dfc8	-0.5229459
48	0x3e1b166e	0.15145275
49	0x3f17d64d	0.5931137
50	0xbe06eceb	-0.13176315
51	0x3f8008ea	1.000272
52	0x3f5d826d	0.8652714
53	0xbed8015a	-0.4218853
54	0x3fadd9d6	1.3582103
55	0x3f3206b4	0.6954148
56	0x3ee5f835	0.4491593
57	0xbfc18ab7	-1.5120457
58	0x3f8d770d	1.1051956
59	0xbe135269	-0.14386906
60	0xbe37f70a	-0.17965332
61	0x3e9656e7	0.29363176
62	0x3e8b3e64	0.27196038
63	0x3eb60b07	0.35555288
64	0x3e8578ea	0.26068813
65	0x3dcd1d61	0.10015369
66	0x3e6c0aca	0.2305099
67	0xbd385e8f	-0.045012053
68	0x3ebd8ffb	0.3702391
69	0x3f064fb2	0.52465355
70	0xbec9abaa	-0.39388782
71	0xbf0da7fc	-0.5533445
72	0xbe48ea9a	-0.19620743
73	0x3e5f52cd	0.2180893
74	0xbecdcfef	-0.40197703
75	0xbf4e8d34	-0.8068421
76	0xbf8245d1	-1.0177556
77	0x3fae1ffd	1.3603512
78	0xbee4b591	-0.44669774
79	0x3dae5acd	0.085134126
80	0xbe8e066b	-0.27739272
81	0xbf588d35	-0.84590465
82	0xbe74e5b5	-0.23915751
83	0x3f0e8e45	0.55685836
84	0xbf961789	-1.1725932
85	0xbf66c6d2	-0.90147126
86	0xbf546b9c	-0.829767
87	0x3fcb0b63	1.586285
88	0xbf4b0100	-0.792984
89	0xbec29a74	-0.38008463
90	0xbd798eaa	-0.06092707
91	0x3f279ca0	0.65473366
92	0x3f19e86e	0.60120285
93	0xbe4351df	-0.190742
94	0x3f76a26d	0.9634159
95	0x3ef1df57	0.47240707
96	0x3ead7189	0.33875683
97	0xbf32aa0b	-0.69790715
98	0x3f83265f	1.0246085
99	0xbf216b34	-0.63054204

trunk.output_layer.bias f4 [10]
0	0x3ef5cb0b	0.48006472
1	0xbeb677f2	-0.35638386
2	0x3e0407bc	0.12893575
3	0xbda62757	-0.08112972
4	0x3f02aca5	0.51044685
5	0xbaddef50	-0.0016932283
6	0x3ebb17e7	0.36541674
7	0x3e80bf8c	0.2514614
8	0xbe5964c2	-0.21229842
9	0x3f03b3bd	0.51446134

exp_avg f4 [55]
0	0x362ea05a	2.6021357e-06
1	0xb4335a8f	-1.6703619e-07
2	0x361085eb	2.1535623e-06
3	0x35684a81	8.653515e-07
4	0x356380c5	8.4751474e-07
5	0x35975973	1.127641e-06
6	0x35d3b693	1.5773861e-06
7	0x355942e6	8.093615e-07
8	0x36cc541c	6.0894654e-06
9	0x3553d625	7.8915247e-07
10	0xb553f767	-7.8963643e-07
11	0x36f4459b	7.27987e-06
12	0x3547641c	7.4278955e-07
13	0xb6670c5b	-3.4428874e-06
14	0xb60f7164	-2.1374663e-06
15	0xb5a725b0	-1.2453438e-06
16	0xb62a1350	-2.5343215e-06
17	0xb6e95300	-6.9536036e-06
18	0x35d0a8a0	1.5546284e-06
19	0xb710ddaa	-8.634679e-06
20	0x33fded51	1.1824398e-07
21	0x361851de	2.2697418e-06
22	0x340df356	1.3220173e-07
23	0xb711472d	-8.659245e-06
24	0x37317c22	1.0578924e-05
25	0xb6193f3a	-2.283558e-06
26	0xb482467c	-2.426567e-07
27	0xb6e883d6	-6.9294865e-06
28	0x36f6b250	7.3521296e-06
29	0x378fe0e4	1.7151651e-05
30	0x35596ca8	8.0996915e-07
31	0x35f243e1	1.805016e-06
32	0xb6a2012d	-4.828113e-06
33	0xb707574c	-8.066952e-06
34	0x36a159ee	4.808643e-06
35	0xb5f86e00	-1.8509454e-06
36	0x36a05350	4.7780704e-06
37	0xb6398429	-2.7644076e-06
38	0x3660eb2c	3.351549e-06
39	0x35571e73	8.013805e-07
40	0xb6cb6117	-6.061174e-06
41	0x361641c5	2.2390025e-06
42	0xb6a3ba7b	-4.8794877e-06
43	0x3686f74e	4.0223013e-06
44	0x36d20a97	6.2597205e-06
45	0x3609db6a	2.0542307e-06
46	0xb6d8b063	-6.4578358e-06
47	0xb62df32e	-2.5920558e-06
48	0xb6337707	-2.6742362e-06
49	0x369aef99	4.6174505e-06
50	0xb626217a	-2.4755414e-06
51	0xb6c9fdd6	-6.019817e-06
52	0x355a9009	8.142093e-07
53	0x3695b71d	4.461863e-06
54	0xb6544752	-3.1631976e-06

exp_avg_sq f4 [55]
0	0x330912f5	3.191504e-08
1	0x32872624	1.5733413e-08
2	0x324f0cdd	1.2051911e-08
3	0x32818ec4	1.5082499e-08
4	0x2faa8c40	3.1022473e-10
5	0x33177078	3.5259717e-08
6	0x311ab2ca	2.251158e-09
7	0x32c2d48c	2.2681228e-08
8	0x331a2d64	3.58972e-08
9	0x32dc3236	2.5634204e-08
10	0x3331bb68	4.138147e-08
11	0x31ca16c8	5.8815637e-09
12	0x3009a65a	5.007671e-10
13	0x33203a6c	3.7306037e-08
14	0x32f5146c	2.853104e-08
15	0x3450274e	1.9385809e-07
16	0x320462fb	7.705917e-09
17	0x32b23785	2.0747175e-08
18	0x3381a952	6.03783e-08
19	0x33573fb7	5.0116537e-08
20	0x301e3352	5.7552996e-10
21	0x2fa488d3	2.9928646e-10
22	0x3204fb4e	7.740551e-09
23	0x334fb0ce	4.8356746e-08
24	0x32ec36e3	2.7498976e-08
25	0x310d015b	2.051897e-09
26	0x311ea629	2.3086477e-09
27	0x31e91fb7	6.784798e-09
28	0x322b140c	9.958068e-09
29	0x35b82e03	1.372246e-06
30	0x3217d755	8.838318e-09
31	0x302db95f	6.320046e-10
32	0x3144d43b	2.8642393e-09
33	0x30248794	5.985552e-10
34	0x3415beda	1.3946138e-07
35	0x32a22d48	1.8879874e-08
36	0x2fcf55c2	3.7714015e-10
37	0x32818eb9	1.508248e-08
38	0x328a9a1d	1.6135397e-08
39	0x321c7b62	9.108449e-09
40	0x30cb7560	1.4803554e-09
41	0x30df5930	1.6250734e-09
42	0x3318b5ca	3.5555594e-08
43	0x32085b28	7.936968e-09
44	0x325335d4	1.22940556e-08
45	0x30531c3d	7.680148e-10
46	0x316c00b4	3.434292e-09
47	0x32bb62c2	2.1814575e-08
48	0x3074b1fc	8.9019614e-10
49	0x326fa06d	1.3948108e-08
50	0x2fd96cf7	3.9549494e-10
51	0x318224c9	3.78768e-09
52	0x322c1c6a	1.0018178e-08
53	0x2f942fb8	2.695495e-10
54	0x31c60752	5.7633907e-09

exp_avg f4 [10]
0	0xb74d5bcb	-1.2240324e-05
1	0xb515b54c	-5.5770647e-07
2	0xb83517b2	-4.317583e-05
3	0x36c5ccb2	5.894887e-06
4	0xb4185c98	-1.4189789e-07
5	0xb6b8a378	-5.5026576e-06
6	0xb5b38c30	-1.3377339e-06
7	0xb6fbb6dd	-7.501671e-06
8	0xb6ffd9a6	-7.62493e-06
9	0x342461f0	1.530932e-07

exp_avg_sq f4 [10]
0	0x35d1d7fc	1.5634573e-06
1	0x34d708c2	4.0053243e-07
2	0x35d1719e	1.560478e-06
3	0x34aaa7f9	3.1787184e-07
4	0x35a53fac	1.2311989e-06
5	0x3401c577	1.2085899e-07
6	0x353fd8a0	7.1468276e-07
7	0x34820ff4	2.4225994e-07
8	0x3555e639	7.96837e-07
9	0x34883445	2.5370005e-07

exp_avg f4 [10, 10]
0	0x368796ea	4.0408822e-06
1	0x359b1d2b	1.1556889e-06
2	0xb5ee7e0f	-1.776907e-06
3	0xb73cb869	-1.124861e-05
4	0x354d8d7e	7.657435e-07
5	0xb748bd32	-1.1964979e-05
6	0x35063a70	5.000393e-07
7	0xb704ee36	-7.923276e-06
8	0x371efe85	9.476794e-06
9	0xb756f788	-1.2813027e-05
10	0xb5b9e796	-1.3850974e-06
11	0x33bb2a5b	8.7155705e-08
12	0xb69ad355	-4.61416e-06
13	0x35881b69	1.0140767e-06
14	0x34bf7545	3.5661847e-07
15	0x3644b7e3	2.9313312e-06
16	0xb603b27f	-1.962442e-06
17	0x36b0dc26	5.2708374e-06
18	0xb62991da	-2.526786e-06
19	0x368cf092	4.200331e-06
20	0x35da92ab	1.6284952e-06
21	0xb4b3aa4f	-3.3465264e-07
22	0xb4fd9086	-4.7230077e-07
23	0xb66d8415	-3.5392634e-06
24	0xb4c929bb	-3.746953e-07
25	0xb6477f82	-2.972753e-06
26	0x360b9526	2.079943e-06
27	0xb6022d51	-1.9397887e-06
28	0x362f0310	2.6078815e-06
29	0xb70484fa	-7.898774e-06
30	0x348bfd69	2.6075148e-07
31	0x370c6f57	8.370574e-06
32	0xb7bb907b	-2.2359416e-05
33	0xb737aaac	-1.0947388e-05
34	0x36c0cf0b	5.746149e-06
35	0xb73d1df6	-1.1272254e-05
36	0xb770d8ac	-1.4355563e-05
37	0x3700d45b	7.678837e-06
38	0x366fb4e8	3.5719077e-06
39	0x36a0392e	4.775028e-06
40	0x36b6edb5	5.4516954e-06
41	0xb4ca8c1d	-3.7727378e-07
42	0xb41ac2b1	-1.4413196e-07
43	0xb75432c1	-1.2648002e-05
44	0xb4837bfd	-2.4490865e-07
45	0xb761af26	-1.3451825e-05
46	0x3614c01e	2.2165545e-06
47	0xb6ffa637	-7.618942e-06
48	0x369434b3	4.4168787e-06
49	0xb7973030	-1.8023042e-05
50	0xb66d026e	-3.5317166e-06
51	0xb6ebefaf	-7.0314486e-06
52	0xb498c566	-2.8455833e-07
53	0x36c6f8c2	5.929819e-06
54	0xb67cb4e0	-3.765621e-06
55	0x378ecc7e	1.7022943e-05
56	0x373e6005	1.1347239e-05
57	0x368e3ac2	4.23877e-06
58	0x36e30ff5	6.766985e-06
59	0xb6cf72f3	-6.1824626e-06
60	0x368cd33f	4.1969174e-06
61	0xb6abfcc9	-5.125625e-06
62	0x36df1485	6.6483067e-06
63	0xb7095273	-8.185033e-06
64	0xb6366b5b	-2.7182602e-06
65	0xb6d70196	-6.407684e-06
66	0x36e7cdfe	6.908317e-06
67	0xb7009db2	-7.666111e-06
68	0x35a49220	1.226148e-06
69	0xb77efa52	-1.5197862e-05
70	0xb613eeae	-2.2043637e-06
71	0xb73097b9	-1.0525743e-05
72	0x36f38b06	7.258149e-06
73	0x358853e7	1.0157208e-06
74	0xb68c3c04	-4.179312e-06
75	0x37322586	1.0618363e-05
76	0x36f21cb7	7.215505e-06
77	0xb52f671c	-6.5342624e-07
78	0x3503472a	4.890486e-07
79	0x36dec39b	6.638887e-06
80	0x357121c4	8.982863e-07
81	0x375e9514	1.3266941e-05
82	0xb83900a0	-4.410802e-05
83	0xb7bdcbce	-2.262546e-05
84	0x3722003b	9.656006e-06
85	0xb7ad20a9	-2.0638416e-05
86	0xb7d4e41a	-2.5378587e-05
87	0x37903fbb	1.7195815e-05
88	0x36215cdd	2.4044923e-06
89	0x3695f017	4.468496e-06
90	0xb5b66583	-1.35896e-06
91	0x35d6b63e	1.5997282e-06
92	0x35e2e7ef	1.6905814e-06
93	0x36227561	2.4208205e-06
94	0x34d832af	4.0270012e-07
95	0x3670093e	3.5768167e-06
96	0x368949f8	4.0915293e-06
97	0xb6dc46a7	-6.564736e-06
98	0x379b82e2	1.8538387e-05
99	0xb60a83d4	-2.0640337e-06

exp_avg_sq f4 [10, 10]
0	0x34862d95	2.499261e-07
1	0x3340cd1f	4.489004e-08
2	0x34b62ca8	3.3932633e-07
3	0x33fce9f0	1.17772174e-07
4	0x34a72a9e	3.1137182e-07
5	0x340efc31	1.3316527e-07
6	0x33a779cd	7.798699e-08
7	0x33cb27f4	9.4601916e-08
8	0x344b843b	1.8953953e-07
9	0x34a6d066	3.107154e-07
10	0x3382b3f0	6.086327e-08
11	0x3232b270	1.0401536e-08
12	0x33b2bd6a	8.323225e-08
13	0x3314b2ab	3.4621433e-08
14	0x33e954ef	1.0865357e-07
15	0x330c4349	3.2657486e-08
16	0x329bd09e	1.8139243e-08
17	0x323a87e3	1.0857522e-08
18	0x338726c3	6.293478e-08
19	0x33b731d2	8.530664e-08
20	0x331ab7cb	3.6023078e-08
21	0x31e56e0a	6.677287e-09
22	0x334b47b3	4.732983e-08
23	0x325d5c26	1.2884845e-08
24	0x32e9e0f4	2.7227067e-08
25	0x3298ec8b	1.7802696e-08
26	0x323d73d3	1.1027583e-08
27	0x32cb82ef	2.3691852e-08
28	0x32bf9fd5	2.230801e-08
29	0x336cd173	5.5138525e-08
30	0x33eaae1d	1.0928145e-07
31	0x327ac9bd	1.4597785e-08
32	0x340fee44	1.3404593e-07
33	0x336fee1b	5.586308e-08
34	0x34461872	1.844908e-07
35	0x33674f21	5.3855846e-08
36	0x33084f4f	3.17371e-08
37	0x3271314b	1.4039254e-08
38	0x33d5e6b3	9.9605494e-08
39	0x3388d9fa	6.372643e-08
40	0x3545bb51	7.36608e-07
41	0x34167032	1.4010655e-07
42	0x35947b53	1.1062751e-06
43	0x34e98e50	4.3503178e-07
44	0x35b51f23	1.3494613e-06
45	0x34dd96b2	4.1274103e-07
46	0x345693c3	1.9984058e-07
47	0x3425a971	1.5428465e-07
48	0x35328055	6.6496915e-07
49	0x35741c67	9.0938414e-07
50	0x33014217	3.009526e-08
51	0x3198201f	4.427434e-09
52	0x337c542a	5.874987e-08
53	0x328356ee	1.5289938e-08
54	0x33957fda	6.961609e-08
55	0x32d3263f	2.4581025e-08
56	0x32296370	9.859704e-09
57	0x334edf49	4.816619e-08
58	0x339ddd4c	7.351136e-08
59	0x340ffa0c	1.340888e-07
60	0x34d0b691	3.8875854e-07
61	0x3391af3d	6.783964e-08
62	0x3515946b	5.57228e-07
63	0x345a6b36	2.0341835e-07
64	0x3524f6e7	6.145405e-07
65	0x34638aa3	2.1191458e-07
66	0x33f135bf	1.12322134e-07
67	0x33e49a57	1.06451516e-07
68	0x34b1878e	3.3067448e-07
69	0x34da1360	4.0619761e-07
70	0x33a4b684	7.6700445e-08
71	0x322e6ce3	1.0152891e-08
72	0x3397e972	7.073949e-08
73	0x32c6de0b	2.3151207e-08
74	0x33717144	5.62152e-08
75	0x32f542c1	2.855211e-08
76	0x32eea35d	2.7781136e-08
77	0x32702354	1.3977871e-08
78	0x333b894c	4.36642e-08
79	0x33108e7e	3.365721e-08
80	0x343da5ef	1.7662363e-07
81	0x32e17203	2.6245294e-08
82	0x34844063	2.4633763e-07
83	0x33eedc73	1.1122838e-07
84	0x34d5d3dc	3.982849e-07
85	0x33cfdcb9	9.679338e-08
86	0x3352e89e	4.9106e-08
87	0x32d4afa9	2.475993e-08
88	0x346ac2ce	2.1863818e-07
89	0x345f5666	2.0799925e-07
90	0x3300733f	2.9907138e-08
91	0x3184ca6c	3.8647183e-09
92	0x337b5a82	5.8522808e-08
93	0x31a85f81	4.900301e-09
94	0x3248c11f	1.1685443e-08
95	0x32cd6417	2.3910657e-08
96	0x325cf5a4	1.2861538e-08
97	0x33738e07	5.670702e-08
98	0x33431e20	4.5429374e-08
99	0x33c83760	9.3232984e-08

exp_avg f4 [10]
0	0x365e341b	3.3110907e-06
1	0xb69b600a	-4.6305404e-06
2	0xb53dd38e	-7.071584e-07
3	0xb6fbe916	-7.5075177e-06
4	0x361c130a	2.3256894e-06
5	0xb74b4ce3	-1.21176445e-05
6	0x36301cde	2.6242847e-06
7	0xb5d00b72	-1.5500539e-06
8	0xb7a539a5	-1.9696376e-05
9	0x366d6b21	3.537811e-06

exp_avg_sq f4 [10]
0	0x35421824	7.230576e-07
1	0x345ae141	2.0384779e-07
2	0x340c576f	1.3070324e-07
3	0x3413a37e	1.374992e-07
4	0x360ecf53	2.1280327e-06
5	0x34b9d8e7	3.4616752e-07
6	0x357a29a2	9.319284e-07
7	0x3347cb74	4.6518338e-08
8	0x3506a523	5.0159196e-07
9	0x3470ee4c	2.2438434e-07

exp_avg f4 [17]
0	0x3606efe3	2.0107188e-06
1	0x35b4fca4	1.3484573e-06
2	0xb897d3b9	-7.2396775e-05
3	0x355de3b6	8.266028e-07
4	0x380b8b8b	3.3270142e-05
5	0x367f0b08	3.8004382e-06
6	0x37a72fe0	1.9930245e-05
7	0xb6cfe21d	-6.195404e-06
8	0xb6757cae	-3.6580418e-06
9	0xb58b622e	-1.0384881e-06
10	0x37018a4f	7.721202e-06
11	0x350cf6ab	5.2513013e-07
12	0x364b9543	3.033624e-06
13	0x342483a2	1.5321578e-07
14	0xb5c2ee84	-1.4523544e-06
15	0xb3fe9939	-1.1855668e-07
16	0xb5990139	-1.1399744e-06

exp_avg_sq f4 [17]
0	0x339fdb7c	7.4439384e-08
1	0x32ad6d71	2.0189619e-08
2	0x34db7a7c	4.0881048e-07
3	0x318cb783	4.095399e-09
4	0x338ec47c	6.6481306e-08
5	0x3131fe77	2.5901536e-09
6	0x32af57f3	2.0412676e-08
7	0x34a066c1	2.9877086e-07
8	0x31194214	2.2301991e-09
9	0x33993541	7.1343045e-08
10	0x341f42e8	1.4832369e-07
11	0x2ed1e15a	9.54425e-11
12	0x32889ee4	1.5904739e-08
13	0x2ecb6b08	9.250384e-11
14	0x3343266a	4.5436913e-08
15	0x31312ead	2.5783422e-09
16	0x320fcb8a	8.369975e-09

exp_avg f4 [10]
0	0xb56183c9	-8.4010804e-07
1	0xb73a208e	-1.1094044e-05
2	0xb6bd45c4	-5.6407607e-06
3	0xb5f1c97a	-1.8014537e-06
4	0xb6effe28	-7.1523427e-06
5	0xb796e6f3	-1.7988938e-05
6	0xb73d9093	-1.1298939e-05
7	0xb7367ae8	-1.0876662e-05
8	0xb75390a9	-1.2610261e-05
9	0xb80fde03	-3.430062e-05

exp_avg_sq f4 [10]
0	0x33bd219c	8.807112e-08
1	0x35a92129	1.2601132e-06
2	0x355e6faf	8.2863966e-07
3	0x34b2aa9d	3.327922e-07
4	0x3533fd85	6.7051616e-07
5	0x3391589b	6.768206e-08
6	0x33948fd2	6.917948e-08
7	0x35051274	4.9573214e-07
8	0x35498d77	7.5084193e-07
9	0x365f5783	3.3280528e-06

exp_avg f4 [10, 10]
0	0xb56cdff4	-8.8242746e-07
1	0xb4d9c929	-4.0565763e-07
2	0x35158328	5.5697683e-07
3	0x35f82deb	1.8490804e-06
4	0x34706595	2.2388697e-07
5	0xb594fe2f	-1.1100836e-06
6	0x31e4a36b	6.654252e-09
7	0xb6e1ac50	-6.7255824e-06
8	0xb62414e8	-2.4450073e-06
9	0xb770b840	-1.4348014e-05
10	0xb4b06161	-3.2853407e-07
11	0x352778c8	6.238811e-07
12	0x3532291c	6.636999e-07
13	0x350973b3	5.120484e-07
14	0x3598ab5c	1.1374755e-06
15	0x359259f4	1.0904027e-06
16	0x340c91b2	1.309152e-07
17	0xb68b0801	-4.1434546e-06
18	0x358aa7fd	1.0330692e-06
19	0xb6bb6a63	-5.5854193e-06
20	0x34a957b2	3.154251e-07
21	0x348ba79f	2.6012728e-07
22	0xb47176bb	-2.2488068e-07
23	0xb516e7de	-5.6216766e-07
24	0x354d51db	7.6487567e-07
25	0x35a6bd49	1.2423053e-06
26	0x3522894f	6.0549513e-07
27	0xb53b065d	-6.967219e-07
28	0xb5b77cd3	-1.3670891e-06
29	0xb78e4fd1	-1.6964887e-05
30	0x34925f98	2.7264173e-07
31	0x360221fc	1.939129e-06
32	0x358682cd	1.0021846e-06
33	0xb5967eb0	-1.1212742e-06
34	0x36060cd7	1.997503e-06
35	0x365b755c	3.2701855e-06
36	0x319bf1c1	4.538578e-09
37	0xb64a257b	-3.0122162e-06
38	0x36df19ca	6.64892e-06
39	0x37a24e65	1.934841e-05
40	0x3592877a	1.0917277e-06
41	0xb59b6724	-1.1578418e-06
42	0xb5f6a5d0	-1.8376686e-06
43	0xb5e2ec04	-1.6907002e-06
44	0xb5c1bbde	-1.4434297e-06
45	0xb54d3779	-7.6449174e-07
46	0x356b9cd4	8.7772537e-07
47	0xb73fe4cf	-1.1437761e-05
48	0xb665d3f9	-3.4247043e-06
49	0xb79c396e	-1.8623392e-05
50	0x33b7b450	8.5544e-08
51	0xb6718d82	-3.5994167e-06
52	0xb61f0c81	-2.3700125e-06
53	0x356be79e	8.788137e-07
54	0xb686a645	-4.0128675e-06
55	0xb6c5c01c	-5.893422e-06
56	0x33b39229	8.3619234e-08
57	0x376faaa7	1.4285243e-05
58	0xb757f842	-1.2872801e-05
59	0xb80066da	-3.0613366e-05
60	0x3566f3aa	8.6036255e-07
61	0xb548395a	-7.4589263e-07
62	0xb5b7780e	-1.3669503e-06
63	0xb5b4fe7c	-1.348511e-06
64	0xb557560e	-8.021897e-07
65	0xb4383968	-1.715722e-07
66	0x355e10be	8.272581e-07
67	0xb73a28b7	-1.1095944e-05
68	0xb62c7ad2	-2.5701488e-06
69	0xb7994c52	-1.827456e-05
70	0xb63fe3ba	-2.8593772e-06
71	0x361193bd	2.1692679e-06
72	0x3671d421	3.6035274e-06
73	0x36b92a01	5.5183195e-06
74	0x36c96e90	6.003138e-06
75	0x3695480d	4.448934e-06
76	0x357f5e44	9.5132077e-07
77	0xb7dba1eb	-2.6182233e-05
78	0xb4a735b8	-3.114526e-07
79	0xb89ba3dc	-7.421497e-05
80	0x35947aa2	1.106255e-06
81	0x363d9405	2.8249353e-06
82	0x35493037	7.4948497e-07
83	0xb6462243	-2.9524242e-06
84	0x36478f4b	2.9736718e-06
85	0x36b9f841	5.54233e-06
86	0x35397c85	6.909907e-07
87	0xb75e8caa	-1.3264982e-05
88	0x3719db2e	9.170542e-06
89	0x379a5ffe	1.840293e-05
90	0xb599cdf1	-1.1459325e-06
91	0x3617d340	2.2623717e-06
92	0x3623e09d	2.4419635e-06
93	0x35e15ec4	1.6791387e-06
94	0x3684e20f	3.9602232e-06
95	0x3671dae1	3.6039203e-06
96	0x33d75667	1.0027434e-07
97	0x37097063	8.192003e-06
98	0x3607aec9	2.0218306e-06
99	0xb7450086	-1.1742237e-05

exp_avg_sq f4 [10, 10]
0	0x316101e3	3.2742882e-09
1	0x33148590	3.458041e-08
2	0x32b66114	2.1231735e-08
3	0x316da654	3.4582586e-09
4	0x3303db65	3.0700352e-08
5	0x33efd3a7	1.1167804e-07
6	0x3207f33d	7.91334e-09
7	0x3316a60c	3.5075615e-08
8	0x34add2bb	3.2377088e-07
9	0x36062283	1.9987644e-06
10	0x2fcc59f5	3.7171302e-10
11	0x310582bf	1.9428368e-09
12	0x30920a6b	1.0625859e-09
13	0x303e0525	6.912891e-10
14	0x30b82629	1.3398608e-09
15	0x31cfd4bb	6.0486776e-09
16	0x30405011	6.9962974e-10
17	0x313406dc	2.6197347e-09
18	0x3294fb62	1.7343783e-08
19	0x344fd9a0	1.9357549e-07
20	0x311f9c09	2.322624e-09
21	0x32599ada	1.2666272e-08
22	0x3240fafd	1.1232939e-08
23	0x318997e3	4.0044923e-09
24	0x329c9854	1.8230061e-08
25	0x33150160	3.4693016e-08
26	0x311eeb29	2.31257e-09
27	0x3291256c	1.689724e-08
28	0x33dee339	1.0379012e-07
29	0x3540bd9f	7.180151e-07
30	0x30909825	1.0520621e-09
31	0x3197eca7	4.4215827e-09
32	0x310d0fb9	2.0527138e-09
33	0x311cfb71	2.2843916e-09
34	0x311101f3	2.1101385e-09
35	0x3294d1ab	1.7324814e-08
36	0x31484259	2.9141545e-09
37	0x31b274a6	5.193743e-09
38	0x3348d9c4	4.6764185e-08
39	0x35655040	8.5425927e-07
40	0x317d96ca	3.690206e-09
41	0x3348ac9f	4.6723127e-08
42	0x32df58be	2.6000972e-08
43	0x31ab1581	4.9791997e-09
44	0x33175a7a	3.5239715e-08
45	0x34467cb7	1.8485558e-07
46	0x326d610b	1.3817281e-08
47	0x33363ee5	4.243238e-08
48	0x35078b19	5.049383e-07
49	0x363526e3	2.6993737e-06
50	0x2f0dfd7d	1.2913932e-10
51	0x30ab556c	1.2466166e-09
52	0x3053cc12	7.7051354e-10
53	0x2f716a0a	2.1956495e-10
54	0x310ea54b	2.0757678e-09
55	0x31a9d3a3	4.9426077e-09
56	0x302dd103	6.3234057e-10
57	0x3125c5ec	2.4123166e-09
58	0x3269563a	1.3581991e-08
59	0x3418788c	1.4199958e-07
60	0x31aa6e40	4.960185e-09
61	0x33832621	6.1070985e-08
62	0x3312b7d4	3.4160465e-08
63	0x31e56ad6	6.676923e-09
64	0x33441315	4.565216e-08
65	0x347cc1c2	2.3539818e-07
66	0x32990bc4	1.7816895e-08
67	0x3369e1a8	5.4454773e-08
68	0x352f193c	6.52293e-07
69	0x3679cd55	3.722341e-06
70	0x311c8aa0	2.2779787e-09
71	0x3130e4d4	2.5741445e-09
72	0x30d62836	1.5581978e-09
73	0x31cdb01d	5.986307e-09
74	0x309bf283	1.134666e-09
75	0x32e72c6e	2.6912144e-08
76	0x31bca626	5.490409e-09
77	0x31c11cbf	5.6203073e-09
78	0x333cb755	4.39389e-08
79	0x348c46b6	2.612848e-07
80	0x2f3c5c1f	1.7131228e-10
81	0x2fc4c696	3.5793296e-10
82	0x2f4432d6	1.7844157e-10
83	0x2febdbfb	4.2902557e-10
84	0x2f79e0c4	2.2726271e-10
85	0x30e1d243	1.6430665e-09
86	0x2fbd3b2e	3.442095e-10
87	0x30977847	1.1020881e-09
88	0x31829a8b	3.8010675e-09
89	0x33655d4e	5.3403078e-08
90	0x2fdb2128	3.9859427e-10
91	0x3216e4e8	8.783196e-09
92	0x31b9aad0	5.4036278e-09
93	0x30e74bc5	1.6828997e-09
94	0x3289dfa3	1.6050597e-08
95	0x338fc14f	6.694119e-08
96	0x31da542a	6.3542034e-09
97	0x32829ce8	1.5205345e-08
98	0x3416a3a4	1.4029371e-07
99	0x33d2cddc	9.8163326e-08

exp_avg f4 [10]
0	0x36f5f642	7.330237e-06
1	0x365680f8	3.1963555e-06
2	0xb6350cec	-2.6978623e-06
3	0xb587561f	-1.0083348e-06
4	0xb72d758a	-1.033897e-05
5	0xb654ee73	-3.1729257e-06
6	0xb70774cc	-8.073821e-06
7	0x37d5a6e4	2.5469293e-05
8	0xb700aee8	-7.670118e-06
9	0x373de536	1.1318645e-05

exp_avg_sq f4 [10]
0	0x365e8f7b	3.3164094e-06
1	0x34bc708f	3.5099626e-07
2	0x35d15f4b	1.5599447e-06
3	0x35fa153e	1.8632634e-06
4	0x36910b86	4.3226783e-06
5	0x348c78c2	2.6164895e-07
6	0x36cfc7bd	6.1923333e-06
7	0x35080ecd	5.0685486e-07
8	0x33e630cf	1.0719088e-07
9	0x34028b7d	1.2157939e-07
