models/ensembles/ensemble_25_unbootsrapped/model17/model_checkpoint-10000.pt (torch, 14893 bytes, 24 tensors)

branch.hidden_layers.0.thetas f4 [55]
00000000: d19c 91bf 34ca fbbf 439b 59bf 63ec 98bf
00000010: 1c87 8d3e deae 8dbf f666 123f 2520 7dbf
00000020: 0064 18bf 1af7 1fc0 306d a6bd 7057 473f
00000030: 0d74 1b3f 2557 87bf 22df c43e 0f70 183f
00000040: 1527 95bf b672 ebbe 6f36 913e 895a b63f
00000050: c36e edbd 7e50 e43f 5e16 9d3f f51c c53f
00000060: 0570 60bf 9973 393f 2fb0 a83d 6991 18bf
00000070: 0880 743e e456 d1bf cbc5 54bf 6a18 813d
00000080: 8dbf 9abd b6a4 293f df69 6d3f ae28 a93f
00000090: e2f8 e33f ff4b 8fbf e24b 313e 3d05 4abf
000000a0: 4e06 03c0 e2f1 b5bf 23c6 01bf a921 9ebe
000000b0: c6b1 9a3e 7920 ac3e b181 5cbe e776 b53e
000000c0: 8174 37be 96ed f13d 3a76 183f 6b69 cfbd
000000d0: 6a27 8bbe 943f 3b3f c376 cd3d
-1.1375982 -1.9671082 -0.85002536 -1.194714 0.27642143 -1.106899 0.57188356 -0.98877174
-0.5952759 -2.499457 -0.081262946 0.77867794 0.60723954 -1.0573469 0.38451487 0.5954599
-1.1652552 -0.45985955 0.28361842 1.4246379 -0.11593392 1.7837064 1.2272451 1.5399462
-0.8767093 0.72442013 0.08236729 -0.5959688 0.23876965 -1.6354642 -0.8311431 0.06303485
-0.07556067 0.66266954 0.9273967 1.321554 1.7810328 -1.1195067 0.17314103 -0.78914243
-2.0472598 -1.4214442 -0.5069296 -0.30885056 0.30213755 0.33618525 -0.21533848 0.35442278
-0.17915536 0.11812894 0.595554 -0.10127529 -0.27178508 0.7314389 0.100324176

branch.hidden_layers.0.bias f4 [10]
00000000: 9ad1 733e 61e9 a23e 1535 983e af90 5f3e
00000010: e645 e7bc 3466 803e 7731 b5be 8a03 52bd
00000020: 05f3 f33d f880 893c
0.23810425 0.3181868 0.29727998 0.21832536 -0.028231572 0.25077975 -0.353893 -0.051272906
0.11911587 0.01678513

branch.output_layer.weight f4 [10, 10]
00000000: 008c 9e3e 5504 ec3e 82f4 5c3e 1f6b 3a3f
00000010: c27a 183f 363c 1c3f a5ac 103f c97c 543f
00000020: bf7e 353f d7af ad3d 9283 81be bd75 40bf
00000030: bfa9 03bf 761f 043f 788b edbe 4a9b 3dbf
00000040: 8248 e1be 21b8 e9b9 6b7c dd3d c72d a0be
00000050: e56c 543e 00b4 2d3e 00ed f1be 0ad9 37bf
00000060: 432b af3e bb52 9fbe 4b82 1c3e c511 cebd
00000070: e440 d0be 9247 04bd d791 b83e 8fd1 293f
00000080: 9468 fc3e 233f 2c3e eacf 083f 32bc 0f3f
00000090: 7797 c43e cb38 54bd 597b 573e 1ba3 083f
000000a0: 571e 97bf 7400 693e 9e40 043f f910 d4bd
000000b0: 65d4 bdbe 4c1d 433f 0e8c 20bf 757b cbbe
000000c0: 0bb9 19bf 90d3 40bf b132 2fbe cdf5 3c3f
000000d0: 0ae1 0c3f d6ef cabd ec2e 013f 6cea 133f
000000e0: ee4f 763e cb91 283e 1c1f 40bd d484 4ebd
000000f0: 29aa 65be 4abd 1dbf 15fc f0be d599 03be
00000100: a283 a4be f312 0ebf e9b1 0abf 8d4c c6bd
00000110: 0a5b babe abf0 04bf 3c41 083d 6b5e 7f3e
00000120: 37a0 12be 9972 8dbf 7acb fe3c 4145 04bf
00000130: 99ca 30be 34a1 7cbe 077f 4bbe 2c61 fbbd
00000140: 7f61 813e 3cf6 893e a5b9 dc3e db90 e33e
00000150: caaa e13e 8fcc b43d 96eb 413e 94ea be3e
00000160: 5bec 943e cd5f b23d d2db 73bd b871 06bf
00000170: fc4a 49be 5dbb 32bf c0c8 133d 8735 0fbf
00000180: 74ff 823d bec3 8cbe b8b5 8ebe 193a c13d
0.30966187 0.46097055 0.21577647 0.72819704 0.59562314 0.61029375 0.56513435 0.8300291
0.70896524 0.084808044 -0.25295693 -0.75179654 -0.51430887 0.51610506 -0.4639547 -0.7406508
-0.44000632 -0.0004457841 0.108147465 -0.31284925 0.20744665 0.16963196 -0.4725113 -0.7181555
0.34212694 -0.31117806 0.15284078 -0.10061983 -0.40674508 -0.032294817 0.36048767 0.66335386
0.49298537 0.1682096 0.5344225 0.5614654 0.38396809 -0.051811974 0.21043147 0.5337388
-1.1806134 0.22754079 0.516611 -0.103548 -0.37076107 0.7621658 -0.62713706 -0.39742628
-0.6004798 -0.7532282 -0.17109181 0.7381256 0.5503088 -0.09909026 0.5046222 0.57779574
0.24053928 0.16461866 -0.04690467 -0.050419644 -0.22428192 -0.6161696 -0.47067323 -0.12851651
-0.32131678 -0.55497664 -0.5417772 -0.0968257 -0.36397582 -0.5192973 0.033265337 0.24938361
-0.1431893 -1.1050597 0.031102885 -0.51668173 -0.17264785 -0.24670869 -0.19872676 -0.122743934
0.25269696 0.26945674 0.43110386 0.44446453 0.44075614 0.08828079 0.18937525 0.37288344
0.29086575 0.08709679 -0.05953581 -0.5251727 -0.1965751 -0.69817144 0.036080122 -0.5594105
0.0639638 -0.2749309 -0.27873015 0.094349094

branch.output_layer.bias f4 [10]
00000000: f92b ddbe 7927 683e fd4a 233e 1799 9dbe
00000010: 8166 153d 2d01 9abe 7bda a73e 1178 eb3e
00000020: 2f41 4ebe 8178 0abc
-0.4319761 0.22671308 0.15946575 -0.3078086 0.03647471 -0.30079022 0.32783875 0.4599004
-0.20142053 -0.008451582

trunk.hidden_layers.0.thetas f4 [17]
00000000: d3c4 c83f f135 86bf 3856 6b3c d7a6 c5bf
00000010: aa77 333e db77 953f c2be a43f 526f 80bf
00000020: a083 663f ab9e eabf d824 9d3e 1380 a4bf
00000030: ac7c 793f 3bf1 3c3d a376 9d3f ca4a 57bf
00000040: 3758 7fbd
1.5685066 -1.0485212 0.014363818 -1.544154 0.17526117 1.1677202 1.2870715 -1.0033972
0.90044594 -1.8329672 0.30692172 -1.2851585 0.9745586 0.046128493 1.230183 -0.84098494
-0.062339988

trunk.hidden_layers.0.bias f4 [10]
00000000: fc1e 1f3f 042a 1c3f 5657 f23e 195d 80be
00000010: 3656 7e3e 7d78 df3e 8147 ca3e 02c4 003f
00000020: 8d53 923e b3d6 d53e
0.62156653 0.6100161 0.47332257 -0.25071028 0.24837574 0.43646613 0.39507678 0.50299084
0.2857937 0.41765365

trunk.output_layer.weight f4 [10, 10]
00000000: baef a93f 1dd4 913f ec95 553f 21e3 53bf
00000010: a4f5 eb3e 69c8 14bf e107 413f 03dc 0abf
00000020: 8aa0 11be e3f4 83be ec29 3b3f 14e0 84c0
00000030: 8627 bdbe 3bdb af3f 8349 59bf 5e6a 823f
00000040: 6712 f5be 92af 963f 4583 e6bd ef18 f03f
00000050: c22f 2c3e 4423 d0bf 69a2 b03d ff3d c43e
00000060: 584b 6fbf de9c e03f 5860 e8be d5b7 213f
00000070: a46d 05be 2737 16bf 5434 0a3f ef77 323f
00000080: b876 3a3f 95c0 c7be 9577 453e d9ee c0be
00000090: 9394 233f 7644 50be 796f fc3e 44ae 193f
000000a0: 7bca 1e3f d9ea b2bf d0cb 34bf da4d a0bf
000000b0: 4983 b4be 7841 8cbf 2909 c3be 4567 913e
000000c0: 1e12 123f 0284 e03f 51c3 be3d d585 4c3f
000000d0: a72e 143f 1ba8 fabe f5a7 f83d ec42 02bf
000000e0: 3a18 c23e 5802 283e 261e 583e cce9 363f
000000f0: 19f4 a33d 7645 bcbf 8402 fabe b028 fd3e
00000100: 3afd 41bf 7052 673e 76db f7be f318 e33e
00000110: 751c d1bd 6df3 b43e b6d7 c83e 8e9b fcbf
00000120: ef77 fdbe d9ff 3b3e 69dc a0bf e42b fb3f
00000130: 213d 11bf 8ecf 823f 7d72 063e e626 1abf
00000140: fc4e 973f 50d5 223f c896 6f3f d585 58bf
00000150: 4b59 443f 85e8 01bf c03d 3d3f 845c 92be
00000160: 23ad 293e b93e 8dbd 07cd c3be 7432 8cbf
00000170: 5417 9cbe e707 5b3e b5d3 f7be e9d6 a33f
00000180: d17f b7be dd41 d73e 4d5b 5c3e 992b 00be
1.3276284 1.1392857 0.8343189 -0.82768446 0.46085846 -0.581183 0.7540265 -0.5424196
-0.14221397 -0.2577277 0.7311084 -4.1523533 -0.36944216 1.3738779 -0.84877795 1.0188711
-0.47865602 1.177233 -0.112555064 1.8757609 0.16815093 -1.6260762 0.08624727 0.3832855
-0.9347434 1.7547872 -0.45386004 0.6317113 -0.13030106 -0.58677906 0.53986096 0.69714254
0.728374 -0.39014116 0.19283898 -0.37682226 0.6389858 -0.20338616 0.49303797 0.60031533
0.6202771 -1.397792 -0.70623493 -1.2523758 -0.35256413 -1.095748 -0.38092926 0.283991
0.57058895 1.7540286 0.093145974 0.7989171 0.57883686 -0.4895638 0.1214141 -0.50883365
0.37909108 0.16407144 0.2110525 0.71450496 0.08005542 -1.4708698 -0.48830044 0.49445105
-0.7577702 0.22590041 -0.48409623 0.44354972 -0.10210506 0.3534197 0.39227074 -1.9734972
-0.49505565 0.18359317 -1.2567264 1.9622769 -0.567339 1.0219591 0.13129611 -0.60215604
1.1820979 0.6360674 0.9358945 -0.8457921 0.7669875 -0.5074542 0.7392235 -0.2858621
0.16569953 -0.06896729 -0.3824236 -1.0952897 -0.30486548 0.21389733 -0.48403707 1.279996
-0.35839704 0.42042437 0.21519203 -0.12516631

trunk.output_layer.bias f4 [10]
00000000: 8b03 b73e 1f15 2cbb 0550 7fbe 3efa ea3e
00000010: bd6d fe3d a654 cb3e d544 d0be 85b9 e0bd
00000020: 3e65 193f e6fd 44be
0.3574489 -0.0026257706 -0.24932869 0.45894045 0.12423275 0.3971302 -0.40677515 -0.10972885
0.5992011 -0.1923748

exp_avg f4 [55]
00000000: f1f7 6d36 3f61 16b6 cc2e 9835 ec7a 57b6
00000010: 1cf1 a8b4 bf7e 4836 18e5 ba35 28cc 23b6
00000020: eb45 f034 2462 4b35 7b64 1e36 ab95 f9b4
00000030: 9655 56b5 07a7 8c35 029a 77b5 da4f 8f34
00000040: bb86 bfb5 e9dc 1136 4873 ff33 1f85 0833
00000050: c808 a834 8ce6 9c35 f1c8 f0b5 f425 3bb5
00000060: f989 e734 7a0b e9b4 2e6b a1b4 ba7f 5534
00000070: 1952 7ab5 b353 76b6 9946 54b4 cf8e 30b4
00000080: 3212 9eb5 1f35 acb5 adeb 01b7 e219 36b5
00000090: 92d4 a0b4 b0f1 9934 dba0 d1b6 4857 81b4
000000a0: f2ee 9935 38c1 ac34 9abf 7a34 b0ab 39b5
000000b0: 18f7 ba34 19af 7335 2e00 ecb3 090c b835
000000c0: d891 68b4 578c 31b5 bf70 7ab5 aa26 e1b3
000000d0: 4de3 e735 84a2 bbb5 dcbb 11b4
3.5460073e-06 -2.2408346e-06 1.1338502e-06 -3.2109047e-06 -3.146787e-07 2.9876098e-06 1.3924755e-06 -2.4407727e-06
4.4754356e-07 7.5766206e-07 2.3602322e-06 -4.6488762e-07 -7.9845756e-07 1.0479424e-06 -9.223878e-07 2.6693925e-07
-1.4269821e-06 2.173527e-06 1.18953324e-07 3.178604e-08 3.1298828e-07 1.1690004e-06 -1.7939875e-06 -6.971816e-07
4.312749e-07 -4.3407982e-07 -3.006657e-07 1.9883637e-07 -9.3251725e-07 -3.6705576e-06 -1.9769722e-07 -1.6443231e-07
-1.1777213e-06 -1.2830459e-06 -7.743872e-06 -6.783795e-07 -2.9956988e-07 2.8674322e-07 -6.2474114e-06 -2.4091628e-07
1.146893e-06 3.2178082e-07 2.3352769e-07 -6.916771e-07 3.4824984e-07 9.0779355e-07 -1.0989639e-07 1.3712571e-06
-2.1659741e-07 -6.614186e-07 -9.3296325e-07 -1.0484412e-07 1.7276994e-06 -1.3979884e-06 -1.357252e-07

exp_avg_sq f4 [55]
00000000: 0c4a 2a31 c039 1932 fcd5 bc32 5cbe 5131
00000010: f081 2532 f02f 2f32 b6ad 9f31 7c61 7832
00000020: 4f19 3d32 43d2 9d30 4427 d631 7645 0431
00000030: ab93 fe30 777f dd32 4703 8631 0eb0 8231
00000040: 577c fb32 c606 5f32 ac64 c730 b333 6330
00000050: 72db 9633 9119 bd32 1c03 2831 7c8a b730
00000060: f450 b12f 735f 9332 55cc 9d30 2d31 3731
00000070: 1899 e131 378a 2934 473d b733 bfec 2430
00000080: 9b93 2731 9832 1131 cd9c 6036 7b21 7e31
00000090: a321 ca30 6057 4231 0109 9436 1297 0c31
000000a0: 8466 1931 5527 ce31 a052 d133 a834 1333
000000b0: fa00 2631 122d 0334 735f 3732 3c2f 0b32
000000c0: 471f b030 df5e aa32 f0d0 9631 dd8a 1a32
000000d0: 44a4 8131 36cd 2833 6f7e 202e
2.4780347e-09 8.918903e-09 2.198339e-08 3.052171e-09 9.633808e-09 1.019724e-08 4.6472577e-09 1.4457665e-08
1.1007002e-08 1.1483013e-09 6.2326837e-09 1.9248012e-09 1.8522902e-09 2.578575e-08 3.900286e-09 3.803513e-09
2.9276789e-08 1.29818485e-08 1.4507768e-09 8.265559e-10 7.024836e-08 2.2014122e-08 2.4448985e-09 1.3354362e-09
3.2253633e-10 1.7156458e-08 1.1481328e-09 2.6657958e-09 6.5657666e-09 1.5789634e-07 8.532748e-08 5.999929e-10
2.4385602e-09 2.1129036e-09 3.3469871e-06 3.6980896e-09 1.4706995e-09 2.8280382e-09 4.411792e-06 2.0458555e-09
2.2322704e-09 5.9998606e-09 9.74735e-08 3.4273995e-08 2.4156734e-09 1.2216722e-07 1.0673705e-08 8.101605e-09
1.2814575e-09 1.9833747e-08 4.389328e-09 8.995554e-09 3.773069e-09 3.9302186e-08 3.6492084e-11

exp_avg f4 [10]
00000000: 6141 dd34 f94c 09b6 769f 9a35 6954 9bb7
00000010: 6caf 6d36 fc4c 1bb6 d1de 9e35 b309 e0b5
00000020: 7637 e035 7b4e a935
4.1212027e-07 -2.0459395e-06 1.1520303e-06 -1.8516746e-05 3.541786e-06 -2.314161e-06 1.1836765e-06 -1.6692123e-06
1.6705442e-06 1.2614322e-06

exp_avg_sq f4 [10]
00000000: b904 1e32 6741 a937 e66d 8e37 1c9b 1037
00000010: 526d c236 3b73 b937 ef63 9f35 a9a5 6d34
00000020: 3971 c436 c97f c933
9.197884e-09 2.0176825e-05 1.6978895e-05 8.619183e-06 5.794377e-06 2.2107377e-05 1.1875508e-06 2.2132612e-07
5.854436e-06 9.383036e-08

exp_avg f4 [10, 10]
00000000: db91 0a36 30eb 9736 64f3 b8b3 230b f5b6
00000010: 5220 0635 0877 8a35 f774 9135 51ed 5fb5
00000020: 348e d7b5 0452 ac35 5829 06b5 676b 2137
00000030: ca34 dc34 b8cc 2ab7 c667 9635 4527 9736
00000040: 9e4a 1436 ede0 17b6 c471 0db6 137c b1b4
00000050: 41e7 0436 3b50 f4b5 78cd 2fb6 7cd2 5b36
00000060: 0a93 1735 701f 81b4 4ede a2b5 1f1e 4c36
00000070: 62f1 17b5 ea72 d3b3 d520 8635 bb83 abb5
00000080: bd4b 87b5 3627 b136 7a42 28b5 ee32 fbb5
00000090: d3e7 86b5 c822 cc35 3272 be34 bc12 b0b5
000000a0: 076c b035 5fee 3db6 1929 9fb5 31ac 9f36
000000b0: 8887 03b6 7d7f 5db6 2c4e 61b5 7c5b adb4
000000c0: feb8 2336 72a7 e8b5 8366 6c33 4a83 cbb5
000000d0: f468 7ab4 f8d8 c236 b955 2eb5 b4d7 e9b5
000000e0: 5984 7bb5 1004 9935 f787 0635 9257 b9b5
000000f0: a1fe 94b5 40d1 a135 9f44 a535 65c5 a8b5
00000100: dedc 9f33 8205 7835 9a93 9a34 dfd6 2db5
00000110: 09d3 aab5 8fdc 57b3 7406 1c36 c2f8 15b6
00000120: 8443 4cb6 b34d ab36 5419 1d35 e72a 53b4
00000130: 746b f8b5 6c4f 8c36 4186 ebb5 d883 0db5
00000140: bab7 5c36 e742 f635 b1cd 0fb6 0679 1fb6
00000150: 83f4 0234 ee31 28b5 61c3 1833 c443 8735
00000160: 51b5 f6b4 1993 cd34 30f6 9334 ccb4 3cb4
00000170: fd95 16b5 bcc2 7035 f803 8634 74c8 b834
00000180: 29d4 d5b4 c0b4 8a35 8276 83b5 3e08 2db4
2.0648502e-06 4.52753e-06 -8.61244e-08 -7.3028655e-06 4.996592e-07 1.0316444e-06 1.0837383e-06 -8.3419314e-07
-1.6060135e-06 1.2838868e-06 -4.9979053e-07 9.621354e-06 4.1016602e-07 -1.0180454e-05 1.1206073e-06 4.5047223e-06
2.2097151e-06 -2.2631677e-06 -2.1076858e-06 -3.3059095e-07 1.980414e-06 -1.8202767e-06 -2.619663e-06 3.275606e-06
5.6465854e-07 -2.4050996e-07 -1.213464e-06 3.0415902e-06 -5.660314e-07 -9.846356e-08 9.993333e-07 -1.2778831e-06
-1.0080327e-06 5.279576e-06 -6.2681613e-07 -1.871578e-06 -1.0051248e-06 1.5209307e-06 3.5473346e-07 -1.3118474e-06
1.3144462e-06 -2.8301945e-06 -1.1858384e-06 4.758615e-06 -1.959941e-06 -3.3005774e-06 -8.3932787e-07 -3.2290325e-07
2.4396572e-06 -1.733408e-06 5.5041266e-08 -1.5162889e-06 -2.3321246e-07 5.806909e-06 -6.4944794e-07 -1.7422631e-06
-9.369738e-07 1.1400571e-06 5.0116745e-07 -1.380906e-06 -1.1100966e-06 1.2056335e-06 1.2313429e-06 -1.2574425e-06
7.44419e-08 9.2395214e-07 2.879213e-07 -6.47602e-07 -1.2727406e-06 -5.0259185e-08 2.3249568e-06 -2.2347526e-06
-3.0437668e-06 5.1052425e-06 5.8523915e-07 -1.9666514e-07 -1.8508713e-06 4.181571e-06 -1.7547937e-06 -5.271845e-07
3.2889498e-06 1.8347899e-06 -2.1428389e-06 -2.3763291e-06 1.2196146e-07 -6.2657534e-07 3.5567954e-08 1.0078006e-06
-4.5952996e-07 3.8291253e-07 2.756001e-07 -1.7574638e-07 -5.6097616e-07 8.9690343e-07 2.4962333e-07 3.441852e-07
-3.9828709e-07 1.0334406e-06 -9.794751e-07 -1.6114879e-07

exp_avg_sq f4 [10, 10]
00000000: 334b 5234 47b2 7134 f7bb 3434 884f b133
00000010: d791 0e32 4438 6734 8b41 b933 0fc3 e834
00000020: 63b3 d835 25eb ae31 48e6 be32 91a7 e732
00000030: fc46 ac32 3cde 3932 6bfb 5430 cca1 e132
00000040: 035a 2b32 0e7a 5a33 94d0 5234 eabc 1530
00000050: 7909 cd31 9928 e031 cdde ae31 21e5 4131
00000060: 1b91 a62f e896 d231 3dbc 2831 bfdb 5032
00000070: cc32 4533 fbc1 bc2f f778 ac34 261e c834
00000080: d8ec 9534 f2a8 1434 88d1 6b32 e13f c034
00000090: 3861 1834 fe6d 4035 dd79 3336 b940 0e32
000000a0: 23fa ce33 f9b3 f033 449f b333 2acc 3233
000000b0: 37a5 8131 86fc e733 4cd0 3733 1bb7 6734
000000c0: 2ac3 5935 606b 1e31 a6fe 8b34 277f a234
000000d0: 9fb6 7234 8b9c ef33 1a78 3f32 7361 9c34
000000e0: b4be f733 01be 1c35 05f7 1136 44b6 d631
000000f0: d703 cd31 f80c ea31 0fe0 b231 6488 3b31
00000100: 124d 992f ba2d de31 3bb1 2f31 e4df 5b32
00000110: 6782 4e33 389c 8f2f 81f4 9431 aeb9 a531
00000120: 3680 8031 16f5 0b31 0951 762f 6f2b 9a31
00000130: 0a17 fa30 0424 1a32 caf4 0f33 7584 812f
00000140: 1699 9f34 6911 b834 75d7 8934 1f3d 0834
00000150: 46a7 5632 d266 b034 87ae 0c34 43fb 3035
00000160: 9133 2536 81e6 0632 3b68 bd31 921d d731
00000170: 9481 a331 40b2 2531 7cd1 8a2f e623 cc31
00000180: 69af 2331 6071 4c32 2ac7 3e33 fe09 622f
1.9585131e-07 2.2509731e-07 1.6832188e-07 8.2566714e-08 8.298648e-09 2.1534021e-07 8.626656e-08 4.335529e-07
1.6145462e-06 5.0907993e-09 2.2223631e-08 2.696814e-08 2.0055715e-08 1.08189475e-08 7.7482437e-10 2.6267024e-08
9.973976e-09 5.086809e-08 1.9633654e-07 5.447435e-10 5.967362e-09 6.5238734e-09 5.089396e-09 2.821544e-09
3.0298328e-10 6.1289605e-09 2.4554219e-09 1.2157158e-08 4.5913836e-08 3.4334832e-10 3.212551e-07 3.727484e-07
2.792574e-07 1.3845036e-07 1.3726442e-08 3.5809265e-07 1.4191471e-07 7.1685633e-07 2.6744012e-06 8.280204e-09
9.638122e-08 1.1208608e-07 8.364307e-08 4.162954e-08 3.773177e-09 1.08027095e-07 4.2797453e-08 2.1580165e-07
8.11228e-07 2.3053062e-09 2.607605e-07 3.0267367e-07 2.2604443e-07 1.115778e-07 1.1144971e-08 2.9128168e-07
1.15365225e-07 5.839102e-07 2.1750468e-06 6.248941e-09 5.966722e-09 6.8117707e-09 5.2059543e-09 2.728961e-09
2.78853e-10 6.466249e-09 2.5566596e-09 1.2798385e-08 4.8081713e-08 2.6122549e-10 4.335164e-09 4.8232414e-09
3.739866e-09 2.0366477e-09 2.2402359e-10 4.4869277e-09 1.8196442e-09 8.972169e-09 3.3517416e-08 2.355908e-10
2.9727443e-07 3.4285338e-07 2.5675004e-07 1.2688223e-07 1.2494473e-08 3.2857366e-07 1.3102009e-07 6.5930743e-07
2.4616932e-06 7.852237e-09 5.5124736e-09 6.2606853e-09 4.7586557e-09 2.4111984e-09 2.52509e-10 5.9412626e-09
2.381933e-09 1.1900141e-08 4.441896e-08 2.055813e-10

exp_avg f4 [10]
00000000: 56e1 3b36 6832 b735 ba10 0436 33e5 cf36
00000010: 09e1 5036 ef40 b636 48fb 47b5 c06c 7336
00000020: 165b a336 2a1c 0135
2.7996334e-06 1.3649233e-06 1.967927e-06 6.195763e-06 3.1125403e-06 5.431582e-06 -7.449894e-07 3.6273123e-06
4.8683823e-06 4.809723e-07

exp_avg_sq f4 [10]
00000000: 2fc6 f136 870f 6435 4a8c 5834 cebf 4737
00000010: ca1a 7136 c89f 2237 a42e 6434 1f8e 1f34
00000020: 84e0 3737 7f38 5434
7.2054313e-06 8.4959214e-07 2.0167604e-07 1.1905982e-05 3.5927392e-06 9.693154e-06 2.1251122e-07 1.4859732e-07
1.0959924e-05 1.9764592e-07

exp_avg f4 [17]
00000000: 4230 ae33 bee9 3b35 c700 3534 a77a a934
00000010: 19c8 30b4 ea65 2fb3 c6f8 1db4 a3bb 4834
00000020: 9297 6eb4 62f5 1534 f8a1 14b4 53b3 a333
00000030: 19b0 55b4 0df2 a434 3b49 d532 58ca 4f34
00000040: cd6c e234
8.1112844e-08 7.000307e-07 1.6857221e-07 3.1567944e-07 -1.6464072e-07 -4.0838053e-08 -1.4712268e-07 1.8694713e-07
-2.2220618e-07 1.3965976e-07 -1.3842498e-07 7.622898e-08 -1.9901235e-07 3.0723496e-07 2.4829765e-08 1.935199e-07
4.2174943e-07

exp_avg_sq f4 [17]
00000000: 5574 322e 09fb 7930 40c8 0831 0b07 2730
00000010: f720 7d30 c9fc 6b2f 809b 3431 721c 8a2f
00000020: 8175 b22e e98c fe2e 9be8 772f 4c32 db2d
00000030: f1db ac2e 3a40 e32f 212f 182e 8e4a 902f
00000040: acfc 6630
4.0575838e-11 9.0942415e-10 1.9904434e-09 6.0764255e-10 9.208771e-10 2.1462933e-10 2.628184e-09 2.5122265e-10
8.115376e-11 1.15756134e-10 2.2547157e-10 2.4919754e-11 7.860724e-11 4.1336695e-10 3.4602658e-11 2.6246422e-10
8.403258e-10

exp_avg f4 [10]
00000000: a2fb a4b5 1e2e 76b6 af90 52b6 2d02 b735
00000010: 9c2f 9cb4 98bd 28b6 bf5f 06b6 e046 9bb5
00000020: eac6 fdb5 4b20 92b6
-1.2292187e-06 -3.66837e-06 -3.1376655e-06 1.3635196e-06 -2.9091905e-07 -2.514431e-06 -2.0023288e-06 -1.1569027e-06
-1.890786e-06 -4.3548985e-06

exp_avg_sq f4 [10]
00000000: 79c5 bc32 c0b6 e532 8011 4932 f694 0831
00000010: f428 4631 e06a 0a31 1a0b aa32 d004 9331
00000020: 77d4 2a31 287e b631
2.197588e-08 2.6742214e-08 1.1703719e-08 1.987528e-09 2.8836071e-09 2.0142394e-09 1.9795653e-08 4.27881e-09
2.4859028e-09 5.3112394e-09

exp_avg f4 [10, 10]
00000000: 0a03 5733 800c 0eb6 b8aa 5834 58c6 d5b1
00000010: b9f5 abb4 0059 6035 8858 4b32 59e1 e134
00000020: a97b 3534 68f1 6836 d0b7 d334 0df5 0b36
00000030: a599 9534 d601 e5b3 95fd 7b34 97de 0635
00000040: 4266 8034 e4c9 aa34 56cb 7834 152b dcb6
00000050: 68e6 89b3 5db9 2035 ed19 f9b3 e7cc 7232
00000060: 2a31 d333 16e4 fdb4 d926 09b3 3773 6bb4
00000070: 97e3 d1b3 f387 29b4 490b 9cb5 2809 1936
00000080: 8697 95b5 c188 a234 1e95 2234 dced 0fb6
00000090: 0f48 2eb5 9439 cfb5 1533 3eb5 fbb7 ebb6
000000a0: 9e46 0734 2351 d035 e09d 2a34 3e3d fdb2
000000b0: 6f39 3b33 ed6d 8235 4424 9433 4bc2 a834
000000c0: 21b6 0534 0486 acb5 47ce bbb5 d4f8 3a36
000000d0: 7426 afb5 23b3 c434 c54e 1334 de44 19b6
000000e0: 47d4 52b5 3a54 ecb5 682a 5db5 481f 02b7
000000f0: ac4c 9834 e8ad 7234 0d78 8a34 6772 9fb3
00000100: 4c20 fb32 a4e8 1d35 e085 2f34 bd78 bf34
00000110: c365 4c34 4c06 bfb5 0090 43b5 4fc5 9235
00000120: d824 43b5 561f 4a34 4554 ce33 aa41 e3b5
00000130: 6442 ddb4 f8f8 8cb5 c583 0fb5 9a8e a635
00000140: 53fa f1b3 2aa9 81b5 490a b3b2 ddc5 0e33
00000150: 9635 36b4 0224 4d34 c9bc 9eb3 5a5e 5733
00000160: 4299 b5b1 5c80 2536 952b 65b4 fcc8 fe34
00000170: c53e 83b4 7fff 6533 40e4 a233 e779 40b5
00000180: 67ea fcb3 e21b d0b4 60ab 46b4 0323 8033
5.0061352e-08 -2.1166925e-06 2.0178675e-07 -6.221665e-09 -3.203002e-07 8.3576015e-07 1.1836285e-08 4.2073478e-07
1.6901926e-07 3.471121e-06 3.9435554e-07 2.0855252e-06 2.7865204e-07 -1.06639774e-07 2.3468449e-07 5.02428e-07
2.391626e-07 3.1811862e-07 2.3170773e-07 -6.5615263e-06 -6.42147e-08 5.9874384e-07 -1.1599682e-07 1.4132843e-08
9.834396e-08 -4.7290877e-07 -3.193313e-08 -2.1927995e-07 -9.773719e-08 -1.578881e-07 -1.162619e-06 2.2804106e-06
-1.1145464e-06 3.0274353e-07 1.5141674e-07 -2.1447113e-06 -6.492491e-07 -1.5439459e-06 -7.085485e-07 -7.024964e-06
1.2598545e-07 1.5520822e-06 1.5889918e-07 -2.9480926e-08 4.3591566e-08 9.717747e-07 6.898384e-08 3.1433805e-07
1.2452848e-07 -1.2854002e-06 -1.399262e-06 2.7860997e-06 -1.3049707e-06 3.6638184e-07 1.3719098e-07 -2.2838863e-06
-7.854e-07 -1.7607883e-06 -8.2390625e-07 -7.755887e-06 2.8367992e-07 2.2601273e-07 2.5791851e-07 -7.424824e-08
2.9234933e-08 5.8825594e-07 1.6346848e-07 3.566437e-07 1.9036001e-07 -1.4232442e-06 -7.285271e-07 1.0935272e-06
-7.2696776e-07 1.8824116e-07 9.607951e-08 -1.6931929e-06 -4.1212763e-07 -1.0503272e-06 -5.34634e-07 1.2409466e-06
-1.1267971e-07 -9.660482e-07 -2.084302e-08 3.3241907e-08 -1.6969565e-07 1.9105212e-07 -7.391788e-08 5.01444e-08
-5.2852167e-09 2.466163e-06 -2.1343142e-07 4.7457422e-07 -2.4446322e-07 5.355059e-08 7.585231e-08 -7.1702965e-07
-1.1777302e-07 -3.8763307e-07 -1.8502533e-07 5.966833e-08

exp_avg_sq f4 [10, 10]
00000000: c148 c030 954d 3b31 71a7 6e30 7224 292f
00000010: 671e c52f 855f cb2f 438b 7e31 c1e0 9d30
00000020: d90b 6630 c94b 1d32 128a ea2e 8a83 7d2e
00000030: 693b 6a2e e54a f12c c627 2c2d dd5d 732e
00000040: ca06 5f2e a2ca a52e a477 dd2d 804c 6c30
00000050: 7545 a02e 14e7 ac2e fcb7 602e 44a5 bc2c
00000060: 00ec 7a2c 200e 482f 10de 822e c4ca f62e
00000070: 7b2f 732e c9d5 e12f 4ca1 1332 79cf 5f32
00000080: 4fe5 9131 8090 2b30 5b09 cc30 d328 0f31
00000090: e8ef ec31 2d85 a731 d39a 1e31 4781 5733
000000a0: 5135 0c2f 9c1f 552f b137 872e bcdc 1b2d
000000b0: dea0 b72d 26a1 0c2e 5703 852e 5705 9b2e
000000c0: a6e8 ef2d a2b9 6c30 c9d6 5932 74bd ad32
000000d0: dce5 cd31 edf8 6030 5fd1 1231 c6ab 3731
000000e0: 253a b031 ed17 d331 79ca fa30 f797 9933
000000f0: 895d 762e 9eb8 db2c ef5e 182e 0702 072d
00000100: 53c2 e72c 226e 672e c0aa 842f ae2b e92e
00000110: e086 5a2f 7767 3f30 7d9e 9c2f c8fd 1f2f
00000120: bc3d 4c2f a2b2 ad2d e15d bc2c 3523 2630
00000130: 4638 242f 37ff d62f cb9a 202f b3fe df30
00000140: 8938 4c30 25f7 9530 b542 e42f 39b1 8e2e
00000150: 9cf9 232f c1c2 5c2f 26dc 9a30 00e7 0830
00000160: 3a1d 972f 7ed1 9931 5a7a 1231 4e20 9b2f
00000170: 2551 9c30 3a1b 132f f411 f82e cd8d f130
00000180: d93c 4f30 c59d f330 853d 0230 747b 5f32
1.3990517e-09 2.7256182e-09 8.6821844e-10 1.5383408e-10 3.5855693e-10 3.6993356e-10 3.7041026e-09 1.1487132e-09
8.369035e-10 9.155834e-09 1.0665614e-10 5.764237e-11 5.3258207e-11 6.857947e-12 9.7858995e-12 5.533517e-11
5.071036e-11 7.539326e-11 2.5177922e-11 8.5965013e-10 7.288296e-11 7.862702e-11 5.1095114e-11 5.3616295e-12
3.5658143e-12 1.8194912e-10 5.951162e-11 1.1222803e-10 5.5293974e-11 4.1079165e-10 8.593201e-09 1.3027482e-08
4.246125e-09 6.2414784e-10 1.4845613e-09 2.0832445e-09 6.895778e-09 4.87548e-09 2.3080033e-09 5.0176165e-08
1.2751868e-10 1.9383467e-10 6.148982e-11 8.859743e-12 2.087613e-11 3.1975443e-11 6.048733e-11 7.0495325e-11
2.7274471e-11 8.61201e-10 1.2679899e-08 2.0226004e-08 5.9924172e-09 8.184447e-10 2.136481e-09 2.6727647e-09
5.1288844e-09 6.1436283e-09 1.824744e-09 7.15226e-08 5.6017e-11 6.244851e-12 3.4645117e-11 7.674312e-12
6.586989e-12 5.2621137e-11 2.4131985e-10 1.0603372e-10 1.9874902e-10 6.963243e-10 2.8488847e-10 1.4551127e-10
1.8575624e-10 1.9747152e-11 5.353704e-12 6.044048e-10 1.4935705e-10 3.9107714e-10 1.4606909e-10 1.6297775e-09
7.429511e-10 1.091142e-09 4.1520357e-10 6.4888935e-11 1.4913443e-10 2.0078074e-10 1.1267545e-09 4.980478e-10
2.7487507e-10 4.4767026e-09 2.1315345e-09 2.821729e-10 1.1373557e-09 1.3379245e-10 1.12809234e-10 1.757536e-09
7.539263e-10 1.7725418e-09 4.738115e-10 1.3008378e-08

exp_avg f4 [10]
00000000: 252b 9134 8df6 8035 cb41 6ab4 1454 51b6
00000010: 1059 c034 5ef4 79b6 94dc 4735 6e69 04b6
00000020: 2fc8 70b4 dd36 22b5
2.7039746e-07 9.608499e-07 -2.1816884e-07 -3.1192367e-06 3.5827588e-07 -3.7246132e-06 7.445426e-07 -1.97309e-06
-2.2424568e-07 -6.042954e-07

exp_avg_sq f4 [10]
00000000: d8d6 9232 3fa4 5a30 aeed 7b30 5a54 9333
00000010: 9aaa 7830 4492 b233 d77f 2531 3584 3831
00000020: 0575 eb31 298e 8032
1.7094337e-08 7.9541346e-10 9.165103e-10 6.8605644e-08 9.0464314e-10 8.3153765e-08 2.4083329e-09 2.6850675e-09
6.8527037e-09 1.4965808e-08
