models/calib_test/model_checkpoint-15000.pt (torch, 14125 bytes, 24 tensors)

branch.hidden_layers.0.thetas f4 [55]
0	0xbfef57c1	-1.8698655
1	0xbdc7daff	-0.09758567
2	0x3f8dbb0b	1.1072706
3	0x3f7f84b6	0.99811876
4	0x3fdd678e	1.7297227
5	0xbf50df88	-0.8159108
6	0xbfaebe3a	-1.3651803
7	0xbfdc7872	-1.7224257
8	0xbe1f865e	-0.15578601
9	0xbfba2cd0	-1.4544926
10	0x3f711225	0.9416831
11	0x3e9592c9	0.2921355
12	0x3eb58a9b	0.3545731
13	0xbfa6e485	-1.3038489
14	0x3fe7e6b6	1.8117282
15	0xbffc06fc	-1.9689631
16	0xbf8e0e38	-1.1098089
17	0x3eea122d	0.45716992
18	0xc016f130	-2.358471
19	0xbfa22127	-1.2666367
20	0x3f03c05c	0.5146539
21	0x403bb2d3	2.9327896
22	0x3fb28f7b	1.3950037
23	0xbf3160f9	-0.69288594
24	0xbfb8c1e5	-1.4434172
25	0x3dd87f9c	0.105712146
26	0xc01b5946	-2.4273238
27	0x3bdae04a	0.0066795694
28	0x3fed3d5f	1.8534354
29	0x3f2df6b1	0.67954546
30	0x3f94ae1d	1.1615635
31	0x4016dac6	2.3571029
32	0x3ec8b67c	0.39201725
33	0xbebf3874	-0.37347758
34	0x401034ee	2.2532306
35	0x4016b5df	2.3548505
36	0x3feec874	1.8654923
37	0xbf531c65	-0.824652
38	0x3dfa4e3a	0.12221952
39	0x3fb4581a	1.4089386
40	0x3fe0fbe9	1.7576877
41	0xbf63c3d1	-0.8897067
42	0x3fc64caa	1.5492146
43	0x3f04bd8a	0.51851714
44	0xbd869388	-0.06571108
45	0x3fa15daf	1.2606715
46	0x3eb835e3	0.35978612
47	0x3f04c0b3	0.51856536
48	0x3e4b8eb6	0.19878659
49	0x3e9d9ab9	0.30782107
50	0x3f1b6f70	0.60716915
51	0xbeb0e1c1	-0.34547237
52	0xc00f37bf	-2.2377775
53	0x3f7e2fdf	0.99291795
54	0x3f5a4193	0.8525631

branch.hidden_layers.0.bias f4 [10]
0	0x3f064da3	0.52462214
1	0x3f7157ae	0.94274414
2	0x3f0ad351	0.54228693
3	0x3f46df7b	0.77684754
4	0x3f0e2fda	0.55541766
5	0x3ed75d4c	0.42063367
6	0x3f187db6	0.5956682
7	0x3f5604c4	0.8360102
8	0x3f1aabc4	0.60418344
9	0x3e26256e	0.16225216

branch.output_layer.weight f4 [10, 10]
0	0xbfced50b	-1.6158766
1	0x3f148c6f	0.58026785
2	0x3ecff83a	0.4061907
3	0x3fae802f	1.3632869
4	0x3e7474b8	0.2387265
5	0x3e41e0aa	0.18933359
6	0xbecbc639	-0.3979967
7	0xbfb5eb84	-1.4212499
8	0x3f517428	0.81817865
9	0x3f4ddd1f	0.8041553
10	0xbf1857f1	-0.5950919
11	0x3cc6f98f	0.02428892
12	0x3be592d5	0.007006029
13	0x3ee116da	0.43962747
14	0xbea82f8d	-0.32848778
15	0x3d3c096a	0.045907415
16	0x3f100010	0.56250095
17	0x3eaa2244	0.33229268
18	0xbfa4d34b	-1.2876981
19	0x3e8b5db5	0.2721993
20	0x3f24ee96	0.64426553
21	0x3e579125	0.21051462
22	0x3e9ce9d7	0.30647156
23	0xbf2113eb	-0.6292102
24	0x3cda8b26	0.02667768
25	0x3f0d33d0	0.55157185
26	0xbe15dd6a	-0.14635244
27	0xbf10d742	-0.5657846
28	0xbe413d70	-0.18871093
29	0x3f0f8b5d	0.56072026
30	0x3f348902	0.7052156
31	0x3f0a4501	0.5401154
32	0xbd6d241b	-0.05789576
33	0xbf8f4f71	-1.1196119
34	0xbe89a9ca	-0.2688735
35	0x3f566e5c	0.83762145
36	0xbe40d2ef	-0.18830465
37	0xbe7abb80	-0.24485588
38	0xbe4ac00f	-0.19799827
39	0x3e7be2be	0.24598214
40	0x3e5cb581	0.21553613
41	0xbe85d419	-0.2613838
42	0x3f1115dd	0.56673986
43	0xbeb878e2	-0.36029726
44	0x3f4c8d9c	0.7990358
45	0xbef8efc3	-0.48620424
46	0xbeba2b36	-0.36361092
47	0x3ecbe7ff	0.39825436
48	0xbef438f5	-0.47699705
49	0x3e3042d9	0.17213
50	0xbe95b40f	-0.29238936
51	0xbf88290b	-1.0637525
52	0xbea0d87f	-0.31415173
53	0x3f08fb01	0.53508
54	0xbeeec8fa	-0.46637708
55	0xbf2787d3	-0.65441626
56	0x3f2e8765	0.68175346
57	0x3f044ce2	0.51679814
58	0x3e958cb1	0.29208902
59	0xbebe317b	-0.37147126
60	0x3fcd74ef	1.605131
61	0xbf445e8f	-0.76706785
62	0x3ee7592d	0.45185223
63	0xbde614f9	-0.11234469
64	0xbec73d51	-0.38913968
65	0x3dd4d023	0.103912614
66	0x3db08a6d	0.086201526
67	0xbf2cffe5	-0.67577964
68	0x3f82559d	1.0182377
69	0xbd0260ad	-0.03183048
70	0x3f65d2a9	0.89774567
71	0xbff10e32	-1.8832457
72	0x3f5412d3	0.82841223
73	0xbf3a8cb0	-0.7287092
74	0x3f8608ce	1.0471437
75	0x3f57ba9f	0.84269136
76	0xbfbc0de9	-1.4691745
77	0x3ff7a997	1.934863
78	0xbf3d82e9	-0.7402788
79	0xbf3d839c	-0.74028945
80	0x3efe542c	0.49673593
81	0x3e4d3529	0.2003981
82	0x3f292a53	0.66080207
83	0xbee05afe	-0.43819422
84	0xbf55b2d9	-0.83476025
85	0x3f632dc0	0.88741684
86	0xbd5e3f41	-0.054259542
87	0x3dc8f797	0.09812849
88	0xbee3890d	-0.444405
89	0x3e6f2721	0.2335477
90	0xbeb25f22	-0.34838206
91	0xbdd0087d	-0.10157869
92	0xbe5d17cf	-0.21591114
93	0x3f4051ed	0.7512501
94	0xbeb50bee	-0.35360664
95	0xbf1a1b56	-0.6019796
96	0x3e77bde9	0.24193539
97	0x3bea9580	0.007158935
98	0x3efb8c70	0.49130583
99	0xbf018be8	-0.50604105

branch.output_layer.bias f4 [10]
0	0xbeb602a9	-0.35548905
1	0x3e6ee370	0.23328948
2	0x3d698d04	0.05701925
3	0x3e3d82f1	0.18506981
4	0xbd0e0b3c	-0.034678683
5	0x3e8e6035	0.27807775
6	0xbde4adf5	-0.11165992
7	0x3e2c112b	0.16803424
8	0xbdb36bae	-0.08760773
9	0xbe349bc1	-0.1763754

trunk.hidden_layers.0.thetas f4 [7]
0	0x3fb605e0	1.4220543
1	0xc00399de	-2.0562663
2	0x3fcf3f92	1.6191275
3	0xbe39687c	-0.18106264
4	0xbfab0b8f	-1.3362902
5	0xbf93cc1f	-1.1546668
6	0x40258938	2.5865002

trunk.hidden_layers.0.bias f4 [5]
0	0x3eba64b8	0.36404967
1	0x3f19dfe4	0.60107255
2	0x3fd6759f	1.6754645
3	0x3f2de915	0.6793378
4	0x3ecbcee0	0.3980627

trunk.output_layer.weight f4 [10, 5]
0	0x4094e60b	4.6530814
1	0x40b222dd	5.566756
2	0xc0ca21f4	-6.3166447
3	0xc0909939	-4.518704
4	0xbfbf81f3	-1.4961532
5	0x40153ed2	2.3319592
6	0x4028d990	2.638279
7	0xc041a69a	-3.0257936
8	0xbfb5454f	-1.4161776
9	0x3e961b29	0.29317597
10	0xbf762b51	-0.96159846
11	0x3dd016ab	0.101605736
12	0x3d48b576	0.04900118
13	0x3f05617c	0.52101874
14	0xbf2987b2	-0.6622268
15	0xc0089c8f	-2.1345556
16	0x3fa1c375	1.2637774
17	0xbf5299a9	-0.82265717
18	0xbec6ecd8	-0.38852572
19	0xbf87a081	-1.0595857
20	0x3f25b7db	0.64733666
21	0x3fc09c34	1.504767
22	0xbf2be8d8	-0.67152166
23	0x3e867d49	0.2626746
24	0xbefbead6	-0.49202603
25	0x3e26553f	0.16243456
26	0x3e3afb19	0.18259849
27	0x3eb35453	0.35025272
28	0xbeaad3df	-0.3336477
29	0x3f7f7b41	0.99797446
30	0x3fd3b1e7	1.6538666
31	0x4037cfff	2.87207
32	0xc081c2b6	-4.0550184
33	0xbf85c67d	-1.0451199
34	0xbfe4c24e	-1.7871797
35	0x404e7e36	3.2264533
36	0x40d5b694	6.6785374
37	0xc0f9c010	-7.804695
38	0xc04f6965	-3.2408078
39	0xc00bc90a	-2.1841455
40	0xbf1f77a0	-0.6229191
41	0xbefe7960	-0.49701977
42	0x3f7a1fd1	0.977048
43	0x3cf8ffcc	0.030395411
44	0xbd9d29ba	-0.07673974
45	0x3e31a011	0.17346217
46	0x3da25925	0.07927159
47	0x3f8159ff	1.010559
48	0xbead7e35	-0.3388535
49	0x3ec0b38d	0.37636986

trunk.output_layer.bias f4 [10]
0	0xbf278bb2	-0.65447533
1	0x3ec5879b	0.3858002
2	0x3ea27b30	0.3173461
3	0x3ea52232	0.3225265
4	0x3c28fb77	0.01031386
5	0x3dd318e9	0.103074856
6	0x3f9648a9	1.1740924
7	0xbf0d42d0	-0.5518007
8	0x3db8006f	0.08984458
9	0x3e2d5edd	0.16930719

exp_avg f4 [55]
0	0x368d199b	4.2051083e-06
1	0xb554878c	-7.91734e-07
2	0x369dd6e3	4.7039807e-06
3	0xb4d54437	-3.9723975e-07
4	0x365ba7e1	3.2731261e-06
5	0x368cfd49	4.2018114e-06
6	0x35c51ff9	1.4686949e-06
7	0x368ba748	4.161997e-06
8	0x3552b25a	7.849063e-07
9	0x34c8127f	3.726636e-07
10	0xb5000e3b	-4.7704424e-07
11	0xb4936b2a	-2.7458856e-07
12	0xb66bad87	-3.5118735e-06
13	0x3636bc51	2.7229728e-06
14	0x35d6c789	1.6002315e-06
15	0x3343419b	4.5461643e-08
16	0xb4293f02	-1.5762274e-07
17	0xb473537f	-2.2661514e-07
18	0x351d2a7f	5.85489e-07
19	0x343cc151	1.7579193e-07
20	0xb5ad78ca	-1.2924659e-06
21	0xb3e451d8	-1.06319646e-07
22	0xb419dc2c	-1.4329333e-07
23	0x3516c0cb	5.6159905e-07
24	0x32a6b779	1.9408377e-08
25	0xb6270830	-2.4889705e-06
26	0xb4eef7ae	-4.4511165e-07
27	0xb5099e6a	-5.1267e-07
28	0xb3817b4f	-6.02946e-08
29	0x350e4c24	5.300992e-07
30	0xb576a33c	-9.187968e-07
31	0x35d11c8a	1.5580019e-06
32	0xb4f565de	-4.5708924e-07
33	0x33ed7307	1.1057096e-07
34	0x35452bd7	7.3452014e-07
35	0xb509e02e	-5.13627e-07
36	0x34a6aefb	3.1047225e-07
37	0x35beffb5	1.4230524e-06
38	0xb5e33379	-1.6927798e-06
39	0x34f73bcb	4.605084e-07
40	0xb400244c	-1.1934134e-07
41	0xb62cfd3a	-2.5777395e-06
42	0xb4f1c125	-4.503028e-07
43	0xb63494ec	-2.6908774e-06
44	0xb54f9a2c	-7.733786e-07
45	0x35812adc	9.623723e-07
46	0x34cbdea9	3.7973703e-07
47	0xb51387a8	-5.4959173e-07
48	0xb4a2222b	-3.0199712e-07
49	0xb5ddb7a1	-1.6519226e-06
50	0x3677fb85	3.6952272e-06
51	0x3419aba2	1.4311675e-07
52	0xb55825b4	-8.0521136e-07
53	0xb48275d4	-2.4300118e-07
54	0xb40eba99	-1.3292664e-07

exp_avg_sq f4 [55]
0	0x32c2df74	2.2686187e-08
1	0x3101ae39	1.8871005e-09
2	0x32a491c3	1.9158398e-08
3	0x301bb53c	5.664622e-10
4	0x30d919ce	1.5796162e-09
5	0x31bdc6f5	5.5232428e-09
6	0x31405a7e	2.7991116e-09
7	0x32b2c303	2.0810608e-08
8	0x3089223e	9.977794e-10
9	0x2f5324b0	1.9203372e-10
10	0x31b6bf5b	5.3186517e-09
11	0x2f6901e9	2.1191905e-10
12	0x3161f8ef	3.2883312e-09
13	0x3298eae9	1.7801954e-08
14	0x30b3332b	1.3038507e-09
15	0x2ec89dee	9.123001e-11
16	0x325bfd63	1.2805091e-08
17	0x310e2984	2.0687319e-09
18	0x2f62026e	2.0555443e-10
19	0x30be0493	1.382562e-09
20	0x307ead96	9.265134e-10
21	0x2f6b5b87	2.1405643e-10
22	0x3105b67a	1.9457773e-09
23	0x309844e0	1.1079031e-09
24	0x2ef38e3d	1.1075627e-10
25	0x32be684b	2.2166338e-08
26	0x2f1e4ed0	1.4398016e-10
27	0x30e9c354	1.7008497e-09
28	0x2d0fbe17	8.170817e-12
29	0x35e6518a	1.7160066e-06
30	0x30889c96	9.939807e-10
31	0x30eaafb0	1.7075674e-09
32	0x2eb39194	8.1658375e-11
33	0x2dc2ab16	2.2131224e-11
34	0x34712e94	2.2461819e-07
35	0x2f18035f	1.3825517e-10
36	0x2e4ecdda	4.702181e-11
37	0x30af72fd	1.2765607e-09
38	0x336e7220	5.551749e-08
39	0x301d5b94	5.724641e-10
40	0x30f162b8	1.7563115e-09
41	0x31dd756d	6.4452963e-09
42	0x31ec1058	6.870362e-09
43	0x3238002b	1.0710248e-08
44	0x3128f01a	2.45837e-09
45	0x32bb3161	2.179212e-08
46	0x300716eb	4.914528e-10
47	0x30d04e55	1.5156255e-09
48	0x3158e6d1	3.156334e-09
49	0x321e21fc	9.204538e-09
50	0x30fb8831	1.8301362e-09
51	0x30406d54	7.000456e-10
52	0x2fe76cf5	4.2096074e-10
53	0x323ea610	1.1097214e-08
54	0x30854f51	9.699567e-10

exp_avg f4 [10]
0	0xb5af0b54	-1.3041813e-06
1	0xb7085dd8	-8.128081e-06
2	0xb5f8cf7c	-1.8537826e-06
3	0xb780ecb3	-1.536901e-05
4	0xb6b8339b	-5.489635e-06
5	0xb7b7c26a	-2.1905831e-05
6	0xb756800a	-1.2785205e-05
7	0xb6aae660	-5.093214e-06
8	0xb511cec1	-5.4317576e-07
9	0xb6830120	-3.904235e-06

exp_avg_sq f4 [10]
0	0x34d0c72e	3.888794e-07
1	0x3638ebc8	2.755538e-06
2	0x325b2354	1.275551e-08
3	0x3696cc84	4.494157e-06
4	0x35842dbc	9.848077e-07
5	0x3683572d	3.914253e-06
6	0x35fda06b	1.8896657e-06
7	0x35b32685	1.334775e-06
8	0x3108b1f0	1.989175e-09
9	0x3580c300	9.593496e-07

exp_avg f4 [10, 10]
0	0x34b2fe51	3.3340123e-07
1	0xb5c81eb1	-1.4910094e-06
2	0xb4acb5d6	-3.21698e-07
3	0x363286e5	2.6602586e-06
4	0x3599e085	1.1464732e-06
5	0x3551b18f	7.811695e-07
6	0x35ff259a	1.9009924e-06
7	0x359ad10f	1.1534738e-06
8	0x34e86419	4.3286198e-07
9	0xb60ba67e	-2.0809525e-06
10	0x371ca3c6	9.336456e-06
11	0x35df9646	1.665853e-06
12	0x37025959	7.769407e-06
13	0x36060fff	1.9976867e-06
14	0xb699f5b7	-4.5883603e-06
15	0xb764792e	-1.3618073e-05
16	0x361bc814	2.321326e-06
17	0xb5cb1eb3	-1.5133613e-06
18	0xb6150630	-2.2206332e-06
19	0xb5bec5c4	-1.421366e-06
20	0x3493a149	2.7498234e-07
21	0x351f794e	5.940864e-07
22	0xb526f53a	-6.219667e-07
23	0xb4644165	-2.1257945e-07
24	0x34921463	2.7209452e-07
25	0xb4a82b1a	-3.13238e-07
26	0xb4eebd2f	-4.4468604e-07
27	0xb4a11b46	-3.000843e-07
28	0x354ef239	7.709346e-07
29	0xb4d96d9f	-4.049916e-07
30	0xb60186d2	-1.9300974e-06
31	0xb61ae2cb	-2.30798e-06
32	0x34ad0bbb	3.2232296e-07
33	0xb520404d	-5.9698215e-07
34	0x35f6b19c	1.8380119e-06
35	0x342a5a2c	1.5865288e-07
36	0x35aa0d7a	1.2669909e-06
37	0xb60e8130	-2.1234846e-06
38	0xb53a2d71	-6.9356526e-07
39	0xb5b89764	-1.3753129e-06
40	0x36e6a37c	6.8735662e-06
41	0xb69af204	-4.617732e-06
42	0xb70dad2f	-8.444577e-06
43	0xb62c92c7	-2.5715433e-06
44	0x360f6568	2.1367687e-06
45	0x36273d34	2.4920564e-06
46	0x35c62f4d	1.4765916e-06
47	0xb5ef5a25	-1.7833123e-06
48	0xb60a7a57	-2.0634814e-06
49	0x352ee9a7	6.516006e-07
50	0x364fe332	3.0977649e-06
51	0x35030479	4.880781e-07
52	0xb6a8e552	-5.0334866e-06
53	0x359843b1	1.1344583e-06
54	0xb5df7c82	-1.6651031e-06
55	0x350c7e40	5.233778e-07
56	0xb5c69c6e	-1.4797677e-06
57	0x35f312c3	1.8110371e-06
58	0xb5905de3	-1.0756161e-06
59	0x35825060	9.709147e-07
60	0x3598c88e	1.1383252e-06
61	0x3648e4de	2.993554e-06
62	0x3690b551	4.3126424e-06
63	0xb6790b55	-3.7110487e-06
64	0xb404ae9a	-1.2356978e-07
65	0x35fbcecb	1.8761142e-06
66	0xb663d956	-3.3952142e-06
67	0x35efe56e	1.787366e-06
68	0xb6970662	-4.5008937e-06
69	0x36310344	2.6376956e-06
70	0x3553e9e7	7.8944e-07
71	0xb68d5295	-4.2117413e-06
72	0xb45dc003	-2.0652082e-07
73	0x354777ef	7.4307803e-07
74	0xb52a66d5	-6.3479575e-07
75	0xb6560cea	-3.1896002e-06
76	0x367d2c9a	3.77259e-06
77	0xb6166f6d	-2.24166e-06
78	0x3656f7fd	3.2032833e-06
79	0x340fd229	1.3394369e-07
80	0x36225f3c	2.4195315e-06
81	0x35c8dad5	1.496485e-06
82	0x34ef1d28	4.4538433e-07
83	0x362c05ec	2.5633444e-06
84	0xb5a783bd	-1.248081e-06
85	0xb436cc68	-1.7024433e-07
86	0x36e4f1c4	6.8230747e-06
87	0xb68e9fce	-4.2505335e-06
88	0xb53a6aaf	-6.9445645e-07
89	0x34897b70	2.560805e-07
90	0x36cb6957	6.0621346e-06
91	0x35d17388	1.5605337e-06
92	0xb716399e	-8.954112e-06
93	0x3646ec0a	2.9641692e-06
94	0xb66688ed	-3.4352372e-06
95	0x35945372	1.1051145e-06
96	0xb50da1be	-5.276196e-07
97	0x36036f84	1.9585432e-06
98	0xb608a16b	-2.0359537e-06
99	0x35fb0e85	1.8705183e-06

exp_avg_sq f4 [10, 10]
0	0x30dd5c29	1.610606e-09
1	0x31c26310	5.657405e-09
2	0x30b100b8	1.2878649e-09
3	0x318f9799	4.1790824e-09
4	0x30a6ba56	1.213105e-09
5	0x306483d9	8.3133284e-10
6	0x31051165	1.9363935e-09
7	0x32673ca8	1.3459761e-08
8	0x31e8eb1a	6.7788166e-09
9	0x31ad0469	5.035464e-09
10	0x33a882b8	7.846887e-08
11	0x3492864d	2.7292336e-07
12	0x33874608	6.299166e-08
13	0x3459fbe3	2.0301336e-07
14	0x337d97a4	5.904407e-08
15	0x332e6336	4.0602764e-08
16	0x33c84297	9.3253384e-08
17	0x352f95bc	6.541047e-07
18	0x34b12512	3.299579e-07
19	0x34831736	2.441754e-07
20	0x2e8dae63	6.442915e-11
21	0x2f7b7dba	2.2872984e-10
22	0x2e647ce3	5.195212e-11
23	0x2f36a0eb	1.6609973e-10
24	0x2e5cc86f	5.020023e-11
25	0x2e0d97c8	3.2194497e-11
26	0x2ea8d88a	7.6782206e-11
27	0x30179826	5.5149696e-10
28	0x2f9470d4	2.7001212e-10
29	0x2f62cbd0	2.0626989e-10
30	0x32b6c82a	2.1278613e-08
31	0x339fb682	7.4372124e-08
32	0x3292744a	1.704952e-08
33	0x336c7654	5.505565e-08
34	0x3289c91b	1.6040351e-08
35	0x323c67e8	1.0966666e-08
36	0x32da28c4	2.5397078e-08
37	0x343ec222	1.7765754e-07
38	0x33c04a9a	8.954267e-08
39	0x338e9c1d	6.640787e-08
40	0x34643222	2.1252393e-07
41	0x3546be0a	7.403729e-07
42	0x343703ff	1.7044657e-07
43	0x3513a946	5.500809e-07
44	0x342b69f4	1.5964162e-07
45	0x33eba7f5	1.09735915e-07
46	0x34880b7d	2.5340333e-07
47	0x35ed9921	1.7702442e-06
48	0x356fdc8c	8.9355376e-07
49	0x3531816f	6.612599e-07
50	0x3444cb23	1.8327823e-07
51	0x352bc765	6.399262e-07
52	0x341da677	1.4682324e-07
53	0x34fe7143	4.7393596e-07
54	0x3414197f	1.379285e-07
55	0x33cb58f3	9.469104e-08
56	0x346ad1d7	2.1869288e-07
57	0x35cce5e0	1.5266087e-06
58	0x354eaa4a	7.6988783e-07
59	0x3519487b	5.7102415e-07
60	0x323c72bf	1.09691305e-08
61	0x33226b03	3.781589e-08
62	0x32178b54	8.821036e-09
63	0x32f3182e	2.8299919e-08
64	0x320c8f2f	8.181629e-09
65	0x31c2ef8d	5.673377e-09
66	0x325f35b6	1.2992521e-08
67	0x33c2f39e	9.078143e-08
68	0x33459475	4.6002658e-08
69	0x33116a90	3.385736e-08
70	0x31ac7766	5.019433e-09
71	0x3296a2d4	1.7536344e-08
72	0x318a4d46	4.0251136e-09
73	0x325f696a	1.3004277e-08
74	0x31819878	3.771728e-09
75	0x3132a43b	2.5995763e-09
76	0x31ce93f3	6.012209e-09
77	0x3333cb2a	4.1861462e-08
78	0x32b5923a	2.113767e-08
79	0x328651cb	1.5636848e-08
80	0x3326f707	3.8874557e-08
81	0x3411851a	1.35526e-07
82	0x33057d6a	3.108054e-08
83	0x33d76e23	1.00317514e-07
84	0x32fa8317	2.9163443e-08
85	0x32acf900	2.0136667e-08
86	0x33477ce7	4.6446896e-08
87	0x34ad120f	3.22369e-07
88	0x342eb1a0	1.6269632e-07
89	0x3401a5b6	1.2074347e-07
90	0x35370a6e	6.818799e-07
91	0x361fd855	2.3818768e-06
92	0x3512a5c3	5.4630453e-07
93	0x35ecade8	1.7633984e-06
94	0x3509d3a6	5.1344466e-07
95	0x34bd25fa	3.5231625e-07
96	0x355a6d7a	8.137064e-07
97	0x36bea31a	5.681429e-06
98	0x3640391c	2.8643472e-06
99	0x360e9fd3	2.1252679e-06

exp_avg f4 [10]
0	0xb615affd	-2.2305169e-06
1	0xb65302ca	-3.1443074e-06
2	0x3479f9ec	2.3280853e-07
3	0xb56d442e	-8.8388595e-07
4	0xb66234bc	-3.370732e-06
5	0xb59f5e19	-1.1873809e-06
6	0x3529739a	6.312563e-07
7	0xb4c5de5f	-3.6855906e-07
8	0xb5a9dee3	-1.265635e-06
9	0xb620120c	-2.3852363e-06

exp_avg_sq f4 [10]
0	0x325c4957	1.2822361e-08
1	0x3527634b	6.235684e-07
2	0x3010e253	5.270852e-10
3	0x3435e436	1.6939961e-07
4	0x35e2704d	1.6870996e-06
5	0x35c34f9c	1.4551802e-06
6	0x33b9ac23	8.646045e-08
7	0x332b5b32	3.989698e-08
8	0x34a4e4d9	3.071389e-07
9	0x36b5b6c9	5.4154993e-06

exp_avg f4 [7]
0	0xb499116b	-2.8511144e-07
1	0xb40dbe2b	-1.3200831e-07
2	0xb5ac079c	-1.2817213e-06
3	0xb3c90c96	-9.362081e-08
4	0x3449a425	1.8779299e-07
5	0xb4605acd	-2.0894659e-07
6	0x35173404	5.6327576e-07

exp_avg_sq f4 [7]
0	0x2ff22f9f	4.405338e-10
1	0x2e1a9678	3.514919e-11
2	0x324f615c	1.2071123e-08
3	0x2ec3f2f1	8.9107284e-11
4	0x3060653c	8.163459e-10
5	0x3163fd8e	3.3176977e-09
6	0x3144f33c	2.8660017e-09

exp_avg f4 [5]
0	0x34c8cfb5	3.740403e-07
1	0xb4959a09	-2.7865488e-07
2	0x358ae214	1.0347599e-06
3	0xb4dca810	-4.1100475e-07
4	0xb5790f76	-9.2782227e-07

exp_avg_sq f4 [5]
0	0x31158a80	2.1761082e-09
1	0x3194a41a	4.326023e-09
2	0x3208064f	7.917676e-09
3	0x303b272f	6.8085887e-10
4	0x329a4761	1.7960419e-08

exp_avg f4 [10, 5]
0	0xb4a2c956	-3.0321343e-07
1	0xb52fc108	-6.547348e-07
2	0x35261026	6.186332e-07
3	0x34a40f5a	3.055855e-07
4	0x33758dea	5.7172578e-08
5	0xb4d1e7a8	-3.9097836e-07
6	0xb56916d8	-8.6832506e-07
7	0x35ae8611	1.3003029e-06
8	0x33a10e60	7.4997615e-08
9	0x340badde	1.3008636e-07
10	0xb2c1ac6f	-2.254657e-08
11	0xb500be39	-4.7960526e-07
12	0x3653e572	3.1575005e-06
13	0xb4ef169d	-4.4533672e-07
14	0x34ce3ec9	3.8416172e-07
15	0x33cc1aeb	9.5043866e-08
16	0xb47c833a	-2.3517069e-07
17	0x3556f549	8.007815e-07
18	0xb58b1080	-1.0361109e-06
19	0x3335ca03	4.2326075e-08
20	0xb52b4294	-6.379935e-07
21	0xb5b749ae	-1.3656006e-06
22	0x35eadac9	1.7498033e-06
23	0x33721e74	5.6372713e-08
24	0x3449b242	1.8784434e-07
25	0xb5555389	-7.9470243e-07
26	0xb5b6b34d	-1.361224e-06
27	0x35810b7c	9.614591e-07
28	0xb49ba70b	-2.899254e-07
29	0x33a2d70d	7.5828304e-08
30	0xb4d7d080	-4.0198574e-07
31	0xb5631955	-8.460095e-07
32	0x358b40bc	1.0375147e-06
33	0x3406010c	1.2480103e-07
34	0x33efa73c	1.11597245e-07
35	0xb4bab9a0	-3.478026e-07
36	0xb52f07e6	-6.5204074e-07
37	0x353a6090	6.9430916e-07
38	0x34ba233a	3.467083e-07
39	0x3397600f	7.0489584e-08
40	0xb56f768d	-8.920695e-07
41	0xb5e805d8	-1.7287048e-06
42	0xb4b50eff	-3.3724788e-07
43	0x35c52576	1.4688546e-06
44	0xb38d2100	-6.571827e-08
45	0xb59c6cf7	-1.1654619e-06
46	0xb63012b7	-2.6236937e-06
47	0x353c4563	7.013643e-07
48	0xb5237df6	-6.090553e-07
49	0xb33ceea5	-4.3989207e-08

exp_avg_sq f4 [10, 5]
0	0x2cdc2f55	6.258031e-12
1	0x2dd302de	2.3989196e-11
2	0x2d905d46	1.6412326e-11
3	0x2c4240a8	2.760495e-12
4	0x2b82912e	9.277351e-13
5	0x2e16f480	3.432321e-11
6	0x2f0b3147	1.2659483e-10
7	0x2f01059f	1.1734479e-10
8	0x2d6fe6a1	1.3636787e-11
9	0x2d731dff	1.3819611e-11
10	0x31449941	2.8608869e-09
11	0x3227059d	9.721956e-09
12	0x32797539	1.4520361e-08
13	0x30857ec0	9.713048e-10
14	0x3012ac10	5.3359006e-10
15	0x2e43f17d	4.455235e-11
16	0x2f58e6d3	1.9727091e-10
17	0x2f043b4b	1.2026395e-10
18	0x2e2e64b0	3.9652448e-11
19	0x2cdd7460	6.294118e-12
20	0x2f559a29	1.9427006e-10
21	0x30340976	6.5497063e-10
22	0x3071b14b	8.792724e-10
23	0x2e5d9065	5.037783e-11
24	0x2e14ed67	3.386216e-11
25	0x3273f384	1.4199831e-08
26	0x333f33c7	4.4517744e-08
27	0x33a58a64	7.708584e-08
28	0x3147f79e	2.9099065e-09
29	0x313786f8	2.6706726e-09
30	0x2de5fcaf	2.61465e-11
31	0x2eeee828	1.0864226e-10
32	0x2ea59cc8	7.531181e-11
33	0x2d96aa52	1.7128663e-11
34	0x2c8a0c50	3.923563e-12
35	0x2d070fc1	7.67736e-12
36	0x2e1456a9	3.3728274e-11
37	0x2dad575d	1.970662e-11
38	0x2ccb213c	5.7732968e-12
39	0x2bb209f3	1.2650422e-12
40	0x30f7cb85	1.8029459e-09
41	0x31ba60a0	5.4242975e-09
42	0x323c7b01	1.0971008e-08
43	0x2fb68a7d	3.320401e-10
44	0x2fc8e921	3.6545436e-10
45	0x32871c86	1.572904e-08
46	0x3353de3c	4.9329387e-08
47	0x33b6993c	8.5029086e-08
48	0x315d0286	3.2161167e-09
49	0x314a9513	2.9479608e-09

exp_avg f4 [10]
0	0x33aea0bb	8.131743e-08
1	0x33654da1	5.338882e-08
2	0x34b6a8c5	3.4022938e-07
3	0xb547e0bd	-7.4460314e-07
4	0x3360855a	5.2275347e-08
5	0xb47d5d0e	-2.3596314e-07
6	0x3396e04d	7.0257194e-08
7	0x34365ef0	1.6984609e-07
8	0xb0e932a0	-1.696737e-09
9	0xb5b1b1f1	-1.3239315e-06

exp_avg_sq f4 [10]
0	0x2dc61b02	2.2521988e-11
1	0x2f1c25de	1.420157e-10
2	0x3243d9fc	1.1400058e-08
3	0x2f744f86	2.2219923e-10
4	0x304222ed	7.062642e-10
5	0x3353fd2d	4.9357528e-08
6	0x2efdcd47	1.15415726e-10
7	0x2e172094	3.436236e-11
8	0x31d811a1	6.2884316e-09
9	0x336a5ab5	5.4564868e-08
