src/data_driven/antiderivative/6.17/classical_training_seed2054723805/model_checkpoint-30000.pt (torch, 24301 bytes, 24 tensors)

branch.hidden_layers.0.thetas f4 [154]
000000 d2 cf 3a 3f c8 7c f5 3e 58 09 8b be d9 cc 29 be
       0.7297336 0.47946763 -0.27155566 -0.1658205
000010 c1 1b 72 3f d7 36 10 bf e1 30 00 c0 f1 cc d5 bf
       0.945736 -0.5633368 -2.0029833 -1.6703168
000020 fd 3f 5d 3f c7 d4 84 bf ed 11 d9 3e 72 3a 0f bf
       0.86425763 -1.0377434 0.4239649 -0.55948555
000030 15 7b 90 3f c4 92 2e bf 0a fb 86 3e 45 ef 69 3f
       1.1287562 -0.68192697 0.26363403 0.9138072
000040 d3 39 d8 3f 59 ac 3d 3f 96 27 84 3e dd 65 0f 3c
       1.6892647 0.74091107 0.25811452 0.008752313
000050 2b aa 87 be 10 a9 15 bf c1 07 93 bf 29 a3 c9 3c
       -0.26497015 -0.58461094 -1.1486741 0.024613934
000060 85 ae a3 3e 14 2b 11 bf 62 03 a5 3f a3 f7 97 be
       0.31969085 -0.56706357 1.2891657 -0.2968112
000070 8c ed 40 bd 84 5c 6c bf e7 7b cc 3c 44 d5 8c bf
       -0.047101542 -0.9232867 0.024961425 -1.1002584
000080 55 d9 84 3d a0 55 71 3f 0a 51 54 3e 54 57 80 3f
       0.06486765 0.9427128 0.20734039 1.002665
000090 17 32 0f c0 0d 42 98 3f d7 4c ac be 98 35 fe bf
       -2.2374322 1.1895157 -0.33652374 -1.9860106
0000a0 d9 15 c4 bf 6c 43 f1 be 3a 16 ae 3f 0e 5a cf 3e
       -1.5319167 -0.4712175 1.3600533 0.40498394
0000b0 34 9f b9 3e d1 84 8f be 23 c5 65 bf fb 76 a8 3f
       0.36254275 -0.28031018 -0.8975393 1.316131
0000c0 d1 47 6b be 80 b1 8a 3f 1b 1f be bf 22 d4 41 bd
       -0.22976615 1.0835419 -1.4853243 -0.047321446
0000d0 45 e1 d7 3f 9a 9a 8f bd 4d c9 22 be ce 6d 05 40
       1.6865622 -0.0701191 -0.15897103 2.084827
0000e0 e2 27 6d 3f 21 20 53 3f 8b 0d 42 3f bb b5 51 be
       0.9263898 0.824709 0.75801915 -0.20479481
0000f0 f9 d2 c8 3e 1c c0 6d bf 0a 90 d0 3f 25 03 7a bf
       0.3922346 -0.9287126 1.6293957 -0.9766105
000100 14 30 45 bf cd a4 e3 be b9 97 0e 3f 13 e7 e4 3f
       -0.77026486 -0.4446167 0.5570026 1.7883018
000110 d9 c3 9c be d8 a4 f7 3e d7 05 db 3f ea 07 0e bf
       -0.3061817 0.48367953 1.7111157 -0.55480826
000120 ff a2 43 bf f8 b0 12 bf b3 af 03 40 a5 f2 30 3f
       -0.7642059 -0.5730128 2.0575988 0.69120246
000130 41 a6 d5 3c 53 eb 07 40 72 9c a9 3e dd a9 1a 3f
       0.026080253 2.123738 0.3312717 0.6041544
000140 0d 9b 48 bf 6d 6a ee be 27 95 22 40 9d ee 2b be
       -0.7836159 -0.4656557 2.5403535 -0.16790242
000150 6b 59 e1 3e 20 da b5 bf 89 96 aa bd e9 0b 48 3f
       0.44013533 -1.4207191 -0.083294936 0.78143173
000160 1f 62 30 bf 15 9e f5 3e 5d d8 71 bf 93 53 72 bf
       -0.6889972 0.4797217 -0.9447077 -0.94658774
000170 09 2e b1 3e af f8 3b bf dd ec 34 be 9f 7c ae bf
       0.34605435 -0.73426336 -0.17668481 -1.3631781
000180 2e 74 b2 3f 26 2b 0b 3e c3 43 3e be d8 97 6b 3e
       1.3941705 0.13590679 -0.18580537 0.23007143
000190 99 9b 86 3e 49 ad 68 bf 40 1f 9b bf d2 1b 0a 3f
       0.26290587 -0.9088941 -1.2118912 0.539487
0001a0 af 9a 23 40 cf 6a fc 3e d2 e3 42 3f df d2 0e c0
       2.5563161 0.49300238 0.76128876 -2.2316206
0001b0 ce 18 88 bf 5f 77 f3 be 50 14 16 c0 02 f1 9a be
       -1.063257 -0.4755201 -2.3449898 -0.30262
0001c0 8a 74 3e 3d 25 94 a5 be 1b f6 9d 3f 2a 7f 4d c0
       0.04649786 -0.32339588 1.234073 -3.2108865
0001d0 4f b5 a2 3e fc ef 04 c0 4e 27 90 3f 41 2e fa bf
       0.31778952 -2.0771475 1.1261995 -1.9545366
0001e0 9e fc 88 bf 1b a3 3b bf 13 4f 75 bc 48 9a 19 be
       -1.0702093 -0.73295754 -0.014972466 -0.1500026
0001f0 c9 7c c1 3d f7 82 11 bf 6b a2 98 bd 4e 38 fc be
       0.09447629 -0.5684046 -0.07452854 -0.49261707
000200 06 c4 1c 3b 1f 73 98 3f c4 79 5d bf 7a 97 3d bf
       0.002392055 1.1910132 -0.86513925 -0.7405926
000210 7d 46 34 3f 72 cd e1 be dd ca 83 bf d3 33 44 3f
       0.70420057 -0.44102055 -1.0296284 0.7664158
000220 7c e3 18 be 3b 85 4e 3f fc ef ae 3e 50 56 0c 3f
       -0.14930528 0.80672044 0.3416747 0.548192
000230 9d 22 f6 3e 72 32 9d bf 2d a7 e6 bd 28 87 38 bf
       0.48073283 -1.228102 -0.11262355 -0.7208123
000240 eb 9c fb bd ac b1 ef be 44 42 99 bd 34 57 09 c0
       -0.12285789 -0.4681524 -0.07483342 -2.1459475
000250 e9 9e 68 bf f0 87 b9 3f ae 7d 6a bf db bb 20 bf
       -0.9086748 1.449461 -0.9159802 -0.62786645
000260 dd 71 9c bd 53 98 2f 3e
       -0.07638905 0.17147951

branch.hidden_layers.0.bias f4 [20]
000000 3a 12 54 3d d5 c6 0a 3f 6d a4 ec 3d d3 5b 09 3e
       0.051775195 0.54209644 0.11554799 0.13413934
000010 22 73 f4 3d 22 84 69 3e 2f d0 4e 3e 39 e3 3f 3e
       0.11936022 0.22804311 0.20196603 0.18739022
000020 6b 9a 65 3e 6f d8 b5 3e 5e 94 d3 3d 4a 28 71 3e
       0.22422187 0.35516688 0.10331033 0.23550525
000030 fa 90 42 3e 28 26 1a 3e 75 6c 57 3e fe 2f 0c 3f
       0.19000617 0.15053618 0.21037467 0.5476073
000040 25 d7 46 3f 2d 74 39 3e 40 c0 c9 3e cd 83 b7 bc
       0.77672035 0.18110724 0.39404488 -0.022401715

branch.output_layer.weight f4 [20, 20]
000000 c9 a4 ab 3e 22 2a 0d 3f a7 ef 88 3e 91 5e db 3e
       0.3352416 0.55142415 0.2674534 0.42845586
000010 f3 36 ab 3d 83 4a 89 be 07 80 b2 3c 29 71 a4 3e
       0.0836009 -0.2681466 0.021789564 0.32117584
000020 7f f2 5b be 9b 5c 74 3e 5c 2a 5f bd df 80 97 3d
       -0.21479224 0.23863451 -0.054483756 0.07397627
000030 d4 b5 83 3e 06 45 ec be 81 02 e6 be 02 66 c0 be
       0.2572466 -0.4614641 -0.44923785 -0.37577826
000040 73 91 91 be 5a 2a 42 3e fd 54 0e be 92 23 05 3e
       -0.2843128 0.18961468 -0.13899608 0.1300185
000050 81 e4 ae be bc 0d d3 3e ba f0 51 bd f9 47 10 bf
       -0.3415871 0.41221416 -0.051254965 -0.5635982
000060 c9 28 cf be 81 22 e3 3d c7 69 00 3d f6 3e 16 3e
       -0.40460804 0.110905655 0.031350877 0.14672455
000070 11 ea f8 3e 00 69 dd bd 13 0a 4a 3e ea 92 60 bd
       0.48616078 -0.10811043 0.19730406 -0.05482761
000080 77 ce 6c be f7 c3 dc 3d b7 d6 ee 3e fe 7c 07 bf
       -0.23125635 0.10779565 0.4664819 -0.529251
000090 0a 61 47 bf 09 0f 54 be 20 60 f0 3e bc 00 ab be
       -0.77882445 -0.2070886 0.46948338 -0.33398998
0000a0 c4 9e b8 3f ef 8a 83 3e e4 40 da 3e b7 96 a8 3e
       1.4423451 0.25691935 0.42627633 0.32927486
0000b0 bb 18 55 3f 8a 39 82 be 1b e8 0c 3e ef e3 f0 3d
       0.8324086 -0.25434524 0.13760416 0.11762225
0000c0 99 53 6e bd 17 37 8d 3e 64 91 51 be bc 31 23 3f
       -0.058185194 0.27581093 -0.20465618 0.63747764
0000d0 3c a3 a9 bc 11 77 04 3f 51 00 43 be ba 40 a1 bd
       -0.020707719 0.5174418 -0.1904309 -0.07873674
0000e0 27 8e 58 be 0e f4 54 3e 62 fc bf be 20 36 25 3e
       -0.21147977 0.20796224 -0.3749724 0.16133928
0000f0 30 21 c5 bd ce 0f 86 bf 0b f4 d8 be dd f7 98 be
       -0.09625471 -1.0473573 -0.4237369 -0.29876605
000100 43 b6 4a be 42 e3 cd 3e b7 74 18 be 68 cb 99 be
       -0.1979609 0.40212446 -0.14888273 -0.30038
000110 b3 32 a9 3e eb fd 5a 3d 36 9e 92 bd 85 93 42 be
       0.33046493 0.05346481 -0.071590826 -0.19001587
000120 3d fb bd be 88 30 c3 3e 05 b7 b1 3e 85 2a 38 bd
       -0.37105742 0.38122964 0.34709945 -0.044962425
000130 c2 15 de 3e 26 55 a6 be b0 63 74 be a8 07 3c 3e
       0.43375975 -0.32486838 -0.23866153 0.18362296
000140 cc e5 36 be d2 4e 00 3f 08 a4 a6 be 26 7a 0c be
       -0.17861098 0.5012027 -0.3254702 -0.13718471
000150 d8 52 90 3d c9 eb 26 be f8 01 f2 be 52 d4 88 bb
       0.07047051 -0.16300882 -0.47267127 -0.004175701
000160 3e 4b f3 3e 7f 72 fe 3e ba b7 05 be 24 70 4b 3e
       0.47518343 0.4969673 -0.13058367 0.19866997
000170 f8 a0 36 bb 12 8c 04 bc 9c 96 8a 3d 86 52 fb be
       -0.002786694 -0.008090036 0.06767008 -0.49086398
000180 ac 85 03 bf 8d 50 83 be 3f ec 72 3e c8 c7 54 be
       -0.5137584 -0.25647393 0.23722933 -0.20779335
000190 24 e8 9e 3f ab 7c e6 3e 5d bd 5d 3b eb 63 39 be
       1.2414594 0.4501699 0.0033834793 -0.18104522
0001a0 6a c7 2d 3e c1 60 45 be 72 70 15 3f 85 d5 1b 3f
       0.16970602 -0.1927519 0.583747 0.6087268
0001b0 b7 c4 b8 3d 94 7b 81 bf 15 8f 11 3f 47 91 0c bd
       0.090218954 -1.0115838 0.5685895 -0.034318235
0001c0 f1 8f 97 3e 5b b8 0c bd 6a d9 be 3e bc 44 15 3f
       0.29602006 -0.034355503 0.3727525 0.58308005
0001d0 99 c7 ae be ac c0 24 3f c9 60 19 3e 29 60 cd be
       -0.34136656 0.64356494 0.14978327 -0.40112427
0001e0 3c b5 5b be a7 79 cd 3e 9e fe 58 be 4b 0b dd be
       -0.21455854 0.40131876 -0.21190879 -0.43172678
0001f0 d7 ed 18 bd d1 ce 2d bd cd c5 1e bf ca a5 b0 bd
       -0.037336197 -0.042433564 -0.6202057 -0.08625372
000200 97 63 cd 3e fe b1 5b 3e ca 16 a0 3e 09 cb 5a 3e
       0.40115044 0.21454617 0.31267387 0.21366514
000210 46 95 2d 3e e9 d6 39 3e eb 63 56 3e 2c a9 e6 be
       0.16951475 0.18148388 0.20936553 -0.45050943
000220 85 37 84 bf 33 92 2d be fc dc 4c 3f c8 15 c2 be
       -1.0329443 -0.16950302 0.80024695 -0.37907243
000230 4b 9f ef 3e 37 84 de 3e 4b fa 96 3e 79 dd dc 3e
       0.46801218 0.43460247 0.29487833 0.4313772
000240 26 c5 83 3d 27 a8 e1 be a6 7d c6 bc 4a 79 87 3e
       0.064340875 -0.44073603 -0.024229836 0.26459724
000250 64 9a e9 bd f7 97 63 bd 05 ba 04 be e9 8a 35 3e
       -0.11406401 -0.055564847 -0.12961586 0.17728771
000260 84 ae b1 3e fa 43 57 be 98 6b c6 be d4 32 3a be
       0.34703457 -0.21022025 -0.38753963 -0.18183452
000270 b1 48 97 be e1 8b 96 3d 78 40 9f bd 9d eb 0c bd
       -0.29547647 0.073508985 -0.07775968 -0.034404386
000280 c5 1b 9d 3e 83 b5 05 3f 80 d1 13 3e 45 d7 0f 3f
       0.3068525 0.5223009 0.14435387 0.5618785
000290 09 2d 90 3e cf 1c d1 be b0 f3 9d bc e6 42 94 3c
       0.2815936 -0.40842292 -0.019281238 0.018098306
0002a0 c1 f3 4d be 96 f8 70 be 52 36 38 3e 9f e6 56 3c
       -0.20112516 -0.23532328 0.17989472 0.013116508
0002b0 78 c7 25 3e 31 3e aa be 23 e3 bc be 16 77 14 bd
       0.16189373 -0.33250573 -0.36892042 -0.03624638
0002c0 ac 6c 02 bf 35 76 90 3e 35 39 18 3e d2 f2 8b bd
       -0.5094707 0.28215185 0.14865573 -0.06833424
0002d0 9c fa eb 3e 8f 86 29 3f 66 c8 fe 3e 29 1f 00 3f
       0.46089637 0.66220945 0.49762267 0.50047547
0002e0 0c 1d 01 3f d4 71 a3 be 1f f3 ec bd b0 ec b2 3e
       0.50434947 -0.3192278 -0.11569809 0.34946203
0002f0 e7 b5 be be b4 01 82 3d 9e 48 4b 3e 87 1e ca 3e
       -0.37248155 0.06347981 0.1985192 0.39476416
000300 18 19 8d 3d b0 77 a0 bc ff c5 a5 be 5f ac 87 bd
       0.06889552 -0.019588321 -0.32377622 -0.06624674
000310 c3 69 b7 be 20 d1 a2 3e 2d 4d 1a 3e 48 68 d8 3d
       -0.35822877 0.31800175 0.15068503 0.10566765
000320 31 4f 82 3d 4a 81 1b bf cd 2c e3 be a9 87 d4 be
       0.06362761 -0.60744154 -0.44370118 -0.4150975
000330 35 07 a1 bd 34 e7 f9 3e 9c 71 93 be f3 2c 9e be
       -0.07862703 0.48809206 -0.28797615 -0.3089367
000340 ce 74 86 3e de db 56 3d be fa 01 bd 8b ce 59 be
       0.2626099 0.052455775 -0.031733267 -0.21270196
000350 b7 4d d3 be fa f6 c3 3e 22 26 80 3e 67 e5 05 3e
       -0.4127023 0.38274366 0.25029093 0.13075791
000360 c7 c2 8c 3e 21 d0 99 be 4c d6 07 3e ce 66 a3 3d
       0.27492353 -0.30041602 0.13265342 0.07978593
000370 c7 81 77 3f e7 07 52 3f 11 91 45 3e e9 12 52 3e
       0.966824 0.8204331 0.1929362 0.20515026
000380 b3 51 45 3f cf 36 4f be 0a 2a 33 bd 99 6c 48 3e
       0.7707779 -0.20235752 -0.043741263 0.19572677
000390 ee e4 b8 3c 7d 90 33 be 14 50 c8 3e 9f e2 bf 3e
       0.0225701 -0.17535587 0.39123595 0.37477586
0003a0 3a 5c 25 bc c8 ba 28 be f4 9b 43 3e 65 33 bd be
       -0.010092789 -0.16477501 0.1910246 -0.36953273
0003b0 85 f6 56 bf bf ad 8d 3e 33 ec 26 3d 56 4b 48 3e
       -0.8396991 0.2767162 0.0407526 0.19559988
0003c0 55 04 1b 40 c3 ee 78 3f 45 57 f6 3d a0 d2 00 3f
       2.4221394 0.9723932 0.12028364 0.5032139
0003d0 93 1b 89 3f 03 1f 4d 3c f5 95 fa 3d 48 58 22 bd
       1.071154 0.012519601 0.12235633 -0.039634973
0003e0 cc 38 26 3e ca 3d 4e 3e 7f 45 91 3e 97 b6 7d 3e
       0.16232604 0.20140758 0.28373334 0.24776684
0003f0 93 87 0f 3e 12 80 b6 3e 4f 86 b7 3d 97 51 1e bf
       0.14016561 0.35644585 0.08961164 -0.61843246

branch.output_layer.bias f4 [20]
000000 5f 16 17 3e 91 91 43 3e ee df 45 bd 02 ec f0 bc
       0.14754628 0.19098498 -0.04830926 -0.029409412
000010 b8 41 cf 3d 0c 5f 52 be 8a dc 0a 3f c9 7b d6 bd
       0.10119957 -0.2054407 0.54242766 -0.10472829
000020 05 62 23 3e 23 29 05 3e f7 66 6f 3e 39 48 6a bd
       0.1595536 0.13003974 0.23379122 -0.057197783
000030 e1 d2 15 be de de fd 3d 6d 2c 18 be 68 2f 02 be
       -0.14631225 0.12396024 -0.14860697 -0.12713397
000040 0e f2 22 be 2a 77 e6 bc 22 ea c2 3d a4 ec c0 bd
       -0.15912649 -0.028132994 0.095173135 -0.094201356

trunk.hidden_layers.0.thetas f4 [37]
000000 80 33 a7 bf f9 95 af be 7b ca 9f be d5 fc 01 bf
       -1.3062592 -0.34294108 -0.31209168 -0.50776416
000010 f2 d0 b1 bc bf 37 27 bf 0f b5 0f 3f d4 46 83 bf
       -0.021706078 -0.65319437 0.5613565 -1.025599
000020 7f d2 4c 3f bb 93 38 3f 69 70 eb 3f 85 3e 1e 3f
       0.8000869 0.7210042 1.839368 0.6181415
000030 b8 4a 98 bf 53 d0 65 bf 31 37 38 bf 99 72 37 be
       -1.1897802 -0.89771 -0.71959215 -0.1791481
000040 9e 09 26 bf 5d 8b 1e bf 45 05 8f 3f 34 14 d9 be
       -0.64858425 -0.619314 1.1173483 -0.42398226
000050 5c f7 b9 bf 2d 7b 5c bf 88 3e 4b bf d1 4b 8b 3f
       -1.4528613 -0.8612545 -0.7939229 1.0882512
000060 ba 7e c7 3f 49 b3 e7 be 1e 24 c6 bf 71 00 76 bf
       1.5585549 -0.4525397 -1.5479772 -0.96094424
000070 71 07 12 40 ce fe 76 3e 5f e3 09 3f ed 3c 1e c0
       2.2817042 0.24120638 0.53862566 -2.4724686
000080 d9 ae 19 3f 76 db 6c 3f 02 36 ce bf e4 22 e0 be
       0.6003242 0.9252237 -1.6110232 -0.4377662
000090 65 12 8e 3f
       1.1099364

trunk.hidden_layers.0.bias f4 [20]
000000 48 f4 4e be 86 2c 39 be a1 3c 59 3e 85 08 08 be
       -0.20210373 -0.1808339 0.21214534 -0.132845
000010 35 46 48 3e 7c 73 42 3e 56 85 0c 3e 66 58 35 be
       0.19558032 0.18989366 0.13722739 -0.17709503
000020 62 09 41 3e 6f 72 60 3e 34 46 85 be 12 84 ef bd
       0.18851236 0.21918653 -0.26030123 -0.11695112
000030 e9 6c 99 3e 98 07 1a 3e 79 20 76 3d 1c 6e 06 be
       0.29965904 0.1504196 0.060089562 -0.13127941
000040 e7 ac 9d 3e 70 84 22 3f 89 bd 1b 3d b9 05 95 3e
       0.30795977 0.63483334 0.03802255 0.2910593

trunk.output_layer.weight f4 [20, 20]
000000 36 9b 07 3f e5 87 cc 3e ae a9 f8 be 58 f2 9c 3e
       0.5297121 0.3994743 -0.48566955 0.30653644
000010 15 7d c8 be cb 52 26 bf 62 50 0b bf a0 14 00 3f
       -0.3915793 -0.6497008 -0.5441953 0.5003147
000020 20 a5 d1 be 3e 76 1d bf fe 29 09 3f a5 ed fd 3e
       -0.40946293 -0.6150855 0.535797 0.4959537
000030 cc 9b e0 3e a0 bb 1f 3f 44 ff 34 3f e9 c5 da 3e
       0.43868864 0.6239567 0.70702004 0.42729118
000040 82 ed f0 3c 05 aa 71 bf 0a f9 bb bd 29 a3 ed 3e
       0.029410128 -0.94400054 -0.0917836 0.46413544
000050 7e 80 5d be 50 e0 d6 bd 40 d0 87 3e f0 29 b7 bd
       -0.21631047 -0.10492003 0.2652607 -0.08943546
000060 ed d0 3b bd c5 e9 f3 3e 83 38 06 3e a1 ef 85 3c
       -0.045853544 0.4763929 0.13107495 0.016349616
000070 6c 7e a7 3e b8 56 12 3f d5 cf 07 be 66 18 92 be
       0.3271364 0.5716357 -0.13262875 -0.2853424
000080 e4 f0 1a bf 94 77 be be 5e 1c 03 bf 27 dc cb be
       -0.6052382 -0.37200606 -0.5121516 -0.398164
000090 1f 00 17 bf 4e 6f 45 3f 04 11 49 3c 2b df 82 be
       -0.5898456 0.7712296 0.012272123 -0.2556089
0000a0 17 0a 95 3e a6 1f c6 3e 8b eb ad 3b 78 31 a2 3e
       0.2910926 0.3869602 0.00530762 0.31678367
0000b0 2b 75 e8 be 3a 37 82 3d 28 5a 62 3c 99 2b 5c 3d
       -0.45401892 0.0635819 0.01381544 0.053752515
0000c0 a6 6f 95 be be 6f a9 be c6 53 fb 3b 61 11 f0 3e
       -0.29186743 -0.33093065 0.0076698987 0.4688826
0000d0 10 25 85 be c0 0a df bd 99 96 01 c0 7a 84 5f bd
       -0.2600484 -0.10890722 -2.0248168 -0.0545697
0000e0 aa 29 37 3e e4 3d dc bc 05 61 d3 3e f9 6b 30 3f
       0.17886987 -0.02688498 0.41284958 0.68914753
0000f0 28 5e 52 be 01 f4 69 be a6 b4 a5 3e e9 91 28 bc
       -0.2054373 -0.22846986 0.32364386 -0.010288694
000100 45 13 cb 3e 76 ae 93 3e ba b4 5f 3c 65 bb 89 be
       0.3966314 0.2884404 0.013653928 -0.26900783
000110 e2 0f ac 3e e2 4d 39 3e bc bc 09 be 4c 6c 5c be
       0.33605868 0.18096116 -0.13450903 -0.21525687
000120 04 0a 22 be bc 14 65 be c5 98 d3 bd ac 26 34 be
       -0.15824133 -0.22371191 -0.10331873 -0.17592877
000130 29 fd 8b bd c3 13 ad bd c1 d7 6f 3e 3a 9f a6 3e
       -0.06835396 -0.08451035 0.23422147 0.32543355
000140 25 53 92 3d 79 a5 80 be 50 8a 4c 3e 75 6b d9 3d
       0.07144765 -0.25126246 0.19974637 0.10616199
000150 82 f8 44 be ca 35 9d 3d 34 40 7a 3e db e4 1d be
       -0.19235423 0.07676275 0.24438554 -0.15419333
000160 65 e0 00 3e 98 89 ed 3e 29 20 2e be af c9 d4 be
       0.125856 0.46394038 -0.17004456 -0.41560122
000170 be 47 0b bf 66 e8 de be 80 39 3b bf 0b fe 47 be
       -0.54406345 -0.4353668 -0.73134613 -0.19530503
000180 55 2e 2b bf 62 07 2d 3f 99 c6 1a 3f 25 28 f6 3d
       -0.6686757 0.6758939 0.60459286 0.12019376
000190 e7 2a 4d 3e c0 d1 77 bc 3f 53 35 be dc b4 52 3e
       0.20035897 -0.015125692 -0.17707537 0.20576805
0001a0 ce 8b a5 be 6d e5 d4 be 1b a6 de be 4f ee 85 3e
       -0.32333225 -0.41581288 -0.43486103 0.26158378
0001b0 5d e5 85 be 31 8a 99 be ee c9 9a 3e 8a c2 f3 3e
       -0.26151553 -0.29988244 0.30232185 0.4760936
0001c0 57 d7 b2 3d b5 62 1b bd 67 e8 e1 3c 11 e7 ac 3e
       0.08732479 -0.03793593 0.027576638 0.3377004
0001d0 bf cc 54 3e c6 c8 3c c0 91 f5 8a 3e b2 19 92 3f
       0.2078123 -2.9497542 0.27140477 1.1414092
0001e0 e1 9e 30 be c8 4c f3 3a b6 0e 09 3e c2 62 a5 be
       -0.17248107 0.0018562311 0.13384518 -0.3230191
0001f0 45 2f 09 3e 84 ea 04 3f 4a c2 8f 3e f5 65 96 bd
       0.13396938 0.5192034 0.28077918 -0.073436655
000200 a3 b3 cd 3e 1a 7f c7 3e 39 4b ea 3d 6e 21 6f be
       0.40176114 0.38964158 0.11440129 -0.23352596
000210 c7 70 3d bf d4 aa 35 bf 09 ff 67 bf cd 2b c3 be
       -0.7400021 -0.7096379 -0.9062353 -0.38119355
000220 19 f0 08 bf dd 38 74 3f 28 3c 2f 3f bd 2b a5 be
       -0.5349136 0.95399266 0.68451166 -0.32259932
000230 fe 27 d0 3e 87 10 7b 3c 9b e0 6d be 6d 6c 8e 3e
       0.40655512 0.015323765 -0.23230211 0.27817097
000240 dc cb be be 41 44 bf be 0e 96 9d be cb db 30 3e
       -0.37264907 -0.3735676 -0.30778545 0.17271344
000250 ec 09 87 be f0 3e 76 be b3 10 6b 3d 1c b4 e0 3d
       -0.26374757 -0.24047446 0.057388972 0.10971853
000260 ab 4f dd 3e 2b aa 90 3e dc 75 3f 3f c6 80 90 3e
       0.43224844 0.28254828 0.74789214 0.28223246
000270 3b 04 61 3e 52 24 77 be 96 b1 14 3e 5f dc 2d be
       0.2197427 -0.24134949 0.14520869 -0.16978596
000280 74 25 8f 3c d4 f3 e8 3d b2 35 2c bd 10 22 aa 3e
       0.017473914 0.113746315 -0.042043395 0.33229113
000290 52 99 98 be de d7 98 be 67 62 15 bf 58 d4 74 3e
       -0.29804474 -0.29852194 -0.58353275 0.23909128
0002a0 50 b4 39 be 46 5c 25 bf 4e 72 a4 bd 1a 3a 26 3f
       -0.1813519 -0.64593923 -0.080296144 0.64932406
0002b0 1d b7 11 3f d0 9a 0b 3f a3 fd a3 3e 12 96 97 3e
       0.56920034 0.545331 0.32029447 0.29606682
0002c0 2f fa a1 3d ce ff bb bf ea 5b 52 bd ed c4 8e 3e
       0.07909047 -1.468744 -0.051357187 0.27884617
0002d0 58 53 af 3e cb 9b 25 3e 6c 4f a7 be f6 d0 a6 3e
       0.34243274 0.16172712 -0.32677782 0.325813
0002e0 29 2a b9 be a5 4d bc be de ee 32 be a5 9d 61 3d
       -0.36164978 -0.36777988 -0.17473933 0.055081982
0002f0 40 fb 91 be bf 2e 08 bf f6 5c 45 3e dc ff 91 3e
       -0.28512 -0.5319633 0.19273743 0.28515518
000300 3f c9 81 3e 30 2f 25 3f 0d a9 96 3e e6 a9 55 3e
       0.2534885 0.6452513 0.2942585 0.20865592
000310 ab 51 f7 3e 42 f0 a9 bf 39 1d f3 bd 4f eb 58 3e
       0.48304495 -1.3276446 -0.11870808 0.21183513
000320 dd 5e cf bd 43 86 af be f2 33 c8 3e cd 3f 5f be
       -0.101255156 -0.3428212 0.3910213 -0.21801682
000330 35 bd 4b 3e 98 c7 88 3c 67 dc ea 3e 62 c0 b6 be
       0.19896396 0.016696736 0.4587128 -0.3569365
000340 9d db a8 3e 4f d5 f5 3e 20 04 68 be 19 05 de be
       0.32980052 0.48014304 -0.22657824 -0.43363264
000350 a3 ae 28 be dd 79 87 bd 73 96 71 be d8 0d ce be
       -0.16472869 -0.066150405 -0.23592548 -0.40244937
000360 ef c3 8d be b5 c9 0a 3e 57 ab 57 3d 8f ef a0 3e
       -0.27688548 0.13553508 0.052653637 0.3143277
000370 26 d6 47 3d b3 fd 29 bd 2f d5 9c 3c 18 7e 1c 3e
       0.048788212 -0.041501712 0.019144623 0.15282476
000380 29 ee ec bd 75 26 ed bd 16 52 f2 be f7 74 00 3d
       -0.11568863 -0.11579601 -0.47328252 0.031361546
000390 20 b3 ef be f4 70 f9 be d9 13 9e be a7 25 a5 3e
       -0.4681635 -0.4871899 -0.30874518 0.3225529
0003a0 80 37 06 3f f4 7a 88 3f 4e f8 64 3f c3 c8 56 3d
       0.52428436 1.0662522 0.8944138 0.052437555
0003b0 eb d0 05 3f c7 94 1d c0 5e 32 29 bd 9f 36 53 3f
       0.5227191 -2.4622056 -0.0413078 0.8250522
0003c0 7b c7 c6 3e 08 c1 12 3e 3b 66 f7 bd 91 0e c6 3e
       0.38824067 0.14331448 -0.12080046 0.38682988
0003d0 11 30 c2 be 86 aa 9c be 62 bc 4b be 60 ec 46 3e
       -0.37927297 -0.3059885 -0.19896081 0.19426107
0003e0 45 7b a8 be bf 36 43 bd 5d 65 12 3e 30 73 fc 3e
       -0.32906547 -0.04765963 0.1429648 0.4930663
0003f0 b2 2b d0 be 91 80 0e bd 93 d3 cd bf 9f ef 9b 3d
       -0.40658337 -0.03479058 -1.6080192 0.076140635

trunk.output_layer.bias f4 [20]
000000 2c a9 c8 be 6a e3 a0 3e 76 55 ba be 9a 02 57 3e
       -0.39191568 0.31423503 -0.36393327 0.20997086
000010 b2 6a 5e 3d 37 63 6c bd 61 b5 83 3d 33 e2 9c be
       0.05430097 -0.057711806 0.0643108 -0.30641326
000020 a3 bb 78 be 50 88 84 be ac 2f 0b 3e 29 c5 71 bd
       -0.24290328 -0.25885248 0.13592404 -0.059025917
000030 44 2e 5e be 7f 1d bd be dd 0f 8b be b6 ab 13 be
       -0.21697336 -0.36936566 -0.2716054 -0.14420971
000040 d2 17 7d 3d 48 ca 11 be ba 5c fa 3d b0 48 52 bf
       0.061790295 -0.1423732 0.122247174 -0.8214216

exp_avg f4 [154]
000000 a9 62 23 b3 cf 02 6b 33 27 95 0e b2 c3 88 c1 31
       -3.8041126e-08 5.4717756e-08 -8.299401e-09 5.6325873e-09
000010 e4 c3 a2 b3 33 83 23 32 8a 44 80 2f 1b ac 60 33
       -7.579345e-08 9.51768e-09 2.3331764e-10 5.2310593e-08
000020 c1 97 84 b3 fd db af b2 56 ee 16 30 4e 1f 82 32
       -6.174333e-08 -2.047272e-08 5.490838e-10 1.5148228e-08
000030 91 28 ed 32 f0 b0 84 b3 b7 4b 0d 33 12 5d ad 2f
       2.7608879e-08 -6.178914e-08 3.2897983e-08 3.1534647e-10
000040 40 a6 2e b2 51 bf f8 32 26 c2 4c b3 53 11 a6 b2
       -1.0165934e-08 2.8958e-08 -4.767403e-08 -1.9332822e-08
000050 3b f7 e3 b3 1c 84 4f b0 08 19 f0 30 0e 67 00 b3
       -1.0615482e-07 -7.54939e-10 1.7469413e-09 -2.989605e-08
000060 c5 82 4e 33 e8 0a 3d b3 cb 56 46 33 4b 64 38 2f
       4.8082047e-08 -4.401491e-08 4.6179405e-08 1.6770334e-10
000070 97 c0 53 2e ee 0f 0b 32 86 3a 9e b1 a9 c8 9e 32
       4.81469e-11 8.094487e-09 -4.6050586e-09 1.848487e-08
000080 c0 11 e1 b0 8f af 51 b3 d4 30 59 32 78 c1 a3 33
       -1.637595e-09 -4.8821274e-08 1.2642165e-08 7.625471e-08
000090 19 1e e0 ac da ba 85 b2 ae 15 ee b0 f8 e7 20 b1
       -6.3698044e-12 -1.5568208e-08 -1.7322941e-09 -2.3414923e-09
0000a0 dc 53 7e b2 b3 c4 e7 b2 b2 4b 08 33 7a e7 51 b3
       -1.4803813e-08 -2.6981388e-08 3.1733812e-08 -4.887213e-08
0000b0 e9 68 8d b4 d0 4c ca 31 b0 16 1a b2 1b 86 84 b2
       -2.633963e-07 5.8877063e-09 -8.969138e-09 -1.5427807e-08
0000c0 b3 d7 c8 b1 73 36 a3 b2 c0 70 70 b2 5f 5d 85 b3
       -5.8452883e-09 -1.9000458e-08 -1.3995475e-08 -6.210279e-08
0000d0 19 33 0a b3 d7 14 d0 b3 1e 25 40 b1 39 f9 96 b2
       -3.2177102e-08 -9.6895455e-08 -2.7960776e-09 -1.7575632e-08
0000e0 80 41 92 32 55 1e 5c 32 84 af 20 b3 bc ac ec b2
       1.7026423e-08 1.2812582e-08 -3.7412534e-08 -2.7552566e-08
0000f0 dd 42 28 33 bc d1 28 b2 9c ca a6 34 84 51 3f 32
       3.917636e-08 -9.826575e-09 3.1067327e-07 1.1136198e-08
000100 88 23 00 32 92 e2 0a 31 12 17 9a b1 f8 64 16 b1
       7.4586595e-09 2.0210433e-09 -4.4846127e-09 -2.1885267e-09
000110 b1 f5 8b b2 8c 54 31 b2 f5 a3 33 b3 72 9b a3 b3
       -1.6293457e-08 -1.032198e-08 -4.1825803e-08 -7.618554e-08
000120 66 20 0a 35 c6 d8 8a b1 c5 58 b2 b2 01 a0 15 32
       5.145615e-07 -4.040973e-09 -2.0762295e-08 8.709322e-09
000130 00 95 0c 33 72 45 1b 33 81 03 59 b2 d6 df 9a 32
       3.2731805e-08 3.615191e-08 -1.2631859e-08 1.8029748e-08
000140 ef db fd 33 d5 4d cc 34 ad 14 cf 31 84 ac ef 31
       1.1821236e-07 3.805459e-07 6.0268435e-09 6.9754282e-09
000150 82 a8 af 30 d6 1e be b2 5e e3 21 33 da bd 31 b2
       1.2780819e-09 -2.2132934e-08 3.7692523e-08 -1.0345923e-08
000160 23 b1 e1 b3 a1 e0 fb b4 bc 89 80 b1 5a 97 97 32
       -1.05096e-07 -4.6915832e-07 -3.740949e-09 1.764754e-08
000170 20 68 99 31 44 a7 74 b0 4d ab c8 32 fd 56 b9 b2
       4.4647237e-09 -8.900438e-10 2.3360963e-08 -2.1576392e-08
000180 db e5 f8 2d 6e 49 43 b2 25 7d e9 31 cb 1e 11 33
       2.8296412e-11 -1.136719e-08 6.79542e-09 3.378845e-08
000190 da 19 4f 32 5c 3c 41 32 0b 68 c7 32 c2 f2 84 33
       1.2054864e-08 1.1247803e-08 2.3213962e-08 6.1908864e-08
0001a0 02 e9 4d b2 6d 5a 11 b1 0f 9e cb 32 58 15 ee 31
       -1.198555e-08 -2.1151678e-09 2.3704187e-08 6.929138e-09
0001b0 2e f9 cb b2 36 40 02 33 b3 c7 06 33 82 ca 32 32
       -2.3745624e-08 3.0326383e-08 3.138093e-08 1.0407009e-08
0001c0 04 d5 81 32 aa 11 c3 b2 63 35 5b b2 27 d5 13 33
       1.5114445e-08 -2.270902e-08 -1.27596165e-08 3.4419966e-08
0001d0 93 d1 b7 32 1b fc 24 b3 41 c3 02 b1 c5 b5 05 33
       2.1399307e-08 -3.8413514e-08 -1.9028479e-09 3.1131794e-08
0001e0 12 76 e3 b0 85 71 8f 32 d6 9a ce b2 c2 44 14 33
       -1.6549981e-09 1.6699014e-08 -2.4051968e-08 3.452147e-08
0001f0 af 61 17 31 19 ae e7 b2 90 7b 59 b2 de e6 65 32
       2.2028919e-09 -2.697111e-08 -1.2659157e-08 1.33820475e-08
000200 a7 33 86 31 6a e7 6f b1 ff 9a 92 b2 93 8e c2 2f
       3.9057855e-09 -3.491062e-09 -1.7067121e-08 3.53897e-10
000210 91 8a 05 33 31 40 46 b1 ec 99 69 32 d8 21 15 33
       3.10925e-08 -2.884928e-09 1.3597383e-08 3.4722547e-08
000220 8e 20 8f b2 97 f2 1f 32 ff 1e ac 32 e2 58 83 32
       -1.6662195e-08 9.310177e-09 2.003753e-08 1.5290826e-08
000230 ba 88 c1 b2 98 ae b3 31 e9 29 4b 31 a4 e7 c4 32
       -2.2530333e-08 5.2294347e-09 2.956421e-09 2.2922741e-08
000240 13 6d ac b2 34 f4 b8 32 70 38 79 b2 cf 56 a8 b2
       -2.0073037e-08 2.153147e-08 -1.450654e-08 -1.959725e-08
000250 f4 04 a5 b1 d5 35 f7 b2 5d 74 ce 32 29 50 cb 32
       -4.802695e-09 -2.8779064e-08 2.4034472e-08 2.3668763e-08
000260 3a a2 b4 b2 64 74 bc 32
       -2.102853e-08 2.1939009e-08

exp_avg_sq f4 [154]
000000 1f 6b 65 2d ec fd a4 2e 0f c0 af 2e 6b 1f a3 2d
       1.3040929e-11 7.502962e-11 7.992195e-11 1.8544907e-11
000010 7e 3e bf 2e 41 c3 b2 30 12 fd c2 29 59 f5 b0 2f
       8.696775e-11 1.3006699e-09 8.6592314e-14 3.2188543e-10
000020 36 e6 fd 2e 05 c5 1d 2f 88 47 90 2a fb 07 19 2f
       1.1546002e-10 1.4349062e-10 2.5629173e-13 1.3918104e-10
000030 be 41 0e 30 ac e7 41 30 c0 11 30 2f 87 3a 8e 2a
       5.1752724e-10 7.0542217e-10 1.6013413e-10 2.5264879e-13
000040 ff 0b e3 2c b6 96 39 2f 7a 05 f9 2e 91 19 85 2d
       6.45306e-12 1.6879195e-10 1.1324182e-10 1.5131703e-11
000050 33 40 66 30 d6 0a 8e 29 9d 84 c3 2f d4 3b 94 2d
       8.3764745e-10 6.3079465e-14 3.556452e-10 1.6852221e-11
000060 19 c2 83 2f 5b 68 07 30 31 31 a5 2f 87 bd f0 2f
       2.3966676e-10 4.926101e-10 3.0048278e-10 4.3790413e-10
000070 ab 6f 1e 28 1d 14 e1 2c 61 57 4d 2d 36 bc 0d 2d
       8.794976e-15 6.3971176e-12 1.1672303e-11 8.056713e-12
000080 8b 4b 5d 2e 14 2b 06 2f a9 28 ea 2e 39 ba 2e 30
       5.0316678e-11 1.2202533e-10 1.0648311e-10 6.356547e-10
000090 40 13 c5 21 cd ea df 2e 12 10 18 2f 97 60 9b 2d
       1.3354335e-18 1.0182575e-10 1.3830029e-10 1.7664354e-11
0000a0 cc 53 c9 30 48 2d c5 2e 3c 3f 13 2f 4a c2 06 31
       1.4648491e-09 8.9665664e-11 1.3392037e-10 1.9610007e-09
0000b0 04 b0 3b 30 00 d9 8e 2d 64 56 d0 2e 83 ca 15 2f
       6.8280337e-10 1.6239898e-11 9.474091e-11 1.3623418e-10
0000c0 40 39 0a 2e e9 c2 bb 30 f2 01 c9 2b 08 95 e9 2d
       3.1428415e-11 1.3661438e-09 1.4282449e-12 2.6555216e-11
0000d0 83 d1 30 31 14 5d b0 2f 06 cc 39 2b 98 25 d5 2d
       2.5730464e-09 3.208035e-10 6.600834e-13 2.4231991e-11
0000e0 be 8c c5 2d c5 74 59 2e 42 e5 42 30 b0 b9 a0 2c
       2.2458809e-11 4.94438e-11 7.0902584e-10 4.568089e-12
0000f0 57 26 56 2e 8f 73 75 30 36 12 81 30 4c f0 22 33
       4.869202e-11 8.92947e-10 9.391161e-10 3.7937113e-08
000100 db 1b 1f 2d 9c 64 a7 2d 85 80 59 2d c1 9e 65 2f
       9.044289e-12 1.9030381e-11 1.2363559e-11 2.088383e-10
000110 f7 f8 27 31 e1 cd ec 2c a6 1f 76 30 7f ae 00 31
       2.4443219e-09 6.7303806e-12 8.9539254e-10 1.872564e-09
000120 3d 05 47 36 1a a6 ab 2b e6 1f 92 2e 14 e8 93 2d
       2.965636e-06 1.2196383e-12 6.6449776e-11 1.6815029e-11
000130 c1 b5 04 2f 42 6a db 30 fe a1 fe 2d 63 51 83 2e
       1.2069902e-10 1.5964547e-09 2.8948396e-11 5.9716475e-11
000140 51 48 2e 30 b6 d3 69 34 70 34 c4 2d 00 91 67 2a
       6.34036e-10 2.1776836e-07 2.2305907e-11 2.0567228e-13
000150 de 62 3c 2d 0b 90 9d 30 06 28 ce 2f 5c d0 69 2a
       1.0708516e-11 1.1464193e-09 3.749962e-10 2.0766846e-13
000160 5b 39 b2 30 ed 63 79 33 1b ab 48 2b a1 1c 5e 2e
       1.2967506e-09 5.8065712e-08 7.129173e-13 5.0502384e-11
000170 78 e0 e8 2d e6 f9 8b 31 36 08 1f 2d 1b f6 4e 2e
       2.647503e-11 4.0738426e-09 9.039927e-12 4.7057563e-11
000180 85 25 7c 2a 41 ae 45 33 2d 6e 9a 2a 99 f5 06 2d
       2.2395113e-13 4.602612e-08 2.7432345e-13 7.671552e-12
000190 4c 42 11 2f 85 09 14 31 54 c2 04 2f 42 e1 30 2f
       1.3211227e-10 2.1542246e-09 1.2074369e-10 1.6087134e-10
0001a0 8d b1 ce 2e 79 43 85 2b 7e 6e 3e 2e 94 21 97 2d
       9.399335e-11 9.468946e-13 4.3299135e-11 1.7181624e-11
0001b0 43 93 88 30 51 21 7b 2e 9a dc 7d 2f 8c 0d 0b 30
       9.937157e-10 5.7100383e-11 2.308859e-10 5.0587157e-10
0001c0 b2 3a 8d 2d 81 44 a5 2d d5 f4 87 2e db de c1 2f
       1.605591e-11 1.878875e-11 6.18258e-11 3.5264844e-10
0001d0 76 80 13 2f f8 53 f8 2e 2d fe a2 2b 40 77 e3 2d
       1.341521e-10 1.129265e-10 1.158134e-12 2.585987e-11
0001e0 d1 fd b3 2f 28 64 cc 2e 4a 2b fe 2e fe 64 c1 2c
       3.2740258e-10 9.294637e-11 1.15582724e-10 5.4966023e-12
0001f0 33 33 b3 2d 4e b3 b4 2f ca d1 96 2f 26 22 96 2c
       2.0372681e-11 3.2869213e-10 2.7433905e-10 4.2670477e-12
000200 dc da 15 2f 24 58 d9 2b 93 6a 82 2d 57 81 b5 2f
       1.3629226e-10 1.5443241e-12 1.4826617e-11 3.301561e-10
000210 2e 56 f2 2d 7e fe 1b 2f 22 24 26 2c 8d 38 09 30
       2.7550486e-11 1.4187582e-10 2.3610077e-12 4.9920673e-10
000220 34 95 9f 2e 27 f1 3f 30 ac b1 5d 2d 45 28 15 2c
       7.256987e-11 6.9828093e-10 1.2601847e-11 2.1196528e-12
000230 16 86 b6 2f 40 36 7c 2f 8f ca bb 2d 6b 12 f5 2f
       3.320088e-10 2.293854e-10 2.1349393e-11 4.4578327e-10
000240 fc 43 c7 2d 8e ab 65 2d 99 a4 0c 2f 1b a0 f3 2f
       2.2653872e-11 1.3055236e-11 1.2791403e-10 4.4315204e-10
000250 00 e8 8b 2d 8e ce 0a 2f 1d bc c0 2d 22 ea 83 2e
       1.59055e-11 1.262441e-10 2.1911412e-11 5.9987806e-11
000260 7a 9d 1d 2e db 1a d5 2d
       3.5837534e-11 2.4227223e-11

exp_avg f4 [20]
000000 2e 7b 59 b4 43 d6 2f b5 b2 8b 8a b4 d7 f4 44 b4
       -2.0254512e-07 -6.550437e-07 -2.5806145e-07 -1.8342995e-07
000010 d7 6d 71 b4 fa d7 8f 34 1a af 5a b4 02 6d be b4
       -2.2484834e-07 2.679297e-07 -2.0366534e-07 -3.5469571e-07
000020 33 61 e8 33 63 d7 31 32 db 43 04 b4 1e df f8 b3
       1.0821022e-07 1.0351729e-08 -1.2318144e-07 -1.1588985e-07
000030 e7 d6 98 b4 9d d6 bf 33 14 b4 a0 b2 8b 94 7d 30
       -2.8468568e-07 8.9331685e-08 -1.8708342e-08 9.2251956e-10
000040 08 18 98 b4 4b ae 8c b4 78 8b 11 b5 94 e3 9c b4
       -2.832969e-07 -2.6203847e-07 -5.4219663e-07 -2.922285e-07

exp_avg_sq f4 [20]
000000 83 57 7a 34 89 01 0e 36 07 56 d6 35 b6 c2 41 36
       2.3314901e-07 2.1160542e-06 1.596928e-06 2.8872578e-06
000010 8d 0f fe 34 d2 4f f6 35 d8 bd 62 35 a9 c3 4f 35
       4.7322501e-07 1.8351659e-06 8.446782e-07 7.739823e-07
000020 ca d5 3e 36 6b c6 2b 35 fc 8d 27 2f f3 9f fd 33
       2.8436648e-06 6.39912e-07 1.5239005e-10 1.1810325e-07
000030 da 35 9b 35 84 a4 ac 35 d8 c9 14 36 63 58 9f 35
       1.1564073e-06 1.2862879e-06 2.2171207e-06 1.1872147e-06
000040 30 4e 3f 34 9f 07 5e 36 d6 86 2e 36 b1 c9 61 33
       1.7816706e-07 3.3085014e-06 2.6006505e-06 5.2570332e-08

exp_avg f4 [20, 20]
000000 66 93 4f 32 2f ec 2c b2 41 a8 16 b3 47 bc 15 b3
       1.20825e-08 -1.006542e-08 -3.5077623e-08 -3.4863003e-08
000010 95 86 e8 b2 72 64 c0 33 9e 35 09 33 d5 5e 17 b3
       -2.7069555e-08 8.9589676e-08 3.1946563e-08 -3.5243676e-08
000020 e2 16 2e 33 b4 32 b4 32 8d a1 86 32 79 d4 8b 32
       4.0533344e-08 2.0977815e-08 1.5673118e-08 1.6278351e-08
000030 40 6f 78 b3 30 cd 1f 33 2b 9e 10 33 82 3d 72 b2
       -5.784318e-08 3.720669e-08 3.3671466e-08 -1.4100239e-08
000040 3f 6f f6 33 ec 5d e0 32 7b 4c 15 31 19 12 91 b3
       1.1475503e-07 2.6119743e-08 2.1725828e-09 -6.7553806e-08
000050 a4 06 66 32 c3 6f 1a 33 8f 70 a8 31 a1 f5 25 33
       1.3389272e-08 3.5957566e-08 4.90224e-09 3.8640454e-08
000060 ec 3a c7 32 93 c5 14 33 d2 69 ea b1 a7 28 1a b2
       2.3193444e-08 3.4638628e-08 -6.8223267e-09 -8.973223e-09
000070 ce 26 82 b2 b3 f4 87 33 eb cf cd b2 d7 78 99 b3
       -1.5151638e-08 6.330938e-08 -2.3959691e-08 -7.146598e-08
000080 bc 10 bf 33 24 56 21 b2 b1 12 4f b3 25 0e bd 33
       8.8971746e-08 -9.3910195e-09 -4.8212943e-08 8.803571e-08
000090 98 13 75 33 3a ac 08 b3 eb 6a 74 b3 6c 17 12 33
       5.7061328e-08 -3.1821607e-08 -5.690792e-08 3.4014576e-08
0000a0 89 1e f4 31 a1 bb 40 b2 65 16 b8 b2 e6 95 92 b2
       7.104806e-09 -1.1218533e-08 -2.1430603e-08 -1.7064803e-08
0000b0 d9 42 30 b2 c6 cb 92 b1 fd c7 71 32 d6 60 90 b1
       -1.0259748e-08 -4.2723256e-09 1.4073518e-08 -4.2019606e-09
0000c0 0d e9 91 32 84 e1 71 b3 78 35 b7 32 8a e1 ad b2
       1.6986201e-08 -5.631729e-08 2.1328319e-08 -2.0242414e-08
0000d0 1d 2e 4e 32 1d 88 9b b2 10 b9 15 b2 9a 62 66 32
       1.2001263e-08 -1.8106272e-08 -8.71502e-09 1.3410181e-08
0000e0 95 d7 91 31 1e 5c 45 32 bc 7f 80 32 90 0f af b2
       4.2445643e-09 1.1487854e-08 1.4959248e-08 -2.0379758e-08
0000f0 e5 74 12 33 24 82 f9 33 d8 29 05 32 ce 82 c6 31
       3.409959e-08 1.16186385e-07 7.751133e-09 5.777429e-09
000100 b4 4a 51 32 bd 62 26 32 ff b8 70 33 05 8c 06 33
       1.2182387e-08 9.684922e-09 5.6047607e-08 3.1326653e-08
000110 aa 09 8c 33 b4 90 19 33 ff 8e 34 33 38 c6 24 33
       6.521016e-08 3.5754695e-08 4.203957e-08 3.8364504e-08
000120 32 17 73 33 66 a4 79 31 cf 21 64 33 4f 9a f4 33
       5.6598942e-08 3.6327719e-09 5.3116135e-08 1.1390204e-07
000130 c4 df 09 34 0f 64 81 34 a7 7b cc 34 64 af 0d 32
       1.2840525e-07 2.4100925e-07 3.808793e-07 8.247159e-09
000140 b5 41 0d 33 bb 64 54 32 1f 6e 23 b3 02 37 19 b2
       3.288888e-08 1.2362928e-08 -3.805155e-08 -8.9182794e-09
000150 1b ef f4 b1 95 34 62 33 a1 90 12 33 26 76 cc b2
       -7.1285178e-09 5.266755e-08 3.4124813e-08 -2.3802453e-08
000160 8a d6 17 33 61 af e2 b2 14 74 0a 33 de dc de b3
       3.535255e-08 -2.6389616e-08 3.22362e-08 -1.0377856e-07
000170 e8 c2 ac 33 89 87 04 b3 55 cc 66 b3 06 33 fd 33
       8.0448274e-08 -3.0856913e-08 -5.3736887e-08 1.1790512e-07
000180 cb c7 ca 33 e0 0e b1 b1 74 59 ac b2 19 33 16 33
       9.4427e-08 -5.153069e-09 -2.0064114e-08 3.497107e-08
000190 86 29 61 b3 a3 41 04 b3 3e e3 90 33 1c dc 13 33
       -5.242466e-08 -3.079334e-08 6.746858e-08 3.4426293e-08
0001a0 94 22 93 32 08 71 f5 b2 3c 95 99 b3 db 83 08 b1
       1.7128777e-08 -2.8573155e-08 -7.151763e-08 -1.9865556e-09
0001b0 64 1a cf b3 f9 8a 04 34 a4 37 b2 b3 2e 12 f9 b3
       -9.643989e-08 1.2344016e-07 -8.298892e-08 -1.1598273e-07
0001c0 2b 84 b0 33 d9 4b 79 b3 86 a1 40 b4 8b 14 98 33
       8.21968e-08 -5.8043813e-08 -1.7940155e-07 7.081788e-08
0001d0 c9 ec 06 35 ba c1 5b 34 95 65 8c 33 81 fa ec b4
       5.026346e-07 2.0466442e-07 6.537736e-08 -4.414069e-07
0001e0 79 87 df 32 62 0d 63 b1 a1 8e 17 b3 3c b9 ea 31
       2.6022223e-08 -3.3040455e-09 -3.5287147e-08 6.831355e-09
0001f0 b9 22 19 b1 31 b7 c8 33 4f 38 5d 32 c8 10 46 b3
       -2.2284168e-09 9.346548e-08 1.2876696e-08 -4.611573e-08
000200 06 fa 09 32 d7 dc 16 33 23 fc 8c b1 c5 3f 05 b4
       8.031298e-09 3.512545e-08 -4.103201e-09 -1.240979e-07
000210 59 a5 a4 33 ea ea 4e b2 fd b8 9d b3 6c 0d dd 33
       7.666922e-08 -1.2044191e-08 -7.3445314e-08 1.0293556e-07
000220 9f eb 05 34 5c d0 ac b3 b3 02 2d b4 f8 0b 39 32
       1.2472309e-07 -8.0472745e-08 -1.6112863e-07 1.0771139e-08
000230 52 df 24 b2 89 da 66 b3 ca d5 5e b2 bf cf 81 b2
       -9.5968336e-09 -5.3749805e-08 -1.2970711e-08 -1.5112049e-08
000240 54 54 65 b2 67 f6 4c 31 21 0f 62 b2 bc 9a 96 b2
       -1.3348728e-08 2.982597e-09 -1.3158371e-08 -1.7532663e-08
000250 19 9a 73 b2 fd 9b 02 b3 95 62 ac b1 84 7e 78 b2
       -1.4179499e-08 -3.0409854e-08 -5.0170663e-09 -1.4464266e-08
000260 b9 f8 13 b3 94 2a bf b0 11 e2 8e b2 e6 19 50 b3
       -3.4452317e-08 -1.390918e-09 -1.6633779e-08 -4.845233e-08
000270 dc 93 30 b3 cc 2e c0 b3 a7 c3 1b b4 dd 89 45 b2
       -4.111267e-08 -8.949209e-08 -1.4506678e-07 -1.1498256e-08
000280 7e 84 f8 31 cb 90 96 b1 8b dc b1 b2 d2 80 ed b2
       7.2328126e-09 -4.3820356e-09 -2.0705803e-08 -2.7649012e-08
000290 09 68 bd b2 ac 0b b2 33 1e 44 e1 32 1f ba ee b2
       -2.2049806e-08 8.290894e-08 2.6224424e-08 -2.7791485e-08
0002a0 de 20 0d 33 92 9c 28 33 e4 93 4e 32 23 a3 3b 32
       3.2859013e-08 3.9257948e-08 1.2024405e-08 1.0921926e-08
0002b0 07 4f 61 b3 bb 11 11 33 d2 f0 b2 32 70 c5 cf b0
       -5.245877e-08 3.377657e-08 2.083144e-08 -1.5117347e-09
0002c0 e4 b7 1d 34 b2 a3 22 33 94 4f 6f 32 0d 84 6a b3
       1.4688663e-07 3.7867444e-08 1.3929725e-08 -5.460247e-08
0002d0 43 64 ab 31 f5 67 91 b2 53 bd be b2 aa 67 ec b2
       4.9881534e-09 -1.6927496e-08 -2.2205006e-08 -2.7521157e-08
0002e0 ae f7 bd b2 9b 69 97 33 5a 75 ab 32 bb 6f f0 b2
       -2.2115128e-08 7.050695e-08 1.9960385e-08 -2.7990486e-08
0002f0 99 d8 db 32 3e a6 bf 32 b5 b0 33 32 8f 28 ba 31
       2.5593453e-08 2.2310925e-08 1.045935e-08 5.4179234e-09
000300 35 6a 60 b3 b0 33 f0 32 46 5b 80 32 19 0e 60 b2
       -5.225066e-08 2.7963182e-08 1.4942668e-08 -1.30417215e-08
000310 e9 dd de 33 97 90 a7 31 6f 94 ea b2 84 b2 2f b3
       1.0378046e-07 4.8767776e-09 -2.7308685e-08 -4.090772e-08
000320 0a 6b 12 33 d2 3e e6 33 b6 a8 be 31 11 ad 38 32
       3.4090625e-08 1.07216366e-07 5.548908e-09 1.074956e-08
000330 83 a0 78 32 e6 bc 1c 32 3f 7a 55 33 b0 f9 e8 32
       1.4471996e-08 9.123346e-09 4.970411e-08 2.71219e-08
000340 8a bf 71 33 fa 8f 01 33 cc f6 20 33 a3 24 47 32
       5.628639e-08 3.01661e-08 3.7477363e-08 1.1591655e-08
000350 68 c7 9e 33 e7 75 cd b1 42 4d 06 33 b3 89 05 34
       7.39372e-08 -5.979689e-09 3.1269572e-08 1.2436685e-07
000360 a1 62 fd 33 01 2c 5d 34 2e 5f af 34 d8 be a1 32
       1.1799171e-07 2.0598237e-07 3.2665542e-07 1.8829653e-08
000370 bb f1 85 b1 14 fc 58 b3 f0 e3 12 33 31 45 4b 31
       -3.898291e-09 -5.0520683e-08 3.4200582e-08 2.9579719e-09
000380 ab a7 99 b1 33 bf 91 b2 97 fd 35 b3 cc a5 02 b3
       -4.4719477e-09 -1.6967169e-08 -4.2372985e-08 -3.0418775e-08
000390 a5 b0 79 b3 c1 bd d7 33 30 96 36 b3 0e 83 ad b3
       -5.8135488e-08 1.0046234e-07 -4.2511772e-08 -8.079779e-08
0003a0 83 12 a8 32 0e a5 23 b3 dd 61 0b b4 fa cb a9 32
       1.9566192e-08 -3.810151e-08 -1.2980986e-07 1.9766947e-08
0003b0 9c ff b0 34 2f ae 19 34 11 ea 71 32 20 c7 dd b4
       3.2968535e-07 1.4312603e-07 1.4081267e-08 -4.130934e-07
0003c0 51 d2 5d 32 13 7c 2a 31 3d 86 a6 b2 55 82 7b b2
       1.29117135e-08 2.4808784e-09 -1.9385988e-08 -1.4639757e-08
0003d0 69 46 a7 b1 a3 ce 40 b3 4f cd b2 32 c7 80 4e 32
       -4.8683444e-09 -4.489142e-08 2.081529e-08 1.2020059e-08
0003e0 da 4d be 32 9a 2c d7 b3 35 1d 2d 33 34 e7 8f b3
       2.2154314e-08 -1.0019831e-07 4.0306265e-08 -6.701012e-08
0003f0 de 5b a7 33 21 4f 82 b3 4e 65 46 b3 f9 1a ae 33
       7.793254e-08 -6.06799e-08 -4.6192604e-08 8.107413e-08

exp_avg_sq f4 [20, 20]
000000 71 ef 08 2f e1 9a d2 32 10 c6 41 30 fd 29 7b 30
       1.2454195e-10 2.4517648e-08 7.0494455e-10 9.1372937e-10
000010 58 e0 48 30 fc f0 9b 31 1c bf 4b 31 ff 41 13 31
       7.307839e-10 4.5384905e-09 2.964902e-09 2.142883e-09
000020 fd d3 82 31 3e 1d 1f 32 a8 b9 63 30 f4 f7 83 31
       3.8075982e-09 9.261667e-09 8.284595e-10 3.840791e-09
000030 38 2d 17 31 7b ba d4 30 71 47 61 31 67 1e 83 32
       2.1999096e-09 1.5478031e-09 3.278242e-09 1.5264233e-08
000040 0a 18 ff 33 e6 c8 24 33 08 8f cf 33 8c 7a d9 32
       1.18787355e-07 3.836694e-08 9.665206e-08 2.5317853e-08
000050 fb 48 1d 30 41 8b f3 33 74 8c 61 31 ce fe 91 31
       5.721998e-10 1.13408994e-07 3.2821648e-09 4.2490234e-09
000060 ba 5b 69 31 86 54 b2 32 79 29 6a 32 f9 c5 2a 32
       3.3958103e-09 2.0760364e-08 1.3630022e-08 9.940316e-09
000070 fa 3f 96 32 03 fe 37 33 57 ad 82 31 06 6a 98 32
       1.7491391e-08 4.283903e-08 3.8032044e-09 1.7743343e-08
000080 e9 34 2f 32 33 21 f4 31 9f 3b 81 32 a8 75 97 33
       1.0198371e-08 7.105109e-09 1.5044689e-08 7.052887e-08
000090 63 4d 13 35 9c 4c 3e 34 7b ba ef 34 ce 54 fb 33
       5.487438e-07 1.7722999e-07 4.4652901e-07 1.1703524e-07
0000a0 eb 2e 23 29 39 59 c2 2c 36 ab f4 2a 8e fa 49 2b
       3.6233965e-14 5.5237173e-12 4.3461908e-13 7.175726e-13
0000b0 45 46 01 2b c3 d2 21 2b 6b 16 c5 2a 8d d3 60 2b
       4.5927525e-13 5.749118e-13 3.5009785e-13 7.987437e-13
0000c0 ac a7 f5 2a 9d c2 f3 2b 74 18 e5 29 7d 40 30 2b
       4.3637088e-13 1.7320205e-12 1.0173885e-13 6.2617256e-13
0000d0 d3 ff c4 2b fb cb 4f 2a db 33 da 2a 43 6f 5b 2c
       1.3997643e-12 1.8456063e-13 3.876056e-13 3.1183534e-12
0000e0 87 60 be 2d 20 9f f1 2c 71 66 9a 2d 2a a9 a6 2c
       2.1643366e-11 6.8672984e-12 1.7553266e-11 4.7367847e-12
0000f0 d4 36 e4 2f 6a 0b af 33 40 be 20 31 d3 81 50 31
       4.1511916e-10 8.151149e-08 2.339121e-09 3.034178e-09
000100 7b c3 26 31 24 2d 82 32 79 ba 29 32 b6 91 f4 31
       2.4267297e-09 1.515452e-08 9.879494e-09 7.1179e-09
000110 93 09 5a 32 c5 3f 04 33 11 c1 3d 31 35 78 5b 32
       1.2691447e-08 3.0791643e-08 2.7612865e-09 1.277481e-08
000120 43 3f fb 31 f4 54 b1 31 5f cf 3b 32 30 0b 5a 33
       7.3122535e-09 5.161036e-09 1.0931983e-08 5.0767255e-08
000130 ee 1e d4 34 6e 06 09 34 fe 95 ac 34 08 ce b4 33
       3.9510581e-07 1.2761458e-07 3.214663e-07 8.41938e-08
000140 d2 c2 0e 30 01 d9 dc 33 13 f3 4c 31 c4 c1 84 31
       5.1936155e-10 1.0284021e-07 2.9824079e-09 3.863734e-09
000150 33 12 54 31 dc 45 a1 32 e5 0a 54 32 eb 01 1b 32
       3.0860405e-09 1.8774635e-08 1.2342501e-08 9.0226235e-09
000160 c7 06 88 32 ae c4 26 33 d2 fa 6c 31 9c 1e 8a 32
       1.5835566e-08 3.8828766e-08 3.4485095e-09 1.6079234e-08
000170 64 39 1f 32 cf e6 dc 31 29 e3 69 32 50 53 89 33
       9.268067e-09 6.4290826e-09 1.3614035e-08 6.394714e-08
000180 f3 83 05 35 16 7f 2c 34 01 4d d9 34 af c7 e3 33
       4.973837e-07 1.6064982e-07 4.0475427e-07 1.06068335e-07
000190 b9 87 2e 2e b2 8e 07 32 dd b7 82 2f c7 91 aa 2f
       3.9683565e-11 7.890479e-09 2.3777505e-10 3.10264e-10
0001a0 17 f4 86 2f d0 fa bc 30 ff 66 7d 30 6e 92 41 30
       2.4547894e-10 1.3750086e-09 9.218723e-10 7.042108e-10
0001b0 ec 1b a2 30 e3 cf 4b 31 53 2d 8d 2f 81 f2 a7 30
       1.1794987e-09 2.9658558e-09 2.5679955e-10 1.2219773e-09
0001c0 6b d0 49 30 c4 e8 02 30 7e 9c 8a 30 2d d3 a7 31
       7.3419554e-10 4.7624504e-10 1.0085299e-09 4.8843476e-09
0001d0 fe b4 22 33 0b 34 52 32 cf 7a 04 33 d2 03 0b 32
       3.7883176e-08 1.2235442e-08 3.084534e-08 8.0917335e-09
0001e0 f6 a9 04 30 21 f4 cd 33 56 91 3f 31 83 03 78 31
       4.826285e-10 9.590463e-08 2.7876772e-09 3.6090746e-09
0001f0 1f 0b 46 31 1b e5 95 32 fa 57 45 32 53 af 10 32
       2.8819114e-09 1.7450068e-08 1.1486913e-08 8.421767e-09
000200 6f 25 7d 32 5c 8e 1b 33 4a 47 5c 31 41 c6 80 32
       1.473505e-08 3.6218225e-08 3.2054737e-09 1.4991317e-08
000210 7f 8b 14 32 a0 91 cd 31 a1 9d 59 32 cc 02 80 33
       8.6464516e-09 5.982841e-09 1.2666903e-08 5.960973e-08
000220 bc ee f8 34 93 cb 20 34 d3 92 ca 34 3e 6b d4 33
       4.6367302e-07 1.4975221e-07 3.773226e-07 9.8915265e-08
000230 f1 10 fb 2e 3f 03 c1 32 13 73 31 30 b2 01 66 30
       1.1417168e-10 2.2469633e-08 6.4555755e-10 8.367592e-10
000240 6b fa 37 30 a6 1e 8f 31 1a db 3a 31 de e8 06 31
       6.693088e-10 4.165332e-09 2.7191107e-09 1.9631936e-09
000250 70 00 70 31 b8 d6 11 32 40 b0 50 30 d9 ef 71 31
       3.4924845e-09 8.488932e-09 7.5920426e-10 3.5206453e-09
000260 9a 7c 0a 31 ba 27 c3 30 d5 ab 4e 31 7c 59 70 32
       2.015247e-09 1.4199408e-09 3.007462e-09 1.3990185e-08
000270 c0 d3 e9 33 db 0a 17 33 1e 40 be 33 75 5b c7 32
       1.0888425e-07 3.51673e-08 8.859227e-08 2.3208239e-08
000280 6a cf ef 2e 80 b3 b8 32 be 5d 2b 30 cc 4e 5e 30
       1.0905306e-10 2.1502046e-08 6.2342653e-10 8.0875107e-10
000290 1f 82 31 30 37 08 87 31 ad 71 31 31 8d a6 01 31
       6.457714e-10 3.929951e-09 2.5821507e-09 1.8866644e-09
0002a0 94 b4 63 31 02 65 0b 32 5b 2d 46 30 31 ec 66 31
       3.3135494e-09 8.113831e-09 7.2096434e-10 3.3603664e-09
0002b0 d9 69 05 31 41 cc b8 30 4e b5 43 31 e0 b8 65 32
       1.9414215e-09 1.3445814e-09 2.8479294e-09 1.337159e-08
0002c0 e2 4f df 33 66 41 10 33 76 ba b5 33 0d 76 be 32
       1.0398777e-07 3.3587092e-08 8.462386e-08 2.2172594e-08
0002d0 22 34 00 2f 71 59 c5 32 92 a2 36 30 f5 df 6c 30
       1.1660053e-10 2.2974492e-08 6.644224e-10 8.617456e-10
0002e0 70 3c 3d 30 6c d6 90 31 d0 fd 3d 31 3f 5e 0a 31
       6.8843686e-10 4.2153285e-09 2.7647395e-09 2.0135216e-09
0002f0 48 df 73 31 26 fc 14 32 5c 1f 54 30 13 e7 76 31
       3.5488075e-09 8.672066e-09 7.7169715e-10 3.5929062e-09
000300 9f 4a 0e 31 a6 03 c6 30 0a b5 51 31 cf 87 75 32
       2.0706137e-09 1.4407433e-09 3.0516412e-09 1.4291756e-08
000310 76 bb ee 33 f3 36 1a 33 aa 44 c2 33 15 99 cb 32
       1.11168376e-07 3.5905895e-08 9.046319e-08 2.3701924e-08
000320 bc ee 1e 30 a1 56 f4 33 a4 d3 60 31 6f bd 91 31
       5.7819327e-10 1.1377893e-07 3.2716594e-09 4.2415915e-09
000330 9d 17 69 31 ea f6 b4 32 78 69 6c 32 d7 d8 2a 32
       3.3919385e-09 2.1067041e-08 1.3760989e-08 9.944606e-09
000340 d3 cd 97 32 f7 96 38 33 43 31 84 31 66 1a 99 32
       1.7672312e-08 4.297814e-08 3.847306e-09 1.7823549e-08
000350 44 72 2f 32 98 d5 f6 31 1c b3 82 32 32 21 98 33
       1.0212322e-08 7.183825e-09 1.5215441e-08 7.08409e-08
000360 81 fa 13 35 bb 2e 3f 34 43 ce f0 34 5a 4c fc 33
       5.51263e-07 1.7805262e-07 4.485356e-07 1.1748553e-07
000370 e2 38 e2 2d 61 3e b0 31 63 07 37 2f 8c 9e 73 2f
       2.5718486e-11 5.129366e-09 1.6646377e-10 2.2157048e-10
000380 9c 9d 3c 2f 2e 67 66 30 8f ff 1d 30 e4 e4 01 30
       1.7154494e-10 8.382014e-10 5.747944e-10 4.72552e-10
000390 fa 5d 49 30 87 76 03 31 6a 98 2f 2f 12 ed 56 30
       7.325692e-10 1.9130384e-09 1.5970306e-10 7.8189644e-10
0003a0 d2 8b 0c 30 28 ea a1 2f c5 57 2b 30 ff ab 58 31
       5.11304e-10 2.9452107e-10 6.2334166e-10 3.1529905e-09
0003b0 b8 00 d1 32 ac f1 06 32 85 3f aa 32 87 05 b3 31
       2.4331129e-08 7.854776e-09 1.981949e-08 5.210214e-09
0003c0 de c4 5d 2f e8 8b 2a 33 8e 96 9e 30 87 ea cd 30
       2.0169774e-10 3.9708453e-08 1.1538803e-09 1.498237e-09
0003d0 9d 50 a4 30 ff a1 f8 31 e4 96 a3 31 e4 b1 6f 31
       1.1955482e-09 7.2361668e-09 4.7610786e-09 3.4880197e-09
0003e0 dc e2 d1 31 65 a3 80 32 bf ce b6 30 91 0c d5 31
       6.1084915e-09 1.4975464e-08 1.3301004e-09 6.2005445e-09
0003f0 ab 05 77 31 21 38 2a 31 84 49 b4 31 34 13 d4 32
       3.5946452e-09 2.4770161e-09 5.2470472e-09 2.468878e-08

exp_avg f4 [20]
000000 68 72 49 33 d0 5d 1f 33 6c a8 10 b3 c1 33 af 34
       4.690301e-08 3.7105394e-08 -3.368079e-08 3.2633946e-07
000010 b0 28 3f 32 a6 60 57 b3 32 5e 1f b3 cc 62 11 b4
       1.11269145e-08 -5.014649e-08 -3.7105742e-08 -1.354012e-07
000020 b8 72 91 33 7a c0 b9 32 8d b6 98 34 c4 7c df b3
       6.772956e-08 2.1624363e-08 2.844503e-07 -1.04069414e-07
000030 80 2b dc b2 fe 2d 6e b4 57 e5 b1 b3 bf 33 30 b1
       -2.5631152e-08 -2.2182209e-07 -8.2839215e-08 -2.5640785e-09
000040 b0 9f d0 b2 cb 4c ca 33 21 19 37 34 71 c0 25 b4
       -2.4287004e-08 9.4203266e-08 1.7052345e-07 -1.5436832e-07

exp_avg_sq f4 [20]
000000 36 5b 69 34 01 c2 86 35 ea b6 2b 2e 60 0a 42 35
       2.1732998e-07 1.004024e-06 3.904336e-11 7.228573e-07
000010 e5 48 74 35 a8 d8 94 33 48 bc 63 35 f6 e6 55 34
       9.100316e-07 6.9311966e-08 8.4838075e-07 1.9921194e-07
000020 be 48 4c 34 04 64 5a 34 e2 5d 87 35 95 26 3f 33
       1.9025444e-07 2.0339218e-07 1.0085607e-06 4.4505743e-08
000030 f1 86 bc 34 6d 30 dc 33 f5 3b 3d 34 ce f8 f6 33
       3.5115912e-07 1.0253357e-07 1.7623809e-07 1.1500525e-07
000040 bf 3e 02 34 24 64 05 34 2a 79 3c 35 84 d9 28 33
       1.213002e-07 1.2423021e-07 7.0211775e-07 3.9313377e-08

exp_avg f4 [37]
000000 ac 4b 22 b2 62 90 87 b3 5b c0 8c 33 e7 9a 53 b2
       -9.446847e-09 -6.3126905e-08 6.554247e-08 -1.2317037e-08
000010 b6 49 4d 34 d0 ed 03 b1 49 f1 01 b3 78 df 64 31
       1.9118929e-07 -1.919819e-09 -3.02546e-08 3.3305394e-09
000020 64 a8 92 32 fc 8d ab b1 cb ca 75 b2 2e 5c b6 31
       1.7073212e-08 -4.9928968e-09 -1.4306987e-08 5.3073768e-09
000030 e7 a3 7c 32 5e 5f 95 31 ca fe 96 32 c1 6a 11 30
       1.4705598e-08 4.3473127e-09 1.7578163e-08 5.29024e-10
000040 9f aa f0 32 73 85 07 ae d6 50 23 30 4c 61 7b 2f
       2.8017267e-08 -3.0813973e-11 5.941393e-10 2.2862884e-10
000050 2f e1 fd 30 c5 25 f4 ae e7 94 4b b1 40 64 07 ad
       1.8472174e-09 -1.11025446e-10 -2.962503e-09 -7.6961215e-12
000060 18 55 20 32 6a 96 ed 2d 42 43 69 30 f3 9f f1 ac
       9.332574e-09 2.7010578e-11 8.4860485e-10 -6.86739e-12
000070 7c 4a 95 b0 6a f6 0d 2d 99 3e 11 b1 bf b9 d1 ab
       -1.0862347e-09 8.069637e-12 -2.113586e-09 -1.4901898e-12
000080 f8 da 45 30 27 8c b4 ab 14 d4 12 30 46 6b db af
       7.1979356e-10 -1.2828669e-12 5.341587e-10 -3.991209e-10
000090 7f d9 11 af
       -1.3264943e-10

exp_avg_sq f4 [37]
000000 f8 7e 75 2f cb 2a f3 30 02 a2 d9 2f ba 30 b0 2e
       2.2327729e-10 1.769274e-09 3.9587184e-10 8.012209e-11
000010 54 ad a8 30 55 50 da 2b ec 8d 1f 31 1c d7 5f 2c
       1.2272872e-09 1.5512128e-12 2.3218218e-09 3.1809616e-12
000020 82 cd 46 2e a6 35 e8 2b 11 42 52 2d f8 49 bb 29
       4.5202515e-11 1.6499482e-12 1.1951788e-11 8.3173e-14
000030 21 cc 37 2e 7b 57 a0 2a 72 1c 0e 2a da 8e e3 27
       4.1790685e-11 2.848241e-13 1.2622003e-13 6.3160037e-15
000040 5e 97 08 2d 08 6b 47 27 3c cf 53 2b e2 0d 43 28
       7.764315e-12 2.767482e-15 7.5249854e-13 1.0827685e-14
000050 99 45 54 2b 70 3d 8a 26 9b 46 56 2b c3 83 e0 26
       7.5414116e-13 9.592326e-16 7.612606e-13 1.5578836e-15
000060 a6 df a0 2a ed 99 e9 25 86 12 0f 2c 60 f2 3a 22
       2.8576897e-13 4.052336e-16 2.0331805e-12 2.5336013e-18
000070 70 44 40 2d e0 21 ab 23 b1 0a 6a 2c d7 41 28 23
       1.0929133e-11 1.8554204e-17 3.3259335e-12 9.12124e-18
000080 89 b8 82 2b f4 cd 6e 1e c4 a2 2c 2b 55 b2 2b 29
       9.288274e-13 1.2642205e-20 6.133256e-13 3.8124306e-14
000090 d2 dd 86 28
       1.4973188e-14
