src/data_driven/antiderivative/classical_training_seed747/model_checkpoint-30000.pt (torch, 14893 bytes, 24 tensors)

branch.hidden_layers.0.thetas f4 [55]
00000000: 6557 853f e044 493f 48c4 553f 0972 01c0
00000010: 1f79 afbe 04c4 35bf 1bed ca3e 5b82 43bf
00000020: f317 f1be 9acb a5bf 9bb5 093c 16d9 af3f
00000030: e58d b13e c54e b4bf 4ad8 a2be 149d 3c3f
00000040: 6cba 5b3f 11c7 fabd cff6 09c0 7df0 fbbe
00000050: f938 533f 980c 33bf 833a 783f 7dc2 c9bf
00000060: 5049 5c3f 1e07 f03d 4bfa 97be 1414 803f
00000070: b7ab ad3f dbe0 c53f 426e 783e d403 c9be
00000080: 12c9 143f 3a59 d5bf c3a7 17be 4f9f aa3f
00000090: ce38 1cbf 090c cebf a995 88bf e0cf bf3f
000000a0: 812b 613e b04b 84bf 7621 aa3f 806e b8bf
000000b0: 5f07 8c3f 8b33 f93e 26e5 d9be 1be3 fa3e
000000c0: 8ade 9abf e70a 07bd d19d d03c 265a a83f
000000d0: 5093 52bf 5f68 b3bf fe28 10bf
1.0417296 0.7862072 0.83502626 -2.0225852 -0.34272096 -0.7100222 0.39634022 -0.7637078
-0.47088584 -1.2952759 0.0084051145 1.3738124 0.3467857 -1.4086539 -0.3180564 0.7367718
0.8583133 -0.12245 -2.155689 -0.49206915 0.8250881 -0.6994109 0.9696428 -1.5762478
0.86049366 0.117201075 -0.29683146 1.0006127 1.3568028 1.5459245 0.2426081 -0.39260733
0.5811931 -1.6667855 -0.1481009 1.3329867 -0.6102418 -1.6097423 -1.0670673 1.4985313
0.21989252 -1.0335598 1.3291461 -1.4408722 1.093975 0.48672137 -0.4255764 0.49001393
-1.2099164 -0.03296938 0.025465878 1.3152511 -0.8225603 -1.4016227 -0.5631255

branch.hidden_layers.0.bias f4 [10]
00000000: dc1f 823e 00d9 b43e e61f 2a3f 501f d73e
00000010: ccde 9c3e 437f 523e e7bd fd3e b56b 263e
00000020: 0c9b 0f3e 5f75 6e3e
0.25414932 0.35321808 0.66454923 0.42016077 0.3063873 0.20556359 0.49558946 0.16252024
0.1402399 0.23286961

branch.output_layer.weight f4 [10, 10]
00000000: 6bea c1be 4a8b eebe 4316 1cbf 74e1 123d
00000010: a165 c13d 5d24 c5be 8540 af3e 892c 41be
00000020: 0c10 4d3d 5e2c a93e 1927 c6bb 7869 f1bd
00000030: 5002 4e3e 6788 623e f2bc ae3e 104a aabe
00000040: b7a7 b7bd 30d2 89be 776d d1be cac7 97be
00000050: 7207 fb3e 9dcb bd3e b10f a63e dbe0 2cbf
00000060: 7384 91be 4cc1 c43e 69e4 d6be ce22 003f
00000070: 4f87 5f3e 5e7a 883e 522c 0dbf ed8b 07be
00000080: 5007 efbe c07e 083f 7f0d d23d d2ee 4bbe
00000090: 93ba 1d3f 8d07 bfbe 83eb d43d 0636 7fbe
000000a0: 7f4c 86bd c9ea 09bf 34e8 f1be 47df 6c3e
000000b0: 8baa cf3e 79c4 39be d7e4 7f3e 25d0 02bf
000000c0: f542 a1be afcd 27be cb64 823e b993 043f
000000d0: 039b 6b3f 8e53 edbd 4736 c1be c467 5c3e
000000e0: df09 13bf ce7a ca3b b4bf 0bbc 2f3b 643e
000000f0: c49a bc3e 59b4 763e 2376 cc3e e90e 11bf
00000100: f662 1bbf 41b2 743e 671e 17bf b4df 443e
00000110: 448a 8c3e ec83 b93e 3f5a f5be 3dde b1be
00000120: e980 47bf af91 8a3c 1028 5d3e 8801 2a3e
00000130: a53c 0f3f 0e76 e2be 2443 ad3d d3fa 3d3f
00000140: 4ad8 08be 69d7 b1be 1e4e f7be c57e 99bf
00000150: 365f 27bf fefd f93d 95c2 c83e 3b52 0c3e
00000160: 50f0 0e3d 9789 7c3f 2bd6 45be b03f f0be
00000170: 186b 68bf 7195 793e 3fa0 bd3e 3947 8cbb
00000180: 5ede 2a3f fade 92be 7ac4 53be 39ed 27be
-0.3787416 -0.46590644 -0.6097147 0.03585954 0.09443212 -0.38504305 0.34228912 -0.18864645
0.05006413 0.33041662 -0.0060471413 -0.11787695 0.2011807 0.22122346 0.3412853 -0.3325963
-0.08967536 -0.26918173 -0.40903828 -0.29644614 0.49029118 0.37069407 0.32433847 -0.675306
-0.28421363 0.38428724 -0.41971138 0.5005311 0.2182896 0.2665586 -0.5514575 -0.13236971
-0.46685266 0.53318405 0.102564804 -0.19915321 0.61612815 -0.37310448 0.10396483 -0.24922952
-0.06557559 -0.5387388 -0.4724747 0.23132049 0.405598 -0.18141355 0.24989639 -0.51098853
-0.31496397 -0.16387056 0.25467524 0.51787907 0.92033404 -0.115882024 -0.37736723 0.21523958
-0.5743694 0.0061791902 -0.008529592 0.22288202 0.36836827 0.24092235 0.3993388 -0.56663376
-0.6069788 0.23896123 -0.59030765 0.19225961 0.27449238 0.3623346 -0.47920415 -0.34739867
-0.77931076 0.01691517 0.21597314 0.16602147 0.5595191 -0.44230694 0.08460072 0.7421085
-0.13363758 -0.34734657 -0.48301786 -1.1991812 -0.65379655 0.12206648 0.39210954 0.13703243
0.03489715 0.98647445 -0.1931998 -0.4692359 -0.9078841 0.24373414 0.3703632 -0.0042809513
0.66745555 -0.28685743 -0.20680419 -0.16399087

branch.output_layer.bias f4 [10]
00000000: cc6a bc3e 9401 94be b272 3dbe 3b7d 913e
00000010: 5e79 923e 5833 23be 471c 19be ff17 423e
00000020: 73ac ac3e 108e af3e
0.3680023 -0.28907454 -0.18500784 0.28415856 0.2860822 -0.15937555 -0.14952193 0.18954466
0.33725318 0.34288073

trunk.hidden_layers.0.thetas f4 [17]
00000000: e23e e03f 81ca 72bf 653a 873f 9ed8 cebf
00000010: 49fb 6c3e 84c6 fdbf 721c 133f 8b22 b53f
00000020: 34be 81be 3649 d13f d2a6 45be 46dd 8b3f
00000030: ff92 62bb 62d8 92bf 6632 5f3e 3a34 c73c
00000040: 331e f43e
1.751919 -0.94840246 1.0564696 -1.6159856 0.23142733 -1.9826207 0.5746528 1.4151167
-0.25340426 1.6350467 -0.19301918 1.0926902 -0.003457248 -1.1472285 0.21796569 0.024316896
0.4767929

trunk.hidden_layers.0.bias f4 [10]
00000000: d0fa c03e 9997 6abe d983 353b 2e67 e7bd
00000010: 03ec 4dbe b710 e03e d175 ab3e 9dbd 803e
00000020: f277 1fbf b782 a43e
0.37691355 -0.22909392 0.0027696996 -0.11298977 -0.20109563 0.43762752 0.33488324 0.25144663
-0.622924 0.32130978

trunk.output_layer.weight f4 [10, 10]
00000000: 4fe4 7bbf a2d8 3dbf 8b6b 633f 54cd 063f
00000010: 646d 0d3f 2c5f 7dbf 42f2 cabe c67c b93f
00000020: a96f 753e 00df 4fbe ec0e 31be 2a15 23be
00000030: 10fc ac3d da57 b0be f68d 763d 9750 d33d
00000040: d2e7 89be 4c91 273d c0e4 52bf cf08 943e
00000050: a488 5d3f eb87 84be f8cb bbbf b609 32bf
00000060: e4c4 c1be c6cd ee3e f156 183f f004 77bf
00000070: b80a 80be 7cdd df3e a468 c3be 6cec c93c
00000080: 30a0 ab3e 5e5e ac3d 96c9 c03e 432f 65bf
00000090: 518f 30bf 9fcd 2e3f 6168 16be 25a1 ed3d
000000a0: a640 fcbe 17ef 353f c957 f5bc ebfd eb3d
000000b0: af0b a93e 8346 1ebf 857b d9bd 3b2f 4dbe
000000c0: 4ebe f23d 550f f8be d9e5 f83e 8f95 8abf
000000d0: 19a9 e2be 2938 16bf a0ce 3bbf 9998 193f
000000e0: 3e88 283e 67ad a6bd 3fa6 0cbf 9097 ad3e
000000f0: 1695 943e 5d38 07bf 7499 43bf 031b 3bbe
00000100: a4a2 00bf 1ed1 e83e 1f7b 303f 0c17 32bf
00000110: 84a8 16be 3d5d d93e 91c2 89bf 6808 77bf
00000120: f95f ab3f 41d4 903f 1131 f63d c3ed 9bbf
00000130: 05fc 57bb 028b ba3f fbae 123f d1f6 5fbd
00000140: 1491 683f 0ece d63f 5dc9 94bf 548d 3bbf
00000150: 6f0d f5be 0471 d43f 1e2a 0d3f cc7a 96bf
00000160: e2bf 5d3e 75b7 c03d 3b9c 7dbf a647 78bf
00000170: d2f4 3f3f 5ca3 183f 21b8 fc3e 1fc1 b2bf
00000180: decb 1cbf 4cf2 6d3f 92c9 e13e 0a91 36bf
-0.98395246 -0.7415868 0.8883597 0.52657056 0.5524504 -0.98973346 -0.39637953 1.4491203
0.23968376 -0.20299911 -0.17290848 -0.15926042 0.084465146 -0.34442025 0.06019398 0.10318106
-0.26934677 0.04091005 -0.82380295 0.2891297 0.8653662 -0.25884947 -1.4671621 -0.6954607
-0.37845528 0.46641368 0.5950766 -0.9649191 -0.25008178 0.43723667 -0.38165772 0.024648868
0.3352065 0.084164366 0.37653798 -0.8952524 -0.68968683 0.682825 -0.14688255 0.116030015
-0.49268073 0.7106795 -0.029949086 0.115230404 0.33016726 -0.6182634 -0.106192626 -0.20037548
0.11852704 -0.48449197 0.4861286 -1.0826892 -0.44269636 -0.58679444 -0.7336216 0.5999847
0.16458222 -0.081385426 -0.5494117 0.33904696 0.29019994 -0.5282038 -0.76406026 -0.18272023
-0.5024817 0.45472044 0.6893787 -0.69566417 -0.14712721 0.42453948 -1.0762502 -0.964972
1.3388664 1.1314775 0.120210774 -1.2181934 -0.0032956612 1.4573672 0.5729825 -0.05467874
0.9084637 1.6781633 -1.1623951 -0.73262525 -0.47861812 1.659699 0.5514239 -1.1756225
0.21655229 0.09409992 -0.99066514 -0.96984327 0.7498294 0.59624267 0.4935923 -1.3965186
-0.61248577 0.9294784 0.44099098 -0.7131506

trunk.output_layer.bias f4 [10]
00000000: 3366 8fbe 316d 923e 408e 493e c292 b8bc
00000010: e316 b3be fac5 043f 88db f43e 156b 113d
00000020: e389 0c3e c7d2 0abf
-0.2800766 0.2859893 0.1968317 -0.022530917 -0.349784 0.5186459 0.4782374 0.035502512
0.13724475 -0.5422787

exp_avg f4 [55]
00000000: 6695 97b4 028e bdb4 a5b5 e4b3 8e76 d230
00000010: a23a 7bb3 72a4 1732 b11f dcb3 245f 01b3
00000020: 4f20 9935 05bc b833 0200 d1b4 df54 ecb4
00000030: 3fe6 71b3 8241 2ab4 a01e feb4 ed82 f8b4
00000040: ea38 aeb1 f25f 09b5 fd13 22b5 44cd 12b5
00000050: 8859 0e33 ff86 58b4 d961 4435 cf05 ac34
00000060: e533 3035 554d 69b3 3fe4 b0b4 ea08 6c34
00000070: 9074 af35 c26d d936 6824 4033 3c01 21b4
00000080: b107 beb3 d63f d335 924c 0637 b598 06b3
00000090: 9056 79b4 874b 0234 a18b a735 2501 bb33
000000a0: b3cc b433 dae9 c433 b941 d535 e73b df31
000000b0: c005 fd34 05d5 2ab6 a9a4 9c33 b33c 21b4
000000c0: 6e0e 2e34 28ac b8b2 8a7a 79b5 0a37 9333
000000d0: e34a 32b4 a8ed 75b1 b3b4 8bb3
-2.8234643e-07 -3.5307318e-07 -1.0650118e-07 1.5313206e-09 -5.8493818e-08 8.826747e-09 -1.0250313e-07 -3.0121683e-08
1.1408791e-06 8.602368e-08 -3.892929e-07 -4.4020177e-07 -5.6321593e-08 -1.5856315e-07 -4.733347e-07 -4.628886e-07
-5.070537e-09 -5.1176096e-07 -6.037879e-07 -5.468794e-07 3.314338e-08 -2.0165679e-07 7.3158077e-07 3.2041723e-07
6.5640626e-07 -5.4319873e-08 -3.2948626e-07 2.1982456e-07 1.307244e-06 6.4798814e-06 4.4736595e-08 -1.4994743e-07
-8.8489635e-08 1.5739304e-06 8.00485e-06 -3.1338192e-08 -2.3221423e-07 1.213467e-07 1.2483107e-06 8.708074e-08
8.419138e-08 9.1694986e-08 1.5888864e-06 6.4969643e-09 4.7129106e-07 -2.5455968e-06 7.2942676e-08 -1.5016376e-07
1.6210262e-07 -2.1498707e-08 -9.2938046e-07 6.8552325e-08 -1.6604785e-07 -3.5787284e-09 -6.505561e-08

exp_avg_sq f4 [55]
00000000: 6ca0 6431 a0f7 9831 b7b5 0930 40ee f22e
00000010: a5d2 192f bada 7a2c 6fb6 fc2f f707 f82e
00000020: 2c4b 2433 7c5e cc2f def6 3931 999a 0d32
00000030: f5ac 192f aae1 a530 2035 0232 8194 2532
00000040: 6fb2 ba2d 6227 1a32 5f78 3932 4558 ea32
00000050: 9b36 292e 1e9b 0131 a1f4 7632 02e4 bc31
00000060: a6ef 0133 bdf0 4a2f dd19 3d31 6c94 4c31
00000070: a3b3 9633 a126 9d35 f13c 942e 68df b730
00000080: 5437 5c30 481a e933 d2f4 ee35 9ef3 912e
00000090: ddf2 a030 5827 992e 720c 2433 dee9 602f
000000a0: 76a9 ca2f 7fde e22f c4ee 9f33 f1a4 1e2c
000000b0: c2de 3732 0713 5e34 537c bd2f 577e 5530
000000c0: 06cd d730 3b1a fc2e ca26 a332 4f45 b02f
000000d0: 57fc 8330 e785 202c 028a 662f
3.3269556e-09 4.451934e-09 5.009854e-10 1.10472076e-10 1.3990105e-10 3.5648554e-12 4.596816e-10 1.1279149e-10
3.8252594e-08 3.717452e-10 2.706137e-09 8.242432e-09 1.3976716e-10 1.2069468e-09 7.579075e-09 9.63803e-09
2.1224992e-11 8.972934e-09 1.07957865e-08 2.7281326e-08 3.847465e-11 1.8860145e-09 1.4374707e-08 5.4974416e-09
3.0253112e-08 1.845732e-10 2.7517821e-09 2.9770275e-09 7.017595e-08 1.1708654e-06 6.741086e-11 1.3378498e-09
8.011416e-10 1.08546885e-07 1.7803634e-06 6.637112e-11 1.1710558e-09 6.964623e-11 3.8195545e-08 2.0455768e-10
3.6863995e-10 4.1267254e-10 7.447446e-08 2.2544711e-12 1.0702651e-08 2.0682283e-07 3.4467237e-10 7.766849e-10
1.570158e-09 1.1464293e-10 1.8993337e-08 3.206346e-10 9.603224e-10 2.2811698e-12 2.0967408e-10

exp_avg f4 [10]
00000000: b940 bdb6 bd5f ceb6 8974 51b7 5715 3737
00000010: 66e7 0c37 4293 97b6 9387 0f37 c4c5 8bb6
00000020: 0b85 c7b4 f214 f2b6
-5.6401736e-06 -6.150424e-06 -1.2484504e-05 1.0912619e-05 8.398527e-06 -4.5172937e-06 8.55503e-06 -4.1655458e-06
-3.716344e-07 -7.2146004e-06

exp_avg_sq f4 [10]
00000000: 16ad 6235 a3f9 8935 fdec 8a36 ca3a 6a36
00000010: b055 0336 7577 1d35 39ad 0e36 0097 f734
00000020: 5d7b ae31 32be be35
8.4443434e-07 1.0279949e-06 4.1403096e-06 3.4902937e-06 1.9570398e-06 5.866089e-07 2.1260478e-06 4.6117202e-07
5.0780913e-09 1.4211457e-06

exp_avg f4 [10, 10]
00000000: 17da a034 e6a0 d034 ec83 5c35 64ce ba34
00000010: 69e2 8534 e616 f034 b34e ae34 062f 0834
00000020: 511d d3b4 5619 8034 5f1b e9b4 d05a 4db5
00000030: 5032 c9b5 f26f 3fb5 2e45 ccb4 72af 50b5
00000040: a23b 28b5 3e3f c9b4 63a6 4a35 517d 1eb5
00000050: 9ba3 86b5 b037 b2b5 441d 31b6 e108 7bb5
00000060: 6cd4 33b5 c8ef e4b5 c30e c0b5 b1bd 28b5
00000070: 10aa d835 bead 83b5 b2fd 8634 e3ab 6e34
00000080: fa1d fd34 393a ab33 2db5 1a34 4eeb a934
00000090: 14c0 9234 b4d0 d433 a12c b4b4 7ebc e633
000000a0: 3eab b334 5f00 0e35 da66 8a35 1e5c e434
000000b0: 7866 8234 4819 1d35 de65 fe34 6598 8d34
000000c0: 4ec5 21b5 0f30 dd34 9dc7 b1b5 f796 09b6
000000d0: 3f5c 87b6 822b e2b5 373a 86b5 c21d 19b6
000000e0: a6a9 f9b5 0844 85b5 aef2 1836 79a7 d0b5
000000f0: 8e2b 8cb5 66f4 c9b5 7eda 47b6 4c9c 9bb5
00000100: cdae 47b5 fd84 eeb5 9564 c4b5 7a8f 3fb5
00000110: 432b eb35 a1af 96b5 46f1 8b34 0979 6a34
00000120: c1a4 0c35 5153 3b34 b886 6234 78c5 a834
00000130: 817c 4934 1eef fa32 0318 48b4 3896 7533
00000140: 11e6 8cb5 ca46 c2b5 a7db 3fb6 3b22 8cb5
00000150: 3669 39b5 3815 08b6 e6e5 f3b5 0dd4 28b5
00000160: 1e2a fa35 a3c7 9ab5 04ed 7e34 838f 0735
00000170: b93c 8835 7b93 1a35 b410 9034 267a 0035
00000180: 8496 c834 7805 4334 3334 f0b4 8259 d134
2.9961004e-07 3.8860088e-07 8.214836e-07 3.479537e-07 2.4937916e-07 4.4720144e-07 3.2467287e-07 1.2683094e-07
-3.9323143e-07 2.3860292e-07 -4.3419547e-07 -7.65006e-07 -1.499031e-06 -7.1315947e-07 -3.8048296e-07 -7.7741345e-07
-6.2671654e-07 -3.7485182e-07 7.549299e-07 -5.9041946e-07 -1.0031393e-06 -1.3278241e-06 -2.639209e-06 -9.3517707e-07
-6.699181e-07 -1.7057109e-06 -1.4309411e-06 -6.2860914e-07 1.6142749e-06 -9.810826e-07 2.5144033e-07 2.222801e-07
4.7146733e-07 7.973399e-08 1.4408279e-07 3.164991e-07 2.7334374e-07 9.909982e-08 -3.3560084e-07 1.0744496e-07
3.3465943e-07 5.289966e-07 1.0311735e-06 4.2535333e-07 2.4288943e-07 5.8523847e-07 4.7385305e-07 2.6374178e-07
-6.026429e-07 4.1199425e-07 -1.3245623e-06 -2.0502464e-06 -4.0340524e-06 -1.6850975e-06 -1.0000721e-06 -2.2816098e-06
-1.860132e-06 -9.929072e-07 2.2791023e-06 -1.5545949e-06 -1.0443489e-06 -1.5046796e-06 -2.978049e-06 -1.1593888e-06
-7.4387646e-07 -1.7771087e-06 -1.4632411e-06 -7.136183e-07 1.7521455e-06 -1.1226986e-06 2.6066317e-07 2.183698e-07
5.239381e-07 1.7446042e-07 2.10969e-07 3.1436116e-07 1.8764878e-07 2.9212568e-08 -1.8635187e-07 5.718013e-08
-1.0497771e-06 -1.4474729e-06 -2.8589072e-06 -1.0440775e-06 -6.907097e-07 -2.027793e-06 -1.817182e-06 -6.289345e-07
1.8638709e-06 -1.1531996e-06 2.3741819e-07 5.0500256e-07 1.0150462e-06 5.7584083e-07 2.6834243e-07 4.7861465e-07
3.7362418e-07 1.816278e-07 -4.4741464e-07 3.899441e-07

exp_avg_sq f4 [10, 10]
00000000: 1e95 e330 bec4 7c31 4a66 8032 cd9e 2031
00000010: e8d4 8330 2227 c531 41a5 9831 3e82 2830
00000020: b9fc 8531 6b19 3331 8662 e131 df8a 7b32
00000030: f39d 7e33 4a9e 1b32 1b5f 7931 b7bc c832
00000040: 257b 9332 b886 2d31 1b11 8332 80c8 3332
00000050: 8068 c332 4550 5933 b793 5c34 3d27 0933
00000060: b1c4 5f32 897b aa33 dc39 8233 7b23 1232
00000070: 2661 6533 ad49 1a33 8b3b 4e30 b2ad e430
00000080: 68a4 e831 bcac 9230 77ba f22f 0aef 3031
00000090: c57d 0b31 7398 962f 48e4 f330 ca85 a130
000000a0: 18fd 5b31 b953 f531 de79 f832 4673 9831
000000b0: a449 f530 cc07 4332 a089 1032 a348 a830
000000c0: a831 0032 f412 af31 7f6b 5333 90a8 eb33
000000d0: 62c6 ee34 a9d5 9233 dbd1 ec32 02ed 3a34
000000e0: 0440 0b34 9e1a a132 66b4 f633 d008 a833
000000f0: 4c0a ec32 9e6a 8333 d842 8534 7eb5 2433
00000100: 6482 8532 1a77 cf33 d348 9c33 1e5f 3232
00000110: 2315 8a33 a40e 3b33 2764 3d30 29d5 d030
00000120: ac56 d531 a30b 8a30 c687 ea2f e854 1d31
00000130: fcb7 0331 391e 842f 301b e330 2a10 9230
00000140: 65bd e832 5a35 8133 a051 8334 9095 2433
00000150: 7357 8732 6923 c933 b462 9c33 0fbc 2b32
00000160: e62d 8933 01e6 3633 bbb4 2231 1a73 b531
00000170: a6c7 b732 8179 6131 6d59 b530 584a 1032
00000180: dfc5 d531 f500 7930 c69a bd31 8584 8131
1.6558805e-09 3.6782661e-09 1.4947677e-08 2.3373332e-09 9.592016e-10 5.7379035e-09 4.4425694e-09 6.130313e-10
3.8995407e-09 2.6062377e-09 6.5595627e-09 1.46416985e-08 5.9282637e-08 9.058178e-09 3.628833e-09 2.3368882e-08
1.7169052e-08 2.5251392e-09 1.5258186e-08 1.046476e-08 2.2748509e-08 5.0597254e-08 2.0542835e-07 3.1933485e-08
1.3025031e-08 7.938713e-08 6.064121e-08 8.506386e-09 5.3406573e-08 3.5922927e-08 7.502698e-10 1.663855e-09
6.7707795e-09 1.0671992e-09 4.4152035e-10 2.5747249e-09 2.0298654e-09 2.7393163e-10 1.7745458e-09 1.1752317e-09
3.2012561e-09 7.1399566e-09 2.8926419e-08 4.4368873e-09 1.7847026e-09 1.1352267e-08 8.4131955e-09 1.2244253e-09
7.461871e-09 5.095325e-09 4.9225033e-08 1.09737016e-07 4.4475297e-07 6.837519e-08 2.7569447e-08 1.7408823e-07
1.2968673e-07 1.8754971e-08 1.1488082e-07 7.8247126e-08 2.7478698e-08 6.1195564e-08 2.4821816e-07 3.834929e-08
1.5542533e-08 9.660853e-08 7.277563e-08 1.0382591e-08 6.4299705e-08 4.3552646e-08 6.8900124e-10 1.5194576e-09
6.2089693e-09 1.0044129e-09 4.2660825e-10 2.289477e-09 1.9167592e-09 2.4032135e-10 1.6524151e-09 1.0627492e-09
2.7094481e-08 6.016735e-08 2.4460041e-07 3.8320252e-08 1.5755836e-08 9.366233e-08 7.28227e-08 9.99627e-09
6.3879085e-08 4.2584364e-08 2.3676836e-09 5.280879e-09 2.1394793e-08 3.2810876e-09 1.31949e-09 8.398807e-09
6.2216112e-09 9.058703e-10 5.5182197e-09 3.76946e-09

exp_avg f4 [10]
00000000: 88ff e335 b524 4ab6 c9b5 c0b6 8a3d 9435
00000010: 87a1 0f36 e68f 0cb7 6786 d3b6 5ec5 9635
00000020: 4abd d4b6 a0bb 0236
1.6987187e-06 -3.0121712e-06 -5.7432085e-06 1.104477e-06 2.1402682e-06 -8.378154e-06 -6.3039365e-06 1.1233312e-06
-6.3401285e-06 1.9480722e-06

exp_avg_sq f4 [10]
00000000: 7e74 9333 e0f6 9034 0fbe 7c35 2cf6 0533
00000010: 6baa 0d34 473f 0836 095a 9835 cc19 f832
00000020: 49e3 9635 428b d133
6.866411e-08 2.7001715e-07 9.415389e-07 3.1190368e-08 1.3193646e-07 2.0302411e-06 1.1351086e-06 2.888273e-08
1.124202e-06 9.757652e-08

exp_avg f4 [17]
00000000: ce70 bb33 0089 ba33 ef1c f934 f469 2534
00000010: fe8a cc34 e2fb 4a34 5dc1 e9b2 8bfd 2c34
00000020: c9c7 8ab3 79ca 8ab3 cf01 fbb2 80b3 8133
00000030: 1f24 f1b0 900c a434 4140 e3b2 88e8 2634
00000040: f941 a434
8.728385e-08 8.68622e-08 4.6400916e-07 1.5405368e-07 3.809909e-07 1.890435e-07 -2.7212701e-08 1.6110987e-07
-6.4624665e-08 -6.462955e-08 -2.9221068e-08 6.0396815e-08 -1.7545324e-09 3.055652e-07 -2.6455497e-08 1.5544549e-07
3.0595382e-07

exp_avg_sq f4 [17]
00000000: 3302 702f b89c bd2e b0d2 0531 0713 0c30
00000010: 6f3e ea31 9a16 a130 4ad0 ea2d dcee 6530
00000020: a453 7d2e d666 042f f121 0e2e 5ac7 ca2e
00000030: f870 9a2a e453 3d31 f198 b32d 3f2f 4030
00000040: 6be8 3d31
2.1828654e-10 8.622564e-11 1.947381e-09 5.0958743e-10 6.817394e-09 1.1720716e-09 2.6695219e-11 8.3649154e-10
5.7599828e-11 1.2041865e-10 3.2317208e-11 9.2213084e-11 2.7434283e-13 2.7550806e-09 2.0417864e-11 6.9916334e-10
2.7635234e-09

exp_avg f4 [10]
00000000: 6115 ccb5 3aa3 6735 38b1 6035 8ed4 3935
00000010: fa4b 6935 93b1 ceb5 4bcf 0fb5 b9e5 e234
00000020: 7225 5ab1 5e18 dfb4
-1.5205406e-06 8.629173e-07 8.370439e-07 6.922718e-07 8.6909824e-07 -1.5399877e-06 -5.35733e-07 4.2262926e-07
-3.174446e-09 -4.1554716e-07

exp_avg_sq f4 [10]
00000000: 45c1 6833 e9df 9832 2b7c 8832 b7f4 2832
00000010: 4335 9332 6ed8 5833 8806 c031 b5e3 7e31
00000020: 37b6 0629 b6ee 1931
5.4192487e-08 1.7796951e-08 1.5888949e-08 9.834529e-09 1.7137273e-08 5.048826e-08 5.588678e-09 3.7091301e-09
2.9912023e-14 2.2400122e-09

exp_avg f4 [10, 10]
00000000: b9dc 7c32 b42e 92b1 c70f 8031 6aa0 38b1
00000010: 3f67 cbb1 08c2 8e32 46d5 1f32 66d8 a132
00000020: 9d9d a6b2 edcc d732 0a9e e534 baec fcb2
00000030: baf8 2ab3 35ae c1b3 f641 0db4 1fd1 fe34
00000040: db9e 8f34 45ea 6a34 8d54 c6b4 8b60 1435
00000050: 4ec7 e0b3 1221 dcb1 ef98 0c33 5b9f cc32
00000060: cb00 de32 51c2 edb3 5ad9 61b3 b147 9f31
00000070: 90be 6733 66e3 00b4 d95f 84b0 e58a 7432
00000080: e468 4832 3783 8731 33e3 7e31 00d5 2a31
00000090: 9d5a 7632 825e 3bb3 33d1 7133 c53a 2cb4
000000a0: e0c5 dc2f ce19 9a2f 886e d030 bbd9 462f
000000b0: 9a76 91af a362 1530 3305 5f2f 3843 9d31
000000c0: a66e e7b1 664f 3831 b3dd 5ab5 c321 1434
000000d0: 31c3 8c33 de01 4134 0342 9234 f563 74b5
000000e0: fd83 0bb5 727a 11b5 4ca5 5035 9456 aeb5
000000f0: 45aa 4234 71c7 e3b1 b8d8 fcb2 f226 2ab3
00000100: d4d6 65b3 4901 5434 0fd5 d533 6b57 c533
00000110: 4f2b 34b4 04eb a334 a3f5 2f32 b8fd 1f31
00000120: 9492 0332 a92b 5db0 184a 84b1 be8c 7132
00000130: 1f97 7532 b0cf 9632 61f1 0ab2 c967 4eb2
00000140: dc1f e9b3 da36 802f 7fe8 9c32 f0a0 cd32
00000150: 7477 0b33 8e81 f4b3 33b2 45b3 03dc a9b3
00000160: 1041 1134 7ad1 80b4 89de 7b32 01e4 5032
00000170: ad5c ffb1 53cc 2db1 5c0d 4cb0 b3bf 7332
00000180: f43e 3b31 8e59 c3b1 9726 a3b2 cd9a 9932
1.4718517e-08 -4.2544688e-09 3.727084e-09 -2.6866709e-09 -5.9198153e-09 1.6619211e-08 9.303511e-09 1.8841273e-08
-1.9396618e-08 2.5122484e-08 4.2769562e-07 -2.9444312e-08 -3.9807425e-08 -9.018951e-08 -1.3155645e-07 4.7463342e-07
2.6751408e-07 2.1878175e-07 -3.6941893e-07 5.5274785e-07 -1.0467066e-07 -6.4066024e-09 3.2735382e-08 2.3821192e-08
2.5844562e-08 -1.10715185e-07 -5.2584575e-08 4.6356594e-09 5.3957194e-08 -1.2003656e-07 -9.631506e-10 1.423425e-08
1.16653815e-08 3.9439345e-09 3.7091012e-09 2.4859332e-09 1.4339688e-08 -4.3625285e-08 5.630245e-08 -1.6040129e-07
4.0158366e-10 2.8030772e-10 1.5165407e-09 1.8085348e-10 -2.6459618e-10 5.4346055e-10 2.0283579e-10 4.5769433e-09
-6.735564e-09 2.6820657e-09 -8.1533943e-07 1.3795857e-07 6.554763e-08 1.7975205e-07 2.724265e-07 -9.104254e-07
-5.1973603e-07 -5.419489e-07 7.7726577e-07 -1.2989208e-06 1.8129602e-07 -6.6292434e-09 -2.9435213e-08 -3.961663e-08
-5.3513602e-08 1.9744506e-07 9.9573406e-08 9.1894286e-08 -1.6779562e-07 3.0532112e-07 1.0242192e-08 2.3281768e-09
7.658532e-09 -8.0461376e-10 -3.850129e-09 1.4060047e-08 1.4295238e-08 1.7556744e-08 -8.08754e-09 -1.2014376e-08
-1.0855703e-07 2.332204e-10 1.8266517e-08 2.3938327e-08 3.24721e-08 -1.1385701e-07 -4.6029708e-08 -7.909696e-08
1.3527847e-07 -2.3994272e-07 1.46607215e-08 1.2159036e-08 -7.432013e-09 -2.5290958e-09 -7.423375e-10 1.4188049e-08
2.7247866e-09 -5.685428e-09 -1.8993246e-08 1.788194e-08

exp_avg_sq f4 [10, 10]
00000000: 571e 9f2b 7ff7 c82c 87a0 ab2b 5aea c329
00000010: 3b77 972b 2057 e52b 05ed 192b 97a1 d92d
00000020: 9a74 422d 096d 5b2e eefe cc31 3ef0 de2e
00000030: 2d02 552e 1157 9b2f 3c25 2b30 6f1a fb31
00000040: 3928 1631 52ad 1331 5083 b031 79b2 7432
00000050: 8125 bd2e 757e fc2b c899 242b d2c4 8f2c
00000060: 8e24 222d dcf6 e72e e5de 0a2e 3187 142e
00000070: 39a0 a72e 6602 6b2f 4eca b12d 6990 eb2b
00000080: ff01 8728 f952 902b fff5 412c 4956 da2d
00000090: 05fa fb2c 2ea1 8a2d 2371 d32d a3a1 b02e
000000a0: 7dd4 bb2a 174e 3a25 764f 2a28 37f0 8828
000000b0: a43c e728 060d e42a 3d92 082a 0219 1829
000000c0: 5cf9 632a 6119 032b 907b 9e32 6eae 652f
000000d0: aa9c 4f2f 8123 6e30 b2f8 fc30 01f1 c132
000000e0: 5e9b e831 50d3 c331 564e 8132 4aea 2d33
000000f0: 8b76 9030 7f1f 062c 338b a72d 5353 552e
00000100: c0d9 ca2e 2ef7 af30 f6a5 d22f 9d73 592f
00000110: 1ba7 4a30 d3f2 fd30 3906 e22b bfb6 462c
00000120: b370 032b 6cda e629 eaa7 572b 8880 172c
00000130: 9d50 3f2b d2a4 6c2d 04bb 042d acb1 0b2e
00000140: a71b 9a2f d77d 5c28 19da e82c 9723 612d
00000150: 704d c82d 7817 bb2f 084e df2e 06ac 222e
00000160: 9d88 442f 8cc4 eb2f fae5 662b 5c28 5c28
00000170: 708c 1629 ff8f 1e29 a122 6329 e112 8c2b
00000180: 62ca ac2a e753 8628 c0cb c72a 8915 292b
1.130605e-12 5.7118195e-12 1.2194836e-12 8.700393e-14 1.0762288e-12 1.6295611e-12 5.468545e-13 2.4741804e-11
1.1053514e-11 4.9891678e-11 5.9661636e-09 1.0138067e-10 4.8432525e-11 2.82562e-10 6.226235e-10 7.3080666e-09
2.1850737e-09 2.1489837e-09 5.1372027e-09 1.4243249e-08 8.601387e-11 1.7940776e-12 5.847792e-13 4.086156e-12
9.216751e-12 1.0548515e-10 3.1575537e-11 3.3771378e-11 7.622742e-11 2.1373978e-10 2.0212412e-11 1.6737836e-12
1.4988877e-14 1.0254845e-12 2.7563505e-12 2.4822049e-11 7.161607e-12 1.5760362e-11 2.4038166e-11 8.032266e-11
3.3365316e-13 1.6159386e-16 9.454126e-15 1.520321e-14 2.567245e-14 4.0509973e-13 1.2129963e-13 3.377247e-14
2.0248164e-13 4.657577e-13 1.844981e-08 2.0889399e-10 1.8882199e-10 8.663435e-10 1.8406097e-09 2.2577753e-08
6.769752e-09 5.6992704e-09 1.50532e-08 4.0492786e-08 1.0511071e-09 1.906003e-12 1.9047519e-11 4.85046e-11
9.224577e-11 1.2803179e-09 3.83167e-10 1.9777109e-10 7.3724643e-10 1.8477188e-09 1.6059993e-12 2.8238937e-12
4.669695e-13 1.0251942e-13 7.661637e-13 2.152974e-12 6.7968705e-13 1.3451644e-11 7.544857e-12 3.1762745e-11
2.8032085e-10 1.22397404e-14 6.6180503e-12 1.2797672e-11 2.2771757e-11 3.4031777e-10 1.0154727e-10 3.6987323e-11
1.7874631e-10 4.2885906e-10 8.203157e-13 1.2221205e-14 3.34285e-14 3.5207944e-14 5.043416e-14 9.952838e-13
3.069377e-13 1.4913375e-14 3.549088e-13 6.0070747e-13

exp_avg f4 [10]
00000000: 3f56 8f33 6804 b935 25dc 84b4 0058 dfb2
00000010: dcba 8031 342d 41b6 003e 1235 ce8b 4f33
00000020: 698c aeb4 e011 fcb0
6.6746445e-08 1.3784856e-06 -2.4747092e-07 -2.6000635e-08 3.7465337e-09 -2.8785553e-06 5.447946e-07 4.8323095e-08
-3.2512187e-07 -1.8340494e-09

exp_avg_sq f4 [10]
00000000: 03a0 262f c034 9333 9b36 8c30 0fa5 ad2f
00000010: f470 3a2c e8d4 5734 658e 2832 facd e12e
00000020: 21a5 2331 498f af2c
1.515446e-10 6.854816e-08 1.020186e-09 3.1585798e-10 2.6494891e-12 2.010089e-07 9.811264e-09 1.0268404e-10
2.3813487e-09 4.989707e-12
