src/data_driven/antiderivative/6.17/classical_training_seed3164618602/model_checkpoint-30000.pt (torch, 24301 bytes, 24 tensors)

branch.hidden_layers.0.thetas f4 [154]
-0.27170599 0.04306632 -0.026644548 -0.569063 1.5072947 -0.6364911 0.23852149 -1.2417083
-1.7996429 -0.92269176 -0.92811155 0.97226787 -1.1720139 -0.8424615 2.2245154 0.20751621
-1.7469763 -1.5251973 1.6261507 0.9717713 -1.4891216 0.57384926 -1.1957765 0.5338905
-0.4246493 -2.0071774 -1.2710029 0.95871323 1.7862535 -1.3822331 1.1727726 -2.3634994
0.93285894 -0.38699904 0.48794746 1.452619 2.424667 1.1308678 0.5056926 -1.8270679
-1.2950584 0.29774413 -0.6536194 0.45721772 -1.0316939 -1.1831278 -0.086556025 -1.0982976
0.96181464 1.441091 -0.4797801 1.8959225 1.6774101 0.80898684 -0.056540653 0.40550232
-1.7217746 1.637463 -0.08393466 0.9318955 -0.24505016 -0.13619508 -1.513318 -0.64314723
0.15947422 -1.2237166 -0.7509354 -0.09617846 1.4512306 -1.8369899 -2.0559404 -0.08574573
0.2595166 -0.18571283 1.0728047 -2.0773191 -0.02668734 -1.4281639 0.31641597 0.1363079
0.44023943 -0.5211825 0.02173526 0.38357764 1.8370696 2.0401623 0.13055298 0.26348543
-0.3739349 1.1010517 -0.7726188 -0.53645355 -0.59763926 0.98719645 0.72592664 0.07720282
-0.62293434 -1.089069 0.64921457 0.8362985 -1.0982583 -0.30978778 0.04197935 -0.6919419
0.35108024 -0.6068881 -0.92843723 0.52641195 1.1118393 0.37520167 0.32354206 0.12256086
2.1237364 0.9069885 0.23116797 0.04015612 -0.3439093 2.120448 -1.3972391 0.5022895
0.9403045 -0.683033 -0.82714486 0.088125676 -0.2944889 1.0170276 1.4951764 0.18375683
-0.38698632 0.37461233 1.6869059 -1.6707944 1.1566569 -0.6600417 -1.0136085 1.4879888
-1.179359 -1.0802689 0.9120014 -0.4591801 0.2284 -0.10751159 -1.8266106 -1.0212829
-0.4891938 -0.430914 0.45001972 0.970262 -0.33216444 0.42297903 1.0825566 -0.5894423
0.022843184 -0.21442637
00000000: 0c1d 8bbe 4f66 303d ab45 dabc 1dae 11bf
00000010: 08ef c03f 15f1 22bf fa3e 743e 4cf0 9ebf
00000020: b35a e6bf 8735 6cbf b898 6dbf 8ce6 783f
00000030: 8d04 96bf 8fab 57bf 765e 0e40 217f 543e
00000040: eb9c dfbf aa39 c3bf b525 d03f 01c6 783f
00000050: 899b bebf c9e7 123f 340f 99bf 0cad 083f
00000060: a26b d9be 9875 00c0 39b0 a2bf 3b6e 753f
00000070: f4a3 e43f 04ed b0bf 6a1d 963f 9343 17c0
00000080: d8cf 6e3f bd24 c6be 40d4 f93e 6bef b93f
00000090: be2d 1b40 47c0 903f 1275 013f 5cdd e9bf
000000a0: 79c4 a5bf eb71 983e 9a53 27bf 7118 ea3e
000000b0: 8c0e 84bf bb70 97bf 4944 b1bd 0495 8cbf
000000c0: 7c39 763f ab75 b83f bda5 f5be 97ad f23f
000000d0: 60b5 d63f c319 4f3f 2c97 67bd 009e cf3e
000000e0: 1c63 dcbf 6398 d13f efe5 abbd b490 6e3f
000000f0: 6eee 7abe b976 0bbe 67b4 c1bf 4ca5 24bf
00000100: 364d 233e bfa2 9cbf 4d3d 40bf 36f9 c4bd
00000110: edc1 b93f 7c22 ebbf 8794 03c0 759b afbd
00000120: 5cdf 843e 812b 3ebe aa51 893f ccf2 04c0
00000130: 699f dabc 13ce b6bf 4601 a23e 4c94 0b3e
00000140: 1067 e13e 376c 05bf 250e b23c 4a64 c43e
00000150: 1925 eb3f 0592 0240 aeaf 053e 90e7 863e
00000160: 6574 bfbe 43ef 8c3f 58ca 45bf 0555 09bf
00000170: e3fe 18bf e8b8 7c3f 54d6 393f 831c 9e3d
00000180: a078 1fbf 9d66 8bbf ed32 263f a917 563f
00000190: ba93 8cbf 819c 9ebe 8af2 2b3d 1b23 31bf
000001a0: cac0 b33e 055d 1bbf 10ae 6dbf efc2 063f
000001b0: c050 8e3f 6f1a c03e 4ea7 a53e 3001 fb3d
000001c0: 4ceb 0740 6630 683f 4cb7 6c3e be7a 243d
000001d0: e114 b0be 6cb5 0740 bbd8 b2bf 0b96 003f
000001e0: ccb7 703f 40db 2ebf c4bf 53bf 3c7b b43d
000001f0: 40c7 96be f62d 823f f161 bf3f c02a 3c3e
00000200: 1223 c6be 30cd bf3e 88ec d73f 97dc d5bf
00000210: 550d 943f 7ef8 28bf ecbd 81bf 6b76 be3f
00000220: 3cf5 96bf 4046 8abf ec78 693f a719 ebbe
00000230: b1e1 693e 092f dcbd 60ce e9bf 66b9 82bf
00000240: 9c77 fabe c3a0 dcbe fc68 e63e 1763 783f
00000250: 7511 aabe b590 d83e 3791 8a3f b1e5 16bf
00000260: a121 bb3c 9692 5bbe

branch.hidden_layers.0.bias f4 [20]
0.21210451 0.16046911 0.18137573 0.49085158 0.22525807 0.21584475 0.31676477 0.13889918
0.17132409 0.19324927 0.19251716 0.17220171 0.14254482 0.2163686 0.7641636 0.17204775
0.20146449 0.15891047 0.6507112 0.20434281
00000000: ed31 593e 0452 243e 8fba 393e e650 fb3e
00000010: 0daa 663e 6806 5d3e fe2e a23e 963b 0e3e
00000020: 956f 2f3e 23e3 453e 3823 453e a555 303e
00000030: 45f7 113e bb8f 5d3e 3aa0 433f 492d 303e
00000040: b54c 4e3e 6db9 223e 0295 263f 3e3f 513e

branch.output_layer.weight f4 [20, 20]
0.3521047 -0.045316417 0.14354628 0.14636646 -0.04098769 0.29582614 -0.25430465 -0.102246106
0.11777589 -0.000727599 0.038306948 0.31255087 0.15003705 -0.13142878 -0.13690782 0.03397905
-0.16339576 0.046592396 0.074025095 -0.22024828 0.15882078 -0.3875778 0.3496916 -0.34009716
0.031375453 0.0091856085 -0.027798675 -0.11758344 -0.31883574 0.26378193 -0.34345645 0.35408318
0.0970313 -0.20279773 -0.24431704 -0.42001528 -0.23846728 0.15335484 0.38354158 -0.02675351
0.4757791 -0.2342566 0.23882174 -0.21289194 0.14655447 0.37171462 -0.2575999 0.12189285
-0.38062358 0.08867729 -0.38146022 0.20977518 0.10145615 -0.11168348 0.3431028 -0.122303836
-0.17546731 0.19974662 -0.29520804 0.08138746 0.047497507 0.03971312 0.032077607 -0.4194157
0.2963582 0.037086423 -0.37702167 -0.53207135 -0.2406282 0.020558074 0.022788763 0.27295157
0.122290105 -0.43943632 -0.12470138 -0.06594635 -0.21419686 0.12090605 0.8131204 -0.6408581
0.34512386 -0.091324955 0.19949284 -0.29360068 0.22786987 0.0046311566 0.012735716 -0.33531874
0.04656854 0.13736907 -0.28837833 0.13644655 0.3389997 -0.20754617 0.14931045 -0.07808549
-0.22640385 0.18723728 0.31144187 -0.10401478 0.35793465 -0.36144164 -0.058075782 -0.25808063
0.14107856 0.10426827 -0.20574687 -0.13307442 -0.22557884 0.17113754 -0.36024374 0.4218696
0.18183586 -0.19207087 0.18010727 -0.30771786 -0.11550557 0.17798978 -0.14747232 0.24929474
-0.0368398 -0.3752686 0.32599828 -0.23951963 0.34619063 0.30614972 0.07203196 -0.26455522
-0.34247142 0.3289851 -0.27513698 0.1916153 0.047719568 -0.16927943 0.36830777 -0.16671944
-0.050250288 0.24046718 -0.21753725 0.1256693 0.24130982 -0.115331516 0.41207966 -0.22324748
0.21493104 0.16375212 -0.090741366 -0.19381855 -0.2875525 0.17212579 -0.25043976 0.18942176
0.06340983 -0.24591307 -0.12702261 -0.38541776 -0.12305046 -0.03952273 0.18320371 0.10644899
0.08764105 0.28466982 -0.29668984 0.56450695 -0.34278682 -0.03604114 0.34991637 0.018290773
-0.045564573 -0.3265805 0.10498989 0.10595314 -0.24885428 0.25707296 -0.45672688 0.02340814
-0.1656964 -0.030851219 0.26009983 -0.29899144 0.0059322035 0.12475435 -0.16816904 0.5004733
-0.27230644 0.042451918 0.14707904 -0.02384476 0.16498038 -0.16811068 0.2925639 -0.063279204
-0.38314012 0.0048280805 -0.30093524 0.3110656 0.21301948 -0.09665729 0.0070432867 -0.27430433
-0.06636883 -0.34397766 -0.12330935 -0.055159103 0.036847025 -0.04984497 -0.059464995 -0.31693107
0.0195382 0.1166351 0.092110075 -0.015203617 0.2528531 -0.019687556 0.03344501 -0.28234145
-0.09515923 0.10350784 -0.1453166 -0.13627161 -0.34054258 0.12314366 -0.41992858 0.05775847
-0.14021091 -0.2027001 0.20432323 0.22586663 0.05288539 -0.33635855 0.08882186 -0.02717142
0.0771764 0.30523598 -0.19710767 0.18440713 0.13743481 -0.09403516 0.4295531 -0.06096611
-0.14356777 0.37846634 -0.17863724 0.33938447 -0.0065523237 -0.18756452 0.2701727 0.21158966
0.30122983 -0.2796936 -0.028245091 -0.36425707 -0.29882607 0.33505332 -0.36645213 0.18137228
00000000: 1147 b43e b59d 39bd ccfd 123e 17e1 153e
00000010: b5e2 27bd 8676 973e 3834 82be 6866 d1bd
00000020: 7c34 f13d 58bc 3eba bfe7 1c3d ab06 a03e
00000030: 50a3 193e 4495 06be 9031 0cbe 9e2d 0b3d
00000040: 3851 27be abd7 3e3d 789a 973d c488 61be
00000050: eaa1 223e 9970 c6be c70a b33e 3721 aebe
00000060: 8c83 003d 3c7f 163c 0cba e3bc 96cf f0bd
00000070: 703e a3be 6d0e 873e 86d9 afbe 644a b53e
00000080: 59b8 c63d 35aa 4fbe 3f2e 7abe 3e0c d7be
00000090: c430 74be 0d09 1d3e 905f c43e 2d2a dbbc
000000a0: 5199 f33e f6e0 6fbe b08d 743e 5800 5abe
000000b0: 6012 163e 6151 be3e 22e4 83be f5a2 f93d
000000c0: 18e1 c2be 709c b53d c14e c3be 4ecf 563e
000000d0: 3ec8 cf3d 4fba e4bd 2cab af3e 6f7a fabd
000000e0: b4ad 33be 618a 4c3e 8225 97be 78ae a63d
000000f0: bf8c 423d 39aa 223d cf63 033d a8bd d6be
00000100: 43bc 973e efe7 173d fc08 c1be d435 08bf
00000110: 3d67 76be 6869 a83c 80af ba3c 4fc0 8b3e
00000120: 3c73 fa3d ccfd e0be 7063 ffbd e10e 87bd
00000130: 6c56 5bbe 979d f73d a928 503f 470f 24bf
00000140: 13b4 b03e 9408 bbbd da47 4c3e d452 96be
00000150: b856 693e f5c0 973b 77a9 503c e6ae abbe
00000160: a7be 3e3d 7aaa 0c3e 53a6 93be a5b8 0b3e
00000170: 5e91 ad3e fc86 54be d7e4 183e 49eb 9fbd
00000180: 69d6 67be 21bb 3f3e 4f75 9f3e b305 d5bd
00000190: 3643 b73e e10e b9be dfe0 6dbd 2523 84be
000001a0: e676 103e 9a8a d53d 4faf 52be a944 08be
000001b0: 24fe 66be ae3e 2f3e de71 b8be 4bff d73e
000001c0: 2e33 3a3e 3aae 44be 0a6e 383e 328d 9dbe
000001d0: 2f8e ecbd f442 363e fc02 17be 1f47 7f3e
000001e0: 55e5 16bd 3523 c0be 3fe9 a63e a244 75be
000001f0: e63f b13e a8bf 9c3e 7e85 933d c873 87be
00000200: 6a58 afbe bc70 a83e c1de 8cbe cd36 443e
00000210: 9875 433d 9657 2dbe d692 bc3e 80b8 2abe
00000220: 3fd3 4dbd 073d 763e 16c2 5ebe 74af 003e
00000230: ec19 773e ee32 ecbd 1bfc d23e fd9a 64be
00000240: e216 5c3e a3ae 273e 9cd6 b9bd 5f78 46be
00000250: 153a 93be be41 303e a439 80be c7f7 413e
00000260: 03dd 813d a3d0 7bbe 3712 02be 7a55 c5be
00000270: e101 fcbd 96e2 21bd c199 3b3e ee01 da3d
00000280: 277d b33d 3ec0 913e bbe7 97be 8783 103f
00000290: c181 afbe e09f 13bd 3d28 b33e 88d6 953c
000002a0: eba1 3abd 8f35 a7be f004 d73d f6fd d83d
000002b0: a8d3 7ebe 119f 833e 1bd8 e9be 6dc2 bf3c
000002c0: 51ac 29be b2bb fcbc ce2b 853e 6815 99be
000002d0: ee62 c23b 357f ff3d 8134 2cbe 051f 003f
000002e0: c06b 8bbe 10e2 2d3d e39b 163e 1656 c3bc
000002f0: 9ef0 283e 3525 2cbe efca 953e 8798 81bd
00000300: f12a c4be e034 9e3b 2f14 9abe fe43 9f3e
00000310: c721 5a3e 42f4 c5bd 5fcb e63b 9e71 8cbe
00000320: 62ec 87bd d71d b0be 9d89 fcbd 83ee 61bd
00000330: e8ec 163d 3d2a 4cbd 9191 73bd ca44 a2be
00000340: 930e a03c 62de ee3d 35a4 bc3d 9718 79bc
00000350: f675 813e cc47 a1bc a3fd 083d 0f8f 90be
00000360: d8e2 c2bd ebfb d33d e0cd 14be c98a 0bbe
00000370: 995b aebe be32 fc3d e100 d7be 2594 6c3d
00000380: 7393 0fbe 9d90 4fbe 1c3a 513e 9549 673e
00000390: 5a9e 583d 3037 acbe 3ce8 b53d 9996 debc
000003a0: a90e 9e3d e447 9c3e 98d6 49be 39d5 3c3e
000003b0: b6bb 0c3e 8295 c0bd 62ee db3e 9ab7 79bd
000003c0: 6e03 13be 57c6 c13e aeec 36be cdc3 ad3e
000003d0: e0b4 d6bb ea10 40be 1354 8a3e f6aa 583e
000003e0: cc3a 9a3e 0034 8fbe 4062 e7bc e77f babe
000003f0: bbff 98be 1c8c ab3e 9d9f bbbe a8b9 393e

branch.output_layer.bias f4 [20]
-0.026335906 -0.09370346 0.07430802 0.071070924 -0.1280058 0.11409424 -0.044457 0.09730547
0.08281657 0.049368635 0.07357519 -0.07560354 0.029316815 0.22255926 -0.001743588 -0.08116739
0.029073976 -0.13090453 0.11898863 -0.019185362
00000000: 66be d7bc 9ae7 bfbd ce2e 983d a28d 913d
00000010: f413 03be 3eaa e93d 8b18 36bd 1748 c73d
00000020: bc9b a93d c436 4a3d 97ae 963d 07d6 9abd
00000030: d129 f03c 93e6 633e 1b89 e4ba 173b a6bd
00000040: 8c2c ee3c d60b 06be 50b0 f33d 9f2a 9dbc

trunk.hidden_layers.0.thetas f4 [37]
1.3681647 0.9583543 0.799535 1.7380054 0.88269496 0.6652991 0.2364178 0.2411174
-0.29935503 -0.34269354 -1.6587422 -2.7181504 1.6101401 1.5924637 1.3696187 1.4936075
0.94320136 -1.352734 0.16522692 -0.4302568 -0.5635391 0.5090123 -0.36892483 0.19401671
0.025454093 -0.73141557 0.5981806 -0.9317247 1.0536325 0.6772298 -0.36815855 0.68473226
-0.48775104 0.6410016 1.266301 -0.10965608 -0.9409776
00000000: 0520 af3f b556 753f 53ae 4c3f f676 de3f
00000010: 4cf8 613f 0b51 2a3f 8217 723e 7be7 763e
00000020: 1045 99be 8775 afbe aa51 d4bf 2df6 2dc0
00000030: 1219 ce3f dad5 cb3f aa4f af3f 882e bf3f
00000040: a575 713f 6326 adbf 3f31 293e 9f4a dcbe
00000050: 1944 10bf a14e 023f b7e3 bcbe 51ac 463e
00000060: 1a85 d03c 0d3e 3bbf 5d22 193f 8385 6ebf
00000070: 6edd 863f ef5e 2d3f 477f bcbe 9d4a 2f3f
00000080: 81ba f9be ae18 243f 2716 a23f 5e93 e0bd
00000090: e8e3 70bf

trunk.hidden_layers.0.bias f4 [20]
0.1668023 0.18206242 0.17132077 -0.22453856 -0.19225937 0.16491795 -0.1503528 0.0035793248
0.12987548 0.18445377 0.1408949 0.4029365 0.2136321 0.25728995 -0.060773958 0.15349324
0.16631728 0.20029594 0.8143104 0.2501169
00000000: 39ce 2a3e 926e 3a3e b66e 2f3e 70ed 65be
00000010: a4df 44be 40e0 283e 16f6 19be 1b93 6a3b
00000020: 14fe 043e 73e1 3c3e c146 103e b14d ce3e
00000030: 60c2 5a3e 82bb 833e 1dee 78bd 552d 1d3e
00000040: 144f 2a3e 611a 4d3e a576 503f 530f 803e

trunk.output_layer.weight f4 [20, 20]
-0.092739955 -0.023170678 -0.1314522 -0.011030771 0.13328318 0.0058753467 0.17676784 0.129271
-0.15886146 -0.07830108 -0.02594488 0.24371582 -0.032909468 0.36357108 0.03020013 -0.32468012
0.33900997 -0.2528955 0.068020485 0.1039046 0.34160066 0.06343891 0.3809971 -0.1969587
-0.113698564 0.30032653 0.046380494 -0.07140413 0.0020219884 0.22689585 0.04603243 -0.041272067
-0.32078695 0.40377375 -0.45056677 -0.26848832 0.4739573 -0.013426902 -0.036550008 0.16105106
0.20304684 0.4217047 0.07050223 -0.43485975 -0.3892358 0.40578634 -0.17752773 0.14628519
0.00611791 0.13983262 0.4600389 -0.09714213 0.011197968 0.274044 -0.16591193 0.030594997
0.11521598 -0.34885812 -0.34596995 0.27544814 0.09918485 -0.13320068 -0.026049295 0.18423273
0.025759121 -0.009379468 -0.27840808 0.047427587 -0.20647484 -0.077356234 -0.18827726 1.1959532
-0.7334871 0.71361196 -0.3933383 -0.764036 0.63950574 -0.75346667 0.51866376 -0.20060012
0.024939455 0.18982546 0.15633686 -0.062424887 -0.30258557 -0.03656168 -0.1466749 0.019981744
-0.01612772 0.0023750425 0.20265068 0.2340518 -0.39719492 0.20551102 -0.052160066 -0.23472908
0.33401212 -0.24655092 0.45514804 0.18939333 0.4006308 0.27694988 0.28555092 -0.23733613
-0.39318216 0.27779406 -0.07677438 0.0031673252 0.38434532 -0.009161377 0.08257511 0.062230844
-0.16492423 0.16552304 -0.43057734 -0.036531426 0.058840968 -0.03681052 -0.16698194 0.37227228
0.43781853 0.3286903 0.09640828 -0.3323172 -0.029699797 0.26805425 -0.12507947 -0.013286063
0.2817422 0.4551332 0.19502695 -0.02644918 -0.27607414 0.066557944 -0.3313044 0.18276651
0.24339384 -0.13993931 -0.03563101 0.14832875 0.33310813 0.16526172 0.36939743 -0.022545923
-0.027948795 0.1309862 -0.073743366 0.053184107 0.08957811 0.2414019 0.3887074 -0.07054108
-0.27188522 0.38057604 -0.06262605 -0.26387486 0.2981971 -0.17221934 -0.060144596 0.2742058
-0.20561406 -0.17533219 -0.15520892 0.2216942 0.039050356 0.05847299 0.031090057 0.10900856
0.008576064 0.02526357 0.004955846 -0.68833613 0.6367655 -0.4706003 0.52707773 0.20324813
-0.37794125 0.5956293 -0.1359406 0.124819204 -0.07446213 -0.17386585 -0.021670807 0.006397713
0.046550933 0.035557315 0.22675754 -0.113566056 -0.11913533 -0.20944941 -0.15167175 -1.0165329
0.6924468 -0.76625717 0.43807557 0.42083603 -0.36212155 0.41611665 0.6423011 -0.2215641
0.027438749 0.24343154 0.11925375 0.042963225 -0.21949565 -0.035823736 -0.22559021 -0.08473353
0.27520847 0.14422308 0.17116544 0.25959453 -0.170606 0.33848432 0.01206623 -0.077463925
0.09229982 0.00046940355 -0.18891345 -0.037279308 -0.10890948 -0.0680297 0.09703518 -0.14042152
-0.056827046 -0.16731541 0.24397099 -0.28620377 0.12193638 -0.092398845 -0.22043723 -0.060797013
-0.04434251 -0.12940237 0.34393784 0.36689994 -0.32963738 0.33441642 -0.1756837 -0.1251037
-0.30834693 -0.1633071 -0.16770983 0.33238718 0.24437128 -0.36700633 0.2607681 0.060545236
0.0020563812 -0.13604638 -0.3058259 -0.5051907 0.023773255 -0.42323703 0.49005148 0.3908398
00000000: 72ee bdbd 6fd0 bdbc 689b 06be 68ba 34bc
00000010: 637b 083e fb85 c03b a102 353e 9e5f 043e
00000020: 94ac 22be 515c a0bd 5b8a d4bc a490 793e
00000030: 14cc 06bd fd25 ba3e 4366 f73c 793c a6be
00000040: b792 ad3e 857b 81be 534e 8b3d efcb d43d
00000050: 48e6 ae3e 42ec 813d 0d12 c33e 8baf 49be
00000060: cbda e8bd 66c4 993e 79f9 3d3d 543c 92bd
00000070: 5683 043b 6357 683e 808c 3c3d e60c 29bd
00000080: 303e a4be 6fbb ce3e b0b0 e6be 4d77 89be
00000090: 88aa f23e 82fc 5bbc 76b5 15bd 92ea 243e
000000a0: 83eb 4f3e aee9 d73e 7963 903d f0a5 debe
000000b0: ea49 c7be 3ac3 cf3e d4c9 35be c9cb 153e
000000c0: c078 c83b 4830 0f3e 388a eb3e 74f2 c6bd
000000d0: af77 373c 7f4f 8c3e d1e4 29be 5ca2 fa3c
000000e0: 5bf6 eb3d 889d b2be f922 b1be 8a07 8d3e
000000f0: 6d21 cb3d c265 08be 5565 d5bc 81a7 3c3e
00000100: cb04 d33c 57ac 19bc 818b 8ebe 6e43 423d
00000110: 246e 53be f26c 9ebd c1cb 40be ff14 993f
00000120: d0c5 3bbf 46af 363f a363 c9be dd97 43bf
00000130: a6b6 233f 31e3 40bf 26c7 043f 1e6a 4dbe
00000140: d44d cc3c 9b61 423e c516 203e 3db1 7fbd
00000150: 7fec 9abe b3c1 15bd f231 16be c1b0 a33c
00000160: 481e 84bc 9aa6 1b3b a983 4f3e 46ab 6f3e
00000170: 225d cbbe 7b71 523e cba5 55bd d25c 70be
00000180: a303 ab3e d877 7cbe 2a09 e93e 53f0 413e
00000190: 7b1f cd3e 60cc 8d3e bb33 923e 3e08 73be
000001a0: 2c4f c9be 063b 8e3e e33b 9dbd e692 4f3b
000001b0: e9c8 c43e 9a19 16bc 241d a93d c5e5 7e3d
000001c0: e6e1 28be df7e 293e a274 dcbe faa1 15bd
000001d0: 3a03 713d a1c6 16bd 50fd 2abe 799a be3e
000001e0: c029 e03e 184a a83e b471 c53d 7b25 aabe
000001f0: fd4c f3bc 683e 893e d514 00be caad 59bc
00000200: 8340 903e 3807 e93e 25b5 473e f3ab d8bc
00000210: 9759 8dbe 884f 883d bba0 a9be 2527 3b3e
00000220: 3c3c 793e 404c 0fbe d2f1 11bd 7ee3 173e
00000230: 268d aa3e 5e3a 293e a921 bd3e 3ab2 b8bc
00000240: dff4 e4bc 3f21 063e c306 97bd 94d7 593d
00000250: ba74 b73d 0f32 773e a804 c73e d777 90bd
00000260: 8a34 8bbe ddda c23e 1642 80bd 9b1a 87be
00000270: 4aad 983e 445a 30be 2e5a 76bd b464 8c3e
00000280: 7e8c 52be 488a 33be 16ef 1ebe ce03 633e
00000290: 44f3 1f3d 6081 6f3d 93b0 fe3c e13f df3d
000002a0: 9f82 0c3c 8cf5 ce3c a664 a23b cc36 30bf
000002b0: 1003 233f 86f2 f0be 91ee 063f 4720 503e
000002c0: 8481 c1be 297b 183f 0334 0bbe 36a1 ff3d
000002d0: 9a7f 98bd e409 32be fa86 b1bc e8a3 d13b
000002e0: 31ac 3e3d 8ca4 113d 2133 683e 5295 e8bd
000002f0: 39fd f3bd e879 56be d74f 1bbe c01d 82bf
00000300: 3244 313f 6e29 44bf 714b e03e d277 d73e
00000310: ff67 b9be 3e0d d53e d86d 243f b3e1 62be
00000320: 3ac7 e03c 1e46 793e 4f3b f43d 35fa 2f3d
00000330: 78c3 60be e9bb 12bd 1f01 67be c688 adbd
00000340: 20e8 8c3e 37af 133e fe45 2f3e 93e9 843e
00000350: 57b3 2ebe d14d ad3e 70b1 453c 68a5 9ebd
00000360: b007 bd3d 471a f639 8772 41be 30b2 18bd
00000370: ef0b dfbd 2853 8bbd 61ba c63d a9ca 0fbe
00000380: 7ac3 68bd bb54 2bbe 88d3 793e 4d89 92be
00000390: c8b9 f93d 9b3b bdbd 4cba 61be 4a06 79bd
000003a0: 7ea0 35bd 0e82 04be 9f18 b03e 4fda bb3e
000003b0: 3bc6 a8be a138 ab3e 6ee6 33be 2f1b 00be
000003c0: a6df 9dbe fa39 27be 20bc 2bbe a72e aa3e
000003d0: 773c 7a3e 41e8 bbbe 6583 853e 48fe 773d
000003e0: 5ac4 063b be4f 0bbe 3695 9cbe 2d54 01bf
000003f0: 21c0 c23c 86b2 d8be 07e8 fa3e 271c c83e

trunk.output_layer.bias f4 [20]
0.19901775 0.111526 0.15124172 0.15998577 0.17275621 0.3103583 0.3983407 0.18908396
-0.2497527 -0.21790785 0.2330935 -0.07788499 -0.13955821 -0.43228436 -0.07434774 0.38209236
-0.124658324 -0.10252146 -0.23389052 0.014177226
00000000: 4fcb 4b3e be67 e43d 1cdf 1a3e 4fd3 233e
00000010: 01e7 303e 48e7 9e3e 50f3 cb3e 3a9f 413e
00000020: 2cbf 7fbe 3c23 5fbe 10b0 6e3e 2a82 9fbd
00000030: 59e8 0ebe 6054 ddbe a143 98bd 9ca1 c33e
00000040: dd4c ffbd c5f6 d1bd ff80 6fbe 9947 683c

exp_avg f4 [154]
-1.6265834e-06 3.1600445e-07 1.4691802e-06 2.599473e-08 -1.6410462e-06 -1.1210191e-06 1.5383594e-09 -2.1209744e-06
-3.9319925e-06 2.3050777e-06 -9.372522e-10 1.081043e-06 -4.5866964e-06 -4.943e-07 -4.8263705e-06 -1.7206004e-09
3.7310602e-07 -3.661265e-06 1.6456158e-06 4.2951588e-06 -5.653756e-06 7.735228e-11 -4.4998254e-07 1.2675483e-07
-5.383866e-07 5.5088585e-06 -3.0696938e-07 4.7163585e-06 -1.4444779e-10 -8.491277e-07 -6.00988e-07 -3.2948549e-06
-6.883596e-08 -1.0572622e-05 1.7851085e-07 4.679175e-06 3.629984e-10 -7.5985247e-07 1.6204463e-06 -3.2824184e-07
3.0278854e-06 2.0955308e-06 2.9793007e-06 3.1901138e-07 6.822315e-06 1.0015381e-06 4.6163782e-07 -1.898818e-06
3.3499362e-07 1.5116785e-06 -8.725763e-06 2.3004523e-06 2.9256917e-06 1.8041166e-07 -1.2303224e-06 1.1312187e-07
9.785004e-08 -2.3006457e-06 -7.6571644e-07 4.73601e-06 3.760761e-06 8.110454e-06 3.9450647e-06 -2.3985238e-05
1.2989697e-06 6.3312044e-08 1.4132545e-06 8.3041584e-08 2.8510337e-06 -1.8137054e-06 1.6984005e-06 8.124488e-06
-8.931089e-05 -1.1150895e-06 1.15253016e-07 -7.1830846e-07 -3.3011347e-06 -2.0413866e-06 -1.220047e-07 1.3080228e-07
-2.6324765e-06 4.253735e-06 5.694551e-07 -1.3890016e-06 3.9564355e-07 -6.5069953e-06 1.1885776e-06 -1.5760186e-06
-2.3245634e-06 -5.294889e-06 -1.1086961e-06 1.9939556e-07 -6.7923975e-07 -5.8562623e-06 6.5039345e-08 -2.1846094e-07
-7.3735697e-07 -1.1120658e-05 9.921167e-07 1.6435095e-07 7.3461056e-06 -4.295853e-06 5.38917e-07 -1.8754506e-06
5.02999e-06 -1.2273036e-06 2.8275463e-07 2.4118958e-07 2.1044102e-06 4.3440195e-07 -3.2408488e-07 -6.8609265e-06
7.8869124e-07 -5.493547e-08 6.3761627e-06 9.421045e-07 2.8488947e-07 -1.7412107e-06 6.931745e-08 5.69357e-07
9.669722e-07 2.5729764e-06 2.6713073e-07 -6.461672e-07 8.598454e-07 4.652699e-07 -8.475189e-08 -3.6208885e-06
5.509637e-07 1.504427e-07 4.001125e-07 -5.8118263e-07 -4.812293e-08 1.2434717e-07 -2.5655875e-06 -2.2247348e-06
-4.5305274e-08 -1.4145556e-06 2.384491e-07 -6.6551074e-06 8.487929e-07 6.20635e-07 -3.5676314e-06 -2.1203325e-06
1.9839354e-07 4.411564e-06 1.8306469e-06 4.356728e-07 -8.7959177e-07 -3.4166665e-06 3.398211e-06 4.8870334e-06
-4.58062e-06 3.365859e-06
00000000: fb50 dab5 52a7 a934 a630 c535 044b df32
00000010: eb41 dcb5 ec75 96b5 366e d330 1056 0eb6
00000020: 8fef 83b6 efb0 1a36 a1d0 80b0 5b18 9135
00000030: 6ce7 99b6 0ab0 04b5 35f2 a1b6 3f7a ecb0
00000040: 4d4f c834 0eb4 75b6 eede dc35 221f 9036
00000050: 65b5 bdb6 7619 aa2e 2195 f1b4 1a1a 0834
00000060: a585 10b5 bcd8 b836 8dcd a4b4 3641 9e36
00000070: 70d2 1eaf 9cef 63b5 9553 21b5 2d1d 5db6
00000080: f8d2 93b3 1161 31b7 b0ac 3f34 cf01 9d36
00000090: 7c8f c72f aaf8 4bb5 1c7e d935 3739 b0b4
000000a0: ad32 4b36 f2a0 0c36 ffef 4736 9744 ab34
000000b0: 3deb e436 966c 8635 05d7 f734 e4da feb5
000000c0: 2cd9 b334 e1e4 ca35 de64 12b7 7861 1a36
000000d0: 0057 4436 2eb7 4134 8e21 a5b5 68ed f233
000000e0: a121 d233 cb64 1ab6 a28b 4db5 04ea 9e36
000000f0: 6261 7c36 2212 0837 d95f 8436 e833 c9b7
00000100: 4258 ae35 2af6 8733 0eaf bd35 9854 b233
00000110: 6354 3f36 716e f3b5 99f4 e335 694e 0837
00000120: 6b4c bbb8 2faa 95b5 0481 f733 c8d1 40b5
00000130: 1089 5db6 c1fe 08b6 6600 03b4 a872 0c34
00000140: 9aa9 30b6 4ebb 8e36 a8dc 1835 bb6d bab5
00000150: d668 d434 aa56 dab6 3787 9f35 9687 d3b5
00000160: b2ff 1bb6 c0aa b1b6 82ce 94b5 6f19 5634
00000170: 0055 36b5 e980 c4b6 c2ab 8b33 1692 6ab4
00000180: c9ee 45b5 dd92 3ab7 df28 8535 7278 3034
00000190: 917e f636 1925 90b6 18aa 1035 feb7 fbb5
000001a0: 49c7 a836 d5b9 a4b5 80cd 9734 d87c 8134
000001b0: 7e39 0d36 c037 e934 e3fd adb4 e936 e6b6
000001c0: 73b6 5335 30f2 6bb3 d2f2 d536 eee4 7c35
000001d0: e9f2 9834 8bb3 e9b5 acdb 9433 ead5 1835
000001e0: e9c8 8135 66ab 2c36 2b6a 8f34 4674 2db5
000001f0: 20d0 6635 35ca f934 d800 b6b3 64fe 72b6
00000200: f0e5 1335 6089 2134 0bcf d634 9102 1cb5
00000210: b9af 4eb3 4a84 0534 752c 2cb6 a74c 15b6
00000220: ad95 42b3 c3db bdb5 3204 8034 f04e dfb6
00000230: 9bd8 6335 b699 2635 716b 6fb6 094b 0eb6
00000240: 0006 5534 0c07 9436 8cb4 f535 6ae6 e934
00000250: 161d 6cb5 e249 65b6 d20c 6436 4cfb a336
00000260: 3ab3 99b6 04e1 6136

exp_avg_sq f4 [154]
1.2898349e-10 5.7019025e-12 2.1574309e-10 3.153253e-14 1.3000165e-10 1.7876691e-11 4.112155e-16 2.354216e-10
4.4333287e-10 8.104568e-11 4.6156526e-17 6.969855e-11 1.1024232e-09 3.3017547e-11 4.8506693e-10 2.992518e-16
7.175637e-12 6.1271704e-10 9.193311e-11 5.74341e-10 1.0091845e-09 5.1464557e-19 2.116056e-11 4.644108e-12
8.390617e-12 1.371311e-09 4.2432235e-11 5.031683e-10 8.6320707e-19 8.2727006e-11 3.8324517e-11 3.7016434e-10
6.332656e-11 3.9036205e-09 7.63278e-12 2.5748836e-10 4.1275498e-18 2.9707143e-11 1.8199894e-10 1.22636614e-11
1.9378078e-10 2.04469e-10 5.347168e-11 2.979731e-11 8.5206264e-10 2.4159461e-11 3.7476016e-12 2.0038583e-10
1.4909278e-10 6.563939e-11 2.9189842e-09 8.895758e-11 1.4113861e-10 9.912004e-12 6.454047e-11 5.286799e-13
3.4917397e-12 2.860819e-10 1.8872154e-11 8.0030316e-10 6.1864164e-10 5.742269e-10 1.8046523e-10 1.5680808e-08
4.679134e-11 1.6215798e-13 2.8561414e-10 3.5946433e-11 1.8110378e-10 3.297149e-10 1.14536144e-10 9.864058e-10
2.9288248e-07 5.3146796e-11 5.9972582e-12 4.9635053e-11 6.4720695e-10 1.6586733e-10 7.8745684e-11 1.4551455e-11
1.7221079e-10 3.2357267e-10 5.4841466e-12 8.2060816e-11 6.6241665e-12 1.1181335e-09 3.490435e-11 2.711371e-10
3.1619284e-11 2.1919764e-09 5.256838e-11 5.940728e-12 1.6429999e-10 1.0912922e-09 2.4104115e-11 8.269323e-11
1.0099329e-12 4.3146344e-09 3.153663e-11 1.5096344e-12 1.7606794e-09 3.0636788e-10 1.548418e-11 6.2081473e-10
7.837757e-10 5.0326177e-11 1.9389945e-11 2.5095264e-12 7.517459e-11 4.836356e-11 1.02260325e-10 1.0629495e-09
1.4518458e-11 4.8197475e-12 1.282494e-09 1.1713826e-11 1.1880385e-11 5.5549426e-10 3.645801e-12 4.371855e-12
8.76873e-11 1.4217266e-10 5.7539064e-11 1.169949e-10 3.859272e-11 3.249607e-12 3.3748857e-12 2.7061683e-10
2.1773314e-11 4.0498048e-12 4.2992476e-12 1.368656e-11 3.0418452e-13 4.0261627e-11 1.9020152e-10 2.470997e-10
7.833988e-13 6.590336e-11 4.8485565e-12 1.6138649e-09 2.607673e-11 3.3015227e-12 3.4734013e-10 1.8207241e-10
3.0512704e-12 6.0631195e-10 1.535178e-10 4.952204e-12 5.352156e-11 3.5939002e-10 3.6479875e-10 8.271273e-10
6.178344e-10 3.590349e-10
00000000: a0d1 0d2f 2c9e c82c 4836 6d2f 8802 0e29
00000010: 36f0 0e2f bb3e 9d2d b20c ed25 a56c 812f
00000020: 8eb9 f32f a938 b22e 02dc 5424 cc44 992e
00000030: 1184 9730 7436 112e 8d55 0530 c581 ac25
00000040: 6478 fc2c 216c 2830 bd29 ca2e a8df 1d30
00000050: 86b3 8a30 85e5 1721 5821 ba2d 6866 a32c
00000060: fb9b 132d b778 bc30 739e 3a2e 524f 0a30
00000070: 15c6 7e21 2aeb b52e 928d 282e 0080 cb2f
00000080: af41 8b2e 9c20 8631 fc46 062d 448e 8d2f
00000090: 9b47 9822 45a7 022e 261c 482f 9fbe 572d
000000a0: 7110 552f e8d0 602f c22b 6b2e ca0c 032e
000000b0: 9436 6a30 4582 d42d 65db 832c 9953 5c2f
000000c0: e3ed 232f b157 902e 5097 4831 aa9e c32e
000000d0: fd2e 1b2f b35f 2e2d 0eed 8d2e 67cf 142b
000000e0: 97b5 752c 7346 9d2f 5000 a62d 54fc 5b30
000000f0: 090d 2a30 a0d7 1d30 726c 462f 76b2 8632
00000100: 5eca 4d2e db92 362a 9e04 9d2f 1618 1e2e
00000110: 2f20 472f 3f43 b52f 1ede fb2e 1292 8730
00000120: 763d 9d34 f9bd 692e 8002 d32c 1a4c 5a2e
00000130: 24e7 3130 815f 362f e129 ad2e edfd 7f2d
00000140: 0759 3d2f cee2 b12f cdf4 c02c 2274 b42e
00000150: 3011 e92c d3ac 9930 ce82 192e 280f 952f
00000160: 2610 0b2e a8a1 1631 bc32 672e 5205 d12c
00000170: 56a6 342f 6efc 9530 a405 d42d 26d8 b52e
00000180: ab22 8e2b ed3f 9431 17b3 0a2e 5076 d42b
00000190: 66fc f130 726d a82f 4633 882d f4a5 2a30
000001a0: 5071 5730 3d56 5d2e 468e aa2d 9c97 302c
000001b0: 884f a52e 87b4 542e 72df e02e 3617 9230
000001c0: 5269 7f2d 6d94 a92c bf43 b030 6212 4e2d
000001d0: 7f00 512d 6fb1 1830 7546 802c 2bd2 992c
000001e0: 90d3 c02e 0c52 1c2f 3a0f 7d2e 23a3 002f
000001f0: 8abb 292e b7ab 642c 897c 6d2c efc5 942f
00000200: 2585 bf2d 667d 8e2c 2e44 972c c9c6 702d
00000210: 9c3d ab2a 9012 312e f820 512f 31d8 872f
00000220: d581 5c2b 4bec 902e ea97 aa2c d3ce dd30
00000230: 935f e52d f252 682c c7f3 be2f d430 482f
00000240: cdb6 562c 69a9 2630 6bcb 282f 7d3d ae2c
00000250: eb63 6b2e a693 c52f dc8c c82f e95b 6330
00000260: 3bd4 2930 ac61 c52f

exp_avg f4 [20]
0.00019408303 -0.00018332106 0.00022128179 -6.571032e-05 0.000104434825 6.04217e-05 -2.0514224e-05 -0.00022706583
-0.00018506536 0.0001203432 -0.00020864217 0.0002686826 0.00014688353 -0.00011423195 -7.116996e-05 -0.0002573174
-0.00011689204 0.000143852 6.189582e-05 -2.015898e-05
00000000: c482 4b39 df39 40b9 e107 6839 f6cd 89b8
00000010: 0504 db38 4e6d 7d38 f615 acb7 8518 6eb9
00000020: 1b0e 42b9 c360 fc38 f5c6 5ab9 f8dd 8c39
00000030: bf04 1a39 d08f efb8 1541 95b8 8fe8 86b9
00000040: f023 f5b8 fad6 1639 11ce 8138 141b a9b7

exp_avg_sq f4 [20]
1.1985607e-06 1.0857628e-06 1.598103e-06 1.404157e-07 3.1875365e-07 1.0279944e-07 1.8696452e-08 1.7249623e-06
1.1173321e-06 4.560695e-07 1.4183174e-06 2.29653e-06 6.823221e-07 4.3629925e-07 1.9523192e-07 2.1580413e-06
4.569483e-07 6.9228884e-07 1.06298444e-07 2.0896016e-08
00000000: 3bde a035 87ba 9135 677e d635 2cc5 1634
00000010: 2b21 ab34 97c2 dc33 ef99 a032 4185 e735
00000020: 3df7 9535 b7d9 f434 045d be35 161e 1a36
00000030: d128 3735 833c ea34 f1a0 5134 ded2 1036
00000040: 7f52 f534 bad5 3935 3046 e433 d37e b332

exp_avg f4 [20, 20]
6.8264753e-06 4.2694314e-06 5.72577e-06 1.645746e-05 7.840606e-06 7.401547e-06 1.0343299e-05 3.7682225e-06
4.782809e-06 6.4559626e-06 5.6281124e-06 6.131437e-06 4.916683e-06 5.8000687e-06 3.0731982e-05 6.1723936e-06
6.385181e-06 8.508752e-07 4.8828813e-05 4.0449893e-05 9.775853e-06 6.279114e-06 8.185483e-06 2.3732537e-05
1.1106097e-05 1.0477853e-05 1.4755896e-05 5.4442053e-06 6.972246e-06 9.145754e-06 8.1630005e-06 8.658703e-06
6.931919e-06 8.4183275e-06 4.4169206e-05 8.875863e-06 9.057897e-06 1.2381536e-06 7.0274546e-05 5.787172e-05
9.170083e-06 5.9126924e-06 7.682275e-06 2.2310796e-05 1.040439e-05 9.821062e-06 1.3864491e-05 5.1229927e-06
6.555102e-06 8.577175e-06 7.667899e-06 8.117449e-06 6.5054287e-06 7.922476e-06 4.1503714e-05 8.335033e-06
8.484831e-06 1.1786311e-06 6.6024724e-05 5.4351967e-05 1.5083024e-05 8.955723e-06 1.2698599e-05 3.5569476e-05
1.758339e-05 1.6588381e-05 2.2793733e-05 8.04454e-06 1.0142025e-05 1.4545428e-05 1.2001447e-05 1.3801714e-05
1.1206015e-05 1.2429488e-05 6.7329e-05 1.3268182e-05 1.3987525e-05 2.041888e-06 0.00010672345 8.8779336e-05
1.2842357e-05 8.159742e-06 1.0783616e-05 3.0997016e-05 1.4613518e-05 1.3796498e-05 1.9370971e-05 7.0700844e-06
9.041422e-06 1.2089166e-05 1.0574236e-05 1.1436013e-05 9.21973e-06 1.1014303e-05 5.788898e-05 1.14519835e-05
1.17506615e-05 1.7665387e-06 9.214574e-05 7.5771066e-05 1.9454215e-05 1.26679e-05 1.6289407e-05 4.7346366e-05
2.1945309e-05 2.0701507e-05 2.9279763e-05 1.08524655e-05 1.3972726e-05 1.810901e-05 1.6295997e-05 1.709884e-05
1.3712193e-05 1.6877892e-05 8.803317e-05 1.7599148e-05 1.7832092e-05 2.5682095e-06 0.00014020254 0.00011496884
1.7090833e-05 1.1088432e-05 1.4328262e-05 4.1439387e-05 1.9263785e-05 1.8172115e-05 2.5658612e-05 9.461094e-06
1.2200858e-05 1.593765e-05 1.4209869e-05 1.503064e-05 1.2099114e-05 1.48006075e-05 7.718882e-05 1.5284175e-05
1.5522097e-05 2.3642183e-06 0.00012300756 0.00010069181 1.16387055e-05 7.489518e-06 9.752287e-06 2.8269049e-05
1.3207309e-05 1.24647095e-05 1.7576709e-05 6.481454e-06 8.300256e-06 1.0893022e-05 9.707412e-06 1.0305799e-05
8.267951e-06 1.0041717e-05 5.2631887e-05 1.0537454e-05 1.0735854e-05 1.5170231e-06 8.3745545e-05 6.889038e-05
-5.542352e-06 -3.459671e-06 -4.6524488e-06 -1.3573388e-05 -6.4382607e-06 -6.1017367e-06 -8.580154e-06 -3.149741e-06
-3.91522e-06 -5.2732453e-06 -4.638035e-06 -5.0614335e-06 -4.0210803e-06 -4.754709e-06 -2.5140478e-05 -5.1528705e-06
-5.353681e-06 -6.1530824e-07 -3.989207e-05 -3.3339686e-05 -6.8195836e-06 -4.334444e-06 -5.659215e-06 -1.6829852e-05
-7.935479e-06 -7.481882e-06 -1.05286745e-05 -3.9568804e-06 -4.9703567e-06 -6.393223e-06 -5.9232716e-06 -6.130122e-06
-4.7899807e-06 -5.8224773e-06 -3.1183736e-05 -6.680375e-06 -6.7653627e-06 -5.474614e-07 -4.928505e-05 -4.12246e-05
9.788519e-06 6.2826757e-06 8.197586e-06 2.3715309e-05 1.110807e-05 1.04764995e-05 1.4740279e-05 5.4302936e-06
6.967894e-06 9.155329e-06 8.151723e-06 8.659601e-06 6.940397e-06 8.419372e-06 4.4168537e-05 8.84877e-06
9.037918e-06 1.256658e-06 7.029402e-05 5.7846402e-05 -3.1697034e-06 -1.9836345e-06 -2.6623304e-06 -7.687506e-06
-3.6507574e-06 -3.4534519e-06 -4.840786e-06 -1.7664375e-06 -2.2244208e-06 -3.0052176e-06 -2.620508e-06 -2.8658624e-06
-2.292822e-06 -2.7093663e-06 -1.4301593e-05 -2.8779025e-06 -2.986821e-06 -3.9109878e-07 -2.2732453e-05 -1.8870633e-05
-7.913096e-06 -5.1045818e-06 -6.6265916e-06 -1.9232197e-05 -8.972498e-06 -8.466039e-06 -1.1939251e-05 -4.410378e-06
-5.655496e-06 -7.3930146e-06 -6.6134867e-06 -6.9969196e-06 -5.6034405e-06 -6.834142e-06 -3.577243e-05 -7.1704117e-06
00000000: fa0e e536 2342 8f36 fd1f c036 200e 8a37
00000010: 258b 0337 ce5a f836 2288 2d37 92e1 7c36
00000020: 047c a036 4ca0 d836 1ed9 bc36 a5bc cd36
00000030: fcf9 a436 369e c236 37e6 0038 751c cf36
00000040: 4a40 d636 b367 6435 8acd 4c38 bea8 2938
00000050: f802 2437 2eb1 d236 6254 0937 3c15 c737
00000060: 5354 3a37 09ca 2f37 1790 7737 5ead b636
00000070: 23f3 e936 b770 1937 d2f3 0837 d944 1137
00000080: bb98 e836 713c 0d37 5342 3938 8be9 1437
00000090: 5ff7 1737 a22e a635 5c60 9338 49bb 7238
000000a0: 35d9 1937 a465 c636 1fe3 0037 1228 bb37
000000b0: 848e 2e37 24c5 2437 899b 6837 2ce6 ab36
000000c0: e6f3 db36 b0e6 0f37 60a5 0037 2e30 0837
000000d0: 3549 da36 c6ea 0437 4614 2e38 b2d6 0b37
000000e0: 125a 0e37 7531 9e35 c176 8a38 fbf7 6338
000000f0: 180d 7d37 8a40 1637 110c 5537 6f30 1538
00000100: 0b80 9337 4727 8b37 2b35 bf37 09f7 0637
00000110: aa27 2a37 2308 7437 d359 4937 e98d 6737
00000120: 7801 3c37 3f88 5037 fb32 8d38 689a 5e37
00000130: f6ab 6a37 5e07 0936 b7d0 df38 0b2f ba38
00000140: 8175 5737 d3e5 0837 47eb 3437 cb02 0238
00000150: 952c 7537 8277 6737 d87e a237 903b ed36
00000160: 9db0 1737 93d2 4a37 ff67 3137 4ddd 3f37
00000170: 70ae 1a37 12ca 3837 d2cd 7238 e521 4037
00000180: b524 4537 cf19 ed35 5e3e c138 48e7 9e38
00000190: 9c31 a337 3788 5437 3ca5 8837 c695 4638
000001a0: 3117 b837 26a8 ad37 d09d f537 fc12 3637
000001b0: 676c 6a37 cee8 9737 63b3 8837 7b6f 8f37
000001c0: 6c0d 6637 ff94 8d37 739e b838 e2a1 9337
000001d0: 2096 9537 8159 2c36 5503 1339 6d1b f138
000001e0: 495e 8f37 7408 3a37 6b63 7037 34cf 2d38
000001f0: aa98 a137 5270 9837 733d d737 17bb 1e37
00000200: 49b2 4c37 d8b1 8537 ec66 6e37 1b2c 7c37
00000210: 4dfd 4a37 2050 7837 6fe0 a138 8436 8037
00000220: 7335 8237 f6a8 1e36 97fb 0039 812a d338
00000230: dc43 4337 784e fb36 c19d 2337 5223 ed37
00000240: f694 5d37 851f 5137 b271 9337 447b d936
00000250: 5441 0b37 2cc1 3637 04dd 2237 12e7 2c37
00000260: 94b6 0a37 d978 2837 0fc1 5c38 05ca 3037
00000270: 241e 3437 849c cb35 8ca0 af38 3e79 9038
00000280: 71f8 b9b6 b22c 68b6 3b1c 9cb6 42b9 63b7
00000290: 3d08 d8b6 85bd ccb6 7bf3 0fb7 2360 53b6
000002a0: 7c5f 83b6 d5f0 b0b6 6ba0 9bb6 62d5 a9b6
000002b0: d1ec 86b6 a48a 9fb6 c4e4 d2b7 d2e6 acb6
000002c0: c5a3 b3b6 a92b 25b5 c951 27b8 37d6 0bb8
000002d0: c7d3 e4b6 9770 91b6 49e4 bdb6 d52d 8db7
000002e0: 9f22 05b7 e10c fbb6 50a4 30b7 58c5 84b6
000002f0: 0ac7 a6b6 5e85 d6b6 84c0 c6b6 59b1 cdb6
00000300: 9fb9 a0b6 b35e c3b6 48cb 02b8 fc27 e0b6
00000310: 0602 e3b6 43f5 12b5 6bb7 4eb8 94e8 2cb8
00000320: 5e39 2437 c6cf d236 5d88 0937 3df0 c637
00000330: cc5c 3a37 39c4 2f37 044d 7737 de35 b636
00000340: c1cd e936 d799 1937 62c3 0837 b448 1137
00000350: 8ee1 e836 ed40 0d37 9b41 3938 2e75 1437
00000360: 90a1 1737 71aa a835 d16a 9338 1aa0 7238
00000370: 17b7 54b6 951e 05b6 7daa 32b6 96f9 00b7
00000380: 89ff 74b6 dac1 67b6 096e a2b6 5516 edb5
00000390: 4247 15b6 3fad 49b6 fcdb 2fb6 2453 40b6
000003a0: 62de 19b6 8fd2 35b6 e0f0 6fb7 fd21 41b6
000003b0: 3271 48b6 35f8 d1b4 92b1 beb7 604c 9eb7
000003c0: 7dc2 04b7 0648 abb6 fd59 deb6 d454 a1b7
000003d0: 9688 16b7 5c09 0eb7 b14e 48b7 dcfc 93b6
000003e0: 57c4 bdb6 8311 f8b6 6be9 ddb6 15c7 eab6
000003f0: 3005 bcb6 d550 e5b6 5b0a 16b8 5e99 f0b6

exp_avg_sq f4 [20, 20]
1.7114439e-09 6.768939e-10 1.2376243e-09 9.804971e-09 2.2135844e-09 2.0074755e-09 3.997992e-09 4.935624e-10
8.0170415e-10 1.6032952e-09 1.06549e-09 1.3862917e-09 1.0060962e-09 1.2754954e-09 3.5872993e-08 1.2121493e-09
1.1968052e-09 7.6677616e-11 9.016558e-08 5.9045963e-08 3.2523004e-09 1.303645e-09 2.348541e-09 1.8726753e-08
4.1947894e-09 3.8018513e-09 7.597698e-09 9.467032e-10 1.5420082e-09 3.0338345e-09 2.0495299e-09 2.624331e-09
1.900092e-09 2.4401876e-09 6.826563e-08 2.3288775e-09 2.2900324e-09 1.4518488e-10 1.7159272e-07 1.12414185e-07
2.6232518e-09 1.0528852e-09 1.8939348e-09 1.5113823e-08 3.382584e-09 3.0655891e-09 6.128775e-09 7.644168e-10
1.2453385e-09 2.445775e-09 1.655267e-09 2.1158513e-09 1.5313089e-09 1.969663e-09 5.50723e-08 1.8807917e-09
1.8487977e-09 1.1681234e-10 1.3842968e-07 9.0693156e-08 7.3487207e-09 2.8494458e-09 5.326736e-09 4.1772708e-08
9.5454515e-09 8.657561e-09 1.7156188e-08 2.089971e-09 3.380063e-09 6.930677e-09 4.494379e-09 5.9909353e-09
4.363136e-09 5.4193503e-09 1.5367486e-07 5.118431e-09 5.0849227e-09 3.3596614e-10 3.8618956e-07 2.527341e-07
5.1440288e-09 2.0553408e-09 3.7165677e-09 2.9572025e-08 6.6392083e-09 6.017083e-09 1.2012214e-08 1.4933611e-09
2.4312683e-09 4.8053175e-09 3.231558e-09 4.1559343e-09 3.0122451e-09 3.8519516e-09 1.0791264e-07 3.6719878e-09
3.6136885e-09 2.3199898e-10 2.7125475e-07 1.7767805e-07 1.1799961e-08 4.770946e-09 8.513984e-09 6.8154854e-08
1.5193137e-08 1.3764223e-08 2.7563217e-08 3.4551455e-09 5.638248e-09 1.098031e-08 7.494405e-09 9.500019e-09
6.87038e-09 8.890654e-09 2.4788068e-07 8.508798e-09 8.34392e-09 5.285634e-10 6.231059e-07 4.0830474e-07
8.898289e-09 3.5989525e-09 6.4212675e-09 5.138417e-08 1.1456688e-08 1.0377888e-08 2.0778991e-08 2.605132e-09
4.2521755e-09 8.282763e-09 5.652135e-09 7.1654265e-09 5.184502e-09 6.703494e-09 1.8689715e-07 6.4155485e-09
6.28953e-09 4.0201156e-10 4.6982282e-07 3.0784963e-07 4.2527315e-09 1.7070326e-09 3.0705478e-09 2.4499613e-08
5.483652e-09 4.9696016e-09 9.934643e-09 1.239116e-09 2.018877e-09 3.9654675e-09 2.6834261e-09 3.4303698e-09
2.483153e-09 3.1929355e-09 8.927581e-08 3.0487777e-09 2.9966414e-09 1.8993769e-10 2.2440672e-07 1.470195e-07
1.0560531e-09 4.1273196e-10 7.645348e-10 6.026572e-09 1.3698573e-09 1.2421716e-09 2.4678213e-09 3.0241087e-10
4.89531e-10 9.927588e-10 6.510812e-10 8.5877255e-10 6.236899e-10 7.824089e-10 2.211358e-08 7.4138645e-10
7.351136e-10 4.7287247e-11 5.5566833e-08 3.6378154e-08 1.599623e-09 6.322201e-10 1.1559003e-09 9.179668e-09
2.0703754e-09 1.8766577e-09 3.7426426e-09 4.6243992e-10 7.496322e-10 1.4961974e-09 9.972742e-10 1.2956566e-09
9.368344e-10 1.1930466e-09 3.3559505e-08 1.1352868e-09 1.1228195e-09 6.895372e-11 8.431248e-08 5.5226835e-08
3.3012646e-09 1.3241185e-09 2.383912e-09 1.9010503e-08 4.2573673e-09 3.8581436e-09 7.71098e-09 9.612258e-10
1.5659648e-09 3.0793412e-09 2.0814226e-09 2.6636837e-09 1.92872e-09 2.4773892e-09 6.929246e-08 2.3646949e-09
2.3246678e-09 1.4787364e-10 1.7417575e-07 1.1410558e-07 3.739396e-10 1.4752544e-10 2.7048816e-10 2.1403541e-09
4.8394655e-10 4.3892415e-10 8.7357144e-10 1.0766324e-10 1.7477494e-10 3.5061296e-10 2.3229561e-10 3.03147e-10
2.2010288e-10 2.7833252e-10 7.836057e-09 2.643294e-10 2.611885e-10 1.678256e-11 1.9695252e-08 1.2896753e-08
2.0641757e-09 8.2939644e-10 1.4902769e-09 1.1895142e-08 2.6610507e-09 2.4110087e-09 4.8213873e-09 6.0182614e-10
9.80716e-10 1.9241926e-09 1.3036703e-09 1.6647517e-09 1.2047793e-09 1.5503798e-09 4.333497e-08 1.4807864e-09
00000000: 1438 eb30 2c10 3a30 0919 aa30 b872 2832
00000010: ca1d 1831 e2f3 0931 b65e 8931 5eab 0730
00000020: ea5e 5c30 ef5a dc30 9970 9230 ce87 be30
00000030: dd46 8a30 814d af30 c612 1a33 b698 a630
00000040: d77c a430 a99d a82e 0da1 c133 b999 7d33
00000050: 137f 5f31 ee2b b330 f863 2131 91dc a032
00000060: c221 9031 70a1 8231 0787 0232 281d 8230
00000070: 97ee d330 c87b 5031 b6d7 0c31 b857 3431
00000080: c692 0231 3cb0 2731 6d99 9233 0c0a 2031
00000090: ad5e 1d31 e9a1 1f2f 0c3f 3834 5a68 f133
000000a0: bc44 3431 1bb5 9030 7426 0231 a6d3 8132
000000b0: 0c73 6831 6aaa 5231 4695 d231 0d1f 5230
000000c0: 7428 ab30 8712 2831 887f e330 7366 1131
000000d0: 2476 d230 ae5a 0731 a288 6c33 3d3f 0131
000000e0: c918 fe30 c06f 002f 43a3 1434 17c3 c233
000000f0: 0880 fc31 fbcf 4331 7706 b731 9469 3333
00000100: 57fd 2332 5bbc 1432 db5e 9332 299f 0f31
00000110: b246 6831 e122 ee31 fa6c 9a31 d3d8 cd31
00000120: 8dea 9531 1c35 ba31 d301 2534 32de af31
00000130: 74b7 ae31 08b3 b82f 7d55 cf34 83af 8734
00000140: 5bbf b031 f03d 0d31 8d66 7f31 9205 fe32
00000150: 181f e431 d2be ce31 475e 4e32 f93e cd30
00000160: 5313 2731 051c a531 2b12 5e31 fccb 8e31
00000170: faff 4e31 205a 8431 9abd e733 4b56 7c31
00000180: ae54 7831 e815 7f2f f8a0 9134 c5c7 3e34
00000190: c7b8 4a32 afed a331 e644 1232 875c 9233
000001a0: 1082 8232 b177 6c32 28c4 ec32 906f 6d31
000001b0: 8eba c131 eaa3 3c32 bec0 0032 8735 2332
000001c0: 8010 ec31 83bd 1832 7614 8534 172e 1232
000001d0: f358 0f32 584a 1130 8343 2735 fa34 db34
000001e0: 17df 1832 7151 7731 11a2 dc31 7eb1 5c33
000001f0: 0cd3 4432 6f4a 3232 7c7d b232 f805 3331
00000200: 881a 9231 fa4b 0e32 b534 c231 c233 f631
00000210: 5d23 b231 8f54 e631 e6ad 4834 c36f dc31
00000220: 4a1b d831 1902 dd2f f53b fc34 8846 a534
00000230: 6c1f 9231 df9c ea30 a601 5331 3873 d232
00000240: b76a bc31 14c1 aa31 06ad 2a32 854d aa30
00000250: 76bc 0a31 9f40 8831 5567 3831 b4bb 6b31
00000260: 17a4 2a31 b76a 5b31 e5b7 bf33 aa82 5131
00000270: 79ed 4d31 b5d6 502f 73f4 7034 6adc 1d34
00000280: 9124 9130 dce6 e22f 5b27 5230 4a12 cf31
00000290: 9245 bc30 07b9 aa30 5f96 2931 8c40 a62f
000002a0: af8f 0630 9871 8830 c4f7 3230 bf0e 6c30
000002b0: 4670 2b30 2211 5730 47f4 bd32 6fca 4b30
000002c0: 0511 4a30 b5f8 4f2e 61a8 6e33 343e 1c33
000002d0: bbd9 db30 89c8 2d30 a0dd 9e30 9bb4 1d32
000002e0: 6e46 0e31 83f6 0031 a298 8031 a23a fe2f
000002f0: ad0e 4e30 c4a2 cd30 7710 8930 dd12 b230
00000300: eec1 8030 98f8 a330 1123 1033 5a08 9c30
00000310: b351 9a30 7ea1 972e 470f b533 8c32 6d33
00000320: 76dc 6231 47fc b530 39d2 2331 8a4c a332
00000330: 3348 9231 9790 8431 4079 0432 201c 8430
00000340: 7d39 d730 589c 5331 c608 0f31 050c 3731
00000350: 678a 0431 b13e 2a31 efcd 9433 2780 2231
00000360: fdbf 1f31 bb96 222f 1105 3b34 350a f533
00000370: 5293 cd2f b834 222f d3b3 942f 8215 1331
00000380: b606 0530 154d f12f 2020 7030 04c1 ec2e
00000390: c62a 402f 63c0 c02f 6769 7f2f 26a8 a62f
000003a0: 7401 722f d203 992f 589f 0632 0e51 912f
000003b0: 0397 8f2f f79e 932d 512e a932 8590 5d32
000003c0: 5dd9 0d31 96fb 6330 75d2 cc30 635b 4c32
000003d0: b3dd 3631 eaae 2531 5fa9 a531 c06d 2530
000003e0: e0c9 8630 c13a 0431 d22c b330 3ecd e430
000003f0: 6795 a530 2415 d530 4e1f 3a33 8a84 cb30

exp_avg f4 [20]
5.6111505e-05 8.047145e-05 7.556885e-05 0.00012300888 0.00010544717 0.00016014282 0.00014039081 9.582661e-05
-4.6033652e-05 -5.6899564e-05 8.046942e-05 -2.6146588e-05 -6.5149405e-05 4.007369e-05 -6.0762923e-05 0.00019864611
-9.850804e-06 -4.822167e-05 0.00031718833 -2.7202972e-05
00000000: 4559 6b38 c8c2 a838 b87a 9e38 f2fb 0039
00000010: 8523 dd38 03ec 2739 df35 1339 85f6 c838
00000020: 4214 41b8 71a7 6eb8 b1c1 a838 5f55 dbb7
00000030: d2a0 88b8 cc14 2838 b1db 7eb8 a94b 5039
00000040: e244 25b7 a041 4ab8 4c4c a639 f031 e4b7

exp_avg_sq f4 [20]
1.1541085e-07 2.1968842e-07 1.7723865e-07 4.9420214e-07 3.472442e-07 7.978573e-07 6.015532e-07 2.873123e-07
7.113485e-08 1.07999305e-07 2.2299366e-07 2.5208983e-08 1.394662e-07 5.6193077e-08 1.238559e-07 1.2862953e-06
5.4887885e-09 7.89412e-08 3.31875e-06 2.4964544e-08
00000000: c9d7 f733 7ee3 6b34 fd4e 3e34 50a9 0435
00000010: e16c ba34 562c 5635 6c7a 2135 e73f 9a34
00000020: ccc2 9833 3fed e733 0870 6f34 248b d832
00000030: 2dc0 1534 f158 7133 40fd 0434 c5a4 ac35
00000040: e597 bc31 6286 a933 b1b7 5e36 9d71 d632

exp_avg f4 [37]
-8.401347e-06 7.9286406e-07 -1.6017373e-05 -2.1816122e-06 -2.5525935e-06 2.3500426e-07 2.6527268e-06 1.4862093e-06
-1.7546103e-06 9.670227e-09 9.991094e-08 -1.0154909e-07 -2.0574676e-06 -7.9158724e-08 -1.2704536e-06 -7.019891e-08
-3.5864596e-06 2.0847741e-08 -2.246282e-06 9.177948e-09 -9.371709e-08 4.926773e-09 7.864317e-08 1.0948547e-08
3.7293294e-08 -2.37292e-09 1.3943294e-09 1.9766404e-09 3.7934392e-10 -2.2133146e-09 -3.3603946e-08 -8.0563545e-10
-8.63408e-09 7.6435525e-10 -2.312892e-09 -1.0090046e-08 6.6450756e-10
00000000: 83f3 0cb7 34d5 5435 0c5d 86b7 d067 12b6
00000010: 394d 2bb6 7b55 7c34 8005 3236 c379 c735
00000020: f37f ebb5 1c22 2632 9f8e d633 3413 dab3
00000030: 0613 0ab6 f8fd a9b3 7484 aab5 42c0 96b3
00000040: e8ae 70b6 ab14 b332 d5be 16b6 0bad 1d32
00000050: 8441 c9b3 5b48 a931 8ae2 a833 3818 3c32
00000060: 692c 2033 da10 23b1 9ba2 bf30 6dd5 0731
00000070: e98b d02f 0b19 18b1 ee53 10b3 8e73 5db0
00000080: 1655 14b2 b81a 5230 d4f0 1eb1 7e58 2db2
00000090: 90a8 3630

exp_avg_sq f4 [37]
3.0152743e-09 1.3163496e-11 1.357507e-08 6.843643e-11 1.0971111e-09 1.2596808e-11 1.3992354e-10 5.584679e-11
1.9937807e-10 9.479476e-14 3.47553e-12 2.2596597e-13 1.2115983e-10 1.2345946e-13 2.630432e-11 1.5198315e-13
2.3855617e-10 2.573236e-14 1.487642e-10 5.424512e-16 5.7294225e-13 6.397473e-16 2.1929412e-13 3.861017e-15
2.2737078e-14 1.8313956e-16 3.854686e-17 1.08806186e-16 6.4410814e-17 1.3923099e-16 3.4754995e-14 1.6879807e-17
2.396969e-15 1.8826315e-17 1.5455408e-16 2.9734575e-15 1.2339599e-17
00000000: 4435 4f31 1e93 672d ca37 6932 497e 962e
00000010: 2ac9 9630 fb9a 5d2d fad8 192f e59d 752e
00000020: f037 5b2f 7575 d529 9591 742c 426a 7e2a
00000030: 7637 052f c400 0b2a 1060 e72d 291e 2b2a
00000040: cc25 832f c8c6 e728 6691 232f d559 1c26
00000050: d744 212b 0565 3826 3ae7 762a 991b 8b27
00000060: 22cc cc28 4225 5325 1ac4 3124 d6e3 fa24
00000070: 6f85 9424 bc85 2025 c885 1c29 51b0 9b23
00000080: 46b8 2c27 61a4 ad23 5030 3225 9c42 5627
00000090: 1ca0 6323

exp_avg f4 [20]
1.5707958e-05 8.953423e-06 1.1595153e-05 -6.6092657e-06 -4.828372e-06 4.8699167e-06 9.4870853e-07 1.7319014e-06
7.823514e-06 -2.7081387e-07 1.0013857e-05 -6.7345104e-06 -1.4404428e-05 3.28585e-06 -5.685246e-06 1.731642e-06
2.5341874e-06 -1.1132412e-05 6.811666e-06 2.2970587e-05
00000000: 95c4 8337 a936 1637 ce88 4237 29c5 ddb6
00000010: 6603 a2b6 4468 a336 c1aa 7e35 ae73 e835
00000020: bd41 0337 6064 91b4 3001 2837 01f9 e1b6
00000030: 8caa 71b7 7982 5c36 e4c3 beb6 c46a e835
00000040: 0211 2a36 58c5 3ab7 c48f e436 f6b0 c037

exp_avg_sq f4 [20]
9.246616e-09 3.1944194e-09 5.024512e-09 1.4439185e-09 1.0130832e-09 1.4039987e-09 4.2709355e-10 1.3200131e-10
1.9244464e-09 1.1614337e-09 3.6333616e-09 6.7663777e-09 6.4400987e-09 4.8492628e-09 2.7830265e-09 1.9734465e-09
3.1729175e-09 9.689513e-09 2.1729996e-09 1.3214185e-08
00000000: 0cdb 1e32 d284 5b31 13a4 ac31 5e73 c630
00000010: b23c 8b30 d0f6 c030 13cc ea2f 1123 112f
00000020: 383f 0431 51a0 9f30 c6ae 7931 b07d e831
00000030: b547 dd31 919e a631 853f 3f31 3d9d 0731
00000040: 8e0a 5a31 ee76 2632 d053 1531 9a04 6332
