models/ensembles/ensemble_25_unbootsrapped/model21/model_checkpoint-10000.pt (torch, 14893 bytes, 24 tensors)

branch.hidden_layers.0.thetas f4 [55]
0	0xbe3aeebd	-0.18255134
1	0xbd03d957	-0.032189693
2	0xbf4a901b	-0.7912614
3	0x3f9f12a1	1.242756
4	0xbf8df9f3	-1.1091903
5	0x3ece25a1	0.40263084
6	0x3f614053	0.87988776
7	0x3f337e19	0.70114285
8	0x3e692327	0.22767316
9	0x3ec85e60	0.39134502
10	0xbf68d1a2	-0.90944874
11	0xbf01faa4	-0.5077307
12	0x3f15781e	0.5838641
13	0xbe5f988a	-0.21835533
14	0xbf5926aa	-0.8482462
15	0x3fc0523f	1.50251
16	0x3f6932ba	0.9109303
17	0x3dfaf28e	0.12253295
18	0xbfe9e8aa	-1.8274128
19	0xbfbdb4a5	-1.4820753
20	0x3fa9916e	1.3247507
21	0x3e409f19	0.18810691
22	0x3c981a1c	0.018567137
23	0x3f2c3f6d	0.6728428
24	0x3f647a33	0.8924896
25	0x3fdbed5d	1.7181813
26	0xbf0f80f9	-0.5605617
27	0x3fb5aa34	1.4192567
28	0x3ec3b29c	0.38222206
29	0x3fd0af48	1.6303492
30	0x3f26c193	0.6513912
31	0xbf3dbefa	-0.7411953
32	0xbd6b0d64	-0.057385817
33	0x3f540669	0.8282228
34	0x3f799203	0.9748842
35	0xbf91a591	-1.1378652
36	0xbebcb122	-0.36853892
37	0x3ec27655	0.37980905
38	0xbfa11302	-1.2583926
39	0xbf5a1e69	-0.8520265
40	0x3fef08e7	1.8674592
41	0x3fc6cd5d	1.5531422
42	0x3f563f82	0.83690655
43	0x3f3a5535	0.72786266
44	0xbfbcf9aa	-1.4763691
45	0x3fc5c790	1.5451527
46	0xbf058975	-0.5216287
47	0x3e6ecee8	0.23321116
48	0x3f562a20	0.8365803
49	0xbfdad731	-1.7096921
50	0xbeea5060	-0.45764446
51	0x3f974754	1.1818643
52	0x3f4dd160	0.80397606
53	0xbeefbbd1	-0.4682298
54	0xbf889c60	-1.0672722

branch.hidden_layers.0.bias f4 [10]
0	0x3ed96e76	0.42467088
1	0x3ecd0be3	0.4004813
2	0x3e7f8f9c	0.24957126
3	0x3e5edb36	0.2176331
4	0x3ea0815f	0.31348702
5	0x3deeec2f	0.11666142
6	0x3eb83e65	0.35985103
7	0x3eef7654	0.46769965
8	0x3e683c9d	0.22679372
9	0x3eafa128	0.3430264

branch.output_layer.weight f4 [10, 10]
0	0x3b596790	0.00331733
1	0x3f32e023	0.69873255
2	0x3f0933f7	0.5359492
3	0x3eb8ba05	0.36079422
4	0x3ed6ba75	0.4193913
5	0x3eaf61a2	0.34254175
6	0x3ed9dcc0	0.4255123
7	0xbf38783b	-0.7205846
8	0x3d41e565	0.04733791
9	0xbf00cab0	-0.50309277
10	0xbdc1695a	-0.09443922
11	0x3ee8d1cc	0.45472562
12	0x3e6d9a76	0.23203453
13	0x3f242c85	0.6413043
14	0x3f0c490a	0.5479895
15	0x3e688ab9	0.22709168
16	0x3e252b32	0.16129759
17	0xbed97d21	-0.42478278
18	0xbe4a2d59	-0.19743861
19	0xbe579118	-0.21051443
20	0xbefa8c63	-0.48935232
21	0x3fbb6f7c	1.4643397
22	0x3e0133cc	0.12617415
23	0x3f1977ba	0.59948313
24	0x3e8a87b3	0.27056655
25	0xbf49be2b	-0.788058
26	0xbec67b09	-0.38765743
27	0xbf11d2e3	-0.5696241
28	0xbf3b9787	-0.7327809
29	0xbdcb4339	-0.09924931
30	0xbf2df51f	-0.6795215
31	0xbead69e8	-0.33869863
32	0xbe66ea85	-0.225504
33	0xbefff6cf	-0.49992988
34	0xbeec8c52	-0.46200806
35	0xbf6676c0	-0.9002495
36	0x3f1d3a18	0.6141677
37	0xbeb29f60	-0.34887218
38	0x3eeb99db	0.4601582
39	0xbd05f158	-0.032700866
40	0x3f1ac581	0.6045762
41	0x3d75f89b	0.06005154
42	0xbf1fdf36	-0.6244997
43	0xbed73430	-0.42032003
44	0xbebc16f0	-0.3673625
45	0xbea7d8c2	-0.3278256
46	0xbef346c8	-0.4751494
47	0x3e545bb3	0.20738105
48	0xbf19d704	-0.6009371
49	0x3e3642cd	0.1779892
50	0x3ec33753	0.38128147
51	0xbe5bb6c8	-0.21456444
52	0xbe5465bc	-0.20741934
53	0xbea69649	-0.32536533
54	0xbf1ba0fb	-0.6079251
55	0xbe987229	-0.29774597
56	0xbea24f93	-0.31701335
57	0x3ded163d	0.11576507
58	0xbe2d307e	-0.1691303
59	0x3efe9ae2	0.4972754
60	0x3e9ee917	0.31037208
61	0xbf16f147	-0.5896191
62	0xbf0b4cae	-0.5441388
63	0xbe0ab84b	-0.13546865
64	0xbee22e0f	-0.44175765
65	0x3d12289b	0.035683256
66	0xbe1dfd9c	-0.15428776
67	0x3eeec9b1	0.46638253
68	0xbedb8088	-0.428715
69	0x3dcafd14	0.09911552
70	0x3f0bc562	0.5459806
71	0xbf4d6d7a	-0.8024517
72	0xbf0bff23	-0.5468618
73	0xbe9442c0	-0.28957176
74	0xbf1a12b4	-0.6018479
75	0xbb0414e3	-0.002015405
76	0xbde2f1b4	-0.110812575
77	0x3ea457a5	0.32098117
78	0xbdcfbbc4	-0.10143235
79	0x3e9ad671	0.3024173
80	0xbe086a18	-0.13321722
81	0x3dba8718	0.09107798
82	0x3eaf7e99	0.34276274
83	0x3ef70a7d	0.4825019
84	0x3ee7da01	0.4528351
85	0x3f00c07d	0.50293714
86	0x3ef95a65	0.48701778
87	0xbddedc12	-0.10881819
88	0x3dc31688	0.09525782
89	0xbeea5d8d	-0.457745
90	0x3e136149	0.1439258
91	0x3df932a4	0.12167862
92	0x3f1cc4a4	0.6123755
93	0x3e6d9f36	0.23205265
94	0x3dc22b11	0.094808705
95	0x3ecf947b	0.4054297
96	0x3e2a7431	0.16645886
97	0xbedb00b6	-0.4277398
98	0x3e307a92	0.17234257
99	0xbed276fc	-0.41106403

branch.output_layer.bias f4 [10]
0	0xbeeffe7b	-0.4687384
1	0xbeaaf387	-0.33388922
2	0x3a9c4044	0.0011921008
3	0x3ebfd0fd	0.37464133
4	0x3dcf7381	0.101294525
5	0xbe0237a4	-0.12716538
6	0x3d6b4dd3	0.057447266
7	0x3f2103b2	0.62896264
8	0x3c8dc1fe	0.017304417
9	0xbedcb94a	-0.43110114

trunk.hidden_layers.0.thetas f4 [17]
0	0xbf7116b0	-0.94175243
1	0x3fddae34	1.7318788
2	0x3fdef3ee	1.7418191
3	0x3fe41d6c	1.7821479
4	0x3fa40f60	1.2817192
5	0xbf7cb0f7	-0.98707527
6	0x3f86004f	1.0468844
7	0xbf9c066e	-1.2189462
8	0xbfba66a5	-1.4562575
9	0xbf904620	-1.12714
10	0x3ff983ad	1.9493309
11	0xbf875ce9	-1.0575229
12	0x3d41405c	0.04718052
13	0xbf10c030	-0.56543255
14	0xbf54b446	-0.83087575
15	0xbdbcd78c	-0.092208
16	0xbf8f501a	-1.119632

trunk.hidden_layers.0.bias f4 [10]
0	0x3f19c725	0.60069495
1	0xbec80e4a	-0.39073402
2	0x3eda9964	0.42695153
3	0xbec3a8f5	-0.3821484
4	0x3e8a00b3	0.26953658
5	0x3edc6d37	0.43052074
6	0x3ebb062b	0.36528143
7	0x3ec40471	0.3828464
8	0x3ec666ff	0.38750455
9	0x3f2b4bb8	0.6691241

trunk.output_layer.weight f4 [10, 10]
0	0xbf72c293	-0.94828147
1	0xbd10d926	-0.03536334
2	0xbecb1071	-0.3966098
3	0x3d87c7ec	0.06629929
4	0x3f6ebcac	0.9325664
5	0xbf28f956	-0.66005456
6	0x3f716ca4	0.943064
7	0xbf199cc1	-0.6000481
8	0x3e901219	0.28138807
9	0xbf62f105	-0.88649017
10	0xbf8c4b25	-1.0960432
11	0x3d756205	0.05990793
12	0xbf73c70d	-0.952256
13	0x3ef0ed3e	0.47056
14	0x3f85e728	1.0461168
15	0xbec97b34	-0.3935181
16	0x3ecd0dc2	0.4004956
17	0xbf208506	-0.6270298
18	0x3e4fa032	0.20275953
19	0xbf1e1acb	-0.6175963
20	0xbfffc759	-1.9982711
21	0x3f85d22a	1.0454762
22	0xbfb0739c	-1.3785281
23	0x3f589f4f	0.84618086
24	0x405d433c	3.4572287
25	0x3e963445	0.29336753
26	0xbe49494b	-0.19656865
27	0x3e1cd802	0.15316775
28	0xbe881588	-0.26578927
29	0xbfc02b3e	-1.5013196
30	0xbf6016ea	-0.87534964
31	0xbeb19d1a	-0.3469017
32	0x3e40c540	0.18825245
33	0x3e7099d4	0.23496181
34	0x3fcc56cd	1.596399
35	0x3f8692ce	1.0513551
36	0xbf45efdc	-0.7731912
37	0x3feab6ad	1.8336998
38	0xbf8419bc	-1.0320354
39	0xbfccd0ab	-1.600118
40	0x3f4676f6	0.7752527
41	0xbeac1a50	-0.33613825
42	0x3f6b6486	0.9195026
43	0xbedb894d	-0.4287819
44	0xbf6fc0a8	-0.93653345
45	0x3eb75bbc	0.35812175
46	0xbefcd93f	-0.49384496
47	0xbe537cf7	-0.20653139
48	0xbe9d663f	-0.3074207
49	0x3f337193	0.70095176
50	0x3eaf2d6e	0.34214348
51	0xbea6bba7	-0.32565042
52	0x3f3bca6b	0.7335574
53	0xbf09a112	-0.537614
54	0xbdea00a3	-0.11425903
55	0x3eaae4dd	0.33377734
56	0xbf24fc92	-0.6444789
57	0x3eed9c06	0.464081
58	0xbe4e9ca8	-0.20176947
59	0x3e8e50cc	0.27796018
60	0x3eeda1ae	0.46412414
61	0xbe9d7175	-0.30750623
62	0x3f039a2f	0.5140714
63	0xbf2d795d	-0.6776331
64	0xbebfc66d	-0.37456074
65	0x3f166701	0.5875092
66	0xbe19346c	-0.14961404
67	0x3f2d2e7f	0.6764907
68	0xbf3295e7	-0.6975998
69	0x3f17d48f	0.59308714
70	0x3f089971	0.53359133
71	0xbf44ea50	-0.7692003
72	0x3f0d9045	0.5529826
73	0xbf1f5d03	-0.622513
74	0xbe5df9db	-0.21677344
75	0x3f3fb271	0.74881655
76	0xbdd4e68b	-0.10395535
77	0x3f105790	0.5638361
78	0xbf120d46	-0.57051504
79	0x3f00a88d	0.5025719
80	0xbe0cd372	-0.13752535
81	0xbd105d00	-0.03524494
82	0xbe79a007	-0.24377452
83	0xbd9b9f3e	-0.075987324
84	0x3dd0ca41	0.10194827
85	0xbe8f50d5	-0.27991357
86	0x3f7003a0	0.9375553
87	0xbeab18a3	-0.33417234
88	0x3ec374b1	0.38174966
89	0xbec2cf71	-0.3804889
90	0xbf3bb410	-0.7332163
91	0x3e7b8e4a	0.24565998
92	0xbf129652	-0.5726062
93	0xbdee4d87	-0.11635881
94	0x3e55bee8	0.20873606
95	0xbf6b2cfa	-0.91865504
96	0x3f8cf058	1.1010847
97	0xbf0fd753	-0.56187934
98	0x3f6958a9	0.9115091
99	0xbea209a4	-0.3164798

trunk.output_layer.bias f4 [10]
0	0xbe338a5c	-0.17533249
1	0xbe7775f6	-0.24166092
2	0xbeb9eb51	-0.36312345
3	0xbe53a0d9	-0.20666827
4	0x3ecb6a16	0.39729375
5	0x3efade53	0.48997745
6	0x3f05f88b	0.5233237
7	0x3ea35429	0.31900147
8	0xbe931847	-0.2872946
9	0xbdd26714	-0.10273567

exp_avg f4 [55]
0	0x37c7e7f8	2.3830667e-05
1	0x38098256	3.278473e-05
2	0x37deb643	2.6549335e-05
3	0x386bd574	5.622716e-05
4	0x37c60847	2.3607294e-05
5	0xb8b2d8ba	-8.52807e-05
6	0xb88a5bbf	-6.597442e-05
7	0x3864f7fa	5.4590382e-05
8	0x375aa0d6	1.303126e-05
9	0xb8ca62ac	-9.65049e-05
10	0xb7fd3fe1	-3.0189696e-05
11	0xb5fbcd10	-1.8760638e-06
12	0xb7d8f559	-2.5863455e-05
13	0x38dd3d74	0.00010549548
14	0x37cc32eb	2.4342406e-05
15	0xb7536078	-1.2599041e-05
16	0xb910985c	-0.00013789668
17	0xb8044623	-3.1536572e-05
18	0xb7350350	-1.0789212e-05
19	0x36b74e95	5.462973e-06
20	0x3792ba84	1.749141e-05
21	0x38be3150	9.069091e-05
22	0xb73a32d7	-1.1098301e-05
23	0x36fb1f77	7.484046e-06
24	0x376f411a	1.4260668e-05
25	0xb8991dc3	-7.301152e-05
26	0xb803c167	-3.1412954e-05
27	0xb6338bf5	-2.6754544e-06
28	0x379e873a	1.8898038e-05
29	0x3a307026	0.00067305786
30	0xb8ea63b2	-0.00011176559
31	0xb873fd34	-5.817153e-05
32	0x37404a70	1.1461423e-05
33	0xb78f2f1a	-1.7068862e-05
34	0x3a15cd40	0.00057144836
35	0xb82b052d	-4.0774397e-05
36	0xb7b7c773	-2.1908176e-05
37	0x3647a01b	2.9746504e-06
38	0xba588d5d	-0.0008260811
39	0x386a9a4f	5.593366e-05
40	0xb89d4884	-7.4998505e-05
41	0x34a83cd5	3.13367e-07
42	0x391c139e	0.00014884627
43	0x38c73282	9.498467e-05
44	0x35c1f470	1.4450761e-06
45	0x39eaf882	0.0004481711
46	0x38725ab6	5.7781777e-05
47	0x36a3b449	4.8787665e-06
48	0xba85ce14	-0.0010208511
49	0x389423b0	7.063837e-05
50	0xb8e82952	-0.000110703186
51	0x38668fb1	5.4970096e-05
52	0x398c7c24	0.00026795373
53	0x38c407aa	9.347436e-05
54	0xb717c379	-9.045813e-06

exp_avg_sq f4 [55]
0	0x3219d5f5	8.95442e-09
1	0x320b5a4c	8.111396e-09
2	0x322a703c	9.9208215e-09
3	0x3306de17	3.1401296e-08
4	0x31fb6f82	7.3177384e-09
5	0x3384482d	6.159858e-08
6	0x332ff2b9	4.0966118e-08
7	0x331c1474	3.6340182e-08
8	0x31108b00	2.103377e-09
9	0x33bc5c1e	8.771188e-08
10	0x322283a6	9.4595745e-09
11	0x2fb22728	3.2405834e-10
12	0x31cea2a4	6.013879e-09
13	0x33e5be8c	1.0698304e-07
14	0x314ebd84	3.0084673e-09
15	0x309ca548	1.139747e-09
16	0x34472033	1.8545033e-07
17	0x31dd663c	6.4435692e-09
18	0x305d69e4	8.054981e-10
19	0x2f609e1e	2.0428856e-10
20	0x31839d6a	3.8304977e-09
21	0x339993b2	7.151483e-08
22	0x3016515d	5.4685306e-10
23	0x2fc1e876	3.527167e-10
24	0x3145b7bd	2.8771716e-09
25	0x335c5766	5.130223e-08
26	0x31da823e	6.359442e-09
27	0x2f46153e	1.8015542e-10
28	0x31da07ab	6.345507e-09
29	0x36a7fd8e	5.0065055e-06
30	0x33f9cf5f	1.16326866e-07
31	0x33096eb7	3.1998493e-08
32	0x301c2c91	5.68158e-10
33	0x3151e144	3.0541552e-09
34	0x366158d3	3.3579315e-06
35	0x328169d0	1.5065694e-08
36	0x31c259f5	5.65637e-09
37	0x2f4019cd	1.7471465e-10
38	0x36f081eb	7.167682e-06
39	0x3303119e	3.0516837e-08
40	0x334330d4	4.5446384e-08
41	0x2f720bf0	2.2014013e-10
42	0x348d415c	2.6310852e-07
43	0x33a158fb	7.513332e-08
44	0x3081a95a	9.434118e-10
45	0x360e95ef	2.1246922e-06
46	0x330506da	3.0972707e-08
47	0x303ec65e	6.9403494e-10
48	0x3738b5e2	1.10096025e-05
49	0x33358cbe	4.227035e-08
50	0x34338f73	1.672286e-07
51	0x32f62d26	2.86587e-08
52	0x354e5c45	7.687525e-07
53	0x33dd784c	1.0312996e-07
54	0x310bafff	2.0327204e-09

exp_avg f4 [10]
0	0xba37e347	-0.0007014763
1	0x3ac09f85	0.0014695978
2	0x3a9dd106	0.0012040443
3	0x3a3002bc	0.00067142746
4	0x3b0322de	0.0020009796
5	0x3a4f5cda	0.00079102593
6	0x3a0214b9	0.00049621944
7	0xba5682c4	-0.0008182938
8	0x3988b5fa	0.00026075525
9	0xba43d2f0	-0.0007470092

exp_avg_sq f4 [10]
0	0x36a0bb01	4.7901417e-06
1	0x37c2197e	2.3138473e-05
2	0x3772dc4b	1.4475615e-05
3	0x36a1a145	4.816948e-06
4	0x38309aa6	4.2105698e-05
5	0x36e2442b	6.7432607e-06
6	0x361f820d	2.3768546e-06
7	0x36e73fb0	6.8917507e-06
8	0x35365ea8	6.7938026e-07
9	0x36c574f2	5.8846717e-06

exp_avg f4 [10, 10]
0	0x384c54d4	4.8716392e-05
1	0x385b33a6	5.226177e-05
2	0x375b12a0	1.3057754e-05
3	0xb7190c88	-9.122428e-06
4	0x38aaf1a9	8.1512444e-05
5	0x37309ad6	1.0526468e-05
6	0x38c90ac8	9.586435e-05
7	0x389a173a	7.3476185e-05
8	0xb7a813bc	-2.003635e-05
9	0x37e1a114	2.6897098e-05
10	0x385b6a60	5.231274e-05
11	0x386fb0a5	5.7146553e-05
12	0x3771fb50	1.4423233e-05
13	0xb738b15e	-1.1008551e-05
14	0x38b8d4b2	8.813421e-05
15	0x373951a8	1.1045871e-05
16	0x38e0d4d3	0.00010720794
17	0x38abb4b2	8.1875725e-05
18	0xb7bc2bdc	-2.243177e-05
19	0x37ebf01d	2.8125995e-05
20	0xb8147d61	-3.5402718e-05
21	0xb83e741f	-4.5407676e-05
22	0xb70dd5c9	-8.454031e-06
23	0x36dc94a7	6.5738163e-06
24	0xb870c2de	-5.7401943e-05
25	0xb6dc8bcc	-6.5727854e-06
26	0xb8887959	-6.507588e-05
27	0xb85c652d	-5.2546315e-05
28	0x37864d77	1.6010117e-05
29	0xb79df44d	-1.882962e-05
30	0xb96dcbc8	-0.00022677996
31	0xb9803cdd	-0.0002445941
32	0xb876ed36	-5.887189e-05
33	0x38482ffd	4.772841e-05
34	0xb9c88b1f	-0.00038250626
35	0xb85a446b	-5.203897e-05
36	0xb9f16a2b	-0.00046046203
37	0xb9b9eae6	-0.00035460963
38	0x38cc985c	9.755857e-05
39	0xb8ff7a7b	-0.00012182161
40	0xb9153926	-0.00014231037
41	0xb92b0795	-0.00016310655
42	0xb82aa0f8	-4.0681072e-05
43	0x37e6e6b7	2.7525572e-05
44	0xb97a43fd	-0.00023867186
45	0xb7eae549	-2.8001743e-05
46	0xb9929f4f	-0.00027965984
47	0xb962fd61	-0.0002164743
48	0x38812579	6.158179e-05
49	0xb89e4dc0	-7.548509e-05
50	0xb9845123	-0.00025237454
51	0xb991d480	-0.0002781488
52	0xb8916628	-6.933167e-05
53	0x385b64c9	5.2307532e-05
54	0xb9dfc956	-0.00042683881
55	0xb869c4a3	-5.573466e-05
56	0xba05900a	-0.0005095011
57	0xb9ce54dd	-0.0003935461
58	0x38e60414	0.00010968014
59	0xb90ba57b	-0.0001331772
60	0xb9a776b5	-0.00031941166
61	0xb9b8d143	-0.00035251127
62	0xb8b85082	-8.7887995e-05
63	0x388b42a7	6.6404515e-05
64	0xba0da26b	-0.00054029253
65	0xb89397d1	-7.037784e-05
66	0xba2935dd	-0.00064548646
67	0xba02b1fb	-0.00049856276
68	0x3911c68f	0.00013902246
69	0xb9308e03	-0.00016837571
70	0xb9a5dd33	-0.0003163606
71	0xb9b6b9a9	-0.00034852073
72	0xb8b62742	-8.6857486e-05
73	0x388a03e5	6.581078e-05
74	0xba0c4fc5	-0.0005352463
75	0xb892ea7e	-7.0055e-05
76	0xba27a0f5	-0.0006394529
77	0xba017c6c	-0.00049395
78	0x39104fb0	0.00013762596
79	0xb92ee101	-0.00016677754
80	0x384eb6d7	4.928451e-05
81	0x38603062	5.345082e-05
82	0x375ac919	1.3040634e-05
83	0xb71d3ccc	-9.372085e-06
84	0x38adec29	8.293271e-05
85	0x373d3410	1.12774e-05
86	0x38c9ea70	9.628094e-05
87	0x389cc3b8	7.475115e-05
88	0xb7ae71cc	-2.0795407e-05
89	0x37deaceb	2.6544983e-05
90	0x386e6566	5.6838056e-05
91	0x38800709	6.104826e-05
92	0x3771c820	1.4411315e-05
93	0xb7280d4e	-1.0016678e-05
94	0x38c7bad7	9.523861e-05
95	0x3762d800	1.3520941e-05
96	0x38e1ad4d	0.00010761116
97	0x38b094ba	8.4200365e-05
98	0xb7c522ae	-2.3500379e-05
99	0x380222bc	3.1026764e-05

exp_avg_sq f4 [10, 10]
0	0x32e6cf0d	2.686968e-08
1	0x330ccd71	3.2783138e-08
2	0x313027fe	2.5634104e-09
3	0x30a52f54	1.2018782e-09
4	0x33a2d690	7.5827415e-08
5	0x30bffd59	1.3969085e-09
6	0x33e90011	1.084992e-07
7	0x338b31c7	6.481746e-08
8	0x31bb6979	5.454407e-09
9	0x32091998	7.980269e-09
10	0x3302dbf3	3.0468026e-08
11	0x33208b41	3.7379554e-08
12	0x3133af7f	2.6147686e-09
13	0x30b3a2aa	1.3070196e-09
14	0x33b9b6cd	8.647985e-08
15	0x30d8531b	1.5739688e-09
16	0x3404e9de	1.2378538e-07
17	0x339f2fb2	7.41269e-08
18	0x31d64054	6.235533e-09
19	0x321bb4f5	9.063332e-09
20	0x323002af	1.02451585e-08
21	0x325938ea	1.2644003e-08
22	0x3097c87f	1.104368e-09
23	0x301ce1c4	5.70733e-10
24	0x32f448b7	2.8438405e-08
25	0x301f4382	5.79398e-10
26	0x332d6c2d	4.0378087e-08
27	0x32d60e10	2.4919274e-08
28	0x31100e4c	2.0962885e-09
29	0x315711c9	3.1296727e-09
30	0x351e4ec5	5.897421e-07
31	0x3542f1bf	7.262242e-07
32	0x333dcc77	4.419095e-08
33	0x32cee92e	2.4087594e-08
34	0x35e0e946	1.6757192e-06
35	0x330441dd	3.0793547e-08
36	0x36219f5a	2.4083624e-06
37	0x35c2a9c7	1.4503538e-06
38	0x3403bfb7	1.2270071e-07
39	0x343dd155	1.7678151e-07
40	0x3472eaf5	2.2623483e-07
41	0x34952623	2.778116e-07
42	0x32a2e3dc	1.89629e-08
43	0x321df6d0	9.194721e-09
44	0x352c7ec4	6.425946e-07
45	0x3247dc6c	1.1633443e-08
46	0x35787d48	9.256951e-07
47	0x3513d688	5.507395e-07
48	0x33480d37	4.6578148e-08
49	0x339087eb	6.730246e-08
50	0x353324b9	6.6736135e-07
51	0x355c2fee	8.2026133e-07
52	0x3360b5c5	5.2319383e-08
53	0x32e9b3b7	2.7206495e-08
54	0x35ff0c01	1.9002474e-06
55	0x3313623f	3.431546e-08
56	0x3636c4cf	2.723467e-06
57	0x35dad6b2	1.630475e-06
58	0x341312aa	1.3697232e-07
59	0x34549530	1.9798313e-07
60	0x3584edd6	9.903986e-07
61	0x35a35cb5	1.2171428e-06
62	0x33a5bbf8	7.7176026e-08
63	0x332d79f0	4.0390603e-08
64	0x363d6758	2.8223349e-06
65	0x3359fffb	5.0757063e-08
66	0x36878997	4.039331e-06
67	0x36224e63	2.4185508e-06
68	0x345983f6	2.0257707e-07
69	0x349d5b4b	2.9309953e-07
70	0x35864704	1.0004446e-06
71	0x35a51a95	1.2301194e-06
72	0x33a57f60	7.7065806e-08
73	0x332e3e89	4.0569407e-08
74	0x363f5ff0	2.851706e-06
75	0x335c5642	5.1301193e-08
76	0x368906bd	4.0837026e-06
77	0x36241f6d	2.4456197e-06
78	0x345c2874	2.0503813e-07
79	0x349f1af1	2.963566e-07
80	0x32f5dfb2	2.8623479e-08
81	0x33161f6c	3.4953175e-08
82	0x3134caee	2.63088e-09
83	0x30ac673e	1.254399e-09
84	0x33ad6347	8.073999e-08
85	0x30ce095e	1.4991135e-09
86	0x33f8d51d	1.1587165e-07
87	0x3394cb1d	6.928733e-08
88	0x31c947df	5.8580407e-09
89	0x321273bd	8.524634e-09
90	0x33199656	3.5759818e-08
91	0x333c344c	4.3819725e-08
92	0x3151dfeb	3.0540785e-09
93	0x30d12a2e	1.521874e-09
94	0x33d976fd	1.0126494e-07
95	0x31002985	1.8650053e-09
96	0x341c018f	1.4529199e-07
97	0x33badd96	8.701606e-08
98	0x31fc5ce4	7.3447257e-09
99	0x32371252	1.06561675e-08

exp_avg f4 [10]
0	0x392d1472	0.00016506182
1	0x393b2648	0.0001784797
2	0xb8f777c1	-0.00011800184
3	0xba4a088c	-0.0007706962
4	0xb9fad210	-0.00047840225
5	0xba5fae56	-0.0008532753
6	0xba8d90fe	-0.0010800657
7	0xba8c3822	-0.0010697881
8	0x392dacff	0.00016563012
9	0x3946fa25	0.00018975938

exp_avg_sq f4 [10]
0	0x34a3ac9c	3.0486706e-07
1	0x34bb1f45	3.4854216e-07
2	0x33f8005c	1.1548465e-07
3	0x36e48f39	6.811603e-06
4	0x362e3232	2.5957238e-06
5	0x3700b102	7.670607e-06
6	0x373edc3a	1.1376158e-05
7	0x374100bc	1.1503867e-05
8	0x34aefef7	3.2595537e-07
9	0x34dbb247	4.0921643e-07

exp_avg f4 [17]
0	0xb7f3a2ff	-2.9043758e-05
1	0xb62fa6f5	-2.6174214e-06
2	0x38202ac2	3.8186794e-05
3	0x377f2c4f	1.5209501e-05
4	0x37b0f370	2.1094194e-05
5	0x36891906	4.0858313e-06
6	0xb8724029	-5.775705e-05
7	0x3692ded9	4.377082e-06
8	0x38eb8d25	0.000112319634
9	0x37073b2a	8.060402e-06
10	0xb76ec965	-1.4232796e-05
11	0x37582d9c	1.28852225e-05
12	0xb8460fa3	-4.722144e-05
13	0x3411aa15	1.3566053e-07
14	0x358f0276	1.0655046e-06
15	0x37563d23	1.27696285e-05
16	0x35680c18	8.6444334e-07

exp_avg_sq f4 [17]
0	0x3228949f	9.81268e-09
1	0x308ebf2e	1.0386196e-09
2	0x3297ff93	1.7694935e-08
3	0x31075e8f	1.9698836e-09
4	0x32b7f539	2.1415518e-08
5	0x30a5fb08	1.2076677e-09
6	0x32d155e2	2.4369857e-08
7	0x2f07f758	1.2366053e-10
8	0x33d6b011	9.997178e-08
9	0x3071740f	8.784022e-10
10	0x316a3d3e	3.4086294e-09
11	0x30cc6e0b	1.487423e-09
12	0x32b732a5	2.1327034e-08
13	0x2c05f1f7	1.9034754e-12
14	0x2e82c5e6	5.9468694e-11
15	0x30cb1a38	1.4777646e-09
16	0x2d434ff9	1.1102224e-11

exp_avg f4 [10]
0	0xb83ed79a	-4.5500325e-05
1	0x37a1a6e9	1.927042e-05
2	0x38ec55bd	0.00011269327
3	0xb77e5df8	-1.5161459e-05
4	0x38cd28ec	9.782784e-05
5	0x379bc510	1.8569204e-05
6	0xb9311d60	-0.00016890978
7	0x391a0812	0.00014689591
8	0xb7ceee1f	-2.4667997e-05
9	0xb87683d2	-5.8773738e-05

exp_avg_sq f4 [10]
0	0x32d3d74c	2.4661539e-08
1	0x31b38b94	5.225454e-09
2	0x341663c6	1.4006136e-07
3	0x319dc8cd	4.59213e-09
4	0x33d81dff	1.006374e-07
5	0x31b1c175	5.1733715e-09
6	0x3489ad46	2.5644312e-07
7	0x3463b344	2.1206239e-07
8	0x3137c766	2.674335e-09
9	0x332dce91	4.0467572e-08

exp_avg f4 [10, 10]
0	0x36350ff7	2.6980395e-06
1	0xb5e92429	-1.7370377e-06
2	0x35e62b2d	1.7148901e-06
3	0xb5f3e85f	-1.817254e-06
4	0x371325bb	8.770668e-06
5	0x36a28649	4.843609e-06
6	0x364bc149	3.0361864e-06
7	0x36c854a7	5.9703193e-06
8	0x3593bdc5	1.1007584e-06
9	0x35e90a10	1.7362781e-06
10	0x35374c3e	6.828376e-07
11	0xb5054aa1	-4.965496e-07
12	0x34f102af	4.48917e-07
13	0xb508ff3e	-5.1035374e-07
14	0x35ca9bd1	1.5095521e-06
15	0x3584fbcc	9.908049e-07
16	0x35a10234	1.1996076e-06
17	0x3593b411	1.100476e-06
18	0x35412cb0	7.196313e-07
19	0x3515b1d0	5.5765577e-07
20	0x3667fd89	3.456926e-06
21	0xb5bdbc23	-1.4136352e-06
22	0x36134d47	2.1949688e-06
23	0xb5bee66c	-1.4223165e-06
24	0x3631f6a8	2.6518628e-06
25	0x363c7aa1	2.8085562e-06
26	0x3634b966	2.6930006e-06
27	0x363bcb8e	2.7983656e-06
28	0x35fb4c79	1.8723214e-06
29	0x36700a8f	3.5768933e-06
30	0x37d61b2b	2.5523439e-05
31	0xb718404e	-9.074878e-06
32	0x37856440	1.5901518e-05
33	0xb71b42fc	-9.254316e-06
34	0x38195856	3.6560312e-05
35	0x37e32b00	2.7080532e-05
36	0x370c6ff3	8.3707155e-06
37	0x38057413	3.1817774e-05
38	0x367db992	3.7807954e-06
39	0x37bfe363	2.287486e-05
40	0x369fe63d	4.7653725e-06
41	0xb5f1ca29	-1.8014736e-06
42	0x3644eca8	2.9344028e-06
43	0xb5f84a49	-1.849906e-06
44	0x37088882	8.138015e-06
45	0x36c32061	5.8152223e-06
46	0x35e1a8d2	1.681294e-06
47	0x36ed39ca	7.069878e-06
48	0x35287d8a	6.276756e-07
49	0x367d0bac	3.7706732e-06
50	0x392b6d27	0.00016348493
51	0xb8653426	-5.464642e-05
52	0x38d5d6ad	0.00010196618
53	0xb86889ec	-5.544156e-05
54	0x3962f063	0.0002164259
55	0x392efa1c	0.00016687106
56	0x3823d2f5	3.9058697e-05
57	0x394dd23e	0.00019628645
58	0x37b0b2ab	2.1064034e-05
59	0x391b56c2	0.00014814272
60	0x382e79a8	4.1598134e-05
61	0xb76154b5	-1.34307675e-05
62	0x37da4e59	2.6024109e-05
63	0xb763a788	-1.3569261e-05
64	0x3852783c	5.017988e-05
65	0x382891b3	4.0190014e-05
66	0x37154885	8.897977e-06
67	0x3843e5e3	4.670572e-05
68	0x36bc261f	5.6072745e-06
69	0x38231e48	3.889043e-05
70	0xb90704f6	-0.00012876451
71	0x38361ccd	4.3419004e-05
72	0xb8a84513	-8.02373e-05
73	0x383904e4	4.4111992e-05
74	0xb9396efd	-0.00017684321
75	0xb90cafe5	-0.00013416966
76	0xb800b900	-3.0689873e-05
77	0xb9266691	-0.00015869203
78	0xb782e77f	-1.5605006e-05
79	0xb8f1c431	-0.00011528319
80	0xb7bc726e	-2.2464632e-05
81	0x3722c911	9.702767e-06
82	0xb76cb221	-1.410817e-05
83	0x37275ee3	9.976068e-06
84	0xb83056e7	-4.2042604e-05
85	0xb7ea4283	-2.7925946e-05
86	0xb74a46dc	-1.20566365e-05
87	0xb80be6c9	-3.3355118e-05
88	0xb6b30d26	-5.3361464e-06
89	0xb79d16e2	-1.8726514e-05
90	0x33f69679	1.14826385e-07
91	0xb60eb250	-2.126344e-06
92	0x3435e50e	1.6940268e-07
93	0xb6191205	-2.2809265e-06
94	0x37438932	1.1654849e-05
95	0x36a06d8c	4.7811245e-06
96	0x36d81215	6.4394067e-06
97	0x36cba5ee	6.069188e-06
98	0x3621e1b1	2.412224e-06
99	0xb5baddad	-1.3922596e-06

exp_avg_sq f4 [10, 10]
0	0x2ed3fd74	9.6401914e-11
1	0x2e775427	5.623604e-11
2	0x2e74c75b	5.565624e-11
3	0x2e813758	5.876072e-11
4	0x30b41060	1.3101378e-09
5	0x2fbec57f	3.4701128e-10
6	0x2f5dbb82	2.0166449e-10
7	0x305349fb	7.6866485e-10
8	0x2f3d8f2d	1.7240316e-10
9	0x2e9486ad	6.754184e-11
10	0x2d4087e1	1.0944108e-11
11	0x2cf4e0dc	6.9598615e-12
12	0x2d268efb	9.467756e-12
13	0x2cd57e3f	6.0678402e-12
14	0x2ef0e9d3	1.0955472e-10
15	0x2e1b795c	3.535071e-11
16	0x2ddef015	2.5345096e-11
17	0x2edef81d	1.0139465e-10
18	0x2e604af0	5.099826e-11
19	0x2e3b3aff	4.2571276e-11
20	0x2ea0d0c7	7.313044e-11
21	0x2da0f3a0	1.8298085e-11
22	0x2e2697f1	3.787898e-11
23	0x2d9062fe	1.6414866e-11
24	0x2fb32914	3.2589098e-10
25	0x2effca87	1.16320335e-10
26	0x2e7cdcb4	5.749419e-11
27	0x2f976b9c	2.75432e-10
28	0x2f39b163	1.6888672e-10
29	0x2f1ba1e0	1.4154677e-10
30	0x31d4e5ca	6.196136e-09
31	0x3060a3ce	8.1723506e-10
32	0x3132ff13	2.6047402e-09
33	0x306e380b	8.666354e-10
34	0x32825a44	1.517504e-08
35	0x31f3801c	7.086795e-09
36	0x30135cd1	5.361019e-10
37	0x3254eb8b	1.239358e-08
38	0x2f243389	1.4934022e-10
39	0x319be937	4.537607e-09
40	0x30698715	8.495687e-10
41	0x2f0c9c67	1.2788491e-10
42	0x3011d796	5.305706e-10
43	0x2f000930	1.1644796e-10
44	0x30a5abba	1.2054138e-09
45	0x306a7d57	8.530682e-10
46	0x2f414219	1.757673e-10
47	0x3119ba22	2.2370235e-09
48	0x302260a8	5.9072613e-10
49	0x30ea3109	1.7039677e-09
50	0x348865ba	2.540599e-07
51	0x32f6dd4e	2.8738807e-08
52	0x33e3f435	1.0614932e-07
53	0x3301bfa6	3.0209456e-08
54	0x34f8aa38	4.631745e-07
55	0x3484ac85	2.471244e-07
56	0x326b8f72	1.3711416e-08
57	0x34de0a17	4.1358064e-07
58	0x31a12c00	4.690719e-09
59	0x345c93ff	2.0542937e-07
60	0x327fcd95	1.48896975e-08
61	0x30e747f9	1.6827918e-09
62	0x31d6e549	6.2542864e-09
63	0x30f0d6c1	1.7523335e-09
64	0x32e49ff4	2.6615432e-08
65	0x32779ba8	1.4412684e-08
66	0x3069208f	8.4811175e-10
67	0x32ce7caf	2.4038256e-08
68	0x30067981	4.8921583e-10
69	0x325b2caf	1.2757638e-08
70	0x34339429	1.6724574e-07
71	0x32a67144	1.937645e-08
72	0x33978327	7.055342e-08
73	0x32af0a35	2.0377323e-08
74	0x34a86b65	3.1370578e-07
75	0x34319b54	1.6540918e-07
76	0x3227f989	9.777417e-09
77	0x3496e98c	2.8109605e-07
78	0x318163d0	3.7657415e-09
79	0x34108426	1.345912e-07
80	0x31959a31	4.3540003e-09
81	0x305992c0	7.9152684e-10
82	0x30fa691f	1.8219771e-09
83	0x30650cb0	8.3327745e-10
84	0x3283945b	1.5317871e-08
85	0x31d33dfc	6.147955e-09
86	0x30928bfb	1.0662683e-09
87	0x3233a9e8	1.04578035e-08
88	0x2f829f7b	2.376018e-10
89	0x314d9785	2.9917555e-09
90	0x2de1808b	2.5636623e-11
91	0x2e2ad7bc	3.8845135e-11
92	0x2d423168	1.1038594e-11
93	0x2e34d90e	4.1120045e-11
94	0x309ccb87	1.140834e-09
95	0x2f27d4ce	1.5264165e-10
96	0x2fd84974	3.9342363e-10
97	0x2fa6eb66	3.0362485e-10
98	0x2e89a865	6.2599516e-11
99	0x2ec7ef9e	9.092037e-11

exp_avg f4 [10]
0	0x373e9159	1.1358724e-05
1	0x365cd6fa	3.2907687e-06
2	0x3718f5a4	9.117099e-06
3	0x386f7ca6	5.709813e-05
4	0x373ea86e	1.1364098e-05
5	0x39b2d12e	0.00034106657
6	0x38af3f9e	8.3565e-05
7	0xb98e2095	-0.00027108626
8	0xb881f261	-6.196346e-05
9	0x377527bb	1.4612388e-05

exp_avg_sq f4 [10]
0	0x31aa847f	4.9627142e-09
1	0x3083ed5a	9.598964e-10
2	0x3143e1dd	2.8504623e-09
3	0x331c52e2	3.6396962e-08
4	0x3259badb	1.2673548e-08
5	0x35a81ab1	1.2524744e-06
6	0x33a10d36	7.49955e-08
7	0x35655702	8.543576e-07
8	0x331ba886	3.624202e-08
9	0x310f8207	2.088315e-09
