src/data_driven/antiderivative/classical_training_seed927319734/model_checkpoint-3000.pt (torch, 24579 bytes, 24 tensors)

branch.hidden_layers.0.thetas f4 [184]
000000 93 19 31 bf d2 a3 90 bf 45 d2 00 3e 89 2a 17 3e
       -0.6917965 -1.1299994 0.12580211 0.1476232
000010 4f 44 bf bf 82 ae a3 bf 78 5b 8b bf 29 79 b6 be
       -1.4942721 -1.278763 -1.0887289 -0.35639313
000020 e1 15 fb 3c 7a f4 5b bf e1 f9 08 3f 84 bf 23 bf
       0.030650081 -0.85919917 0.53506285 -0.63964105
000030 96 bc cd 3f e9 79 12 3f b5 38 08 bf 5e 63 14 be
       1.6073177 0.5721727 -0.5321153 -0.1449103
000040 16 9f bf 3f 0a 8a cf 3f ee 11 da 3f 07 eb 73 3f
       1.4970424 1.6214001 1.7036722 0.952805
000050 26 d0 35 bf ff a6 5b bd 5c 0d dd 3e 1d 93 f0 3e
       -0.71020734 -0.053626057 0.43174255 0.4698724
000060 32 9b d0 bf d8 e1 3d 3f 7b 68 d4 3e b3 f0 6b bf
       -1.6297362 0.74172735 0.41485962 -0.9216415
000070 7b 74 51 bf ae 47 35 3f ac 65 68 be 75 be 35 3f
       -0.8181836 0.708125 -0.22695035 0.7099374
000080 46 ad d5 3f b5 5f 80 3f 1d e2 b2 bf 91 46 2e 3f
       1.6693504 1.0029207 -1.3975254 0.68076426
000090 d3 5f 08 40 5e 51 92 3f d8 87 cf be 42 f2 d0 3e
       2.1308486 1.1431081 -0.40533328 0.40809828
0000a0 17 cb e0 bf e6 11 29 bf 9d 37 ef 3e d2 e6 70 3e
       -1.7561978 -0.66042936 0.46722117 0.23525551
0000b0 7a d2 b9 be 9e 29 6b bc d9 b5 a6 bf 06 e1 a2 bf
       -0.36293393 -0.014353184 -1.3024246 -1.2724922
0000c0 6a 93 a9 bf cb 32 38 bd 8f de a6 3f bb 50 be bf
       -1.3248112 -0.044970315 1.303667 -1.4868387
0000d0 59 ce 2a 3f f7 3a 5c 3f 13 7a 70 3e ef ea 0d be
       0.6672111 0.86027473 0.23484068 -0.13859151
0000e0 38 a0 48 bf 6a a5 3e 3f 6e 04 b7 bf 2e 9f 74 be
       -0.78369474 0.7447115 -1.4298227 -0.23888847
0000f0 9d 37 59 bf c8 07 9d 3f 34 e7 68 3f fd c4 d8 3f
       -0.84850484 1.2268 0.9097779 1.6935116
000100 4d 2a 5e 3f 57 aa 88 be 3c ba 83 3f b3 8a a3 3f
       0.86783296 -0.2669246 1.0291209 1.2776703
000110 a9 42 9b 3f af 55 0e 3f 47 1c d7 bf da 21 f3 bf
       1.2129718 0.5559949 -1.6805505 -1.8994706
000120 cb 2a 70 3f c9 41 19 be 8d 68 9a be 43 86 ea 3d
       0.93815297 -0.14966501 -0.3015789 0.1145139
000130 19 6c 19 3d 86 69 6e 3f fc 7d 9d 3f 0d 05 45 bf
       0.037456606 0.93129766 1.2304072 -0.7696083
000140 ee 7c 9d 3e e3 6b 94 be d1 f3 de 3f 77 08 30 be
       0.30759376 -0.2898856 1.7418157 -0.17190729
000150 08 53 6c bd 70 0e d8 bd 32 da 67 bf 56 1b 06 bf
       -0.057696372 -0.10549629 -0.90567315 -0.5238546
000160 63 30 ff 3f 92 5d 82 3e a4 83 36 be 80 d6 51 3d
       1.9936641 0.25462013 -0.17823654 0.051229954
000170 8f 7a 93 bf bd a8 08 40 5f e6 58 be a6 69 09 3f
       -1.1521777 2.135299 -0.2118163 0.5367683
000180 f6 bd ec 3f fc 6f 52 3f 0a e8 23 be 54 43 d7 bd
       1.8495471 0.82202125 -0.16006485 -0.10510889
000190 b5 ac 33 bc 55 80 01 bf 92 f1 0b 3f b0 fe 40 3f
       -0.0109664695 -0.50586444 0.5466548 0.7538862
0001a0 66 1a f0 be ce 0a 15 3f 69 3f 3d 3f ce 6e b8 bf
       -0.4689514 0.5821961 0.7392488 -1.4408815
0001b0 7e 3b 4b 3e 4f 7e c9 bd e0 1b 65 3f 1f 9f 41 bf
       0.19846913 -0.098385446 0.8949566 -0.75633425
0001c0 c0 d6 87 3c 02 7d fe bd e6 99 99 be 72 02 19 3d
       0.016581893 -0.12426187 -0.30000228 0.037355848
0001d0 9c 69 3e 3f bc eb 7f be bd 0c 17 40 58 e9 2a 3f
       0.743799 -0.2499227 2.3601525 0.66762304
0001e0 3f b7 19 be ca 51 90 bd e6 7d 79 bd 9e 9d 82 bf
       -0.15011309 -0.0704685 -0.06091108 -1.0204351
0001f0 d7 1b 9e be 85 58 9d 3f 48 a9 09 40 25 70 4c 3e
       -0.30880615 1.2292639 2.150957 0.19964655
000200 42 53 a1 bf b6 74 2d bf 64 c1 c8 bf 13 27 9e 3c
       -1.2603533 -0.6775621 -1.5684018 0.019305741
000210 52 a2 85 3f 53 c6 75 3c 45 0f e4 bf 61 d6 37 3f
       1.0440161 0.015000897 -1.781716 0.7181149
000220 c1 8a b4 3f 5e 2d c8 be e4 a2 00 c0 d8 02 04 40
       1.4104844 -0.39097112 -2.009942 2.0626736
000230 1a de 45 bf d3 fa f1 3d 41 7a 9c 3f e1 90 aa 3e
       -0.77292025 0.11815419 1.2224809 0.3331366
000240 33 a1 bf 3e a1 c2 82 bf cd d5 76 be 02 cb e2 3f
       0.37427673 -1.0215646 -0.24104996 1.7718203
000250 5f 05 8c bf 6f ca aa 3f cb 4d cf be db 47 9d 3e
       -1.0939139 1.3343028 -0.4048904 0.30718884
000260 ca 7d 75 be 79 e3 a4 3d 17 02 cb 3d 81 36 47 bd
       -0.23973766 0.080511995 0.09912508 -0.048635963
000270 68 53 97 bf 9a cf 4a 3e 54 48 ce be 39 26 f9 3d
       -1.1822329 0.19805756 -0.40289557 0.121654935
000280 e2 6f 41 3e 3f 3f 0d be b7 86 79 bf 50 e0 c5 bf
       0.18890336 -0.13793658 -0.97471184 -1.545908
000290 71 29 7e bf 4d 21 e3 bf b7 8c 27 bf 85 f4 65 3f
       -0.99281985 -1.7744538 -0.6544909 0.8982623
0002a0 0b 2e 4f 3f 57 90 50 bf d4 e9 d6 3f e4 6f ca 3f
       0.8092963 -0.81470245 1.6790109 1.5815396
0002b0 37 75 50 bf b3 bf 6e bf f7 6a 5d bf 55 3b 3d 40
       -0.81428856 -0.9326126 -0.8649134 2.9567463
0002c0 b2 f1 a1 bf b6 bc 36 3f 4e 99 bc bf 9d d3 65 3e
       -1.2651885 0.713817 -1.4734285 0.22444005
0002d0 b0 61 73 3f bd fd c0 3f a2 43 3f 3c 85 e2 2c be
       0.95070934 1.5077435 0.01167384 -0.16883285

branch.hidden_layers.0.bias f4 [20]
000000 9b 5e dd 3e 8e 22 7f 3e ab f5 87 3e fb a0 19 3e
       0.4323624 0.24915525 0.26554617 0.15002815
000010 13 e2 6b 3e 4f 68 88 3e bd 1a 9b 3e 91 0c 46 3e
       0.23035459 0.2664208 0.30293837 0.19340731
000020 a1 3a 96 3e 02 8d c0 3e 6f f3 53 3e 56 2d 56 3e
       0.29341605 0.3760758 0.20698331 0.20915732
000030 43 92 58 3e 2c 75 8a 3e 7f fc 2f 3e ac ef 13 3e
       0.21149544 0.2704252 0.17186163 0.14446896
000040 ac 56 95 3e 86 cf 7e 3e 44 c6 55 3e cc f1 50 3e
       0.29167688 0.24883851 0.20876414 0.20404738

branch.output_layer.weight f4 [20, 20]
000000 ce 4d 8b 3e 45 0a c1 be ae 16 ce bd 5d 65 10 3c
       0.27207798 -0.37703148 -0.100629196 0.008813229
000010 b1 e1 63 3e 72 f7 bf 3d b8 b0 8b be 0b 72 c1 3e
       0.22254063 0.09373368 -0.27283263 0.3778232
000020 74 64 c2 be e7 fd e4 bd 0c f9 9e 3e 0a 51 b9 be
       -0.37967265 -0.111812405 0.31049383 -0.3619464
000030 da 3d b6 3e 78 16 46 3d 3c 14 8f be 1d 05 86 3e
       0.35594064 0.04836127 -0.27945125 0.26175776
000040 da 36 83 3e d6 c3 87 be 96 5b 81 3d 48 e0 de 3b
       0.25627786 -0.26516598 0.06316297 0.0068016388
000050 1f ab 2e be 16 f8 d2 3e cb 7f 8c 3e 7e f4 25 be
       -0.17057465 0.412049 0.27441248 -0.16206548
000060 a4 16 cd be a3 fb 93 bc 0a 74 3c 3c fa 10 b9 be
       -0.40056336 -0.018064326 0.011502275 -0.36145765
000070 d9 c3 d4 3e ae 14 03 3e 57 1e a7 bd 35 50 58 3e
       0.4155567 0.12800857 -0.08160084 0.21124347
000080 db 0d d6 be 9e 5d 82 be 7a 65 ae 3e 65 2b 13 be
       -0.41807446 -0.2546205 0.34061795 -0.14372022
000090 e7 2f 13 be 45 89 11 be 49 6c ec bc 8d 7d 2e be
       -0.14373742 -0.1421252 -0.028860228 -0.17040081
0000a0 cb dc 38 3f 85 68 04 be 34 2c 8d 3d cc 8d 34 be
       0.72211903 -0.12930496 0.06893197 -0.17632216
0000b0 42 87 0e be 18 3c 51 bf 6a d7 fb 3c d9 d6 cd bd
       -0.13918784 -0.8173232 0.030742366 -0.100507446
0000c0 be 36 f3 3d a2 42 12 be 13 b1 ce bc 1b ae ff 3e
       0.118756756 -0.14283231 -0.02523092 0.4993752
0000d0 2d 7a 1d be a1 8f 03 bf cc 98 f7 3e 84 60 ba bd
       -0.15378638 -0.51391035 0.48358762 -0.0910044
0000e0 da d0 1b bf 14 8c 21 3f 6d 8f 1b 3d 93 50 fb bd
       -0.6086556 0.6310437 0.03797858 -0.12271228
0000f0 81 ca 8e 3e b0 b8 ab be 67 2e be be df d8 54 3e
       0.27888873 -0.33539343 -0.37144777 0.20785855
000100 ce 01 c0 3c d7 f6 be 3d 90 69 9b be d5 0b af 3e
       0.02343836 0.09324425 -0.30353975 0.34188715
000110 e2 a5 8d be 31 2b c5 be bb a5 4a 3e a4 25 9f bd
       -0.2766562 -0.38509515 0.19789784 -0.07770851
000120 d0 f6 c9 3e 11 42 6d bb 98 79 4e be 7e ee 00 3f
       0.39446115 -0.0036202709 -0.20163572 0.5036391
000130 d3 c5 10 be 20 b0 2b 3e d3 0c 2d bd c1 6c 85 bd
       -0.14137964 0.16766405 -0.04224856 -0.06514884
000140 2a d6 fa 3e 99 6f f9 be e0 04 56 be a8 ad da 3e
       0.4899152 -0.48717955 -0.20900297 0.42710614
000150 a2 9f d2 3e 0c 6b c6 3d 9d 9c f8 be 3e 53 10 3d
       0.41137415 0.09688386 -0.48556986 0.035235636
000160 2f 10 b1 bd 49 87 b2 be 56 4f c8 3e 5c 7b 40 3d
       -0.08645665 -0.3486884 0.3912303 0.046992645
000170 a1 67 3f bd 39 c5 c8 3d c3 40 28 be d8 e9 75 3e
       -0.046729688 0.09803242 -0.16430955 0.24014986
000180 4d e1 a2 3d 69 66 6a be 10 5f 3b 3d 46 5e 34 3e
       0.07953129 -0.22890629 0.045744956 0.17614087
000190 e1 b1 48 be ac ef 91 3e ab e0 d1 3e ca c5 64 be
       -0.19599105 0.28503168 0.4099172 -0.22341076
0001a0 45 b4 aa be 62 8a 7e be 87 49 21 3e fb 98 a4 be
       -0.3334066 -0.24857476 0.15750705 -0.32147965
0001b0 b4 06 e5 3d 53 06 d7 3d 6c 27 5d be b5 90 a2 3e
       0.11182919 0.10499253 -0.2159707 0.31751028
0001c0 e8 70 6c be aa 2b 74 be 39 94 3e bd 05 46 b5 be
       -0.23089945 -0.23844782 -0.046528075 -0.35404983
0001d0 de a9 1f be 37 4c 31 3e ea 37 ad 3e ed c0 5c be
       -0.15592143 0.1731423 0.33831722 -0.2155797
0001e0 e7 a4 b6 bd 1e 1c e2 3d 4f 91 87 3e 2f 73 f9 bd
       -0.089181714 0.11040519 0.2647805 -0.12180173
0001f0 67 44 a5 bd e2 1e 87 3c 59 de c4 3e 21 8d ba be
       -0.08069687 0.016494218 0.38450888 -0.36435798
000200 ea cd 96 3d ca 62 05 3f c0 b7 a4 be c1 de d9 bd
       0.07363494 0.52103865 -0.3217144 -0.1063819
000210 5b 3b 1b be 8e 2a 92 be ef 88 50 3d 28 c4 9e be
       -0.15159361 -0.28548092 0.05091184 -0.3100903
000220 8a 1d 20 be 8d 4c fd 3d e8 bd bf bd b6 c4 a8 bd
       -0.15636268 0.123681165 -0.093623936 -0.08240645
000230 89 4d 85 be cf 1a 26 3e b5 a0 d6 3e f8 4d 85 be
       -0.26035717 0.16221164 0.41919485 -0.26036048
000240 36 f3 42 bd 2a 62 4e be 70 f3 37 3e 64 d8 b7 be
       -0.047595225 -0.20154634 0.17963958 -0.3590728
000250 7a 33 fe 3e e2 42 37 3f 63 fb 9b be 94 99 c7 bd
       0.49648649 0.7158643 -0.3046523 -0.097460896
000260 aa b6 53 bf 4b 8c 64 3d dc a3 94 bd e7 c4 03 bf
       -0.827006 0.055797856 -0.07257816 -0.51472324
000270 7c 77 8c 3e 0f e3 e6 be f4 27 b1 be 54 9c ab 3e
       0.2743491 -0.45095107 -0.34600794 0.33517706
000280 7e 48 0c 3f 7d 00 5d bd 50 ca d4 be 07 2c db 3e
       0.54798114 -0.053955544 -0.41560602 0.42807028
000290 19 6c a4 3e 1d ed 36 3e 59 93 00 bf 96 a2 61 3e
       0.32113722 0.17863889 -0.50224835 0.22034678
0002a0 86 9d e4 be 6c a7 ff be 7d 42 d2 3e bd 47 ad be
       -0.4465143 -0.4993242 0.41066352 -0.33843794
0002b0 07 6f 9b 3e 8a 70 17 3e 14 99 8d be 18 ef a9 3e
       0.30358145 0.14789024 -0.27655852 0.33190227
0002c0 66 64 af bb 0d 83 7f be ee 1f 01 3d 66 91 7d bc
       -0.0053525446 -0.24952336 0.03152459 -0.01547656
0002d0 a7 c1 a3 3e 3f de bc be 6c 7a 83 be f9 11 87 3e
       0.31983683 -0.3688831 -0.25679338 0.263809
0002e0 79 ce d0 3d 0a d6 88 3d a7 b0 80 be 89 89 bc 3e
       0.101956315 0.0668145 -0.25134775 0.3682368
0002f0 22 bc d9 be 21 fa 6e be b6 8f ca 3e a5 3e 96 be
       -0.42526346 -0.23337604 0.39562768 -0.2934467
000300 19 62 bd 3e ae d7 e1 3e ff 83 07 be 06 3f 98 3e
       0.36988905 0.44109863 -0.13233946 0.29735583
000310 eb 3c 6e 3e 2c 6a 24 3e f2 01 eb ba 8f 4c d5 bd
       0.23265426 0.16056126 -0.0017929657 -0.10414993
000320 c4 5b b9 3e 4b ad f8 be 9e 64 c9 be 31 51 98 3d
       0.36202824 -0.48569712 -0.39334577 0.07437361
000330 6a fc e8 3e 55 dc d0 3e 91 eb fe be 7e f6 ce 3e
       0.45505077 0.407931 -0.49789098 0.40422434
000340 3b 48 4e be 86 8e f9 be be 9e 7f 3e 8a e6 15 be
       -0.20144741 -0.4874155 0.24962899 -0.14638725
000350 b8 1e c3 3e d8 3a cb 3e b6 df 01 bc fc c8 d0 3d
       0.38109374 0.39693332 -0.007926872 0.10194585
000360 62 5a 66 3e fc 04 17 be bf 53 97 be 80 d3 6a bc
       0.22495416 -0.14747995 -0.2955608 -0.014332652
000370 64 07 2f bf 6a 74 85 3e 08 29 6f be 73 ca fd 3c
       -0.6837065 0.2606538 -0.23355496 0.030980324
000380 15 de ea 3d 32 53 9e 3e 97 84 be bd 77 df 93 3e
       0.1146814 0.30922848 -0.09302633 0.28881428
000390 ac 38 8f be d4 33 1a bc a4 c4 b9 bc 2b 39 06 bf
       -0.27972925 -0.009411771 -0.022676773 -0.5243098
0003a0 b5 5b 0d 3e 63 6b 1b 3f 87 88 95 be 3e 03 05 be
       0.13804515 0.60710734 -0.29205725 -0.12989518
0003b0 79 7c 15 3f e6 06 4a bf 02 84 7e be b4 f3 d1 3e
       0.58393055 -0.78916776 -0.24855044 0.41006243
0003c0 1a c0 4c 3e b4 34 b8 3e a3 e0 cd bc f5 a6 db be
       0.19995156 0.3597771 -0.02513153 -0.42900816
0003d0 3e 08 8d 3c 59 53 c7 be ac 72 d9 3d 55 fe 08 be
       0.017215844 -0.38930777 0.10617575 -0.1337827
0003e0 7b 5e d7 3e 47 00 7e 3e 03 64 2e bd f9 07 88 3e
       0.4206427 0.24804793 -0.042575847 0.26568583
0003f0 b3 d0 e9 be 21 27 9c be ad 6d a8 3e 85 d6 9d be
       -0.45667037 -0.30498603 0.32896176 -0.30827728

branch.output_layer.bias f4 [20]
000000 75 53 63 3d 0f 54 9e bd 24 e9 a4 3c ac bc 51 be
       0.055499513 -0.07730877 0.020130701 -0.20482129
000010 92 5e 19 3d 78 ca 8a 3e da 93 20 3e 92 f3 1c 3c
       0.037443705 0.27107596 0.15681401 0.009579556
000020 cb 6a 10 3e 79 a5 1d be ac b3 6f bd 72 84 09 3e
       0.14103238 -0.15395154 -0.058520958 0.1342943
000030 f6 dd 13 3c c7 91 77 3e 47 68 1e 3e 17 bd 34 3e
       0.009025088 0.24176703 0.15469466 0.17650257
000040 5b ae ee 3d f3 e9 0f be 6f bc 96 bd 99 0f 57 bd
       0.116543494 -0.14054088 -0.073601596 -0.05250511

trunk.hidden_layers.0.thetas f4 [37]
000000 ca 26 15 bf 40 bb 12 3f fd 96 f4 bd cf 0c 30 3e
       -0.5826231 0.5731697 -0.11942861 0.17192386
000010 e7 8c 43 bf b0 d1 47 bf d0 6b 1d 3f 32 a1 f5 3e
       -0.76386875 -0.7805433 0.61492634 0.47974545
000020 46 4a 3d bf 6b be 52 3f 73 4d a3 bf 08 6f 18 c0
       -0.7394146 0.82321805 -1.2758011 -2.3817768
000030 de 35 80 bf 13 a8 da 3f 5d a4 e8 3f 17 fa 25 3f
       -1.0016439 1.7082542 1.817516 0.6483473
000040 ac cb 17 bf a7 f2 db 3f 0f 63 8e be 12 3c 44 3f
       -0.59295154 1.7183427 -0.2780995 0.7665416
000050 4e a8 9a bf 1a 8d 4e bf ba 34 72 be fa 22 4b 3f
       -1.2082613 -0.80684054 -0.23652926 0.79350245
000060 c9 b0 8a be 35 cb 41 bf 16 44 90 3f b3 58 94 be
       -0.27088 -0.75700694 1.1270778 -0.28973922
000070 ba a2 39 bf 94 0b 8e be e6 13 37 3e fd 19 5f be
       -0.72513926 -0.27743208 0.17878684 -0.21787257
000080 a8 32 fa 3e 2d 87 98 3c 67 72 5f bf d0 2f 48 be
       0.48866773 0.018619144 -0.8728394 -0.19549489
000090 1d 2d 7b be
       -0.24528928

trunk.hidden_layers.0.bias f4 [20]
000000 51 de 89 3e 53 ef 40 3e 6d 01 45 3e 4e 25 2b be
       0.26927426 0.18841295 0.19238825 -0.1671345
000010 90 88 2d 3e d4 29 42 be 50 3e 33 be ec 0a e4 3d
       0.16946626 -0.18961269 -0.17504239 0.11134896
000020 87 74 38 3e 16 fd 4e 3e f2 90 44 be df c2 4c 3e
       0.18013202 0.20213732 -0.19195917 0.19996212
000030 8c 81 48 3e 3f cb 3c be f2 8b 61 bd 79 53 33 3e
       0.19580668 -0.18436907 -0.055065103 0.17512311
000040 6b 3c f5 3d 87 a4 9f 3e 0f f6 96 3e c4 74 5d 3e
       0.119744144 0.31180212 0.29484603 0.21626574

trunk.output_layer.weight f4 [20, 20]
000000 42 5b 20 3e ff 35 cc 3e 91 87 b5 3e 8f 58 19 bd
       0.15659812 0.39884946 0.3545499 -0.03743797
000010 70 fb 91 3e 79 40 c7 bd e6 c8 ab be 63 3f b7 3d
       0.28512144 -0.09729094 -0.3355171 0.08947637
000020 9f e7 19 3e 73 8f 88 3e 94 bf e2 bd 0f 39 e3 3e
       0.15029763 0.26671943 -0.11071697 0.4437947
000030 b2 9c fb 3d f8 57 88 bd de a1 98 be 16 80 81 bd
       0.12285747 -0.06657404 -0.29810995 -0.063232586
000040 df 73 cf be 7d 7a fd 3e 25 b2 45 3e fa 26 20 3e
       -0.4051809 0.49507514 0.19306238 0.15639868
000050 81 88 d5 3d 05 26 a5 3d 06 44 48 3d c5 7f 3f 3e
       0.10426427 0.08063892 0.048892997 0.18701084
000060 72 b8 3f be 02 61 12 3e 61 3f 21 3e ef 38 5c be
       -0.18722704 0.14294818 0.15746833 -0.21506093
000070 38 e2 80 bd 8b 38 32 bd b4 1b 19 3d ca d1 8c be
       -0.06293148 -0.043510955 0.037379935 -0.27503806
000080 34 55 aa be 30 80 e8 3d 6a 24 36 3e 02 d2 5e bc
       -0.3326813 0.11352575 0.17787328 -0.013599874
000090 98 0b aa 3e f4 0d 01 bf 96 97 07 be fa 01 35 bc
       0.3321197 -0.50411916 -0.13241419 -0.0110478345
0000a0 5d 0a 01 3f 5c 2a 3c 3d 42 fb 89 3e 4d 43 a8 be
       0.5040644 0.045938835 0.26949507 -0.32863846
0000b0 c3 2d 83 bd 12 cf 9a 3c c3 1f 98 be 73 95 95 bc
       -0.06405213 0.018897567 -0.29711732 -0.01825974
0000c0 1c 3e 63 3e b8 c1 b6 3e 41 58 2b 3d fa a6 9b 3e
       0.22191662 0.3569467 0.041832212 0.3040083
0000d0 03 85 99 be 2e f9 5c be ba a1 49 be b4 cc 33 bc
       -0.29984292 -0.2157943 -0.196906 -0.010974098
0000e0 98 98 21 3e 04 79 d3 be 47 9e 89 bd 34 d2 30 3f
       0.15780866 -0.41303265 -0.06719642 0.69070745
0000f0 74 4f 44 bd 79 14 8b bd b3 43 c1 bc 15 c6 bd b8
       -0.047927335 -0.06791014 -0.023591852 -9.049118e-05
000100 e7 3e ee 3d 9d 7a 5e be 1d d6 90 3d 03 91 05 3e
       0.116330914 -0.21726461 0.07072089 0.13043599
000110 57 2a b2 3e 98 a8 31 bd a5 80 48 be 9e 54 5b 3e
       0.34797928 -0.043373674 -0.19580324 0.21418998
000120 c2 c2 cd 3e c5 b7 40 bd 1d 15 85 be 48 d6 4c be
       0.4018765 -0.047050256 -0.2599267 -0.20003617
000130 d2 cd 2a bf 68 5a e8 3d 0e 08 63 3e 52 55 c4 3e
       -0.66720307 0.113453686 0.22171041 0.38346344
000140 46 1b 8a 3e d1 cf 9f 3e c2 74 9b 3e 0d 8c 2c be
       0.26973933 0.3121324 0.30362517 -0.168503
000150 99 53 8b 3e 43 4b d2 bd c6 d7 cd be 3e fa e9 3c
       0.27212217 -0.10268261 -0.40203685 0.028561708
000160 c1 1e af 3e 15 38 fb 3d 0c 59 ee bd b3 81 8c 3e
       0.3420315 0.12266556 -0.11638078 0.27442703
000170 44 e6 bb 3e fb 30 c2 be 8f a4 bc be e9 87 c4 3c
       0.36699116 -0.37927994 -0.36844298 0.023990588
000180 fb db b0 bd c9 52 73 3e 62 81 f3 3d 72 ec 5a 3e
       -0.08635708 0.23762049 0.11889912 0.21379259
000190 a5 e6 c1 3d 02 e4 81 3d a1 58 3c be cb a6 5a 3e
       0.0946782 0.06342317 -0.18393184 0.21352689
0001a0 05 af 25 be 9d 97 d8 3d d4 14 b1 3d b2 b1 11 be
       -0.16180046 0.10575793 0.08646551 -0.14227942
0001b0 06 51 b9 bd d9 09 b3 be 48 3f 99 bd 1b 96 2c be
       -0.09048657 -0.3496845 -0.07482773 -0.16854136
0001c0 7d 69 74 be c1 22 6c 3e 49 86 d9 3e 50 c3 bc 3d
       -0.23868366 0.23060133 0.42485264 0.092169404
0001d0 44 57 1a 3e 5d 21 30 be a7 45 a0 be 6c 35 64 3d
       0.15072352 -0.17200227 -0.3130314 0.05571501
0001e0 0a c0 0d 3e 84 e4 ab 3d 06 65 fc bd e3 0c 07 bd
       0.13842788 0.08393195 -0.12323956 -0.032971274
0001f0 7c 4c 1b 3e f9 fe 17 be bc 2b 5c be a0 e4 34 be
       0.15165895 -0.14843358 -0.21501058 -0.17665339
000200 1e 6c 26 3e cc cd e3 bd 6a 96 64 be d0 da 57 be
       0.16252181 -0.11123237 -0.22323003 -0.21079564
000210 be ab 98 be f4 96 95 3d b7 9b 67 3e 60 4c 03 bd
       -0.2981853 0.07304183 0.22617994 -0.03205526
000220 60 8d 12 3f fc 6c 86 be 8d e0 76 be a3 74 55 be
       0.5724697 -0.26255023 -0.24109097 -0.20845275
000230 47 4e 01 3f 86 32 ea 3e 52 19 a2 3e 2b e3 9b be
       0.50510067 0.4574167 0.31659943 -0.30446753
000240 7e f5 4a 3d a2 00 a9 be b9 00 3d be 8b 40 ab 3e
       0.049550526 -0.33008295 -0.18457307 0.3344768
000250 d0 57 00 3e a2 11 2b be 0c 28 ef be 67 74 b8 be
       0.12533498 -0.16705945 -0.4671024 -0.36026308
000260 57 94 7c bf 14 b2 f4 be 64 be 51 3f 96 46 2b 3f
       -0.9866385 -0.47792113 0.8193114 0.6690458
000270 5d 49 95 3f ad b0 01 bf c2 b2 d5 be 18 98 39 be
       1.1663014 -0.5066021 -0.41737944 -0.18124425
000280 be e3 a7 3e 42 9d c7 3e 51 51 84 3e 27 4b b8 be
       0.3279094 0.38987166 0.2584329 -0.35994837
000290 6b 96 6f 3e 42 b3 a9 be 0e 3f 4c be a0 64 d8 3d
       0.23397224 -0.33144575 -0.19945928 0.10566068
0002a0 8f 48 82 3e a4 78 8a 3e 40 24 a6 be 79 f6 c1 3e
       0.25445983 0.27045166 -0.32449532 0.37883356
0002b0 00 be af 3e 0d 78 94 be 26 66 11 bf 3e 20 fd 3d
       0.34324646 -0.2899784 -0.5679649 0.12359665
0002c0 64 cd b9 be f8 08 e4 3e 3d 82 6f 3e 08 93 d0 3e
       -0.36289513 0.44538093 0.23389526 0.40737176
0002d0 46 b2 af bc ff ff 86 3d 6a e8 9e 3e 97 a5 63 be
       -0.021447312 0.06591796 0.31036693 -0.22231136
0002e0 69 39 83 3e 63 32 48 be 78 44 62 be 9b 80 7c bc
       0.25629738 -0.19550471 -0.22096431 -0.015411521
0002f0 2b 30 32 3e 06 d4 a3 3e a0 bf d4 bd 3a 72 28 3e
       0.17401187 0.319977 -0.10388112 0.16449824
000300 63 de c2 3e ba d7 dc 3d f3 e4 b5 be 6c 90 55 be
       0.38060293 0.10783334 -0.35526237 -0.20855874
000310 d3 a1 c7 be 7a 51 d7 3e 66 b8 22 3e 19 0c d6 3e
       -0.3899065 0.4205435 0.15890655 0.41806105
000320 a1 dc b4 3e 07 90 d7 3e 1b 72 99 3d f1 06 57 be
       0.35324576 0.42102072 0.07492467 -0.20998742
000330 84 02 98 3e aa bf 96 be dc d4 b9 be 65 5c 78 3d
       0.2968942 -0.29443103 -0.3629521 0.06063499
000340 f7 11 a1 3e 35 03 a9 3d d8 8e bd be 4e 1f 85 3e
       0.3145902 0.08252565 -0.37023044 0.26000446
000350 43 e6 f7 3d 45 e8 ff bd 43 f2 f5 be 60 e4 7b 3e
       0.12104466 -0.12495474 -0.48036394 0.24598837
000360 54 f1 fa be 01 ef e7 3e f2 d6 e0 3e b4 01 9f 3e
       -0.49012244 0.45299533 0.4391399 0.31055987
000370 9e f5 a4 3e 2f b7 b4 3e 67 33 b4 3e 10 6a d4 be
       0.3221864 0.35296008 0.35195467 -0.4148717
000380 72 1a 7c 3e 0d 17 b5 be 80 5e 53 be 69 ea c2 3d
       0.24619463 -0.3536915 -0.20641518 0.095173664
000390 35 78 d9 3d 71 35 cb 3e 7a fd ae be d3 2b 2a 3f
       0.10618631 0.3968921 -0.34177762 0.6647312
0003a0 6b 1e 40 3f 66 f5 35 be 50 68 a6 be 91 0c 91 be
       0.75046414 -0.17769393 -0.3250146 -0.283299
0003b0 b3 05 e6 be fc 73 24 3f a9 f9 12 3f 5d 55 a8 be
       -0.44926223 0.6423948 0.574122 -0.32877627
0003c0 ff 04 36 3f 00 71 94 3e 75 c9 d1 3e ae 46 33 be
       0.71101373 0.28992462 0.40974012 -0.17507431
0003d0 27 a2 9b 3e 8c 50 b7 be 94 d8 82 be 9b b7 90 3e
       0.3039715 -0.3580364 -0.2555586 0.2826508
0003e0 b1 33 08 3f a8 7e 68 3e be a6 7d be dc ae 53 be
       0.53203875 0.22704566 -0.24770638 -0.20672172
0003f0 15 2e 24 bf 93 b5 06 bf 00 dd 15 3f 3c b6 c1 3e
       -0.64132816 -0.5262081 0.58540344 0.37834346

trunk.output_layer.bias f4 [20]
000000 da dd 90 3e 29 b2 15 bd ec 55 51 bd 8f 16 63 3e
       0.2829426 -0.03654686 -0.051107332 0.22176574
000010 5a 53 a8 3e 45 c9 4a be 35 25 d5 bd 1e fa 9b 3d
       0.32876092 -0.1980334 -0.10407487 0.076160654
000020 bb f9 57 3e b8 86 83 3d b8 3f 57 3e c0 22 73 3d
       0.21091358 0.0642218 0.210204 0.059359312
000030 52 43 ba 3a 40 34 8a 3e 45 7b 87 3e 2d d9 30 be
       0.0014210737 0.2699299 0.26461235 -0.17270346
000040 16 20 d3 bd 5f e4 19 be 89 81 89 3e 18 f6 75 3e
       -0.10308854 -0.15028523 0.2685664 0.24019659

exp_avg f4 [184]
000000 f1 32 4d b6 8a 92 d3 b5 94 bd 22 b6 88 9d a1 b4
       -3.0577032e-06 -1.5763374e-06 -2.425023e-06 -3.0103206e-07
000010 ed 22 9a 34 35 37 7b b6 01 40 37 b3 6a d1 53 b6
       2.8710147e-07 -3.743405e-06 -4.266622e-08 -3.1563345e-06
000020 6e 78 52 b5 d1 a7 53 36 11 79 db b4 eb 02 0b b4
       -7.8406345e-07 3.1539132e-06 -4.0880016e-07 -1.2946445e-07
000030 ad a6 d9 b6 09 93 a4 36 89 1f 97 b2 f0 84 b6 b5
       -6.4865076e-06 4.904698e-06 -1.7593054e-08 -1.3598747e-06
000040 4a 3e 5f b5 f5 1d 47 b6 16 d2 70 b6 a5 56 67 b4
       -8.3164616e-07 -2.9670748e-06 -3.5885073e-06 -2.1545073e-07
000050 fc 61 23 b5 34 66 3d 36 ee a7 96 b6 3b 0f 03 b6
       -6.086482e-07 2.8222685e-06 -4.489898e-06 -1.9529386e-06
000060 5b fa 05 34 35 b1 d4 b4 c2 f1 3b b5 1e 8f ed b6
       1.2477669e-07 -3.9617012e-07 -7.001473e-07 -7.0798114e-06
000070 8c 8d b6 b4 26 d0 4a 35 9a ba d6 32 99 8d e5 b4
       -3.400313e-07 7.555376e-07 2.4997735e-08 -4.27576e-07
000080 1b bc 45 35 37 a9 b1 b6 db a2 36 b5 c7 5d e3 35
       7.366195e-07 -5.2947103e-06 -6.803727e-07 1.6940111e-06
000090 dc db 2f 34 d1 dd 53 b2 1f 0d 82 36 17 af 3c 33
       1.637813e-07 -1.2332252e-08 3.8758294e-06 4.3931404e-08
0000a0 91 85 cd 36 4b 15 87 b4 a3 ca 04 b5 7d e6 0f b5
       6.1250253e-06 -2.5161202e-07 -4.946871e-07 -5.3607056e-07
0000b0 d8 a9 0f b6 7d 07 62 b5 07 88 51 36 ad d8 b1 35
       -2.1407523e-06 -8.420246e-07 3.1222605e-06 1.3250589e-06
0000c0 8d db 3f 36 f5 b4 05 37 61 32 2d 34 38 f0 73 34
       2.8589013e-06 7.96955e-06 1.6130208e-07 2.271853e-07
0000d0 e8 24 9e 36 77 ac 95 b5 4e 91 a4 b6 75 1f 39 34
       4.7130634e-06 -1.1151559e-06 -4.9044966e-06 1.7240912e-07
0000e0 32 90 97 b6 67 a8 97 36 55 d9 d0 b3 91 9d 23 35
       -4.516937e-06 4.5197553e-06 -9.725287e-08 6.095152e-07
0000f0 9c d5 8f 34 73 b1 27 35 c7 79 4f 35 f5 50 80 36
       2.6791247e-07 6.247057e-07 7.729072e-07 3.824122e-06
000100 0d 96 15 b7 5d 99 ca 36 60 43 2a b5 92 1e 0c b4
       -8.9160285e-06 6.037923e-06 -6.342798e-07 -1.3049637e-07
000110 49 35 b4 36 fd ac 0a b5 6e 72 1f 36 19 b1 81 36
       5.3706212e-06 -5.166074e-07 2.3759453e-06 3.8651165e-06
000120 a3 7c d7 36 75 d5 92 37 1f 1e 17 35 f8 d7 85 b4
       6.422009e-06 1.7503955e-05 5.6295715e-07 -2.4930318e-07
000130 37 0e a0 b4 63 fd ae b5 21 35 7a 36 b8 2e 87 36
       -2.9812665e-07 -1.3037755e-06 3.7283828e-06 4.0287523e-06
000140 8a 2d 88 35 e5 f1 ef b6 8d a4 72 36 54 56 6a 36
       1.0146043e-06 -7.1509153e-06 3.6156591e-06 3.4918967e-06
000150 e1 42 27 b5 3f 6a 13 b4 a8 7f 24 36 f4 79 93 36
       -6.230967e-07 -1.3729094e-07 2.451221e-06 4.3951386e-06
000160 aa a4 6c b6 3b 81 3d 36 3d d9 f6 36 b2 ac d5 35
       -3.5262588e-06 2.8238417e-06 7.356661e-06 1.5919998e-06
000170 b6 72 23 b7 03 78 94 35 a5 88 98 b4 c2 1c 97 b4
       -9.742265e-06 1.1061787e-06 -2.8411628e-07 -2.8146866e-07
000180 ad 11 99 34 f5 86 95 b6 0c 6b 56 b6 54 01 f2 34
       2.8511332e-07 -4.456257e-06 -3.1950794e-06 4.507698e-07
000190 f9 ac e0 b6 7b ca 0e 35 f0 9a 39 37 e4 5d 2c b5
       -6.695857e-06 5.319377e-07 1.10629335e-05 -6.421162e-07
0001a0 b2 ae 09 35 25 48 53 b5 b8 3c 09 37 3c 28 32 35
       5.129069e-07 -7.870861e-07 8.1799735e-06 6.6368716e-07
0001b0 42 e0 68 36 07 24 f5 36 ad bb 00 36 a2 f6 fa b6
       3.470123e-06 7.305763e-06 1.9182728e-06 -7.4792924e-06
0001c0 eb 34 92 b5 ab d0 89 b4 b6 30 9e 36 d5 8b 41 36
       -1.0893249e-06 -2.5670064e-07 4.7144376e-06 2.8840634e-06
0001d0 6d ee b5 b6 9a 0b 8b 34 54 7f 44 35 7d c1 c3 b6
       -5.4219768e-06 2.589921e-07 7.3200977e-07 -5.833978e-06
0001e0 26 70 2e b5 e8 5f d6 34 be 8e 0e b5 57 65 15 37
       -6.498325e-07 3.9930387e-07 -5.310684e-07 8.904687e-06
0001f0 9f 97 b7 35 fa 82 ab 35 85 8a af b6 c9 7e 77 b6
       1.367869e-06 1.2778612e-06 -5.231532e-06 -3.6879667e-06
000200 78 45 a7 b5 8b c4 53 b4 7e 7b fb 35 09 83 aa 36
       -1.2462688e-06 -1.9722408e-07 1.8736898e-06 5.0816493e-06
000210 a6 5d 10 b5 51 5c 56 36 cf cb 8c 36 39 82 05 34
       -5.3780457e-07 3.194222e-06 4.1960516e-06 1.2433965e-07
000220 49 42 0f b5 f0 ff 15 36 e9 25 90 36 8e 71 78 b6
       -5.336811e-07 2.2351705e-06 4.2959477e-06 -3.7020977e-06
000230 a8 c7 80 b6 d2 22 ec b5 2f aa 32 b5 57 0e 8a b5
       -3.8379403e-06 -1.7593504e-06 -6.6557817e-07 -1.0285975e-06
000240 4b 62 f4 36 b6 45 4b b5 88 1c aa 35 2a e9 14 35
       7.2832095e-06 -7.5724836e-07 1.2674291e-06 5.5473595e-07
000250 ec 31 0a 35 21 12 44 b5 07 87 60 36 92 8c 52 b6
       5.148165e-07 -7.304207e-07 3.3457197e-06 -3.1374261e-06
000260 bf 2d b9 35 72 94 75 34 54 01 4c 35 27 e9 94 35
       1.3796888e-06 2.2871407e-07 7.5997855e-07 1.1094716e-06
000270 c8 d9 e0 36 d9 00 38 b6 14 6b 08 36 70 32 1f 35
       6.7010733e-06 -2.741863e-06 2.0327907e-06 5.930551e-07
000280 c7 dc 5a b5 8c c6 64 36 94 17 7c 35 0c 18 cd 35
       -8.15326e-07 3.4090217e-06 9.3911626e-07 1.5280689e-06
000290 74 b4 47 35 28 b2 8b 35 18 5e 37 35 ef ef b5 b6
       7.439587e-07 1.0408157e-06 6.8309737e-07 -5.4221523e-06
0002a0 80 24 ac b4 75 02 09 35 c0 94 b0 b5 07 70 8b 36
       -3.2064054e-07 5.104005e-07 -1.3156314e-06 4.1555645e-06
0002b0 46 d0 06 33 94 72 8e b6 0a 01 43 35 2b fc 87 34
       3.138873e-08 -4.2452684e-06 7.2644673e-07 2.5329186e-07
0002c0 2d 36 5b b5 c4 38 18 b6 b2 a2 14 36 5a 75 0e b5
       -8.1662694e-07 -2.2682807e-06 2.214842e-06 -5.306989e-07
0002d0 4d 17 1b b6 74 76 c2 b3 6f 6b de 34 ff 23 1a b6
       -2.3110363e-06 -9.0553755e-08 4.142889e-07 -2.296874e-06

exp_avg_sq f4 [184]
000000 79 cd d6 30 07 05 26 30 ea 0f 01 32 56 c1 98 2e
       1.5628948e-09 6.039759e-10 7.512407e-09 6.946503e-11
000010 24 7a bc 2f 39 f4 22 32 89 ac 83 2c fd 99 d9 30
       3.4283787e-10 9.485171e-09 3.742399e-12 1.5832594e-09
000020 d5 dd 97 30 72 49 86 31 0c 26 5f 30 05 02 38 2f
       1.1049744e-09 3.908263e-09 8.1180995e-10 1.673542e-10
000030 81 a0 de 31 87 a8 85 32 57 3f 5d 2f 0e f4 d5 2f
       6.4792975e-09 1.5559875e-08 2.0122336e-10 3.8917886e-10
000040 6d 14 09 30 a8 7d 09 32 2a b9 5e 31 30 ab a0 30
       4.9869336e-10 8.0030205e-09 3.2410505e-09 1.1690187e-09
000050 45 91 3b 2f 0e 29 05 31 94 b7 b0 32 ae 5c 04 32
       1.7059161e-10 1.9377384e-09 2.0572578e-08 7.704484e-09
000060 c0 b6 65 2f eb 36 c8 2d 5a 41 c7 2f 3a fe 12 32
       2.0892355e-10 2.2761756e-11 3.6244324e-10 8.556123e-09
000070 4e 90 53 32 1a fd 4d 32 15 17 c2 2e 91 b0 d0 2e
       1.23146275e-08 1.1990119e-08 8.826199e-11 9.4901094e-11
000080 56 7e 25 30 0e 5b 61 31 ed 0f a0 31 e8 d1 c3 31
       6.0206184e-10 3.2793568e-09 4.6584234e-09 5.6991105e-09
000090 41 ea bb 2f 76 3e e7 2d 53 0a 82 31 a6 40 25 30
       3.418155e-10 2.6289398e-11 3.7846717e-09 6.011852e-10
0000a0 b2 07 f6 31 3d e9 ce 31 9c 43 c3 32 89 d7 af 2f
       7.160417e-09 6.021905e-09 2.2731733e-08 3.1985462e-10
0000b0 f0 6e 9b 2f 4f 7e bb 30 2a d6 80 2f d5 2e 83 31
       2.8273162e-10 1.364194e-09 2.3435237e-10 3.817926e-09
0000c0 af 64 25 32 e4 c5 2c 32 fc e0 a2 2f 68 25 ce 2f
       9.627157e-09 1.0056713e-08 2.962749e-10 3.749776e-10
0000d0 a4 1a a5 31 b1 46 d6 2f 8a 72 85 30 e1 a4 43 33
       4.8051607e-09 3.8976603e-10 9.709578e-10 4.5551932e-08
0000e0 31 49 5d 32 e4 d3 7f 32 81 5e a5 2d 68 3c 5b 30
       1.2880535e-08 1.4891132e-08 1.8800296e-11 7.975758e-10
0000f0 8d 84 34 2f 8b 69 06 30 91 56 d5 31 b6 d9 d6 31
       1.6417996e-10 4.88989e-10 6.2089573e-09 6.2529706e-09
000100 93 90 0c 32 4d 88 c1 31 51 80 b9 30 ff 07 ce 2e
       8.181945e-09 5.632535e-09 1.3496991e-09 9.369216e-11
000110 ea cb 78 31 01 6e be 2e c5 4b 7d 31 e0 4f 2e 32
       3.6204661e-09 8.65974e-11 3.6859416e-09 1.01462945e-08
000120 c9 5b c6 31 96 c3 6a 33 05 d0 d6 30 b6 3a 31 2f
       5.772993e-09 5.4660255e-08 1.5629672e-09 1.6118915e-10
000130 e2 cb ae 30 cb 22 06 30 8f 7f 90 31 ee e4 a3 2f
       1.2718113e-09 4.879836e-10 4.2054533e-09 2.9812192e-10
000140 f2 f7 ca 31 6d 69 4d 32 e3 f3 5f 31 f1 4e 32 33
       5.907162e-09 1.19565415e-08 3.2589405e-09 4.151565e-08
000150 b6 8d c8 30 3d 8d 1f 2f 9b de 04 31 e4 36 04 31
       1.4592192e-09 1.4511144e-10 1.9335065e-09 1.923973e-09
000160 43 50 d3 31 3b 5d 5e 31 90 81 56 32 88 d1 31 33
       6.150033e-09 3.2358247e-09 1.24858985e-08 4.140159e-08
000170 fa d2 44 31 ca 6b 18 34 19 74 38 2f 52 0f 58 30
       2.864168e-09 1.4195317e-07 1.6775949e-10 7.8602114e-10
000180 a2 36 a2 31 19 3e 81 31 eb c2 a1 30 38 a4 aa 31
       4.7210316e-09 3.761454e-09 1.1769691e-09 4.9663207e-09
000190 2a d6 29 32 6d 8a 2b 31 e2 43 c5 35 c2 50 94 30
       9.88579e-09 2.496246e-09 1.46974e-06 1.079137e-09
0001a0 0f b3 8b 2f ec 1d 8c 30 10 ee 20 32 03 06 52 31
       2.5411181e-10 1.0194845e-09 9.367355e-09 3.056244e-09
0001b0 8f b0 92 31 22 27 a7 32 b5 8e 45 31 39 21 8f 35
       4.2692316e-09 1.9459154e-08 2.8748393e-09 1.0663999e-06
0001c0 d3 f3 b2 2f e6 b9 2b 31 46 42 c3 30 8e 61 d9 31
       3.255126e-10 2.4989446e-09 1.4206953e-09 6.326622e-09
0001d0 fb 30 8d 31 c9 86 7a 31 cc cc 0a 31 2c ad f3 34
       4.1092085e-09 3.6456405e-09 2.0198057e-09 4.5388276e-07
0001e0 4d 9e 90 30 83 a3 62 2f 81 50 3f 30 30 64 17 32
       1.0522371e-09 2.0612671e-10 6.95998e-10 8.812137e-09
0001f0 0c f9 5f 31 e2 dd 40 31 22 3b 64 32 8b ec 86 34
       3.2592338e-09 2.8065803e-09 1.3284792e-08 2.5131553e-07
000200 ec 47 ad 2f b4 0f 53 31 19 bc 62 31 f4 fa ad 31
       3.151962e-10 3.0713467e-09 3.299425e-09 5.0634927e-09
000210 51 2f 3d 31 fb ae 80 31 2d 72 c5 31 4e 35 ce 2e
       2.7530016e-09 3.7451833e-09 5.746435e-09 9.377264e-11
000220 ca 9f 34 31 95 ab d2 31 e6 dd a4 2f 34 3a b6 31
       2.6284277e-09 6.131311e-09 2.9989095e-10 5.303514e-09
000230 d8 ca e8 2f ec 91 d1 31 3e f7 13 30 9a 78 af 30
       4.2344683e-10 6.09929e-09 5.382964e-10 1.2767203e-09
000240 8c 77 05 32 14 c9 c4 31 57 45 b2 30 5c 86 dd 31
       7.768801e-09 5.7272107e-09 1.2970912e-09 6.4472214e-09
000250 65 85 54 30 6e 7a 5d 2f c5 0b 1e 32 22 2c b0 32
       7.7314716e-10 2.0143329e-10 9.1994865e-09 2.0509166e-08
000260 8e 40 c8 30 bb 93 35 31 27 a1 91 2f 48 1a 90 30
       1.4570263e-09 2.6422942e-09 2.6489852e-10 1.0484849e-09
000270 0e 74 a5 31 24 1a 13 31 b1 d5 59 32 09 eb 3d 30
       4.815326e-09 2.1406175e-09 1.267965e-08 6.9091804e-10
000280 9b af 43 2f 6f a3 80 32 32 9a a5 31 6f 4c 7b 30
       1.7797534e-10 1.4975482e-08 4.819662e-09 9.1421887e-10
000290 aa df c1 2f 78 c1 77 30 21 16 da 32 f3 c5 30 30
       3.5265418e-10 9.013301e-10 2.5388603e-08 6.430973e-10
0002a0 6b 9e b3 30 d0 c5 60 30 93 d0 73 2f 2a a3 5e 32
       1.3068989e-09 8.1771834e-10 2.2174822e-10 1.29592e-08
0002b0 c4 a7 40 31 9c c7 5f 31 8f 91 c4 2f 85 ef 88 2f
       2.803504e-09 3.2564236e-09 3.5755618e-10 2.4908445e-10
0002c0 a9 74 c1 31 1f 2a eb 2f ac 92 d3 30 d7 e7 4f 30
       5.630302e-09 4.277618e-10 1.5393957e-09 7.5635626e-10
0002d0 ce eb 54 31 1b 79 75 30 9e df df 2f 9e 7a 51 31
       3.09841e-09 8.930258e-10 4.0722353e-10 3.0483203e-09

exp_avg f4 [20]
000000 1c 17 61 b7 e6 e8 f3 b6 24 df da b6 fe b0 bf 34
       -1.3416426e-05 -7.2690773e-06 -6.5228833e-06 3.57053e-07
000010 02 81 1d b7 67 55 6c b7 cf 99 19 b7 8b ac 39 b6
       -9.387966e-06 -1.408658e-05 -9.155322e-06 -2.7667581e-06
000020 4a f1 93 b4 63 a2 04 b7 1b 6d 45 b6 70 ca 8b 36
       -2.7556445e-07 -7.905622e-06 -2.9418795e-06 4.1660896e-06
000030 86 b8 92 b7 77 31 20 b7 6d f8 0d 37 3e c0 f9 b7
       -1.7490482e-05 -9.54826e-06 8.462096e-06 -2.9772633e-05
000040 49 74 1a b7 e7 4f 21 b7 ab f9 0c b7 c3 6b 01 b7
       -9.20619e-06 -9.6149515e-06 -8.402781e-06 -7.714089e-06

exp_avg_sq f4 [20]
000000 e6 44 e9 36 63 fb 0b 37 96 6f 1d 37 72 a2 8d 36
       6.951962e-06 8.343576e-06 9.38391e-06 4.2210386e-06
000010 ec 15 e7 36 00 53 96 36 fa 45 29 37 79 78 1f 37
       6.8868885e-06 4.480011e-06 1.0089478e-05 9.505188e-06
000020 92 4b e7 36 b9 6b 20 37 b0 57 34 37 5a 1b c9 36
       6.893134e-06 9.561824e-06 1.0749252e-05 5.993451e-06
000030 10 8b f9 36 fd ed be 36 30 70 95 36 6d ea 76 36
       7.4369673e-06 5.6901467e-06 4.4536064e-06 3.679331e-06
000040 c7 0f 8a 36 30 dc fb 36 66 c3 87 34 53 e6 a8 34
       4.114557e-06 7.506016e-06 2.528788e-07 3.1460021e-07

exp_avg f4 [20, 20]
000000 cb 89 f5 b6 e5 44 0f 36 7b 2d 33 36 89 87 f9 b5
       -7.31761e-06 2.1348762e-06 2.6699552e-06 -1.8591392e-06
000010 42 ec 8c b6 62 9b d6 35 b1 23 8d 36 9d 6d 09 b4
       -4.199829e-06 1.5989465e-06 4.2062825e-06 -1.2798996e-07
000020 53 88 df 35 7e 99 e6 b4 fa e9 31 b6 b1 f9 21 b5
       1.665447e-06 -4.295252e-07 -2.6511248e-06 -6.034052e-07
000030 9e 89 91 35 1e 8d ea b4 c9 26 dd b5 6f 50 73 b6
       1.0843394e-06 -4.3688573e-07 -1.6477071e-06 -3.625664e-06
000040 8a 8f d8 36 ab d9 91 b5 51 71 31 36 6d e9 80 36
       6.454012e-06 -1.0866692e-06 2.6441014e-06 3.8418716e-06
000050 df 87 78 33 41 5b f7 33 87 99 99 33 11 9b 92 35
       5.7865574e-08 1.1518433e-07 7.152544e-08 1.0922978e-06
000060 e6 45 00 35 ea 96 bd 35 15 0b d0 34 aa bb b1 35
       4.778543e-07 1.4125519e-06 3.8751082e-07 1.3242145e-06
000070 98 d5 49 b5 7e 72 70 b4 05 5d 31 35 39 c8 39 34
       -7.5189155e-07 -2.2393394e-07 6.6073e-07 1.7302308e-07
000080 6e 8d c7 35 cb 49 ac 35 a8 ee f4 33 54 cb 0e 36
       1.4867817e-06 1.2836475e-06 1.1405547e-07 2.1278001e-06
000090 80 28 bc b5 79 5c 40 36 cc 01 83 b4 28 bd 98 b5
       -1.4018879e-06 2.8664056e-06 -2.440196e-07 -1.1379934e-06
0000a0 62 35 39 b7 d8 0f 6d 36 1c 26 71 36 0b 6d 50 35
       -1.1039288e-05 3.5324974e-06 3.593398e-06 7.7644717e-07
0000b0 de 30 83 b6 aa de 03 37 88 95 e7 36 2d ca 81 36
       -3.909793e-06 7.8600515e-06 6.901744e-06 3.868036e-06
0000c0 78 5e f4 b5 43 6e 93 35 93 3d 43 b6 05 42 49 b6
       -1.8206911e-06 1.0984444e-06 -2.9093105e-06 -2.9989762e-06
0000d0 0b 66 96 36 00 e4 95 36 e9 e9 85 b6 36 a0 aa 35
       4.4822277e-06 4.4670887e-06 -3.9909396e-06 1.2712615e-06
0000e0 0f f5 ed 36 a4 5c c4 35 c0 49 a9 35 3e a0 60 36
       7.091679e-06 1.46301e-06 1.2612945e-06 3.3471874e-06
0000f0 8a ec 04 34 30 d3 02 36 30 e6 e2 35 b9 c7 3f 34
       1.237951e-07 1.9494437e-06 1.6905306e-06 1.786092e-07
000100 a9 68 56 b3 d5 47 e0 b5 42 b0 6d 35 87 90 90 b5
       -4.9920946e-08 -1.6710206e-06 8.854587e-07 -1.0770899e-06
000110 cf c0 2f 36 bc 6a 82 b5 3c 70 79 b5 1d 0c 97 35
       2.6189261e-06 -9.716819e-07 -9.292305e-07 1.1253902e-06
000120 5e e2 25 b6 f3 09 c4 b5 2f 5b 18 36 ef 5d 0d b7
       -2.471868e-06 -1.4606034e-06 2.270284e-06 -8.4261255e-06
000130 bc f5 2c 37 2f f4 a3 b6 0b c9 45 b5 da 59 8d 36
       1.0309213e-05 -4.8862053e-06 -7.3680775e-07 4.2125876e-06
000140 25 32 6c b7 79 c1 58 36 2e d2 80 36 17 79 07 b6
       -1.4078371e-05 3.2299124e-06 3.8391654e-06 -2.0187051e-06
000150 32 a2 e3 b6 0d 14 ad 36 fc 88 ed 36 71 68 c7 35
       -6.784009e-06 5.158136e-06 7.0790975e-06 1.4857052e-06
000160 31 f4 f7 34 87 7f d1 b4 e6 24 80 b6 79 e8 07 b6
       4.6185008e-07 -3.9022072e-07 -3.818993e-06 -2.0251885e-06
000170 7e 38 8e 36 79 69 96 35 e1 f1 67 b6 f6 7d 9a b5
       4.2385063e-06 1.1206567e-06 -3.4562474e-06 -1.1510554e-06
000180 cb e0 bb 36 20 04 ed 34 62 3e 93 36 c6 65 a1 36
       5.5992036e-06 4.414769e-07 4.3882037e-06 4.810022e-06
000190 d7 9f 8e 36 dc 4e a5 b4 cf 9e ff b4 22 a4 c8 35
       4.2505376e-06 -3.0791023e-07 -4.7613e-07 1.494893e-06
0001a0 19 58 19 36 08 53 8e b4 98 79 96 b5 29 4b 2c 35
       2.2850056e-06 -2.6509974e-07 -1.1211259e-06 6.4184366e-07
0001b0 a6 f8 7b b4 92 9a ac 33 80 10 ab 35 38 32 51 35
       -2.3466654e-07 8.03749e-08 1.2745295e-06 7.7931645e-07
0001c0 4e fd 0a b5 d3 d7 5c 35 17 98 87 35 7f cc fd 34
       -5.1777613e-07 8.227045e-07 1.0102548e-06 4.7273713e-07
0001d0 f5 e3 6b 34 aa 39 d8 35 e2 46 ec b5 49 55 cf b5
       2.1969011e-07 1.6110037e-06 -1.7604e-06 -1.5447523e-06
0001e0 6d 28 1c b6 79 49 bb b4 27 bf 03 b5 08 75 1c b4
       -2.3269342e-06 -3.4884923e-07 -4.9079466e-07 -1.4571208e-07
0001f0 fb 9c 4a b5 df e5 27 b4 b4 8f fd b4 dd a2 b6 b3
       -7.54793e-07 -1.5636714e-07 -4.722948e-07 -8.50466e-08
000200 d0 b5 bb b4 1e 34 98 b5 9d eb ce 34 c5 32 88 34
       -3.496375e-07 -1.1340051e-06 3.854192e-07 2.5368914e-07
000210 c6 be bd 35 19 11 45 b5 95 ba 80 35 ff 0a bf 35
       1.413712e-06 -7.34131e-07 9.591046e-07 1.4233809e-06
000220 ae 26 95 b6 34 4c 0a 35 93 1d af 35 df 40 0e b4
       -4.445049e-06 5.1519896e-07 1.3047123e-06 -1.324838e-07
000230 be 50 b7 b7 cb f1 5b 36 5e 67 82 36 11 ca 2f 35
       -2.1852898e-05 3.2774285e-06 3.8863354e-06 6.5486626e-07
000240 60 79 0f b7 eb 83 40 37 b9 00 1e 37 88 69 dc 36
       -8.551724e-06 1.1474806e-05 9.417702e-06 6.5687964e-06
000250 d0 a4 3f b6 b3 da 54 b6 9c e7 aa b5 73 57 a6 b5
       -2.8557151e-06 -3.1717761e-06 -1.2733394e-06 -1.2393415e-06
000260 48 c1 71 37 9d 0b 9f 36 79 44 2c b6 d0 f6 3e 37
       1.4409721e-05 4.739921e-06 -2.5669854e-06 1.1382348e-05
000270 60 fb 24 b7 8d 34 73 37 19 5d 01 37 07 7c da 33
       -9.83369e-06 1.4496164e-05 7.710675e-06 1.01739765e-07
000280 1c f8 11 b7 7a 42 84 36 93 3b 8e 36 f8 d0 40 b5
       -8.700441e-06 3.9416454e-06 4.238865e-06 -7.1829663e-07
000290 d3 e1 8f b6 9b e6 42 36 da 17 c9 36 90 20 5e 35
       -4.2880215e-06 2.9042483e-06 5.9930435e-06 8.274883e-07
0002a0 cc 14 18 36 a7 b8 63 b5 9d 63 55 b6 07 df d6 b4
       2.266187e-06 -8.4832794e-07 -3.1797456e-06 -4.002288e-07
0002b0 6f e9 a2 35 16 d4 eb 34 a9 cf 67 b5 42 39 ea b6
       1.2137879e-06 4.3926474e-07 -8.635639e-07 -6.980409e-06
0002c0 f0 69 59 37 be 01 0b b6 79 2c 04 36 b3 a7 cc 36
       1.2958873e-05 -2.0713628e-06 1.969542e-06 6.0991965e-06
0002d0 31 3e a4 35 e0 f7 1e 36 be fb 12 36 18 97 83 35
       1.2237052e-06 2.3688117e-06 2.1902229e-06 9.804235e-07
0002e0 97 fe 03 35 9e ad 79 b5 0d 0e cb 35 37 11 7f b4
       4.917178e-07 -9.3012375e-07 1.5128768e-06 -2.3754988e-07
0002f0 d5 f2 37 36 5f 96 87 b5 53 1e 29 b5 d1 10 cf 35
       2.7410472e-06 -1.0102048e-06 -6.3001534e-07 1.5427596e-06
000300 e4 4e 0e b6 8f f0 10 b5 2a fa 1d 36 72 71 0d b7
       -2.120557e-06 -5.399424e-07 2.3540438e-06 -8.4306685e-06
000310 b7 11 4b 37 b4 b6 46 b6 f5 67 b0 b5 10 6f 7d 36
       1.2103867e-05 -2.9610646e-06 -1.3143277e-06 3.7764585e-06
000320 81 80 f7 b6 5b 31 56 36 ad 95 6a 36 d3 40 8c b5
       -7.3761335e-06 3.1917214e-06 3.495584e-06 -1.0449679e-06
000330 c7 6b 81 b6 c4 1f f6 35 bc da a2 36 97 c1 55 34
       -3.8570465e-06 1.8337673e-06 4.8534403e-06 1.9907598e-07
000340 2a 9c 16 36 e5 c4 59 b5 44 83 3c b6 aa 99 80 b4
       2.2442641e-06 -8.112532e-07 -2.809059e-06 -2.3953663e-07
000350 44 34 33 35 a4 b5 5f b4 5a 48 2d b5 50 61 d7 b6
       6.675875e-07 -2.0834574e-07 -6.455281e-07 -6.418828e-06
000360 66 b4 35 37 02 8f 1c b6 42 36 02 36 f2 01 b4 36
       1.0830443e-05 -2.3329053e-06 1.9403092e-06 5.3646445e-06
000370 34 28 89 b6 42 a5 28 b5 2d 78 8c 35 ad 97 85 b6
       -4.0875984e-06 -6.282536e-07 1.0465789e-06 -3.9813663e-06
000380 4c c2 98 b6 aa eb a9 35 dc fb 5c 36 0e 1f 1b b5
       -4.552572e-06 1.2660068e-06 3.2929156e-06 -5.778719e-07
000390 08 9e 2e 35 ab c6 bc 35 0b ea 1f b6 a5 5d b6 b5
       6.5050017e-07 1.4064912e-06 -2.3829077e-06 -1.3587311e-06
0003a0 df 1b b8 35 0b 21 90 b3 81 a7 c1 b6 91 c0 75 36
       1.371718e-06 -6.711533e-08 -5.7713482e-06 3.6619933e-06
0003b0 ba b5 e1 b5 5e fa 9c 36 ec 6b 79 36 1a a7 a7 b5
       -1.6816696e-06 4.678309e-06 3.716671e-06 -1.2491103e-06
0003c0 41 98 b3 b7 2d 3f 5e 36 db 82 89 36 26 c0 e0 33
       -2.1409362e-05 3.311735e-06 4.0981517e-06 1.04657644e-07
0003d0 3d 2e 10 b7 73 74 56 37 80 3e 2c 37 c9 20 e2 36
       -8.5938345e-06 1.2782507e-05 1.0266551e-05 6.7391416e-06
0003e0 c4 77 82 b6 17 4d 62 b5 45 31 36 b6 9c b0 61 b6
       -3.8882445e-06 -8.430374e-07 -2.7148792e-06 -3.3630413e-06
0003f0 14 02 58 37 ce 52 ce 36 b8 46 c7 b6 67 da 43 37
       1.2875087e-05 6.148918e-06 -5.938895e-06 1.16737565e-05

exp_avg_sq f4 [20, 20]
000000 15 44 53 34 5d 5c 2c 34 d6 2a 17 34 5e 8c f0 32
       1.9675674e-07 1.605235e-07 1.4078554e-07 2.8003509e-08
000010 f4 47 4a 34 99 a1 ad 33 53 b3 3b 34 52 1a d7 34
       1.8838892e-07 8.085335e-08 1.748097e-07 4.006602e-07
000020 ec 96 d3 33 87 5c 4d 34 8e 92 10 34 0d 85 00 34
       9.852906e-08 1.9125774e-07 1.3464361e-07 1.1969333e-07
000030 d2 c1 8a 33 50 16 27 34 80 0a 0a 34 cf 85 8c 33
       6.4613815e-08 1.5561204e-07 1.2856071e-07 6.543598e-08
000040 63 dd d2 34 74 f0 e7 34 91 f7 da 33 d2 4c 98 33
       3.9276628e-07 4.3202056e-07 1.0196448e-07 7.092025e-08
000050 dc 0c 43 32 39 24 af 32 df 93 85 32 6a ef 08 31
       1.1353418e-08 2.0389153e-08 1.5550482e-08 1.9926696e-09
000060 b4 b3 d3 32 45 59 d5 31 4e 94 ad 32 dd fb 64 33
       2.4645352e-08 6.2092647e-09 2.0207292e-08 5.3314455e-08
000070 4d 83 09 32 e9 3d 98 32 37 72 99 32 0c da 67 32
       8.004304e-09 1.7723282e-08 1.7863483e-08 1.3495548e-08
000080 98 a7 ce 31 cc 22 7a 32 da 74 8e 32 45 a5 36 32
       6.0144423e-09 1.4559827e-08 1.6584114e-08 1.0631372e-08
000090 9b 20 08 33 46 50 08 33 2b f8 c2 31 bd 85 c3 31
       3.1694622e-08 3.1737976e-08 5.6743565e-09 5.690451e-09
0000a0 2d 66 d9 32 c5 f8 8e 32 a1 8a 7b 32 3e 2f 5f 31
       2.5308589e-08 1.6644103e-08 1.46416435e-08 3.2477625e-09
0000b0 42 ed 9d 32 b6 f4 23 32 00 02 a6 32 dd 3f 10 33
       1.8385098e-08 9.5434896e-09 1.9325853e-08 3.3585696e-08
0000c0 26 5f 41 32 13 cc be 32 8c ed 67 32 c1 6d 52 32
       1.1255713e-08 2.2211713e-08 1.3499982e-08 1.2248564e-08
0000d0 63 89 f1 31 fe 40 99 32 b0 a7 76 32 d7 68 d4 31
       7.029642e-09 1.78411e-08 1.4357212e-08 6.181931e-09
0000e0 32 2f 48 33 5f 54 66 33 9d 15 58 32 be 48 11 32
       4.6609053e-08 5.3627783e-08 1.2577769e-08 8.4566505e-09
0000f0 43 6d dc 33 0a 37 29 33 79 f6 2c 33 e5 ac 51 32
       1.0264423e-07 3.9398437e-08 4.0271036e-08 1.2204713e-08
000100 60 18 34 33 9a f9 13 33 0a 89 67 33 7b a0 7e 33
       4.1931685e-08 3.4453116e-08 5.3908515e-08 5.928494e-08
000110 bf 00 36 33 93 70 9d 33 e9 19 f0 32 f2 f5 fd 32
       4.2375856e-08 7.331359e-08 2.795146e-08 2.956492e-08
000120 c2 34 c1 32 ce 6d 63 33 4b 87 b2 32 f4 61 e4 31
       2.2492149e-08 5.2952423e-08 2.0783451e-08 6.6468093e-09
000130 0a ae 33 34 30 94 55 34 67 a1 6c 33 b3 87 0a 33
       1.6733989e-07 1.9891081e-07 5.5094826e-08 3.2254047e-08
000140 94 35 45 34 87 9b b0 33 88 8e ab 33 ba 75 ba 32
       1.8366546e-07 8.223929e-08 7.988734e-08 2.1706786e-08
000150 40 ed b7 33 55 0c 88 33 6e 9e e8 33 ec e8 fb 33
       8.564757e-08 6.335237e-08 1.083216e-07 1.17304666e-07
000160 33 69 a9 33 88 c8 15 34 d1 c4 83 33 bc 02 74 33
       7.8888114e-08 1.3949659e-07 6.1359636e-08 5.6813164e-08
000170 66 5b 38 33 c9 0c d2 33 61 02 3e 33 f3 7f a2 32
       4.2923965e-08 9.7812126e-08 4.4239986e-08 1.8917467e-08
000180 29 98 a4 34 1b 49 c4 34 6c 2d c5 33 68 61 6e 33
       3.0658092e-07 3.6561036e-07 9.1817896e-08 5.5502284e-08
000190 b4 51 73 32 6c 4e 57 32 29 53 30 32 7a eb 03 31
       1.4163039e-08 1.2532478e-08 1.0263457e-08 1.9196862e-09
0001a0 c8 0c 76 32 1e 53 c6 31 5f 90 73 32 f7 8e d7 32
       1.4321991e-08 5.7720078e-09 1.4177288e-08 2.5094307e-08
0001b0 4d 8a 00 32 d9 3a 79 32 95 fe 2b 32 ca 68 09 32
       7.4820266e-09 1.4507088e-08 1.0011395e-08 7.998276e-09
0001c0 2c 03 9c 31 a6 cc 34 32 a1 c5 0d 32 ad c4 ad 31
       4.540558e-09 1.0523911e-08 8.252216e-09 5.057322e-09
0001d0 83 58 f2 32 36 1b 08 33 2f 29 f1 31 48 68 b3 31
       2.8212758e-08 3.1689716e-08 7.018705e-09 5.221441e-09
0001e0 de fd 70 32 6e 25 ff 32 b2 1b b9 32 aa d6 52 31
       1.4027561e-08 2.9702928e-08 2.1549429e-08 3.0681044e-09
0001f0 e1 5b 33 33 94 1f 07 32 fa 6f e6 32 4c 69 f1 33
       4.176025e-08 7.865214e-09 2.6826445e-08 1.12415904e-07
000200 41 fe 22 32 d4 76 bc 32 c7 3c be 32 76 e2 cc 32
       9.487452e-09 2.1940117e-08 2.214655e-08 2.3851708e-08
000210 2f 2e f4 31 e4 4f cc 32 64 15 f3 32 8a af 86 32
       7.106585e-09 2.3785056e-08 2.829865e-08 1.5679479e-08
000220 81 99 3a 33 41 d3 23 33 43 46 38 32 4d 95 16 32
       4.344611e-08 3.814353e-08 1.0726185e-08 8.765096e-09
000230 fe d2 e3 31 cd a6 20 32 8e 0e 08 32 8a 87 d5 30
       6.6305565e-09 9.351152e-09 7.919551e-09 1.5536312e-09
000240 66 ce 60 32 04 c7 77 31 0e ed 20 32 14 24 0e 33
       1.3085446e-08 3.6056358e-09 9.367126e-09 3.3094764e-08
000250 b6 1a 8d 31 fa c9 15 32 40 12 11 32 e5 a8 0f 32
       4.1066768e-09 8.718866e-09 8.44426e-09 8.362098e-09
000260 af b4 7c 31 bd 52 21 32 82 87 27 32 17 7f b0 31
       3.6773533e-09 9.390246e-09 9.75149e-09 5.1367226e-09
000270 b6 0c 93 32 97 b9 8b 32 6b 89 a1 31 15 71 57 31
       1.7118833e-08 1.6266126e-08 4.7013393e-09 3.1350897e-09
000280 f6 12 af 34 0e 98 79 34 be 19 59 34 a7 d1 3c 33
       3.2610086e-07 2.3245249e-07 2.0219065e-07 4.396284e-08
000290 b4 3f 94 34 15 62 07 34 ec 31 8d 34 57 6e 14 35
       2.7613498e-07 1.2608537e-07 2.629962e-07 5.529486e-07
0002a0 4a 7b 27 34 47 81 9d 34 05 7f 43 34 42 c4 33 34
       1.559794e-07 2.933759e-07 1.8207e-07 1.6742072e-07
0002b0 52 17 cb 33 08 da 78 34 00 cc 30 34 0e 82 b8 33
       9.457166e-08 2.3176119e-07 1.6465492e-07 8.5918245e-08
0002c0 f7 3f 25 35 f3 53 38 35 df a6 35 34 7d 11 ed 33
       6.156037e-07 6.8667504e-07 1.6917646e-07 1.10393536e-07
0002d0 a6 ea 01 34 2d 6e 68 33 eb 0b 6b 33 41 ff 7f 32
       1.2099426e-07 5.4116914e-08 5.472604e-08 1.49009916e-08
0002e0 0e 37 71 33 ab ea 39 33 61 8a 99 33 3d 53 9e 33
       5.6162257e-08 4.32871e-08 7.149789e-08 7.372589e-08
0002f0 f3 56 64 33 3c 46 c8 33 7a 34 3d 33 c6 35 21 33
       5.3164467e-08 9.326001e-08 4.405272e-08 3.753464e-08
000300 6f 1d 03 33 ab a4 8d 33 d3 11 fc 32 99 50 4e 32
       3.0527584e-08 6.595777e-08 2.9344767e-08 1.2009104e-08
000310 56 68 59 34 d6 34 80 34 83 d6 82 33 8a 4a 1a 33
       2.0247657e-07 2.38803e-07 6.092616e-08 3.5923712e-08
000320 9d 14 8b 34 ca 86 25 34 1a ad 1c 34 a0 29 11 33
       2.5905766e-07 1.5415858e-07 1.4591606e-07 3.37983e-08
000330 ad 75 36 34 3c 91 d3 33 22 1c 44 34 c3 75 a6 34
       1.6992881e-07 9.851871e-08 1.8264157e-07 3.1005592e-07
000340 05 63 00 34 b0 20 6d 34 16 e3 0c 34 61 cc f3 33
       1.1956952e-07 2.2084237e-07 1.312113e-07 1.13527456e-07
000350 fa 92 9f 33 0f 39 35 34 cc ad f4 33 02 70 5b 33
       7.430749e-08 1.6877696e-07 1.1393749e-07 5.109178e-08
000360 52 14 fd 34 51 b4 10 35 e1 eb 0b 34 91 80 b2 33
       4.7139707e-07 5.3906575e-07 1.3031196e-07 8.312157e-08
000370 98 f9 17 34 35 6c 60 33 37 32 80 33 ac f5 92 32
       1.4153773e-07 5.2252478e-08 5.9695985e-08 1.7108356e-08
000380 16 b8 51 33 74 3e 55 33 0d 8f 99 33 fa 6e 81 33
       4.882903e-08 4.9649728e-08 7.1506385e-08 6.027217e-08
000390 76 3f 7a 33 9d e1 de 33 1e 56 47 33 9d 45 3d 33
       5.826538e-08 1.03787194e-07 4.641162e-08 4.4068305e-08
0003a0 85 1f 16 33 b0 33 a4 33 6c 34 5a 33 51 2d 15 32
       3.4953263e-08 7.646247e-08 5.0804758e-08 8.683245e-09
0003b0 26 ae 7e 34 41 e0 99 34 3b 92 9c 33 2d 0a 3c 33
       2.3718948e-07 2.8661637e-07 7.290915e-08 4.3781416e-08
0003c0 6f c7 bc 31 8e 10 03 33 a8 2a b7 32 b3 1c 32 31
       5.494193e-09 3.051587e-08 2.1323402e-08 2.5918723e-09
0003d0 09 e2 45 33 db 6c c1 31 77 c2 d3 32 2b fe 15 34
       4.6073215e-08 5.6294147e-09 2.4652065e-08 1.3969172e-07
0003e0 c8 c4 d0 31 90 ac 93 32 01 f6 c2 32 f6 8c eb 32
       6.075968e-09 1.7191525e-08 2.2696442e-08 2.7421702e-08
0003f0 3c 17 d2 31 9a 56 d2 32 50 cb 12 33 45 1e 9e 32
       6.114446e-09 2.44866e-08 3.4178186e-08 1.8407386e-08

exp_avg f4 [20]
000000 d9 83 b5 b4 25 a7 7d 36 50 d5 3f 37 b0 4a 8b 36
       -3.380981e-07 3.7797229e-06 1.1434153e-05 4.1512176e-06
000010 c8 2e 7d 35 42 b6 9f 36 8a 0f 7d b6 67 31 c7 36
       9.431792e-07 4.759787e-06 -3.7708983e-06 5.9364133e-06
000020 5e 9c ec 36 9d 9d 12 37 28 5a 8b 36 08 ab 09 b7
       7.0515516e-06 8.738975e-06 4.1530184e-06 -8.205658e-06
000030 cb b8 f1 36 d1 4c a1 b6 3f 9c 5d b6 81 2e 8d 37
       7.2038724e-06 -4.8071165e-06 -3.3022513e-06 1.6830165e-05
000040 7c 06 a2 b6 a6 03 0f 36 66 66 2c 37 7c 2a 25 b7
       -4.828731e-06 2.1310784e-06 1.027584e-05 -9.844658e-06

exp_avg_sq f4 [20]
000000 1c 71 3c 36 25 13 25 34 81 d4 b9 34 27 39 ce 35
       2.8080021e-06 1.5373787e-07 3.4613552e-07 1.536483e-06
000010 58 1c 31 36 19 68 56 34 e7 81 74 34 fb f5 cb 33
       2.6391554e-06 1.9968174e-07 2.2771529e-07 9.497668e-08
000020 bf a6 9c 36 48 83 e9 35 0e 65 77 36 44 ea 09 36
       4.668574e-06 1.7398061e-06 3.686469e-06 2.0550951e-06
000030 d2 65 f1 33 36 be 7d 35 6b 8b 99 35 49 34 ba 35
       1.1240958e-07 9.452664e-07 1.1439964e-06 1.3873297e-06
000040 63 30 94 34 a9 85 94 34 1c bd 60 36 38 a6 02 36
       2.7602354e-07 2.76644e-07 3.3488677e-06 1.9468262e-06
