models/ensembles/ensemble_25_unbootsrapped/model14/model_checkpoint-10000.pt (torch, 14893 bytes, 24 tensors)

branch.hidden_layers.0.thetas f4 [55]
00000000: f141 d03f aa43 70bf 49ea 9d3f b57c 353e
00000010: a849 91bf fe50 93bf df4d 423f 785e a5bf
00000020: 482d 35bf ecaa 4d3f b73a 5f3f bab1 133f
00000030: 2c1c 643f 5fe7 40bf 6297 78bf c4e1 5a3f
00000040: af77 7a3f ed5e 1f3f 1536 913e 55c6 a5bf
00000050: 72b8 6ebf 278b f6bf 4850 ddbe 2450 7f3f
00000060: 4d4e 1a3f a7d5 c5be 8bbb f4bc 3b18 903f
00000070: c4f8 93be f4cf 61bf 1f57 98bf b131 fc3d
00000080: 1eb8 84be 5330 543e 5a5a 4dbf e0d9 2a3f
00000090: f128 5f3f 66b3 3940 2474 1e40 96bd 233e
000000a0: 4b20 73be d09d a03f 72f3 dcbf d1e7 d0be
000000b0: 6a89 ef3f 8b24 cfbe 7e9a fd3e 1cd3 fa3e
000000c0: 35af 533f 098c 12be fc5a 70bf eebf 0340
000000d0: d57b 79be 6941 1abf cd96 23bf
1.6270124 -0.9385325 1.2337123 0.17723353 -1.1350603 -1.1509092 0.7590007 -1.2919455
-0.7077222 0.8033893 0.87198967 0.57693064 0.89105487 -0.75353044 -0.9710599 0.8550074
0.9783887 0.6225422 0.28361574 -1.2951151 -0.9325019 -1.9261216 -0.43225312 0.9973166
0.6027573 -0.38639566 -0.029874584 1.1257395 -0.2890073 -0.88207936 -1.1901587 0.123141654
-0.2592172 0.20721559 -0.8021599 0.667387 0.87171847 2.9015746 2.4758387 0.1599029
-0.23742788 1.254816 -1.7261794 -0.40801862 1.871381 -0.40457568 0.4953193 0.4898919
0.8268922 -0.14311232 -0.9388883 2.0585895 -0.24363644 -0.6025606 -0.6390198

branch.hidden_layers.0.bias f4 [10]
00000000: 88ee d93e 7c4e f13e 3dd1 9f3e 07e6 bf3e
00000010: abb6 fb3e 3b01 503f 899b 0a3f 91b4 f73d
00000020: 0141 8f3e b803 133d
0.42564797 0.4713019 0.31214324 0.37480184 0.49162802 0.8125188 0.5414358 0.12094987
0.27979282 0.03589222

branch.output_layer.weight f4 [10, 10]
00000000: 8115 c4be a34c 11bf 51d0 d03e 91d6 6bbd
00000010: f49e bebe 6e80 323f adba aabe 5c72 6a3d
00000020: 168e 8d3d f93f bd3e 0892 803f adf8 ddbe
00000030: 3f45 303e 0771 273f 9819 95be 74c7 64be
00000040: 7a3a 8ebe c570 8fbe dc38 05be 2326 f0be
00000050: f91f c2be 8710 c33e 4257 b7be 1e1d 06bf
00000060: 0e9c 1a3f 5c53 d9be c8c5 58bc a559 283e
00000070: 421c d53e 22be 043f d478 1fbe eea0 d73e
00000080: 4f5f 2bbf 2976 28bf 20fa 643c a9b8 ba3e
00000090: e764 e33d ce98 2d3e 9120 883e c333 5cbe
000000a0: b8f8 223e 39aa 4a3f 9bb9 03bf a2d5 e3be
000000b0: 81ac ba3e a0b0 f8be f5c9 303f e313 dc3d
000000c0: bbc8 a63c fa8a 33be 18d2 7bbe 2ed2 fcbe
000000d0: feec a53e f015 3b3d d6d8 f9be d62d 223e
000000e0: a641 01bf 0452 cf3c 8c40 2d3e 3ab8 483e
000000f0: fa26 16bf 200e c93e 9e18 9dbe 4306 4dbf
00000100: 2a43 10bf e289 8e3f 3526 02bf fa89 193f
00000110: ece5 103f 0732 953d 70ee 85be 08f2 01bf
00000120: cf61 913e 8574 ac3e f5fe 1cbf 429b 103f
00000130: ab21 94be faf4 29be bc39 1abd 5b78 c93d
00000140: 1187 8b3f 56be 80be b922 353d eabc 433f
00000150: a205 12be fb67 b63e d045 cebe 3f58 abbd
00000160: 2893 87bb 452b 4dbe 20ba c9be 38ef a03e
00000170: aae7 a6be 9754 adbd edb2 883d a05d 3abe
00000180: cc1a 2a3f 3570 b63e aaf5 26be 57ab 863c
-0.38297656 -0.56757563 0.40783933 -0.057577673 -0.37230647 0.6972722 -0.33345547 0.057237968
0.06911866 0.3696287 1.0044565 -0.43353787 0.17213915 0.6540684 -0.2912109 -0.2234171
-0.2777899 -0.28015724 -0.13009971 -0.46904096 -0.37915018 0.38098547 -0.3580876 -0.5238818
0.6039437 -0.4244641 -0.0132307485 0.16440447 0.41623122 0.5185262 -0.15573436 0.42114967
-0.66942304 -0.658053 0.01397565 0.3646901 0.1110323 0.16952822 0.26587346 -0.2150412
0.15915191 0.7916599 -0.51455086 -0.44498926 0.36459735 -0.48572254 0.6905816 0.107459806
0.020359388 -0.17533484 -0.24591863 -0.49379104 0.32407373 0.045675218 -0.48798245 0.15837798
-0.50490797 0.025307663 0.16919154 0.19601527 -0.58653224 0.3926859 -0.30682844 -0.8008768
-0.56352484 1.1135828 -0.5083955 0.5997616 0.5660083 0.072849326 -0.26158476 -0.50759935
0.28394935 0.33682647 -0.61326534 0.56486905 -0.28931937 -0.16597357 -0.037652716 0.09837409
1.0900594 -0.25145215 0.044222567 0.76460135 -0.14259961 0.35626206 -0.40287638 -0.08366441
-0.0041374154 -0.20036037 -0.39399815 0.3143251 -0.3259862 -0.084634 0.066747524 -0.18199778
0.6644714 0.35632482 -0.16304651 0.016439123

branch.output_layer.bias f4 [10]
00000000: eb01 b5bd 8e32 d3bc 0a73 6bbe 8170 42be
00000010: 6520 7ebd 7b78 50bd f813 f53d 5059 7b3e
00000020: 8c0f afbd a57c 5c3c
-0.088382564 -0.025780942 -0.22993103 -0.1898823 -0.062042613 -0.05089615 0.11966699 0.24545789
-0.08547887 0.013457452

trunk.hidden_layers.0.thetas f4 [17]
00000000: e5ec c6bf 56d0 773f 4842 a83e 3dbf 18bf
00000010: ed32 82bd 4063 9c3f b75d 183f 0b9c 353f
00000020: 4e47 c1bf 6680 ebbf 3612 633f 6e2a d5bf
00000030: b5f7 6bbf 2ee5 0d40 c230 babf cb00 17bf
00000040: 066a 83bf
-1.5541044 0.9680227 0.3286307 -0.59666806 -0.063573696 1.2217789 0.59518 0.7094123
-1.5099885 -1.8398559 0.8869966 -1.6653574 -0.92174846 2.217113 -1.454613 -0.58985585
-1.0266731

trunk.hidden_layers.0.bias f4 [10]
00000000: 1865 c13e 7bc2 b8be 08a7 e63e e7f6 abbe
00000010: e48d f43e bc63 f03e ed09 be3e 3511 e43e
00000020: d041 c23e ea6a b53e
0.3777244 -0.36085877 0.4504931 -0.3358681 0.47764504 0.4695109 0.37116948 0.44544378
0.37940836 0.3543313

trunk.output_layer.weight f4 [10, 10]
00000000: 2361 32c0 07d9 80bf 0e7f 0dc0 a7d8 1fbf
00000010: f969 03c0 e57b fe3f d044 9dbf 86f6 3ebe
00000020: d803 0d3c 7ca1 9f3e 4080 65bf 8888 f0bd
00000030: 8446 80bf fcfc 82be a748 30bf 7366 a73f
00000040: 9ff6 aebd ca5c b6be b578 14bf c0ee 283f
00000050: 2cf7 6b3e 654a 30bf 4dbf 3f3f cf42 d1be
00000060: a91b 403f 13ac 99bd c013 1a3f d093 2c3f
00000070: c4ed d33e 5298 d13e 16ec 1a3f 56d2 cc3a
00000080: bc7c 153f 0364 eebe b36a 073f 0ed8 babe
00000090: fcb4 023f 405d d63e 5acd 143f 8da8 42bb
000000a0: 4a49 463e 3884 5dbf 5b29 fb3e 816b 3abf
000000b0: 2619 3d3f 109f eebe 3251 733e a353 6c3e
000000c0: f0f4 d63e 05a5 123f 037d 4ebf 06fb a13e
000000d0: 356b 85be 33cb f43e ac34 8bbe b587 443e
000000e0: 86d5 04bf 9ae3 bfbe f0b0 49be c850 efbe
000000f0: 2154 a53f ff83 913d f7a5 b43f ef44 14be
00000100: ce56 653f 52ad 9fbf 13dc 463f a86a 4a3f
00000110: d59a b5bc 0207 90bd 164f 4abf 7a4d 783e
00000120: 71d7 37bf f6c0 cc3c 937c 23bf 0088 6c3f
00000130: 65f4 85bf bd20 fdbd 0cc5 d0bc 27ab b8be
00000140: 32a5 56bf a62c 21bf f123 2dbf 2727 b4be
00000150: cf3b 55bf 78f7 a93f 1528 8abe 2579 a4be
00000160: a00e 90bf cb2b b23e 4a61 973e 8d4f c9be
00000170: b920 9e3c cf35 953c 2d46 e53e 31e4 85bf
00000180: be9f e83e 83aa d13e a65e b73d 6fed 7b3f
-2.7871788 -1.0066231 -2.2108798 -0.6243996 -2.053343 1.988156 -1.2286625 -0.18648729
0.008606873 0.3117789 -0.8964882 -0.11744791 -1.002152 -0.25583637 -0.6886086 1.307814
-0.08543133 -0.35617667 -0.57996684 0.65989304 0.23043507 -0.6886352 0.74901277 -0.40871283
0.75042206 -0.07503524 0.60186386 0.67413044 0.41392338 0.40936524 0.6051649 0.001562665
0.58393455 -0.46560678 0.52897185 -0.36492962 0.5105741 0.4186802 0.5812584 -0.0029702515
0.19363895 -0.86529875 0.4905499 -0.7282029 0.738665 -0.4660573 0.23761442 0.2307878
0.41983747 0.5728305 -0.806595 0.31636828 -0.26058355 0.4781128 -0.27188623 0.19192393
-0.5188831 -0.37478334 -0.19696403 -0.4674132 1.2916299 0.071052544 1.4113148 -0.14479421
0.8958558 -1.2474768 0.77679557 0.79068995 -0.022168556 -0.07032587 -0.79026926 0.24248305
-0.7181311 0.024994355 -0.6386196 0.9239502 -1.0465208 -0.1235976 -0.025484584 -0.3606808
-0.8384582 -0.62958753 -0.6763297 -0.3518612 -0.83294386 1.3278646 -0.26983705 -0.32123676
-1.1254463 0.34799036 0.29566413 -0.39318505 0.019302713 0.018214134 0.44780102 -1.0460263
0.45434374 0.40950403 0.089536 0.9840917

trunk.output_layer.bias f4 [10]
00000000: 36ac debd 1d7b 3fbe 25f6 3f3e 042a 983e
00000010: d71e 023f 99f2 9abe ec66 d73d 1696 a6be
00000020: 4dfb 593e 6add ff3e
-0.108726904 -0.18699308 0.1874624 0.29719555 0.5082831 -0.30263212 0.10517678 -0.3253638
0.2128727 0.49973613

exp_avg f4 [55]
00000000: b84c 5036 9d99 a436 4d79 3436 71d4 1035
00000010: 363c 1135 86c4 a736 57ef 01b6 97c9 1a36
00000020: f042 c3b5 7d20 8fb5 22d2 0a35 23cc 72b5
00000030: 92ca b9b4 44b6 29b4 655b 0cb6 52d6 0a36
00000040: 5b7c 88b6 970d 60b4 40d6 d834 c35e f934
00000050: e17d c5b4 166b 6135 b889 4db4 7a7c 87b5
00000060: 919b 0d35 ca07 a4b5 8bc1 9836 820f 6634
00000070: 4a76 0bb6 d245 1a36 b67a 90b4 3b41 96b4
00000080: aa8f dd35 15eb 89b5 c856 84b6 04a0 fdb4
00000090: 3277 8e36 a662 f134 abd7 a835 4639 4435
000000a0: 25d3 6cb5 86e5 9c30 e828 03b7 9ab9 2cb5
000000b0: f165 d7b3 fc99 d935 751b ad34 e7d0 1035
000000c0: 71e7 ff35 bdf6 06b6 2b16 e934 d0d6 1234
000000d0: a0b5 a035 9e23 9332 02eb 9a35
3.1039071e-06 4.905464e-06 2.6892696e-06 5.3953323e-07 5.410433e-07 4.999866e-06 -1.9361812e-06 2.306513e-06
-1.4548114e-06 -1.0663786e-06 5.171479e-07 -9.0449083e-07 -3.4606325e-07 -1.580566e-07 -2.0914824e-06 2.0688353e-06
-4.0675927e-06 -2.086657e-07 4.0389023e-07 4.6448812e-07 -3.6785698e-07 8.397486e-07 -1.9142215e-07 -1.0094511e-06
5.275297e-07 -1.2221219e-06 4.5524844e-06 2.1426061e-07 -2.0781467e-06 2.298843e-06 -2.6911374e-07 -2.798714e-07
1.6507595e-06 -1.0275713e-06 -3.944009e-06 -4.724135e-07 4.245806e-06 4.4961524e-07 1.2579743e-06 7.3099034e-07
-8.8224107e-07 1.1415728e-09 -7.817733e-06 -6.434508e-07 -1.0030261e-07 1.6212575e-06 3.224374e-07 5.3948173e-07
1.9066339e-06 -2.0111177e-06 4.341576e-07 1.3675458e-07 1.1973789e-06 1.712925e-08 1.154229e-06

exp_avg_sq f4 [55]
00000000: 3ed4 e930 ea18 3c33 d3d3 e332 0b5f 4632
00000010: 0e16 dd30 ac38 f432 af22 5533 3aa8 bd30
00000020: 7a64 cf32 9f44 4e32 8994 1e31 9747 5131
00000030: c5b0 1a33 51a9 4832 adaf 8531 3beb ca31
00000040: 4857 2e34 46c4 0a31 8226 0831 79d0 3b30
00000050: e5db 0433 d190 9e32 827b 3d31 862f 3630
00000060: 2f48 0131 a3a2 9a2f 724c c933 df38 e12e
00000070: 4fbb 5031 0d67 1c33 13b0 5132 4cd8 1d33
00000080: 02c8 2430 259e 902f e595 b736 94fd 9632
00000090: ecc9 d733 76b5 582f ef34 e932 f883 4832
000000a0: e5f7 4b33 d727 d830 5d44 9835 f41e 8732
000000b0: 3336 1a32 bfeb 2236 ae3b 0732 8dc9 1131
000000c0: e238 0235 e7b2 d331 b3ca 8833 bf59 9831
000000d0: c63b 7033 2611 8831 a7a5 1b31
1.7013304e-09 4.379482e-08 2.6522605e-08 1.1546727e-08 1.6086135e-09 2.843111e-08 4.962447e-08 1.3799373e-09
2.4143663e-08 1.2006381e-08 2.3076459e-09 3.0454197e-09 3.601669e-08 1.168003e-08 3.8907815e-09 5.9057164e-09
1.6236766e-07 2.0193212e-09 1.9812494e-09 6.832646e-10 3.0933638e-08 1.8459476e-08 2.7573326e-09 6.627875e-10
1.8813002e-09 2.8127997e-10 9.373697e-08 1.0241918e-10 3.0374456e-09 3.6415305e-08 1.2205436e-08 3.6751132e-08
5.994708e-10 2.6305816e-10 5.471275e-06 1.7577612e-08 1.0048447e-07 1.9709553e-10 2.7148841e-08 1.1671538e-08
4.749008e-08 1.5727392e-09 1.1344779e-06 1.5730144e-08 8.976303e-09 2.4277103e-06 7.871604e-09 2.1214845e-09
4.851155e-07 6.161247e-09 6.369864e-08 4.433985e-09 5.5933718e-08 3.9600705e-09 2.264963e-09

exp_avg f4 [10]
00000000: 7c19 82b7 868c 8db6 041c ebb4 4ec3 b235
00000010: da7a 11b6 3965 2636 7c12 c4b6 c863 98b6
00000020: aa3c 68b6 5418 c9b6
-1.5509075e-05 -4.2184865e-06 -4.3792545e-07 1.3318875e-06 -2.1678193e-06 2.4794847e-06 -5.843407e-06 -4.541569e-06
-3.4606005e-06 -5.993099e-06

exp_avg_sq f4 [10]
00000000: f37f cc36 234d ff37 8f74 b437 dcb7 da37
00000010: 6161 5136 8299 d333 62a2 1937 b4b4 0736
00000020: 6c1f ca36 b660 7c34
6.094569e-06 3.0434288e-05 2.1511949e-05 2.6073241e-05 3.120011e-06 9.853376e-08 9.157318e-06 2.022175e-06
6.023727e-06 2.3504512e-07

exp_avg f4 [10, 10]
00000000: 1613 5537 288f 0c36 61ab e1b6 48dd 1137
00000010: 72cc 84b7 b22c 2eb6 5781 1bb7 e1df 28b6
00000020: a952 8337 3d27 46b7 0552 38b7 8a5f 0cb5
00000030: f9f3 6936 3132 ef32 63c9 1a36 7cc8 4b35
00000040: 010a 1a37 f6f8 ac35 8c85 e2b6 526a 9c36
00000050: bddf 20b6 50b2 9db5 13c4 52b5 8da8 3e36
00000060: a8ee 79b6 87dc 7eb6 7e8d 47b5 b798 27b5
00000070: 14c4 9e36 df9e 2134 cf83 48b7 1bb2 55b6
00000080: 9196 ef35 1ae5 05b4 59aa 7fb5 a0fe 84b5
00000090: 09bf 1d36 c1d7 d835 a834 2eb6 93a5 5f36
000000a0: 81e6 ee35 cf3f 92b4 1c5a fbb5 ee62 8136
000000b0: d72d 9bb6 45c6 a3b6 0260 01b6 6a17 cbb5
000000c0: fbfc f136 0f7c b2b5 7564 d035 4032 1035
000000d0: bd38 da34 d3bb 1fb5 0677 9635 348f 9735
000000e0: 6751 9533 8dfc 3cb4 1f9b 19b3 bb82 ed34
000000f0: 1084 83b7 f344 8db6 ac4d cc36 c355 8cb5
00000100: 4ba5 a434 34d8 4a35 2af2 e936 ece6 6f35
00000110: dc43 81b6 5251 0c37 6f5e 3836 990e a035
00000120: 6140 71b5 0dd9 5335 fd03 94b4 5eef 9235
00000130: 7204 ddb5 03cc 20b4 b9fa 4e36 07b2 36b5
00000140: 0cb2 09b7 9ce9 bab2 222f a235 7d20 d535
00000150: 4bcc 40b3 7bc8 8cb4 fa73 c736 bf12 9a35
00000160: 80fd 57b6 e5e2 0436 4609 5a37 0256 1536
00000170: d511 18b6 8699 8b36 3560 72b6 3daf afb6
00000180: 9425 3bb6 9f27 87b6 9341 3437 307d 2bb6
1.2700233e-05 2.0944954e-06 -6.7254737e-06 8.694195e-06 -1.5830828e-05 -2.5954037e-06 -9.268834e-06 -2.5164265e-06
1.5654909e-05 -1.18108555e-05 -1.0986351e-05 -5.229309e-07 3.4861716e-06 2.7846086e-08 2.306501e-06 7.5915136e-07
9.1814445e-06 1.2887456e-06 -6.7508718e-06 4.6615396e-06 -2.397209e-06 -1.1749307e-06 -7.851642e-07 2.8410316e-06
-3.7242808e-06 -3.7977313e-06 -7.4339175e-07 -6.243458e-07 4.7315934e-06 1.505209e-07 -1.1951618e-05 -3.1843144e-06
1.7850708e-06 -1.2469937e-07 -9.524279e-07 -9.908872e-07 2.350602e-06 1.6156047e-06 -2.595867e-06 3.3325966e-06
1.7799467e-06 -2.7241046e-07 -1.8727183e-06 3.8560165e-06 -4.6246964e-06 -4.88086e-06 -1.9278382e-06 -1.5131493e-06
7.2118105e-06 -1.3298139e-06 1.5526444e-06 5.3717304e-07 4.0646947e-07 -5.9505436e-07 1.1210511e-06 1.1292054e-06
6.95316e-08 -1.7600742e-07 -3.576417e-08 4.423981e-07 -1.5677913e-05 -4.210154e-06 6.088716e-06 -1.0455773e-06
3.0667647e-07 7.556548e-07 6.9721327e-06 8.9370474e-07 -3.8523995e-06 8.363584e-06 2.7473104e-06 1.1925177e-06
-8.987318e-07 7.8919476e-07 -2.757005e-07 1.0947513e-06 -1.6467077e-06 -1.497538e-07 3.0842332e-06 -6.805935e-07
-8.207291e-06 -2.1759483e-08 1.2083658e-06 1.5879192e-06 -4.4889287e-08 -2.62229e-07 5.9441636e-06 1.147935e-06
-3.2185053e-06 1.9801603e-06 1.2995972e-05 2.2252793e-06 -2.2660145e-06 4.1603953e-06 -3.611681e-06 -5.235807e-06
-2.7887045e-06 -4.027926e-06 1.0744104e-05 -2.5553854e-06

exp_avg_sq f4 [10, 10]
00000000: f82d 2432 e722 4332 11a7 2832 d8c2 3532
00000010: 0241 d431 11c7 8f32 3c74 ad32 536f 2d31
00000020: b03d 3833 4da5 c832 8a0d db30 ae29 fa30
00000030: 2f8c fa30 3074 fd30 ee4d 8230 cb7a 3031
00000040: 0f44 5e31 539f f02f 27a9 e731 b403 7031
00000050: cf02 3035 5c70 5535 3732 2935 2992 4035
00000060: db7a e034 7bc1 9e35 87d5 bd35 c01d 3134
00000070: 7b8a 4736 7257 df35 1556 9034 1988 ae34
00000080: 50c1 8a34 7993 9d34 d19a 3734 92e1 0135
00000090: 247f 1b35 1f61 9133 4f50 a335 435d 3635
000000a0: 594e 4f35 cf95 7b35 6a5c 4735 60f9 6235
000000b0: 0458 0435 0fe4 ba35 b374 df35 f19b 5034
000000c0: 9c2a 6b36 3c78 0336 f0dd e632 d337 0c33
000000d0: 5c8a e032 c2fa fd32 7a16 9432 13b1 4f33
000000e0: 212d 7833 7a7f ea31 3b3d 0334 60b9 9133
000000f0: 5d29 0835 5b22 2435 1efc 0235 3e43 1435
00000100: 9597 ac34 5f0c 7535 ded7 9235 ea66 0934
00000110: abbc 1936 85e5 ab35 739d cd32 af8b f932
00000120: 36c1 c632 e1a4 e132 9e8b 8332 3ce7 3833
00000130: 830f 5d33 eba5 cf31 a77a e933 67a0 8133
00000140: 937f c930 0637 0131 b3ae de30 d996 fc30
00000150: 4817 8730 ac76 2c31 195d 4d31 4992 cf2f
00000160: 55f4 e631 9542 7431 c736 3b35 4bc9 6235
00000170: 4702 3435 479d 4c35 900b ef34 7c72 a835
00000180: c177 c935 58b3 3c34 684b 5436 4748 ec35
9.5565085e-09 1.135843e-08 9.8168735e-09 1.0579889e-08 6.1774026e-09 1.6737916e-08 2.0192708e-08 2.5238094e-09
4.2896943e-08 2.3358234e-08 1.5938195e-09 1.820174e-09 1.8229737e-09 1.8441195e-09 9.480894e-10 2.568117e-09
3.2343939e-09 4.3768952e-10 6.7422152e-09 3.4926702e-09 6.5569196e-07 7.951219e-07 6.303048e-07 7.1738265e-07
4.181264e-07 1.1828228e-06 1.4143742e-06 1.6495233e-07 2.9733917e-06 1.6640245e-06 2.6884723e-07 3.250905e-07
2.5845156e-07 2.935083e-07 1.7099525e-07 4.8384493e-07 5.7927014e-07 6.769755e-08 1.2167819e-06 6.7935997e-07
7.722752e-07 9.3722787e-07 7.4267757e-07 8.455445e-07 4.930191e-07 1.3924454e-06 1.6648759e-06 1.942824e-07
3.504253e-06 1.9590507e-06 2.687645e-08 3.2647062e-08 2.613995e-08 2.9567108e-08 1.7239689e-08 4.835699e-08
5.7783044e-08 6.8247887e-09 1.2222601e-07 6.785808e-08 5.072414e-07 6.1144755e-07 4.879565e-07 5.5232147e-07
3.2147787e-07 9.1287615e-07 1.0940673e-06 1.2796559e-07 2.2908596e-06 1.2807292e-06 2.393674e-08 2.9050936e-08
2.3138096e-08 2.6268426e-08 1.5313898e-08 4.3051145e-08 5.146968e-08 6.0433556e-09 1.0872218e-07 6.0362076e-08
1.4660934e-09 1.8803248e-09 1.6202278e-09 1.8378287e-09 9.82916e-10 2.5096751e-09 2.9884346e-09 3.7757023e-10
6.7216583e-09 3.554452e-09 6.974264e-07 8.448448e-07 6.705854e-07 7.622479e-07 4.4525632e-07 1.2550295e-06
1.501052e-06 1.7574109e-07 3.1634354e-06 1.7604406e-06

exp_avg f4 [10]
00000000: 26a2 f4b6 bfe5 1e36 8851 69b6 bcc6 4cb6
00000010: 040d 76b6 ba82 0336 58cd 1236 ced3 c135
00000020: 56e5 88b3 c8e1 d034
-7.290643e-06 2.3677565e-06 -3.4767163e-06 -3.0514047e-06 -3.6664433e-06 1.9596614e-06 2.187522e-06 1.4441264e-06
-6.3747095e-08 3.8907297e-07

exp_avg_sq f4 [10]
00000000: 688b 1634 f49c ba32 4a96 2537 188c 8736
00000010: 3dfe 4237 f8bf d834 c7a7 ff36 5106 c134
00000020: 00b1 b432 23d4 2f37
1.4020554e-07 2.1724624e-08 9.869758e-06 4.0396226e-06 1.1622496e-05 4.037281e-07 7.619124e-06 3.5953647e-07
2.1035248e-08 1.0480205e-05

exp_avg f4 [17]
00000000: 4045 3ab6 5793 31b5 59a2 d7b6 4219 5a35
00000010: c68d 1636 f6c6 2fb5 563f 14b5 bde0 8034
00000020: ec06 6db5 0eae 0233 e93f 96b5 711c 1134
00000030: 348e 5334 d5af 5b33 5c41 c934 04ac 06b3
00000040: 9f13 0f34
-2.7756469e-06 -6.6152046e-07 -6.426399e-06 8.1248083e-07 2.2434265e-06 -6.5482106e-07 -5.522646e-07 2.4005377e-07
-8.829945e-07 3.0426285e-08 -1.1194471e-06 1.3514524e-07 1.970264e-07 5.114983e-08 3.7486723e-07 -3.1355754e-08
1.3325051e-07

exp_avg_sq f4 [17]
00000000: 14ff 5731 c81a 2730 0b21 8433 b8ff 9c30
00000010: aa94 8c31 dd5e 482e 0a52 0c30 b188 1a2e
00000020: a9c1 5230 6ffe 512e dcbc 6b30 5558 e22d
00000030: 08cb dd2f c3f5 962b 23d4 852f 04bf 322e
00000040: d76e 1d2d
3.1431613e-09 6.0792305e-10 6.1527395e-08 1.1423174e-09 4.0914374e-09 4.555899e-11 5.104829e-10 3.5136952e-11
7.667276e-10 4.774708e-11 8.576089e-10 2.5732453e-11 4.0343928e-10 1.0726354e-12 2.434329e-10 4.064217e-11
8.949028e-12

exp_avg f4 [10]
00000000: 5e3e 97b6 791c 22b5 ceae 53b6 6acd 75b4
00000010: 2d92 73b6 f8b6 58b6 670c a835 68d4 d4b4
00000020: 7a05 24b7 412d 1bb7
-4.507411e-06 -6.0391136e-07 -3.15432e-06 -2.2892132e-07 -3.6294907e-06 -3.229301e-06 1.2520585e-06 -3.9642623e-07
-9.776437e-06 -9.249256e-06

exp_avg_sq f4 [10]
00000000: 1ffc c831 66a6 fa30 0fe6 bc31 7d9d 9831
00000010: 565c d932 e7b4 d630 50d5 a632 dadc 5332
00000020: 30b8 a833 7e70 5832
5.849429e-09 1.8237187e-09 5.4976748e-09 4.4416866e-09 2.5304114e-08 1.5621965e-09 1.9421947e-08 1.2332032e-08
7.856613e-08 1.25984325e-08

exp_avg f4 [10, 10]
00000000: 6807 4635 af34 ff34 8d4a 2035 06d3 dd34
00000010: 3a98 f934 1831 d7b5 208b 89b4 b389 ecb4
00000020: d6f6 94b5 a5e0 ac35 af0d d736 4ade 9834
00000030: 07e7 c436 ddbb 0334 2e5a ac36 0fe0 b2b5
00000040: ca11 6d35 c8e7 9035 face 9036 0380 a1b7
00000050: c7fe c235 da95 c7b2 8dc6 be35 94b5 7ab3
00000060: 3940 b035 fc6a 6db4 a604 c534 08df 0235
00000070: c36c e735 f5ac b8b6 b851 c1b5 89e5 d5b4
00000080: 48ad a9b5 a44e b0b4 c6b3 8fb5 f863 bc35
00000090: 6768 6f33 39c8 5634 6e1a 6f35 aa0c a4b4
000000a0: 921f adb5 9544 5434 2b98 b2b5 2afe 6134
000000b0: 234f aab5 46a0 48b4 dace 07b5 bcf4 36b5
000000c0: 1a6a 09b6 6497 a836 b7e4 1eb4 3f4c 35b4
000000d0: a285 f0b3 2fc4 1fb4 6326 a9b3 c787 1a35
000000e0: b160 ea33 886c 3034 1ba2 5134 2061 5f32
000000f0: 4547 5d35 4161 1cb3 cc0f 5e35 4437 68b3
00000100: 30fd 4f35 601e 07b4 03f4 8034 b4f7 b134
00000110: 34ea b535 4bfe 82b6 d823 a1b4 79be e4b3
00000120: 51b3 8db4 b087 bfb3 636e 6db4 21ee cb34
00000130: 77d1 0a33 b801 3c33 ed17 97b4 27fd b935
00000140: fd32 0037 aad2 dcb4 7079 f436 c5e8 0fb5
00000150: df9a dd36 14f3 2e34 2a7d fe35 63b6 1c36
00000160: 9f9c b836 123e 9bb7 344e 8335 76ed acb3
00000170: 9c37 7835 2f62 d9b3 9c62 5d35 983b e934
00000180: 469b 6f34 1ee2 e934 ebbb 2a36 9606 1fb7
7.3771525e-07 4.7535784e-07 5.971313e-07 4.1317998e-07 4.6490624e-07 -1.6033036e-06 -2.5619465e-07 -4.4058615e-07
-1.1098698e-06 1.2880379e-06 6.4090923e-06 2.8473943e-07 5.8681503e-06 1.226867e-07 5.1364977e-06 -1.3327243e-06
8.8315267e-07 1.0796293e-06 4.3156297e-06 -1.9252306e-05 1.4528276e-06 -2.3234794e-08 1.4213889e-06 -5.8372805e-08
1.3131713e-06 -2.2111266e-07 3.6697492e-07 4.8753327e-07 1.7242495e-06 -5.503762e-06 -1.4403404e-06 -3.984135e-07
-1.2641913e-06 -3.2839773e-07 -1.0706651e-06 1.4036186e-06 5.5741477e-08 2.0003144e-07 8.90729e-07 -3.0556595e-07
-1.2898693e-06 1.9768989e-07 -1.330632e-06 2.1047222e-07 -1.2689019e-06 -1.8684759e-07 -5.059243e-07 -6.815642e-07
-2.047635e-06 5.0244143e-06 -1.4798103e-07 -1.6884677e-07 -1.12001786e-07 -1.48794e-07 -7.876658e-08 5.756705e-07
1.0914062e-07 1.6430761e-07 1.9523615e-07 1.3002392e-08 8.2432626e-07 -3.6410032e-08 8.272443e-07 -5.4066973e-08
7.7481945e-07 -1.2583905e-07 2.40194e-07 3.3149047e-07 1.3553713e-06 -3.9039055e-06 -3.0014667e-07 -1.0651724e-07
-2.6393766e-07 -8.918812e-08 -2.2112503e-07 3.7984958e-07 3.2321136e-08 4.3773724e-08 -2.814335e-07 1.3857251e-06
7.641266e-06 -4.1131472e-07 7.285904e-06 -5.3610376e-07 6.6043426e-06 1.6293444e-07 1.8960902e-06 2.3351975e-06
5.5018604e-06 -1.8506344e-05 9.783021e-07 -8.052568e-08 9.246812e-07 -1.01227094e-07 8.247241e-07 4.3442992e-07
2.2315098e-07 4.3564154e-07 2.5441357e-06 -9.478672e-06

exp_avg_sq f4 [10, 10]
00000000: 1ec3 b92c bada e72c a692 252c 1e2d 9e2c
00000010: 0c64 b32b d38f 4c2e 2ca2 002c da10 0a2d
00000020: a6fb 082d 4219 0e2f 518d 1430 dc99 b32f
00000030: f642 7030 da0d 9b2f 3eab 9030 b7e8 7d30
00000040: 2fe3 3930 64e5 8c30 b8dc 632f 283b 5a32
00000050: 19d5 0531 12ae f42f 889e 3731 b0db dd2f
00000060: 993c 4d31 64df 5130 e1eb ba30 c880 3131
00000070: 725e 8630 7d84 9f32 7df6 f732 f35d cf31
00000080: d113 2733 7f04 bf31 397a 3433 3ee6 2b32
00000090: acb5 a832 8a51 e932 20b8 ea30 f9e7 7434
000000a0: c362 a130 f12a b52f 3d59 e630 e633 9e2f
000000b0: 0166 0631 7135 2e30 84d5 6d30 35cd 1831
000000c0: cebb ca30 8613 8332 8eae 1c2e ef9b 902c
000000d0: 2c70 312e e5f9 6c2c 17a4 2f2e b2b2 502d
000000e0: 0a24 372d 21c7 062e 909f ea2d d7cb 632f
000000f0: 7d89 0732 e77a d530 ea88 3532 c69f c530
00000100: 7df9 4332 1a88 2731 1ee5 b331 5eaa 0032
00000110: 31de 2630 5034 8133 609f 6f2e dc38 cb2c
00000120: fb24 6a2e b8fd 832c b456 592e 23da 262e
00000130: 62ba df2c 1894 692e 87ed a92e 6a7a c02f
00000140: 3bb9 2931 e2b9 a630 2fb2 8431 8aa2 9130
00000150: 548c 9c31 713d 5531 d355 3e31 4c97 8531
00000160: 71b5 622f d466 4033 ad12 e22f 0c9a db2e
00000170: 289b 1d30 4569 c62e 8d1d 3330 ba2c 4b2f
00000180: db57 a42f 387d 2630 21fa 792f 5d07 9131
5.2796786e-12 6.5896984e-12 2.3529317e-12 4.495639e-12 1.2746484e-12 4.651197e-11 1.8279918e-12 7.848134e-12
7.786582e-12 1.2923798e-10 5.404291e-10 3.2669234e-10 8.740665e-10 2.8204178e-10 1.0526049e-09 9.237157e-10
6.7625455e-10 1.0251537e-09 2.0723945e-10 1.2702721e-08 1.947518e-09 4.4507026e-10 2.672012e-09 4.0355763e-10
2.9865872e-09 7.6351214e-10 1.3600322e-09 2.5830094e-09 9.776626e-10 1.8570285e-08 2.8866674e-08 6.0351737e-09
3.890074e-08 5.5593428e-09 4.2020677e-08 1.0005861e-08 1.9640389e-08 2.716185e-08 1.7078072e-09 2.2808662e-07
1.1742362e-09 3.295422e-10 1.6760066e-09 2.877691e-10 1.955755e-09 6.3376776e-10 8.652352e-10 2.2235558e-09
1.4750812e-09 1.5259285e-08 3.562533e-11 4.1100383e-12 4.034477e-11 3.3676336e-12 3.9936134e-11 1.18631095e-11
1.0410348e-11 3.0644935e-11 2.667358e-11 2.0717948e-10 7.889295e-09 1.5532721e-09 1.0566717e-08 1.4379047e-09
1.1407221e-08 2.4379063e-09 5.2356333e-09 7.489318e-09 6.07062e-10 6.016546e-08 5.4483862e-11 5.7759197e-12
5.3238285e-11 3.7514124e-12 4.9417095e-11 3.7937774e-11 6.358734e-12 5.31096e-11 7.7274236e-11 3.5011577e-10
2.4698028e-09 1.2130921e-09 3.8619627e-09 1.0596335e-09 4.556151e-09 3.1030505e-09 2.7697424e-09 3.88801e-09
2.0619041e-10 4.4797005e-08 4.112243e-10 9.986331e-11 5.733676e-10 9.022697e-11 6.5161815e-10 1.8478633e-10
2.989385e-10 6.0568395e-10 2.2735282e-10 4.2208925e-09

exp_avg f4 [10]
00000000: 76a9 20b6 84ee 4535 0050 6035 e431 e235
00000010: a332 eeb5 b0ac 6d35 f14e 2735 787e 0035
00000020: 13b7 b536 b66e 6635
-2.3940497e-06 7.3735305e-07 8.356292e-07 1.6852832e-06 -1.7747119e-06 8.8540673e-07 6.2327223e-07 4.786775e-07
5.415533e-06 8.584278e-07

exp_avg_sq f4 [10]
00000000: 2c2d 5e2f c2e5 8a32 43c9 f832 0766 ad34
00000010: d0e4 da32 95fd d82f bf4a b533 484d 6530
00000020: 830c 6f33 c4b4 da31
2.020683e-10 1.6169796e-08 2.8962523e-08 3.2297996e-07 2.5482592e-08 3.9470352e-10 8.4420655e-08 8.341954e-10
5.5657903e-08 6.3651857e-09
