src/data_driven/burgers/classical_training/model_checkpoint-1.pt (torch, 64069 bytes, 72 tensors)

branch.hidden_layers.0.thetas f4 [210]
00000000: 97d5 e2be a9dc 5e3f 8760 b0bd 8fd1 873d
00000010: 02e9 8dbf c0e0 3bbf b996 053f 29ca 40c0
00000020: 3252 ae3f 8126 39bf 5b91 da3e 2198 10be
00000030: c63c c83f dfba 973d 4006 3c3f 6104 6bbe
00000040: da74 9ebf bad7 643f 0635 123f da90 c4bd
00000050: 7349 103f 9034 bd3e ab66 bbbc 8cee cd3e
00000060: f259 f03d 9838 8a3f 4f62 e9be 2140 f3bd
00000070: 9049 923f c361 c6bf c9a7 16bf 1607 a2bf
00000080: 7cac 3abf a090 82be 7a66 e73d 09bf ff3e
00000090: d67c 873f 64b2 d03e 3b89 463f 2b90 b7bf
000000a0: 08a8 893d 0ef6 7a3f 2f9e 0e3f fef9 c0bd
000000b0: 6d06 4a3f f7b5 c1be b328 853d a549 0e40
000000c0: 0402 83bf 61fc 203f 6e6e 3f3f 7f6b afbe
000000d0: 7358 31bf 6778 8cbf 62ab 07be c060 153f
000000e0: 30ea aabf 5d82 dabf 3e7f f23e 512a 34bf
000000f0: d086 dd3c 835e 5840 ac59 eebe 1ea1 a33e
00000100: 2775 f1bf 19f1 c13e c37d c8be f5cb 7dbf
00000110: 011a 7d3e d2f9 a13f 2d0d 46bf 90db 3e3f
00000120: 2fe5 453f 8af3 973e e2b0 c33f e4d0 09bf
00000130: 6664 84bf 1c34 9b3f 87a3 8ebc 078f bfbf
00000140: cf49 fbbd 2a6f 12bf a6c4 92bf b660 01bf
00000150: 37f4 36bf 8f86 1cbf 1149 5fbf edb0 ff3e
00000160: 11e2 b23e 9466 ff3d dea7 4bbf d3d4 9f3f
00000170: cc1a 293f 88fe 49bf 1a70 4bbf d991 93be
00000180: 9130 b0be 8cbc 8f3f dabe babe 3f00 c03f
00000190: 6bae 9c3f 5d7a 4bbf 0328 b2bf 2b25 313d
000001a0: 03c3 a53e 3d30 1e40 5174 9f3e d9b2 a0be
000001b0: 3813 c13f ed20 bbbe a6f5 ec3d 4636 143f
000001c0: 4a35 bbbf 8426 2fbe cc7d 423e 73df a13f
000001d0: 3774 5cbe a3e3 1fc0 36e9 e83f 43b0 46bf
000001e0: 590b 32be 4bfc 71be 5595 26bf 0496 1ac0
000001f0: 5a76 b93e a708 f3bf 6efd 24bf 11f8 2b3f
00000200: 27ae 973e e021 8bbe 2e37 85be 359d 073f
00000210: 7599 07bf a783 b13f 9554 963d fff7 b2bf
00000220: a3bf db3f 172e afbf 6ada ae3e b44c 2bbf
00000230: ebc2 b23e 0eae b4bf 69bf 2b3f 9a27 f3be
00000240: 4e27 24be dfde 0d3f d7f0 123e 7a58 e9be
00000250: 90b6 18bf c4f9 fdbf 9d93 9f3f 4d3b d0be
00000260: 4d5c 493e 8e05 8b3f 9aa6 44be aca7 8e3f
00000270: 6403 963e c61b 5d3f 166c 2c3f 138a 953d
00000280: 8a23 9abf 1037 5e3f 3202 f03d f1f8 92bf
00000290: 1f6c 6c3e ee5e 88bd dcf6 953e 54d1 abbf
000002a0: be09 e5be 097a af3f 3c11 ebbd 96e0 c23f
000002b0: c8ad ab3e 0eb5 3d3b d696 af3e efa2 d1be
000002c0: 212d d43f a2af 063e e0b8 9abd 8a70 bfbe
000002d0: b044 87be f60e 3dbf 1c8d 8a3e 2eb3 3bbf
000002e0: c4be b5be 24ae 92be a53c 9cbf b505 81bf
000002f0: 5fd4 d8be 2178 1b3f 46c2 22bf e6b0 8a3f
00000300: 6a56 02bf 6e76 97be 6c9a 76bf 1e39 3a3e
00000310: 32ab d8bf 03ee a93c 1997 1cc0 0ef2 a33e
00000320: 6058 603e 7e58 c2bf c9bf c73f e748 85be
00000330: a522 5e3d 43ae cb3f 1700 78bf 9711 0240
00000340: 2e6b d0be 9efa ac3e
-0.4430358 0.8705545 -0.08612161 0.06631767 -1.1086733 -0.73389816 0.5218311 -3.0123389
1.3618834 -0.7232438 0.42689022 -0.14120533 1.5643547 0.0740869 0.73447037 -0.22950889
-1.237941 0.8939167 0.5711216 -0.09597941 0.56362075 0.36954165 -0.022876104 0.4022106
0.11735906 1.0798521 -0.45582816 -0.11877466 1.14287 -1.5498585 -0.5884977 -1.2658412
-0.7291944 -0.25500965 0.11298843 0.49950436 1.0584972 0.407611 0.7755315 -1.4340872
0.067215025 0.980317 0.5571012 -0.09422682 0.78916055 -0.3783414 0.065019034 2.223245
-1.023499 0.628851 0.7477788 -0.342617 -0.6927559 -1.0974244 -0.13248971 0.58350754
-1.3352718 -1.7071034 0.47362703 -0.7037707 0.027041823 3.3807685 -0.4655279 0.3195886
-1.8863877 0.37879255 -0.3915845 -0.9913934 0.24716951 1.2654364 -0.77363855 0.74553776
0.7730283 0.29677993 1.5288355 -0.53834367 -1.0343139 1.2125278 -0.01741196 -1.4965523
-0.12269937 -0.5720087 -1.1466262 -0.50538194 -0.7146639 -0.6114282 -0.87220865 0.4993967
0.349381 0.12470737 -0.7955302 1.2486824 0.66056514 -0.7890401 -0.7946793 -0.2882221
-0.34412053 1.1229415 -0.36473733 1.5000075 1.2240728 -0.79483587 -1.3918461 0.043248337
0.32375345 2.4716942 0.3114343 -0.3138645 1.508399 -0.36548558 0.11570291 0.57895315
-1.4625638 -0.17104536 0.189933 1.2646316 -0.21528707 -2.4982688 1.819617 -0.77612704
-0.17387141 -0.23631398 -0.6507161 -2.4154062 0.36223108 -1.8987015 -0.64449203 0.67175394
0.29625055 -0.27174282 -0.2601866 0.52974254 -0.5296853 1.3868302 0.073403515 -1.3981932
1.7167858 -1.368594 0.34151012 -0.66913915 0.34914336 -1.4115617 0.67088944 -0.4749115
-0.16030619 0.554182 0.14349686 -0.45575315 -0.5965357 -1.9841847 1.2466923 -0.40670243
0.19664116 1.086107 -0.19204178 1.1144919 0.29299462 0.86370504 0.67352426 0.07301726
-1.2042096 0.8680277 0.11719169 -1.1482221 0.2308812 -0.066587314 0.292899 -1.3423257
-0.44733995 1.3709117 -0.114778966 1.5224788 0.33531022 0.0028947028 0.34294766 -0.4094462
1.6576272 0.13152936 -0.07554793 -0.37390548 -0.26419592 -0.73850954 0.27060783 -0.7332028
-0.35497105 -0.28648484 -1.2206007 -1.0079867 -0.42349526 0.6073018 -0.6357769 1.0835235
-0.5091311 -0.29582542 -0.9632938 0.18185851 -1.6927245 0.020743376 -2.4467223 0.3202061
0.21908712 -1.5183256 1.5605403 -0.26032183 0.05423226 1.5912555 -0.9687514 2.0323236
-0.40706772 0.33784956

branch.hidden_layers.0.bias f4 [20]
00000000: 5712 03ba 6212 033a 4612 03ba 5112 033a
00000010: cd11 03ba 5f12 03ba 6612 03ba 2012 033a
00000020: 5e12 033a 6312 033a 6212 03ba 5f12 03ba
00000030: 5612 033a 3312 03ba 5a12 03ba 2312 03ba
00000040: 5912 03ba 4512 033a 6812 03ba 6a12 03ba
-0.0004999986 0.00049999927 -0.00049999764 0.0004999983 -0.0004999906 -0.0004999991 -0.0004999995 0.0004999954
0.00049999903 0.0004999993 -0.00049999927 -0.0004999991 0.00049999857 -0.00049999653 -0.0004999988 -0.0004999956
-0.00049999874 0.0004999976 -0.0004999996 -0.00049999973

branch.hidden_layers.1.thetas f4 [190]
00000000: ffe8 52be c4b2 903e f11f 283f 6328 233f
00000010: 6dc3 edbe 4e78 933e a999 d13d cebf ba3f
00000020: f13a 0440 d763 99bf 3320 e7bd 4a36 97be
00000030: 3a99 1940 b259 70bf 2006 5a3e 5635 8c3d
00000040: 2392 c43e 2ca8 593f 966f 213e c343 50bf
00000050: ae97 f2be c3c7 9bbf 0d0c 23bf ba0e 553f
00000060: 5aae 46bf b12c 99bf 61a9 8dbf 2a04 b53c
00000070: ac0a 1abf b119 52bf 3042 103f 0ffd 963f
00000080: 4b2e ce3f 00e0 0ebf 336d 26bf e63f 41bd
00000090: b8cb 77bd 5e0d a6bd f86a dc3e 755c 10bf
000000a0: ec92 a2be 0000 5ebf a6f4 693b a0a6 4f3e
000000b0: 5592 36bf 3b2d 693e f5ae ba3f 0f06 5fbf
000000c0: daae 293f 61be 07bf 1ef3 f6be 7ac2 8abf
000000d0: 4564 c63f 18c8 6abf 5405 5e3f 18c4 843e
000000e0: cef4 8ebe 47b9 533f a18f 003f 910a bebf
000000f0: 3c4e 1cbe ae85 8fbf e921 32bf 6e08 963f
00000100: 70db 05bf 04c1 30bf ed36 393f 2933 9bbe
00000110: e1c2 5dbf 1846 a0bf 36d2 5240 3e2e b9be
00000120: 84a2 463f d956 753e bd45 e4bf caaf 0e3f
00000130: f207 a93f 7e56 0d3e 03ae 7d3e ad96 3b3f
00000140: dd5c 21bf fc4a a83e 3cc9 45be 161b 92bf
00000150: 9167 5a3f f06e edbf 543d 80bf c7a8 b93f
00000160: 34b1 c03f 0dc0 68bf b7f9 223f 4f2c dbbf
00000170: 885c 843e eb29 e1bf 692a acbf 9c8b 7dbf
00000180: 9729 9abe 4439 42c0 1207 46bf 68be 783f
00000190: b34d be3d ed90 313e 18ca 0340 243f 82bd
000001a0: ce81 913e b2bc 8f3f 9d9c 51bf 52ce 833f
000001b0: 6eb3 d83f cad5 9d3f 7ed5 47bf 1f2f 883e
000001c0: 142a fd3e 4e69 2a40 5131 3f3e db86 513f
000001d0: 3034 543f c2f6 a4bf e98c 563e 9517 32bd
000001e0: aef2 8b3f c185 5d3f ed7d 5c3f d743 b9be
000001f0: bf36 c9be 850e 4e3e c17c 8bbf 02ce 733f
00000200: b442 573f 3e3a 44bf c85d 023f c0a3 8cbe
00000210: 7128 c0be ef75 5d3f 30f1 56bf e406 91bd
00000220: f497 c43f d1a7 7bbf 763b 9e3f 2ec8 37bf
00000230: 5413 c13f 0a71 733e 11cb 533f 6370 e03e
00000240: 7b9b b8bf ce63 be3e 329f e7bf a1bd d8bf
00000250: 338d 04bf 8bac 683e 1f17 353f 87e5 1140
00000260: 1b4b a5be f612 c03f 1344 9a3f 1ddf ff3e
00000270: 62cd 8d3e a0e0 a73f 15e8 efbd 70d4 24bf
00000280: d3c6 93bf a0f1 2cc0 2f6d b33f de3f a8bf
00000290: df36 75bf 15ef 8bbf ae14 103e 9d3b 163f
000002a0: ffb7 103f f3bf 9abe 7e16 bcbf a423 f83e
000002b0: 1c62 89bd 439f c13e 23c5 a9bf ed0c 5f3f
000002c0: 8e2e 9abf 6e10 c7bd 7f19 d6bc 969c 8a3f
000002d0: 6699 a2bf d46d 04bd a6b2 88be 4763 bfbe
000002e0: e0d2 5abf 00fd 203e 33e5 d5be 7bba 17bf
000002f0: d63d 883f ac4a 9abf
-0.20596693 0.28261387 0.6567374 0.637335 -0.4643816 0.28802723 0.102343865 1.4589784
2.0660975 -1.1983594 -0.112854384 -0.29533607 2.3999772 -0.93886864 0.21291399 0.068461105
0.38392743 0.85022235 0.15765223 -0.81353396 -0.47381347 -1.2170337 -0.63690263 0.83225596
-0.7760979 -1.1966764 -1.1067315 0.022096712 -0.60172534 -0.8207045 0.56350994 1.1795977
1.6107877 -0.55810547 -0.65010375 -0.04718008 -0.060497016 -0.08108018 0.4305036 -0.5639108
-0.31752717 -0.8671875 0.00356988 0.20278406 -0.71317035 0.2277116 1.4584643 -0.8711862
0.6628243 -0.5302487 -0.4823236 -1.08406 1.549935 -0.9171157 0.8672688 0.25930858
-0.27921146 0.82704586 0.5021916 -1.4846975 -0.15264219 -1.1212671 -0.6958299 1.1721323
-0.5228796 -0.6904452 0.72349435 -0.3031247 -0.86625487 -1.2521391 3.2940803 -0.36168092
0.7759173 0.23958911 -1.7833782 0.5573698 1.320555 0.13802525 0.24773411 0.7327679
-0.63032323 0.3286971 -0.19315046 -1.1414516 0.8531428 -1.854948 -1.0018716 1.4504632
1.5054078 -0.90918046 0.63662285 -1.7122897 0.25851846 -1.7590917 -1.3450443 -0.9904115
-0.30109856 -3.0347452 -0.7735454 0.97165537 0.09292164 0.17340441 2.0592098 -0.06359699
0.28419346 1.122946 -0.818796 1.0297339 1.6929758 1.2330868 -0.7806014 0.2659845
0.49446166 2.6626773 0.18671156 0.818464 0.8289213 -1.2887805 0.2095219 -0.04347952
1.0933435 0.8653222 0.8612965 -0.3618457 -0.3929958 0.20122726 -1.0897447 0.9523622
0.84086156 -0.7665137 0.5092435 -0.2746868 -0.37530854 0.8650808 -0.8396177 -0.070813924
1.5358872 -0.9830294 1.2361896 -0.71789825 1.5084023 0.2377359 0.8273173 0.43835744
-1.4422449 0.3718552 -1.8095458 -1.693287 -0.5177795 0.2272207 0.70738405 2.2796342
-0.32283863 1.5005786 1.2052025 0.4997491 0.27695757 1.3115425 -0.11714188 -0.64386654
-1.1545051 -2.7022476 1.4017695 -1.3144491 -0.9578685 -1.0932337 0.14070389 0.5868471
0.56530756 -0.3022457 -1.4694364 0.48464692 -0.06708166 0.3781682 -1.3263286 0.871291
-1.2045457 -0.097199306 -0.026135204 1.0829036 -1.2703063 -0.032331303 -0.26698798 -0.3738043
-0.8547802 0.15721512 -0.41776428 -0.5926892 1.0643871 -1.2054038

branch.hidden_layers.1.bias f4 [20]
00000000: 1d12 033a 5212 033a 6611 03ba 4212 033a
00000010: 4a12 03ba 6012 03ba 6112 03ba c311 03ba
00000020: 0112 033a 3812 033a e211 03ba 6112 03ba
00000030: ee11 033a 0f12 03ba 4d12 03ba 3112 03ba
00000040: 5d12 03ba 5e12 033a 5e12 03ba 6212 03ba
0.00049999525 0.00049999834 -0.0004999846 0.0004999974 -0.00049999787 -0.00049999915 -0.0004999992 -0.00049999
0.0004999936 0.0004999968 -0.0004999918 -0.0004999992 0.0004999925 -0.00049999444 -0.00049999804 -0.0004999964
-0.000499999 0.00049999903 -0.00049999903 -0.00049999927

branch.hidden_layers.2.thetas f4 [190]
00000000: 8777 91be 54d5 73bf 668e f0bf 0044 8e3f
00000010: cfe0 dbbe 1d34 08bf e23f dc3f 73ee 013f
00000020: 878f c03e f502 3dbf a6e6 b33f c1d1 9c3f
00000030: cbdf 853f c749 0abf fe23 ad3f f002 11bf
00000040: c8ce d5bf ae6c 09bf 1214 b83f b486 11bf
00000050: ad04 bdbf eb4a debe 2d64 eb3e c65a ed3f
00000060: d8ce 0340 1b9f 99bd b446 f1bf 5e19 e0bd
00000070: 34b8 d93d 98e2 98be 0691 d8bf 018e 1cbf
00000080: eed8 9cbd bade d03f 4ed6 b7bf f499 77be
00000090: 8e93 aa3f 8333 4ebf 1966 08be a519 34bf
000000a0: e45d 17bf 9072 713f 83a6 10bf 9c09 963f
000000b0: 3cc8 8d3f 979f 203f 93ad 4540 efda d23e
000000c0: a198 78bf cf90 88bb de82 4f3f 760c 51bf
000000d0: 90b3 733d 9a87 c13f 865b c8bd e1e4 21bf
000000e0: 47ea 2cbf fb37 7cbe 7764 0bbf ce54 773f
000000f0: 9912 183f f74c 1e3f f26c 9ebf f032 443f
00000100: 890c 4dbf d869 e83f 9677 f83f 68a5 3ebf
00000110: c092 8fbf 21d9 353f c1f2 56bf 93a0 53bf
00000120: d62b 2fbf e0d7 0a3f 1222 bb3e abc6 443f
00000130: b112 523d ed17 f23f 2974 97bf 1ee5 87bf
00000140: ec69 993f a729 da3f 62ce 45bf 1676 c33f
00000150: 5de5 163f 003f 683f eace c23f be31 21c0
00000160: ed73 843f f218 8e3e 705b 8a3f ada2 4bbf
00000170: 5e8c 1f3f 158d ca3e a8b3 0a40 e6b3 0dc0
00000180: 3e9a ce3f bd86 a7bf 04a4 5cbf d810 393f
00000190: 88ce 3abe 6dea 5e3d a512 a13d 3275 ddbe
000001a0: 880d abbf 523a 273f 4140 1bbf 7530 813f
000001b0: db3a 1c3f bda5 563e 54e8 bdbf c107 253f
000001c0: c776 11c0 3714 eebf 8f58 d1be cf9f af3f
000001d0: 9cf6 9c3d 628a 39c0 82a6 40bd ab27 a33f
000001e0: 2b52 c93f a226 e53d 3778 103f 925d b7bd
000001f0: fdd4 6bbf a0e1 dc3f 59b8 92bf a67a f53e
00000200: 5983 7b3e b8b2 9ebf bf1f 5d3f e4e5 e63e
00000210: 6ae2 903f a937 80be 253e a33f 41d5 a0bd
00000220: c8e1 b83f 2a4e d13f 4b9f bdbf 57b5 0f3f
00000230: 4fdb 84bf 1d2f 10bf b99c 88bf 812c 5c3f
00000240: 5399 f53e 6ddd b13e e8a5 39be df0e 0d40
00000250: 174a d73e ab76 85bf 790d e4bd 719f da3f
00000260: 0101 9abe c9f1 8e3f 0078 023f 3b02 cdbf
00000270: 6bd6 2e3f 4e37 bebf 7cab 26bf 1aaf 923c
00000280: 5c3b c8bf 1da0 87bf 9a25 6cbf 084b 783e
00000290: 44d8 373f 1c8a 11bf 24ea d7bf 6b05 ebbe
000002a0: a729 1d40 7e0d 273f 36cc 8ebf 4664 33bf
000002b0: 3e3f db3f 153d 4a3e 627f 94be 241f ce3f
000002c0: 12bb e83d 6e9b b03f 0c38 afbf 8212 47bf
000002d0: ebdf d93f 3554 1c3f 04e7 fbbf 1f1c c8bd
000002e0: 6c38 72be 0b55 2bbf 65e2 cd3f 6157 763f
000002f0: 33e1 e23e d033 e2be
-0.28411505 -0.9524739 -1.8793457 1.1114502 -0.42944953 -0.5320452 1.7206995 0.5075447
0.37609503 -0.7383264 1.4054763 1.2251512 1.0458921 -0.54018825 1.3526609 -0.5664511
-1.670373 -0.5368146 1.4381125 -0.56846166 -1.4767052 -0.43416533 0.45974866 1.8543327
2.0594997 -0.0750105 -1.8849702 -0.109423384 0.10630837 -0.29860377 -1.6919258 -0.6115418
-0.076585636 1.6317971 -1.4362276 -0.24179822 1.332628 -0.8054735 -0.13320197 -0.7035163
-0.5912764 0.94315434 -0.56504077 1.1721683 1.1076732 0.62743515 3.0887191 0.41182658
-0.97107893 -0.004167653 0.8105906 -0.8165964 0.059497416 1.5119507 -0.09783082 -0.63239866
-0.6754498 -0.2463073 -0.5445017 0.96613777 0.5940338 0.6183619 -1.2376997 0.76640224
-0.8009725 1.8157301 1.9411495 -0.7447114 -1.121666 0.7103444 -0.83964163 -0.8266689
-0.68426263 0.5423565 0.3654943 0.76865643 0.051287357 1.8913552 -1.1832324 -1.0616796
1.198545 1.7043961 -0.7726804 1.5270412 0.5894373 0.9072113 1.5219395 -2.518661
1.0347878 0.27753407 1.0809155 -0.795451 0.6232356 0.39560762 2.1672153 -2.2141051
1.6140821 -1.3087994 -0.8618777 0.72291327 -0.18242848 0.054422785 0.07864884 -0.43253475
-1.3363504 0.65323365 -0.6064492 1.0092913 0.61027306 0.20961662 -1.4836526 0.64464957
-2.2728746 -1.8599919 -0.40887877 1.3720645 0.076642245 -2.8990712 -0.047033794 1.2746481
1.5728201 0.11189009 0.56433433 -0.08953394 -0.9212187 1.7256355 -1.1462508 0.47945136
0.24561824 -1.2398291 0.86376566 0.45097268 1.1319096 -0.25042465 1.275334 -0.07853175
1.4443903 1.6351979 -1.4814237 0.5613608 -1.0379428 -0.5632189 -1.0672828 0.8600541
0.4796854 0.34739247 -0.18129694 2.2040327 0.42048714 -1.042684 -0.11135382 1.7079908
-0.3007889 1.1167537 0.50964355 -1.6016306 0.68295926 -1.4860628 -0.65105414 0.01790576
-1.5643115 -1.0595738 -0.92244875 0.24247372 0.7181437 -0.56851363 -1.6868329 -0.4590257
2.4556673 0.6525496 -1.115607 -0.7007488 1.7128675 0.19749863 -0.29003435 1.6103253
0.11363806 1.3797433 -1.3688979 -0.77762616 1.7021459 0.6106599 -1.9679875 -0.09770989
-0.23654336 -0.6692664 1.6084715 0.9622708 0.44312438 -0.44180155

branch.hidden_layers.2.bias f4 [20]
00000000: 1111 03ba 5412 033a 4512 033a 5d12 033a
00000010: 5111 03ba 5212 03ba 5d12 03ba dc10 03ba
00000020: 3b12 033a d811 033a 6212 03ba 5f12 03ba
00000030: 0810 03ba f411 03ba bf11 03ba 4912 03ba
00000040: 4512 03ba 5012 033a 3912 03ba 6312 03ba
-0.00049997965 0.00049999845 0.0004999976 0.000499999 -0.0004999834 -0.00049999834 -0.000499999 -0.00049997657
0.000499997 0.00049999123 -0.00049999927 -0.0004999991 -0.0004999642 -0.00049999286 -0.0004999898 -0.0004999978
-0.0004999976 0.0004999982 -0.0004999969 -0.0004999993

branch.hidden_layers.3.thetas f4 [190]
00000000: d797 b7be 25d2 be3c fa85 4a3e d355 813f
00000010: a72d 973f 2f6a 113f e60d efbf f2d1 1240
00000020: 6bb2 a3bd 967e b23f e88a 4a3e c901 9ebe
00000030: b295 d0bd cd20 1fbf 50ac 353e 4125 123e
00000040: 032f 38ba 3928 ed3e babd cd3f f790 bcbf
00000050: b29e 0ebf f1b8 f2bd 2b7d 6cbf 7829 27be
00000060: 5ded 8b3e f2e6 febe 366c fabe 7630 c93f
00000070: a128 4ebf 22c7 013f 4c7f aabd 0ef4 89be
00000080: 9a9a e23f 42fc a5bf e8a0 023e 9513 8c3d
00000090: 7452 7cbf 3de3 f83f ebf1 203d 96ab 3fbf
000000a0: 1f2a 36bf bf5f 153e feca bb3c a5dc bebe
000000b0: 109c a43f 534e 7cbf d389 91bf 0746 24be
000000c0: ef1c 123f 01dc 8c3f 7d26 ea3e 9174 f9bf
000000d0: 8fda cabf 96fe 4e3f 03b6 893e ec4c 8abd
000000e0: 5f17 56bf a2a5 66be 1a21 803e c381 173f
000000f0: daeb 593f 42f7 253d 3dfb 333f 1e4d 83be
00000100: b803 37bf 14fc 853f e646 ba3d f397 b53e
00000110: 9db9 96bf d44c 4f3e 633a 29bd 4525 e8be
00000120: e90e a9bf 8427 e3bf 8331 15bf 0382 6e3f
00000130: 8595 21bf ccdb 3e3f be3d 743f 8622 f93c
00000140: 8019 a7bf 6e05 61be 4e00 ffbe cc2a 113e
00000150: 9329 6f3e 39f4 a53f 7c4e 7ebf e293 453f
00000160: 3fdf 823f 0d42 bc3e f087 953f 0dd5 b03f
00000170: a765 a4bf d63f d4bf f3dd 633f eefc 4a3f
00000180: eafc e23e 4d95 24be 742f c33e 5f87 d8be
00000190: b524 63be 9a0c a93d 7ba9 3bbf f39b d63f
000001a0: 9699 8ebe 3823 acbf 1aa0 03bf e305 b0bf
000001b0: b710 b83e 9dc7 c5be 7e65 353f 74a9 ed3e
000001c0: 8661 cdbc 9a7e 88bf 95c8 e6bf 1794 853d
000001d0: 7cb8 d8be 851b 273f 783b 5dbe 5be1 223f
000001e0: 758b 87bf fde4 33bf bac0 94be dece 9cbe
000001f0: e066 ad3d e5f4 bdbe fa3e 2c3f b5d9 04bf
00000200: 4034 803e 9ab9 15bf b59d 56bf 2470 ddbf
00000210: c6d3 483f d0f1 fabe 1796 f2be 94d3 403f
00000220: 91a3 9fbe 63de b73e 456f 6abf 8142 3b3f
00000230: 9215 a93f 87c7 8cbe 801d b1bf 1f21 30bf
00000240: 47e3 44bf 71d3 18c0 dcdb 34bf 1c4a 1fc0
00000250: f733 83bf aaef 623e 4fe0 043f 9ac4 03bf
00000260: 1f39 a73f 4fba 03c0 d570 2b3f 9521 993f
00000270: 5d0f 743d 8241 c8bf 9cc7 efbe 2279 d53f
00000280: 6293 67bd 4a66 3bbe b0ab f8bb a785 c7bf
00000290: cdf5 523f 31c6 403f 8f4f 6fbf 08b3 ad3e
000002a0: fa1d 523f 8140 143f 7061 9d3f 975f f2be
000002b0: a0cd 643f 7f52 6b3e 3b72 7a3f 47f4 9abd
000002c0: c77d 52bf 9965 473e a796 85bf bd1e d6bf
000002d0: bafc 88bf fd52 02bd 623d 8e3e b3bc 34be
000002e0: 8c69 e83e bcc2 863c 4d85 6c3f 7aca 6cbe
000002f0: 234a 1d3f cc11 0d3e
-0.35858032 0.023293564 0.1977767 1.0104316 1.1810807 0.5680265 -1.8676116 2.294064
-0.07993015 1.3944881 0.19779551 -0.30860737 -0.10184802 -0.62159425 0.17741513 0.14272024
-0.0007026048 0.4631975 1.6073525 -1.473174 -0.557109 -0.11851681 -0.9237849 -0.16324413
0.2732953 -0.49785572 -0.48910683 1.5717914 -0.80530745 0.5069448 -0.08325061 -0.2694401
1.7703431 -1.2967608 0.12756693 0.068396725 -0.98563313 1.9444348 0.03929321 -0.74871194
-0.7115802 0.14587305 0.022923943 -0.37277713 1.2860126 -0.98557013 -1.1370186 -0.16042338
0.570754 1.100464 0.4573249 -1.9488698 -1.5847949 0.8085722 0.26896676 -0.06752953
-0.8362941 -0.22524121 0.25025254 0.59182376 0.85125506 0.040519007 0.70305234 -0.25644773
-0.7149005 1.0467553 0.09095554 0.3546749 -1.1775395 0.20244151 -0.041315448 -0.45340934
-1.3207675 -1.7746434 -0.58278674 0.9316713 -0.63118774 0.74554133 0.9540671 0.03041197
-1.3054657 -0.21974728 -0.4980492 0.14176482 0.23355703 1.2965156 -0.9933851 0.77178776
1.0224379 0.36769143 1.168211 1.3815018 -1.2843522 -1.6581981 0.8901054 0.7929219
0.44333583 -0.16072579 0.3812214 -0.4229078 -0.22181971 0.08254357 -0.7330548 1.6766342
-0.27851552 -1.3448248 -0.5141617 -1.3751796 0.35950252 -0.38628855 0.7085799 0.46418345
-0.025070917 -1.0663636 -1.8029963 0.065223865 -0.4232825 0.65276366 -0.21604717 0.63625115
-1.0589434 -0.70271283 -0.2905329 -0.30626577 0.084668875 -0.37100902 0.67283595 -0.51894695
0.25039864 -0.5848633 -0.8383439 -1.7299848 0.7844814 -0.49012613 -0.47380134 0.7532284
-0.3117948 0.35911855 -0.91576034 0.7314835 1.3209708 -0.27495977 -1.3837128 -0.6880054
-0.769093 -2.3879054 -0.7064798 -2.4888983 -1.0250233 0.22161737 0.5190477 -0.51471865
1.3064307 -2.0582464 0.66969043 1.1963373 0.059584964 -1.5644991 -0.46831977 1.6677592
-0.05653704 -0.18300739 -0.007588826 -1.5587662 0.8240631 0.75302416 -0.9348077 0.33925653
0.8207699 0.57910925 1.229536 -0.47338554 0.8937626 0.22980689 0.9783055 -0.075661235
-0.8222317 0.1947235 -1.04366 -1.672813 -1.0702126 -0.031817425 0.27781206 -0.17650108
0.45393026 0.016450278 0.923909 -0.23124114 0.6144125 0.1377632

branch.hidden_layers.3.bias f4 [20]
00000000: 3712 03ba 6312 033a 4612 033a 5112 033a
00000010: 4112 033a 5912 03ba 6212 03ba 1512 033a
00000020: 3512 033a 5f12 033a 5612 03ba 5b12 03ba
00000030: 4912 033a 4e12 03ba 5212 03ba 5412 03ba
00000040: d611 03ba 5f12 033a 5b12 03ba 5f12 03ba
-0.00049999676 0.0004999993 0.00049999764 0.0004999983 0.00049999735 -0.00049999874 -0.00049999927 0.0004999948
0.00049999665 0.0004999991 -0.00049999857 -0.00049999886 0.0004999978 -0.0004999981 -0.00049999834 -0.00049999845
-0.0004999911 0.0004999991 -0.00049999886 -0.0004999991

branch.hidden_layers.4.thetas f4 [190]
00000000: 31a2 83bf 9731 a93e 63fc c1bf 3a46 bdbf
00000010: ae7e 2e40 a451 9dbf c493 fc3d 87a2 213f
00000020: 1198 eabe dbc2 ea3f 9771 df3f b3c7 dfbe
00000030: dbd2 743e 89ad b73f e82f e2be 3af8 2cbf
00000040: 8273 d8bf 4656 38bf 4d7d 4dbf 632d 36bf
00000050: 3057 873f e4a6 8bbf 8176 16bf c5bb 35bf
00000060: 9fd1 01be 8eaa 77be f68d 3340 1589 edbd
00000070: c6f9 c0be 30e4 d8bd 5f64 f03e 606c 9bbf
00000080: 1079 0cbf 4f44 043f b047 9b3d b400 073f
00000090: d00c 30be ad43 b93e 0075 893f 2584 8ebf
000000a0: 5965 983f f184 1bbf ff35 bb3f 9ced 94bf
000000b0: c351 993f 7698 b33f 7900 8cbf c16b d03f
000000c0: 609d 00bf 8726 59be b208 053f a8d3 f43f
000000d0: 9f2a 0d3f abfa 85bd 2bdd a33f 5061 7a3f
000000e0: 4353 d1be 968e 863e 1c59 143f 79ca 24bf
000000f0: f941 09bc 41e8 833f a315 c4bf e6ca 983e
00000100: 9d69 04bf e23c b3bf 2738 17bf 6b02 27bf
00000110: 5651 d43f 384b 713f c983 0bbf b976 363e
00000120: 17d9 2d3d 52a9 2b3f 403b 92bf 1eff ae3f
00000130: d6e0 043f 2422 6fbf c1a1 783f 14ab d4bf
00000140: d021 4a3f f7fa 63bd 3918 8f3f 6218 3b3f
00000150: f4a8 3d3f 3c4e a03f c854 aebe f551 7f3e
00000160: 2fa1 b33f 49e1 e7be 63bf 373f d61f bdbf
00000170: 8229 a23f da9f 893d 74b6 453f 7148 cc3f
00000180: a42c afbe 22a7 6a3e 8136 95bd e255 e73f
00000190: 8ead c0be 4aa8 a7be 2be7 153f d76d 0a3f
000001a0: 03d2 4abf de64 673e 1a51 a5bf 4dd2 2b3f
000001b0: 5bd4 bb3e 0279 a7bf 9cd0 923f e346 fe3f
000001c0: 1497 38bf 6cae 96bf 5d4e 613e 881c 1e3f
000001d0: 471a a73e 1df3 313f 6746 a43f 0b61 1fc0
000001e0: bb8e 1740 9aa1 d2bf b58e 1f3f bbd5 61bf
000001f0: 9066 b9bf f4b9 62bf b01f c1bf b02e 853f
00000200: 842c b03f 1bb4 8ebe 3725 513f e551 0b3f
00000210: 72c0 893f 6fe6 5cc0 8e8d 1abf c49c 46bf
00000220: 1b5b a43f ba7f 533e e088 b53d caa6 54c0
00000230: cc60 0fbf 0088 82bf 3f0b 313e 765c 0bc0
00000240: 41dc ffbe e06f 073e 786b 5abf e6ad cfbd
00000250: cab6 b5bf 2117 d5bf 8b1c f5bf 436a 923e
00000260: aa74 a3be c479 64be 04de f5bd 24b9 d83e
00000270: 8faf e03f ab1c cfbf 3fc6 0a40 7b39 9a3f
00000280: b783 293f 11a8 3cbe 2e57 c53e 7189 bebf
00000290: 6207 18bf a6e7 34bf 5ac5 2abf f880 b3bd
000002a0: 3973 1cbf a7e1 5e3f b12a 413e c5ef 8abf
000002b0: ee8d 0bbf 003d 83bf d2f5 a8bf 9117 53be
000002c0: 3341 203e 034e 7abf 1489 19bf 3f9f 81bd
000002d0: e46a cabf 8716 26bf 07ff 87bf c7f8 e8bf
000002e0: 4ae9 eabf c3f5 50bf a6ab 39bd 1c5d b03f
000002f0: dfcb aabf 78f4 00c0
-1.0283872 0.33045647 -1.5155147 -1.4787056 2.726482 -1.229054 0.123328716 0.6313862
-0.45819142 1.8340715 1.745654 -0.43707046 0.2390856 1.4349834 -0.44177175 -0.67566264
-1.691025 -0.7200664 -0.8026932 -0.71163005 1.0573483 -1.0910306 -0.5877457 -0.7098964
-0.1267762 -0.24186155 2.8055396 -0.11598412 -0.37690562 -0.10590398 0.46951577 -1.2142448
-0.54872227 0.5166673 0.07582033 0.5273545 -0.17192388 0.36184445 1.073883 -1.1134077
1.1905929 -0.6074973 1.4625853 -1.1635013 1.1978077 1.4030902 -1.0937644 1.6282884
-0.50240135 -0.21206103 0.51966393 1.9127092 0.5514316 -0.06541952 1.280187 0.9780474
-0.40883836 0.2628066 0.5794847 -0.6437145 -0.0083775455 1.0305253 -1.5319103 0.298423
-0.51723653 -1.4002955 -0.59070057 -0.65238065 1.6587322 0.942554 -0.54497963 0.17818727
0.04244336 0.6705524 -1.1424332 1.3671606 0.5190557 -0.9341147 0.97121817 -1.6614709
0.78957844 -0.05565926 1.1179267 0.7308408 0.74085927 1.2523875 -0.34049058 0.24933608
1.4033564 -0.45289066 0.7177641 -1.477534 1.2668917 0.067199424 0.77231526 1.5959607
-0.34213746 0.22915319 -0.072857864 1.8073084 -0.37632412 -0.32745582 0.5855586 0.5407385
-0.792267 0.22597072 -1.2915375 0.6711777 0.36685452 -1.3083804 1.1469913 1.9865383
-0.72105527 -1.1771979 0.2200255 0.61762285 0.32637236 0.69511586 1.2833985 -2.490298
2.3680866 -1.6455567 0.6232713 -0.8821675 -1.4484425 -0.8856499 -1.5087795 1.0404873
1.3763585 -0.27871785 0.8169741 0.54421836 1.0761855 -3.4515646 -0.60372245 -0.77582955
1.2840303 0.20654193 0.088639975 -3.32268 -0.56007075 -1.0197754 0.17289446 -2.1775184
-0.49972728 0.1322627 -0.85320234 -0.1014059 -1.4196408 -1.6647683 -1.9149336 0.28596696
-0.31924945 -0.22312075 -0.12005237 0.4232875 1.7553576 -1.6180624 2.16835 1.2048792
0.66216606 -0.18423487 0.38543075 -1.4885694 -0.59386265 -0.7066597 -0.66707385 -0.08764833
-0.61113316 0.8706307 0.18863942 -1.0854422 -0.5451344 -1.0252991 -1.3200018 -0.20614459
0.15649872 -0.97775286 -0.5997479 -0.06329202 -1.581387 -0.64878124 -1.0624703 -1.8200921
-1.8352444 -0.81625 -0.045329712 1.3778415 -1.3343467 -2.0149212

branch.hidden_layers.4.bias f4 [20]
00000000: 5912 03ba 5e12 033a 3112 033a 5812 033a
00000010: 9e11 03ba 6412 03ba 6612 03ba 5512 033a
00000020: 6312 033a 5012 033a 5e12 03ba 6312 03ba
00000030: 5312 033a 4912 033a 5812 03ba 6212 03ba
00000040: 4912 033a 6312 033a 0a12 03ba 3012 033a
-0.00049999874 0.00049999903 0.0004999964 0.0004999987 -0.00049998786 -0.0004999994 -0.0004999995 0.0004999985
0.0004999993 0.0004999982 -0.00049999903 -0.0004999993 0.0004999984 0.0004999978 -0.0004999987 -0.00049999927
0.0004999978 0.0004999993 -0.00049999414 0.00049999636

branch.output_layer.weight f4 [20, 20]
00000000: acfa 2fbe 10cf 61be c5ac be3c ac01 3cbe
00000010: 35b6 853d 65a0 a33d 96b8 233d 368f 3a3e
00000020: cd97 60be 883c f3bd 8c88 403e 8c11 303e
00000030: 769f 1cbe a047 ee3d e4b2 203e e206 4f3e
00000040: 28e9 453e 06ab abbd 507a 573e 0b81 c1bc
00000050: 6763 e8bd 4643 a53c 0503 8e3c 2d1f 1e3c
00000060: c7a8 08be c208 23be 2f3e 583d 1acd 15be
00000070: b91e 16be 2e4d 1b3e 1879 1c3e 57f5 73bd
00000080: d2bb 2bbe 6820 953d 6672 a5bd 828d 8ebd
00000090: 568c 23be a80e 3bbe 6108 54be 82f8 3b3e
000000a0: e27d 88bd 57bf 70bd be78 2c3e 3852 843d
000000b0: 73ad 9f3d 28ae 8a3d 3a33 923c 6047 5a3e
000000c0: e95a 7c3d 9599 f5bd 3683 b93c 0327 2bbe
000000d0: 0ad8 183e d531 9cbc c4ce 583e e89d 443e
000000e0: c03f de3d a4ae 44be 1a76 0f3e 0e07 43bd
000000f0: b69e b3bd 99b1 633d 654a 8dbc e918 5e3d
00000100: 25a2 20be 8883 ca3d 2fd2 54bd da3f 103e
00000110: 9a20 56bc 09ce 413d fbf3 60be 6b3b d6bd
00000120: 2bd3 d6bc bd86 a83d 9e42 423e 9887 05bd
00000130: 8dc9 2abe 07cd f13d e885 41be 72c3 3d3e
00000140: a964 9abb b483 e53d bc5f 8dbd c4f8 14be
00000150: 27aa 18ba f893 243e 1552 f1bd a097 843d
00000160: d311 29bd 63b4 5dbe 8e17 2b3e 0999 58be
00000170: 66e6 05be dfd0 d5bc c948 1a3e b739 163d
00000180: 4196 c8bd 30c9 203e 624b 07be f1cf acbd
00000190: 91d1 103d 0533 89bd ccc7 233e 6ee5 13be
000001a0: 9b04 463c 7bdd 3dbe cd91 51be cb3c 993d
000001b0: 6294 1c3e ac21 55be bd01 d5bd c0b1 cfbd
000001c0: ffe5 8ebd f22d 643d 4c05 2ebe 415c 4e3d
000001d0: 6049 ddbd 3d35 dcbd b09b 21be 633b 853c
000001e0: 0c68 4f3e cbef 86bd 1664 003e 9001 4bbe
000001f0: 5e94 5ebe a4ca ab3b 97c0 163d fdf8 8e3d
00000200: 4598 97bd 27a8 adbd 64ab 153e 431f 0bbd
00000210: 748e f3bb a82c 46be 9440 583d 6328 3c3c
00000220: 8173 3abe 1f46 34be d090 513e 46c9 053e
00000230: 3ca9 a73d 49eb c7bd 671c 07be 1678 8bbd
00000240: dca3 1b3e d81e 4fbd 8293 febd 8f5e 9cbd
00000250: 4147 53bd 50b7 483e 6169 113d 06ed 523e
00000260: 0588 873d fe20 5e3b bfbf e0bd 60da aebd
00000270: a151 f83c 701b 87bc 7d96 97bc ed4d 55be
00000280: 1dca f1bb f3bd 093c b839 0b3e 5868 f2bc
00000290: 6ea5 43be ee6f 093e a06e 423e 603a 313e
000002a0: c8f5 2e3e 60ee 323e c541 20be 9d21 e3bd
000002b0: ff22 603d f584 a73d a367 ef3d 7892 753d
000002c0: 7813 8f3d 6cc9 45bd 9118 e0bd dd79 babd
000002d0: 18d0 0fbe 9615 693b 1fd0 5fbe 8a9c 0c3e
000002e0: f2b1 0e3e 527a 4dbe 8e8c 3ebe e704 303d
000002f0: a2ec 2b3e b168 d4bd 5b42 a6bd 6198 ddbd
00000300: 7233 453e 5fbb cdbd cd26 1a3e 98d1 013e
00000310: 8ae5 1ebe 22c7 1c3e 2fcb f43d b78b 89bd
00000320: 5117 793d fc16 8abd c412 633e 6142 10be
00000330: 2f14 3fbe e2a4 c3bd 74c5 ba3d 4e3f 033e
00000340: a639 38be 00d3 57bc 5950 8e3d c8e3 323d
00000350: b198 f4bc 8355 80bc a773 67ba a93e 1cbe
00000360: a99b c2bc 45e2 1c3e ec64 10be af97 dfbd
00000370: 6533 a9bd 359e ebbd 90ee ccbd eb8b eebd
00000380: da94 31be e9fa ce3b 7b4e de3d a8b1 2ebe
00000390: 46f8 42be fada 00be 521e 88ba 95bc a13d
000003a0: 6000 163e 811a bd3c 55dd 033e 19b2 063d
000003b0: 9a87 38be 5c96 bdbd 1040 173e 6eaa 1ebe
000003c0: 91f5 2ebe 3f96 03be e7f9 3abe d7b2 b03c
000003d0: 15c8 a63d 064e 403e 0fc6 1d3d 793d 943d
000003e0: 3fe6 24be 2f9a d43d d946 113d 446e 043e
000003f0: ac07 e1bd 6720 20be 9837 16be 3b82 803b
-0.17185467 -0.22051644 0.023275742 -0.18360013 0.06528894 0.07989577 0.039970957 0.18218693
-0.21932907 -0.1187678 0.18802088 0.17194194 -0.15295205 0.11634755 0.15693241 0.2021747
0.19327223 -0.083822295 0.21042752 -0.023621103 -0.113470845 0.02017368 0.017335424 0.009650988
-0.13345633 -0.1592131 0.052793678 -0.14629021 -0.14660157 0.1516616 0.15280569 -0.059560146
-0.16770867 0.072815716 -0.080784604 -0.06960584 -0.15971503 -0.1826731 -0.20706321 0.18356517
-0.06664635 -0.058776226 0.16842934 0.064609945 0.07796755 0.06771499 0.017846692 0.2131629
0.061610136 -0.11992184 0.022645574 -0.167141 0.14926162 -0.01906673 0.21172625 0.19200861
0.10852003 -0.19207245 0.14009896 -0.04761415 -0.08770506 0.055589292 -0.017247388 0.054222975
-0.15686853 0.09888369 -0.05195826 0.14086857 -0.013069296 0.04731563 -0.21968071 -0.10460552
-0.02622374 0.08228824 0.18970725 -0.032600015 -0.16678448 0.11806684 -0.18898737 0.18531588
-0.0047117067 0.11206761 -0.069030255 -0.14548022 -0.00058236945 0.1607207 -0.11783234 0.06474233
-0.041276764 -0.21650843 0.16708204 -0.21152128 -0.13076171 -0.026100574 0.15066828 0.036676135
-0.09794284 0.15701747 -0.1321235 -0.08438099 0.035356108 -0.06699184 0.15994185 -0.14442989
0.012086059 -0.1854152 -0.20465775 0.074822985 0.15290979 -0.20813626 -0.10400722 -0.10141325
-0.06977462 0.05570788 -0.16994208 0.05038095 -0.10805011 -0.10752342 -0.15782046 0.01626367
0.20254534 -0.06588706 0.1253818 -0.19824815 -0.21736285 0.0052426625 0.03680476 0.069810845
-0.0740209 -0.08479338 0.14616162 -0.03396536 -0.007432753 -0.19352973 0.05279596 0.011484238
-0.18208124 -0.17604874 0.20465398 0.13065061 0.08186576 -0.09761674 -0.13194428 -0.06810014
0.15199226 -0.050566524 -0.12430479 -0.07635223 -0.051581625 0.19601178 0.035500888 0.2059823
0.066177405 0.0033894177 -0.10974073 -0.085377455 0.030312361 -0.016492575 -0.018504376 -0.20830508
-0.00737883 0.008407104 0.13596237 -0.02959077 -0.19106075 0.13421604 0.18987513 0.17307425
0.17085946 0.17473745 -0.15650089 -0.110903956 0.054720875 0.081796564 0.11689689 0.059954137
0.06986135 -0.048287794 -0.10942186 -0.09105275 -0.14044225 0.0035565845 -0.21856736 0.1373159
0.13935068 -0.20066193 -0.18608305 0.042973425 0.16789487 -0.10371531 -0.08118125 -0.108200796
0.19257906 -0.10045504 0.15053864 0.1267761 -0.1551725 0.15310338 0.11952817 -0.067161016
0.060813252 -0.06742665 0.22175127 -0.14087822 -0.18660043 -0.09552933 0.091196924 0.12817118
-0.17990741 -0.013172865 0.06948919 0.04367426 -0.029857965 -0.015665775 -0.0008829184 -0.15258278
-0.023755865 0.1532069 -0.14100999 -0.10917603 -0.08261756 -0.11504785 -0.1000644 -0.11647781
-0.17341939 0.006316532 0.10854813 -0.17059958 -0.19040021 -0.12583533 -0.0010385013 0.07897297
0.1464858 0.023083927 0.128774 0.03288469 -0.18020478 -0.092571944 0.14770532 -0.15494701
-0.17085864 -0.12850283 -0.18259393 0.021569652 0.08143631 0.18779764 0.03851896 0.072382875
-0.16103457 0.10380971 0.035467956 0.12932688 -0.109877914 -0.1563736 -0.14669645 0.0039217747

branch.output_layer.bias f4 [20]
00000000: 27f4 9a3d b46b d7bd ed42 c03b abe9 30be
00000010: 9381 e93c 6ed1 00be a6bc 403d 8220 3abe
00000020: a5ce 94bc 654f 3cbe 7da5 883d ea26 2e3e
00000030: 502e 223e d2d9 50be 557e 86bd 4ed5 3b3e
00000040: 9eab 673d 90a1 31be 0b93 89bc dd8f cbbd
0.075660996 -0.105185896 0.005867353 -0.17276637 0.028504169 -0.12579891 0.04705491 -0.18176463
-0.018164942 -0.18389662 0.066721894 0.17007032 0.1583798 -0.20395592 -0.06567065 0.18343088
0.05656015 -0.17346787 -0.016793748 -0.09939549

trunk.hidden_layers.0.thetas f4 [99]
00000000: 306d c1bf 5a56 c03e 0aae 82be da61 9c3e
00000010: 58ed b2bf e623 f8bf ab83 8d3f dea7 aa3f
00000020: 9b4a c03f b009 fa3e 372c dc3e a6cd 6abd
00000030: bc7c 0cbf 4f10 f73f 2dbf d73f 4da1 cd3f
00000040: d995 13bf a4e9 f73e 3c50 683f 4c07 1c3f
00000050: 70bd dabe cc0d 8bbe 39d5 85bf 0af3 2ebf
00000060: b805 4f3f 19a7 393f 5e39 4e3f 2c56 9c3f
00000070: c62d b63f 1c1e 7f3f 427e 60bf f534 a53f
00000080: b4e8 91bf 6a04 45bf 7dbe acbe b85c ff3e
00000090: fa7d 8cbd 2853 f6bf 37a3 1dc0 c2c5 0840
000000a0: 65d5 e33f d354 aabf 9f9d 72bf c628 353e
000000b0: 51b6 41bf d7df ee3f ffed 93be 9a80 a33f
000000c0: 8ee2 f9bc ec68 eabe a68e 6b3e f1ab 9e3f
000000d0: d75b d43f 8d08 643f de83 a73d 15de 2e3f
000000e0: f0f2 3e3e 8a6c 393e 7e52 0b3f bc38 183f
000000f0: e89b b8bf fa0f 6dbf e4c3 a9bf c975 cb3c
00000100: d230 293f c06e ba3f 230c ff3f 260c b23f
00000110: d30b a9bf 4df1 66be 033c 54bf 3712 043f
00000120: 76b0 5e3f 1e67 b23e ca92 b4bf 9fb0 8c3e
00000130: c854 44bf 55c4 cd3d b62d 233e 2e40 8dbe
00000140: 9a61 2b3f c84d c8be c59f ab3d a425 6abf
00000150: 744c 4e3d d803 813f dd9e 8fbf 145f 4cbf
00000160: 028e 63bf c9f5 ca3f ffce 8dbd 109c 88bf
00000170: 94de 36bf e921 f1be 228e 653c 5080 0ebf
00000180: 7bab 1abf 99bc d2bc 9c8f bcbf
-1.5111446 0.3756588 -0.25523406 0.30543405 -1.3978682 -1.9385955 1.1055807 1.3332479
1.5022768 0.48835516 0.43002483 -0.057325028 -0.5487783 1.9301852 1.6855217 1.606485
-0.57650524 0.4842044 0.9074743 0.60948634 -0.42722654 -0.27158964 -1.0455695 -0.683396
0.808681 0.72520596 0.80556285 1.2213798 1.4232719 0.9965532 -0.87692654 1.2906786
-1.139914 -0.7695986 -0.3373908 0.49875426 -0.068599656 -1.9244127 -2.4630868 2.1370702
1.7799498 -1.3307136 -0.9477176 0.17691335 -0.7566882 1.866206 -0.28892514 1.2773621
-0.030503538 -0.45783174 0.23003635 1.2396222 1.6590527 0.8907555 0.081794485 0.6830762
0.18647361 0.1810781 0.5442275 0.5946157 -1.4422579 -0.92602503 -1.3262906 0.024836438
0.6609012 1.4565048 1.9925579 1.3909957 -1.3206733 -0.22552986 -0.8290407 0.51590294
0.8698801 0.34844297 -1.4107296 0.274785 -0.76691866 0.10047213 0.15935406 -0.27588028
0.66945803 -0.39121842 0.08380083 -0.91463685 0.05036588 1.0079298 -1.1220356 -0.7983258
-0.8888856 1.5856258 -0.06924247 -1.0672626 -0.7143338 -0.47096184 0.014010938 -0.5566454
-0.6041791 -0.025724696 -1.4731326

trunk.hidden_layers.0.bias f4 [20]
00000000: 5a12 033a 6712 033a 6812 03ba 6a12 03ba
00000010: 5412 033a 6512 03ba 3112 03ba 5c12 03ba
00000020: 6612 03ba 5e12 033a 5d12 03ba 6612 03ba
00000030: 1812 033a be11 03ba 5712 033a 6412 03ba
00000040: 5c12 033a 6412 03ba 5912 03ba 6212 033a
0.0004999988 0.00049999956 -0.0004999996 -0.00049999973 0.00049999845 -0.00049999944 -0.0004999964 -0.0004999989
-0.0004999995 0.00049999903 -0.000499999 -0.0004999995 0.00049999496 -0.0004999897 0.0004999986 -0.0004999994
0.0004999989 -0.0004999994 -0.00049999874 0.00049999927

trunk.hidden_layers.1.thetas f4 [190]
00000000: 011b 33bf 64f1 e83f 56d9 e63e c985 b93e
00000010: b3d5 633e 4917 0f3f 80ff e03d d4e4 223d
00000020: 21c1 5dbf e902 2d3f e612 343e 4b98 5d3f
00000030: 93ab dabf a500 313f f104 ee3e c50c c63e
00000040: 4356 ef3e 69d6 8bbd 7bf0 1abe c0ce b9bf
00000050: 77ed b53d ddf4 ac3e 3198 1fbd ae6e 2cbf
00000060: b5ca 07bf 9b2e 15be b1e6 713f da79 a4bf
00000070: 198c c23f 6884 edbf 6d27 0bbf 26bd d2bf
00000080: a4d7 283f b623 f83f cda8 b6bf 4d45 8bbf
00000090: a6db 41bf e76e 043e 06fc 12bf e6ec 6cbd
000000a0: 78ca 8cbe 4da7 95bf 799d 42bf 3e3b 5ebf
000000b0: 01b4 b6bf bada 27bf 7ae1 f4be 400a 7bbc
000000c0: 960d 11ba 9142 99be e506 223f df49 fa3f
000000d0: 67b3 8b3f 3145 3f3e 4c27 9abf 4164 e7bf
000000e0: 167f abbf 930b 903f c2d4 723f f8cb 313f
000000f0: 5f20 2b3e d324 b2bf 3a65 993e 9998 bf3d
00000100: f32f 31bf 6d9f 23bf 269a f4bf 260f 2e3e
00000110: 66c1 823f 1288 10bc 57ae 3040 7112 ab3f
00000120: b47d 09c0 1057 413f 903f 00c0 4a56 62bf
00000130: 54da 00be a6cc 083f 8d8b 96bf 3414 5e3f
00000140: 1132 d83f ea73 a6be f2a6 383f 5b71 8ebe
00000150: 059e 183f 754a 0d40 770d 28bf 5275 9f3f
00000160: 8aa8 85be bb42 3bbf e946 12bf f9f8 95bf
00000170: f74c 0bbf 16e7 0abf 01e8 853f 5365 9a3f
00000180: f32f 693e c38e 71bf 49cd ae3c ca12 47c0
00000190: cbc2 333e 7cfb 06bf 8acd 423e 3294 60bf
000001a0: 834b c03e c068 bcbd 03ce d63e c0c3 1240
000001b0: 0bf9 dd3f f8fe 1ebf 851e 8ac0 3ff3 ed3d
000001c0: 03a7 233f ef17 373f 4485 0dbf 6ddc b53e
000001d0: 2bae 3c3f 7ddf 353f 8380 3e3f a8bd 66bf
000001e0: 5340 de3f 7a47 b53f cd5d 0cbe 3cac 26be
000001f0: 56db f9be 4c37 f4bf 97fb 273f 9681 89bf
00000200: 429b 1fbf 5f51 92bd d92d 053f c60f ae3f
00000210: ecd7 3ebd 943a a83f ad73 fabe 8a73 073f
00000220: 6219 bf3e ad55 b3bf 0764 3dbf e67d a0bf
00000230: 7d05 8e3f b494 1ebf 8809 a3be c4e0 53bf
00000240: 2a92 0cbe 1035 3c3e d15a b73c 38b3 c2bf
00000250: e71b ae3e dc13 bfbf 2c67 77bf 1f3c 04c0
00000260: 8f3f e4be ea93 04c0 4c18 fc3e c606 583f
00000270: e91e f3bc caf7 2e3f 7f42 3fbf 184a 993c
00000280: 654f 513f bbb6 b3bf d072 5fbf 1e0b 1cbf
00000290: 89f0 a4be e43b 7abe 5c6f a4be 9fde 743d
000002a0: 5100 f3be fcb4 14bf e040 073f 04c1 1d40
000002b0: 59ea 903f ae3d 51bf 98df 1840 873d 323f
000002c0: 4ade ecbd 04b2 923f 080b 183e 5b7f 3abb
000002d0: 5c06 2ebf 91ac e8be f14b b33f 37ca a2bf
000002e0: f44c 27bf e371 84bf ab09 01c0 dcf7 eabe
000002f0: c0d7 d73f 83e6 763f
-0.6996308 1.8198667 0.4508769 0.36234882 0.22249489 0.55894905 0.10986233 0.03976901
-0.86622816 0.67582566 0.17585334 0.86560506 -1.708361 0.6914161 0.46488145 0.38681617
0.467455 -0.06828005 -0.15130799 -1.451622 0.088831834 0.33780566 -0.0389635 -0.67356384
-0.5304368 -0.1456856 0.9449263 -1.2849686 1.5199004 -1.8556032 -0.54357034 -1.6463974
0.6595404 1.9385898 -1.4270264 -1.0880524 -0.7572578 0.12932931 -0.5741581 -0.05784311
-0.2749822 -1.1691681 -0.76021534 -0.86809146 -1.4273683 -0.65568125 -0.47828275 -0.015322268
-0.00055333355 -0.299336 0.6329177 1.9553794 1.0914124 0.18678738 -1.2043242 -1.807747
-1.3398159 1.1253532 0.9485589 0.69451857 0.16711567 -1.3917488 0.29960042 0.093552776
-0.6921379 -0.6391514 -1.9109542 0.16997966 1.021527 -0.008821504 2.7606409 1.3365003
-2.1482973 0.7552347 -2.0038795 -0.88412917 -0.12583286 0.5343727 -1.1761338 0.8674958
1.6890279 -0.3251031 0.7212974 -0.27820858 0.5961612 2.2076695 -0.65645546 1.2457678
-0.26105148 -0.731487 -0.5713945 -1.1716605 -0.54414314 -0.5425886 1.0461427 1.2062172
0.22772197 -0.9435846 0.021338122 -3.1105218 0.17554776 -0.52727485 0.1902372 -0.8772613
0.3755761 -0.09199667 0.4195405 2.2931976 1.7341627 -0.621078 -4.3162255 0.11618661
0.63926715 0.71520895 -0.5528147 0.35519734 0.7370326 0.7104414 0.74414843 -0.9013314
1.736338 1.4162438 -0.13707657 -0.1627664 -0.48800153 -1.9079375 0.6561827 -1.0742671
-0.6234628 -0.071444266 0.5202308 1.3598564 -0.046592638 1.3142877 -0.4891638 0.52910674
0.37324053 -1.4010521 -0.73980755 -1.2538421 1.1095425 -0.6194565 -0.3184321 -0.8276484
-0.13727632 0.18379617 0.022382172 -1.5210943 0.34005663 -1.4927936 -0.966418 -2.0661695
-0.4457974 -2.071528 0.49237287 0.84385335 -0.029677825 0.68346846 -0.7471084 0.018712088
0.8176177 -1.404014 -0.87284565 -0.60954463 -0.32214764 -0.24436909 -0.3211621 0.05978262
-0.4746118 -0.5808866 0.52833366 2.4649057 1.1321517 -0.8173474 2.388647 0.69625133
-0.11565836 1.1460576 0.14847958 -0.0028457257 -0.67978454 -0.45444158 1.400755 -1.2717961
-0.65351796 -1.0347255 -2.016215 -0.45892227 1.6862717 0.9644548

trunk.hidden_layers.1.bias f4 [20]
00000000: 4912 033a 5612 033a 6112 03ba 6212 03ba
00000010: 1b12 033a 5912 03ba 4d12 03ba 5512 03ba
00000020: 6012 03ba 2c12 033a 5a12 03ba 6612 03ba
00000030: bc11 03ba 2e12 03ba 5212 033a 4912 03ba
00000040: e511 033a 5812 03ba 4612 03ba 2b12 033a
0.0004999978 0.00049999857 -0.0004999992 -0.00049999927 0.00049999513 -0.00049999874 -0.00049999804 -0.0004999985
-0.00049999915 0.0004999961 -0.0004999988 -0.0004999995 -0.0004999896 -0.00049999624 0.00049999834 -0.0004999978
0.000499992 -0.0004999987 -0.00049999764 0.00049999607

trunk.hidden_layers.2.thetas f4 [190]
00000000: ab06 193f e0ce b73f 6262 ad3f e5f0 27be
00000010: 9913 94bf a78d 193f 663b 9e3f 13d3 a5bf
00000020: 7086 8c3f cc9e a23f 4e70 47bc 73fb 56bf
00000030: 9d74 0bbf c3a2 85be 1c66 03bf be7d bb3e
00000040: 3a8d 213f 7252 973f 4710 6d3f d379 8b3e
00000050: 2ccd 5fbf 223c b03e 2fc9 3cbf a7a0 a13f
00000060: 8b08 0abf 5a96 293f 1364 213f f9d6 9b3f
00000070: 22fe 723e d874 ce3f a4a6 73bf 38c3 793e
00000080: 8051 833f 75f4 5c3f dda1 40be d3c9 28be
00000090: 8566 8dbf b57a 3c3f c0a7 ae3e d1a0 063e
000000a0: e02e 7d3f 5b73 b3bf 0cc3 183f d2a9 47bf
000000b0: 26d7 42bf d479 cb3f 2cb6 94bf 5976 783f
000000c0: cc0e e8be 1e90 aabd f385 5ebf 3747 9dbf
000000d0: d7ec de3e aaab 933f 6dfb cc3e f4a5 afbe
000000e0: 375e 0fc0 7521 583f 20b1 023e ba34 8f3e
000000f0: b42c 253f 2e3a bdbe 1c3b df3e 252d d93f
00000100: 57c8 9fbf 40b7 bcbe b16f 453d 2126 14bf
00000110: ce9c 7cbf 2d54 153f 941b 5ebe f375 8dbf
00000120: fbc2 04be e8d5 f13d abfd b93f a35f 873f
00000130: 00a8 0bbf 2b90 e5bd d8dd 85bd 81a6 42bf
00000140: ae99 89bf 93b0 fbbf 1e20 bebe 297a 07bf
00000150: 5bc1 9d3f cd66 42bf f527 a53e 8e7e d23d
00000160: 27c3 723e 4a88 cfbe dea9 283c bc04 953e
00000170: b0b3 b43f 138d 12bf 9cf7 a53f 2d8c 5b3f
00000180: 5fa7 f9bf 2652 e0be f77d 8dbf 704d 343f
00000190: 6402 653f 2952 b3bf 2979 4a3d 74dc aabf
000001a0: 855b 673f b957 2abd 9348 7e3e c1e6 123f
000001b0: 7176 a5be 7243 c3bf 7645 e5bf 43be 1ac0
000001c0: 36ce 8b3e fb11 ecbf a15e 993e da8c ec3f
000001d0: c4a9 3fc0 e9aa e93f 9bf1 06bf 53e0 4ebf
000001e0: 23ab e9be a776 4c3e a611 ac3f 933d 393f
000001f0: b8ac b5bf 86ed 13be 8627 66be ad57 0340
00000200: 110a 20bf 08f4 52bf 3db4 d23f 6118 883f
00000210: 4012 f3bf 8cb9 f03e a467 bcbf e6e4 8dbf
00000220: efb6 acbf d25e 0cbd 527f 37bf 837d 773f
00000230: ecb6 833e b7a8 593f 5546 28bf 3e2d 71bf
00000240: a853 3fc0 3cd3 fa3e 1a4d 2ebf 8c12 433f
00000250: b975 07bf 2e83 e4bf 344b dabf 758b 773f
00000260: fb83 c03f 74a6 1cbf 33e2 fa3f e6fb 1c3f
00000270: 3fc9 e1bd 0aab 253f 132f ecbf 6613 a1bf
00000280: 2a6b 87bd 3e02 2c3f 6743 2dbf 8780 44bf
00000290: 6c07 fd3d 072f 80bf 113c 8c3f 886e 99bf
000002a0: 3b2a 0440 725a dcbf 83e2 ecbe 68f0 af3f
000002b0: c00c 9d3e fc7b 87be fe1f e2bf e705 aebb
000002c0: fea5 513f 84b9 31bf 649a 05bd 28e0 22be
000002d0: 33e5 7c3f 2b99 a23f 88e5 83bf ac09 e9be
000002e0: 1407 38bf 5a7a 4cbf d0e0 723d dba4 943e
000002f0: 0c95 90bf 113b 64bf
0.597758 1.4360008 1.3545649 -0.16400488 -1.1568481 0.5998177 1.2361877 -1.295504
1.0978527 1.2704711 -0.012172772 -0.8397743 -0.5447481 -0.2610074 -0.5132768 0.3661937
0.6310612 1.1822035 0.9260296 0.27241382 -0.8742244 0.34420878 -0.7374448 1.2627152
-0.53919286 0.66245043 0.63043326 1.217498 0.23729756 1.6129408 -0.9517615 0.24390876
1.0259247 0.8631051 -0.18811746 -0.1648324 -1.1046911 0.73624736 0.34112358 0.13147284
0.9889965 -1.4019579 0.5967262 -0.779935 -0.7610954 1.5896554 -1.1618094 0.97055584
-0.4532379 -0.083282694 -0.8692314 -1.2287358 0.4354007 1.1536763 0.40035573 -0.343063
-2.2401254 0.8442605 0.1276288 0.27969915 0.64521337 -0.3695845 0.43599784 1.6966902
-1.2483014 -0.3685856 0.04820222 -0.5787068 -0.98676765 0.5833157 -0.21690208 -1.105162
-0.12965004 0.118083775 1.4530538 1.0576061 -0.5455322 -0.112091385 -0.06536454 -0.76035315
-1.0750024 -1.9663261 -0.37133878 -0.52920777 1.2324632 -0.7593811 0.32257047 0.10278045
0.23707257 -0.40533668 0.010294406 0.29105175 1.4117336 -0.5724651 1.2966189 0.85760766
-1.9504203 -0.43812674 -1.1054066 0.7043066 0.8945677 -1.4009448 0.049431954 -1.3348527
0.9037402 -0.041587565 0.24832372 0.5738335 -0.32316926 -1.5254958 -1.7911823 -2.4178627
0.27305764 -1.8442987 0.2995501 1.8480484 -2.9947367 1.8255283 -0.5271241 -0.8081104
-0.4563838 0.19967137 1.3442886 0.7235958 -1.4193335 -0.14446077 -0.22476014 2.0522263
-0.6251536 -0.8240361 1.6461254 1.063244 -1.8989944 0.4701656 -1.4719129 -1.1085479
-1.3493327 -0.034270115 -0.7167865 0.9667589 0.25725496 0.85023063 -0.6573232 -0.9420966
-2.989481 0.48989284 -0.680864 0.76200175 -0.52914006 -1.7852533 -1.70542 0.9669717
1.5040277 -0.6119149 1.960028 0.61321867 -0.11024713 0.6471411 -1.8451866 -1.2584045
-0.06612237 0.6719092 -0.6768097 -0.7675862 0.12354931 -1.0014352 1.0955831 -1.1986856
2.0650775 -1.7215102 -0.46266565 1.3745241 0.3067379 -0.2646178 -1.7666013 -0.005310762
0.8189391 -0.694237 -0.03261794 -0.15905821 0.9878723 1.2702993 -1.0304422 -0.45515192
-0.718858 -0.79874194 0.05929643 0.29032025 -1.1295485 -0.8915263

trunk.hidden_layers.2.bias f4 [20]
00000000: 5712 033a 2912 033a 6312 03ba 5f12 03ba
00000010: 2312 03ba 4012 03ba 4212 033a 5912 03ba
00000020: 5412 03ba 5212 033a 4a12 03ba 6312 03ba
00000030: 2a12 03ba 9b11 03ba 5012 033a 3e12 03ba
00000040: 2412 03ba 4012 03ba 4312 03ba 5512 033a
0.0004999986 0.00049999595 -0.0004999993 -0.0004999991 -0.0004999956 -0.0004999973 0.0004999974 -0.00049999874
-0.00049999845 0.00049999834 -0.00049999787 -0.0004999993 -0.000499996 -0.0004999877 0.0004999982 -0.0004999972
-0.00049999566 -0.0004999973 -0.00049999746 0.0004999985

trunk.hidden_layers.3.thetas f4 [190]
00000000: 0e6c 06c0 b41a 69bf 0d11 b9bf e7d6 a23f
00000010: 574b eb3d dce6 bb3e 6e16 053f 8e4a 263f
00000020: 2dbc d93e 1cec 12bf 29b8 51be ea1b 92bf
00000030: 6474 f7be 6ca6 9fbf 3fe7 7cbd 5c56 9dbf
00000040: a631 7cbf f400 3f3e f99d 95bd 6c5a 033e
00000050: c7f7 843f 294b fbbe d5f9 3d3f 29b5 193f
00000060: d522 2fbf 67f8 a9be dfa7 753f cdd8 8a3f
00000070: 2273 1a3f bba2 3abf 80a7 803f 2eab 74bf
00000080: 53bd a43d dc76 b9bf 6861 23be e23a ffbe
00000090: db7a a33f 56b4 1dbf 8617 85bf 3072 a33f
000000a0: b1d5 a9be b762 d0bf 7117 193e 3eb7 3c3f
000000b0: 643b 3fbf c139 ea3d 962d 48bf 4d2d 93bf
000000c0: f562 93be 2a77 a8bf 154c 01bf 62b5 f83e
000000d0: 209c 473f e45f 1fbf 70a2 70bf 906f 893f
000000e0: c9ef a2bd 9092 36bf 3620 b9bd 693b 643e
000000f0: 14d9 a43f b554 5fbf eedc 39bf a4f8 a6bf
00000100: d892 8abf 3d49 033f dfc6 b8be 75a5 de3d
00000110: aeae 0dbe 9553 80be d7e0 b6be 07be 0d3f
00000120: 821a 753f c91c dbbf 9fba 563f cfa3 b73f
00000130: c5b0 8dbe 9c9d 84be 3846 25be 1f78 3d3e
00000140: dd0a 32be ca68 fa3e ca3c cfbc 0b58 283f
00000150: 9a99 d13e 7698 c33f 54c1 fbbe f501 6a3e
00000160: 50df 623e 5a40 513d f977 a53d 7a40 84bf
00000170: 9c56 d13f 0aba 54bf 087b ae3f 38a2 823f
00000180: 600b 45bf d328 ccbf 13cb 6ebf ba4b 953f
00000190: 6fe2 b8bf b795 f93d ab8f b1bf 3ca9 07bf
000001a0: 015a a8bd 2de3 7fbf dd54 b8bf aeda 19be
000001b0: 1489 f2bf 523a b73f 6ff5 dfbe 4860 0e3e
000001c0: e9cd 843b 2f4b 473f abce b63e cbc7 b8bf
000001d0: 04d8 963d 2e8f ec3e 3cdf 79bf f767 b93c
000001e0: fab3 a6bf c984 64bf f693 fc3e 94ed 413f
000001f0: 1115 823f a0ac 2f3e fbed 4e3f a65d 01c0
00000200: 4b3c 41bf 61ea 0ac0 dc44 38bf 8509 543f
00000210: cc49 dfbf a9f4 5cbe 22e6 c73e 6066 c6b8
00000220: 093a 273f fbe0 343e bd5e 12be 291e 2d3f
00000230: 4a15 c6bf 39a9 9f3f 4c28 2b3d 2831 bbbd
00000240: cca0 bfbe dbea 143f 2154 173f 1b62 bfbf
00000250: d7cf e43e f686 d33f 4256 1b3e 8d4b 903e
00000260: 2d94 bdbe 361c d5be d1ac afbf a84b a93e
00000270: e424 a73e 46e9 4d3f f099 87bf c15f 7d3e
00000280: 41e4 0040 b2cd b0be e639 84bd 0319 39be
00000290: e040 18bf bad4 7e3e 7c61 3bbf b7cf f43e
000002a0: fb4a 6dbf 6a1a a2bf 575e 91bf f3a3 92be
000002b0: bcca 2abf 1b21 3f3f 598f 273f ef96 4a3f
000002c0: a8de a6bf bbc7 eb3e fe86 a5be e981 af3e
000002d0: 1704 9d3d 555e 983c 0163 9ebf 0c36 5fbf
000002e0: 52f0 35be 3fc2 99be 8dbc 2a3f a52c e3bf
000002f0: 5a5d 463e 83ae 92bf
-2.1003451 -0.9105637 -1.4458328 1.2721833 0.11488979 0.3669957 0.5198735 0.6495751
0.4252638 -0.57391524 -0.20480408 -1.1414769 -0.48330986 -1.2472663 -0.06174397 -1.229198
-0.9851326 0.18652707 -0.073055215 0.12827462 1.0388116 -0.4908078 0.7420934 0.60042053
-0.68412524 -0.33197328 0.95959276 1.0847412 0.6033193 -0.72904557 1.0051117 -0.955737
0.08043923 -1.4489398 -0.15955126 -0.49849612 1.2771868 -0.61603296 -1.0397804 1.2769222
-0.33170846 -1.6280125 0.14950348 0.73717105 -0.747 0.11436797 -0.7819456 -1.14982
-0.28786436 -1.3161366 -0.50506717 0.48575884 0.779726 -0.6225569 -0.9399786 1.0737171
-0.07955892 -0.71317387 -0.09039347 0.22288288 1.2878747 -0.8723863 -0.72602737 -1.3044629
-1.0826063 0.5128363 -0.36089227 0.10871402 -0.13836166 -0.25063768 -0.35718414 0.55368084
0.9574357 -1.711816 0.8387851 1.4346865 -0.27673927 -0.25901496 -0.16140068 0.18502854
-0.17386957 0.48908073 -0.025297541 0.6575934 0.409375 1.5280902 -0.49170935 0.22852309
0.221555 0.05108676 0.080795236 -1.0332177 1.6354556 -0.83096373 1.3631296 1.0205755
-0.7697048 -1.5949959 -0.93278617 1.1663735 -1.4444102 0.12186759 -1.3871969 -0.52992606
-0.08220292 -0.9995602 -1.4400898 -0.15024826 -1.8948083 1.4314673 -0.43741938 0.13903916
0.0040528667 0.77849096 0.3570455 -1.4435972 0.073654205 0.46202987 -0.97606254 0.022632582
-1.3023674 -0.89265114 0.49331635 0.7575314 1.0162679 0.17155695 0.8083188 -2.0213408
-0.75482625 -2.1705554 -0.7198007 0.82827026 -1.7444396 -0.21577705 0.39042765 -9.4604446e-05
0.6532293 0.17663948 -0.14293952 0.67624146 -1.5475247 1.2473518 0.041786477 -0.09140235
-0.37427366 0.5817086 0.59112746 -1.4951814 0.4468982 1.6525562 0.15169623 0.2818264
-0.37027112 -0.41623086 -1.3724614 0.33065534 0.32645333 0.8043407 -1.0593853 0.24743558
2.0139315 -0.34531933 -0.06456356 -0.18075947 -0.5947399 0.24885836 -0.73195624 0.47814724
-0.92692536 -1.2664311 -1.1356915 -0.28640708 -0.667156 0.7465989 0.65453106 0.79136556
-1.3036699 0.4605082 -0.32329553 0.342788 0.07666796 0.018599669 -1.2373964 -0.87191844
-0.17767456 -0.3003101 0.66693956 -1.7748 0.19371548 -1.1459507

trunk.hidden_layers.3.bias f4 [20]
00000000: 5312 033a 4a12 033a 6412 03ba 5912 03ba
00000010: 2f12 03ba 0912 03ba 0c12 033a 5812 03ba
00000020: 4d12 03ba 0711 033a 3a12 03ba 6612 03ba
00000030: 5212 03ba 5d12 03ba 6012 033a 5e12 03ba
00000040: f211 033a 4612 03ba 5c12 03ba 4a12 033a
0.0004999984 0.00049999787 -0.0004999994 -0.00049999874 -0.0004999963 -0.0004999941 0.00049999426 -0.0004999987
-0.00049999804 0.00049997907 -0.00049999694 -0.0004999995 -0.00049999834 -0.000499999 0.00049999915 -0.00049999903
0.00049999275 -0.00049999764 -0.0004999989 0.00049999787
