src/data_driven/burgers/classical_training/model_checkpoint-10000.pt (torch, 54765 bytes, 60 tensors)

branch.hidden_layers.0.thetas f4 [210]
000000 e8 42 19 be 71 f9 77 bf f1 d7 3d 3f 1e b4 64 bf
       -0.14966929 -0.9686499 0.74157625 -0.89337337
000010 24 34 9b 3f e4 1f bb 3e bf db 75 bf ed b2 23 bc
       1.2125287 0.36547768 -0.9603843 -0.00999139
000020 de f0 0b c0 d3 c5 1e 3f 4f 21 e1 3e fe 3a 6e bd
       -2.1865764 0.62020606 0.43970725 -0.058161728
000030 a3 97 12 bf dc 05 ab 3d c9 4d 39 3f 15 80 22 bf
       -0.5726263 0.08350727 0.72384316 -0.6347669
000040 dd c4 15 3f ff 52 51 be 45 06 bf bf 86 34 07 bf
       0.58503515 -0.20441817 -1.4923788 -0.5281452
000050 63 0b 1f 3f 0f 0a 9e 3f 0c 92 8d be db f8 6e bf
       0.6212675 1.234682 -0.27650487 -0.93348473
000060 f5 a9 e7 3e 8c f7 91 3d 28 f7 0a 3f f1 0e 40 3f
       0.45246854 0.07127294 0.5428338 0.750228
000070 87 13 74 bf 59 b8 a9 bf 14 7a a3 be 39 80 8c 3f
       -0.95342296 -1.3259383 -0.31929076 1.097663
000080 01 6a ed 3e 0a 64 9d bf 27 f0 5f 3f 64 1a 80 3f
       0.46369937 -1.2296154 0.8747582 1.0008054
000090 5d 1d f8 bf f8 38 9c bf ce 00 c6 3f e3 fb 81 bf
       -1.9383961 -1.2204885 1.5468996 -1.0154995
0000a0 7f c9 64 3e 36 ab 8f 3e be dd d5 bf 83 97 38 bf
       0.2234249 0.2806031 -1.6708295 -0.7210619
0000b0 31 32 90 be 5e f1 0f bf 49 c5 b6 bf 42 95 3b bd
       -0.28163293 -0.5622767 -1.4278957 -0.04579664
0000c0 bb 08 35 3f 5b 3f aa be b3 f1 26 3f 8f 55 48 bf
       0.70716447 -0.3325146 0.65212554 -0.7825555
0000d0 45 85 86 3e ed ff da 3e 21 e6 87 3e 99 0c 80 bf
       0.26273552 0.4277338 0.26542762 -1.0003844
0000e0 69 90 0a 3e 05 fd c1 3f 5a 6e ec 3f 49 0a 80 bf
       0.1353165 1.515534 1.8471177 -1.0003139
0000f0 87 fd 8e bf 3c a5 8d bf e5 e4 74 bf 39 cd 12 bf
       -1.117112 -1.106605 -0.95661765 -0.57344395
000100 c3 8b 94 3b ff ce 4a 3f 17 96 64 3e 50 d0 89 3f
       0.0045332625 0.792221 0.2232288 1.0766697
000110 61 45 06 c0 8f 30 3b bf c3 5f e8 3e c8 c0 80 bf
       -2.0979846 -0.7312097 0.4538556 -1.0058832
000120 3c 07 30 40 b7 32 fb 3e 5b 42 05 3f b2 31 a4 3c
       2.7504416 0.4906213 0.52054375 0.020043228
000130 1f c9 5f bf eb d0 ca bf ab 9f 9d 3e be 74 b9 be
       -0.8741626 -1.5845007 0.3078588 -0.3622188
000140 df 27 92 3f 96 3f f8 bf ee 9d 2e bf 9f 8e c5 3f
       1.1418418 -1.9394405 -0.6820973 1.543415
000150 ec 1e db 3f a8 a7 95 be c2 cf a2 3f ad ff d2 bf
       1.7118812 -0.29229474 1.2719653 -1.6484276
000160 6f 17 e9 3f 5b 40 99 3f 2b aa 0d bf 1b 8d 57 3f
       1.8210276 1.1972765 -0.5533778 0.84199685
000170 5f 95 ec 3e 09 0f bb be 76 dd 18 3f 6a d5 d2 3f
       0.4620771 -0.36534908 0.5971292 1.6471379
000180 b7 9f df bf 35 60 43 3f 8e 0d 17 bf 40 6f 90 bf
       -1.7470616 0.76318675 -0.5900506 -1.1283951
000190 bf 7f 73 3e d3 ab 9f bf 9b 72 06 3b 4f 75 4f bf
       0.237792 -1.2474312 0.0020515088 -0.81038374
0001a0 33 7c 81 bf d8 d1 36 3d 6d 62 16 3f df ff be 3e
       -1.0116028 0.044633716 0.58743936 0.3730459
0001b0 12 8b b8 3d cf 18 10 3f 87 be d4 3f 92 de 0c c0
       0.090109006 0.56287855 1.6620644 -2.2010846
0001c0 85 39 a5 bc 12 b0 50 3f 66 79 66 bf 85 01 16 bf
       -0.020169029 0.8151866 -0.9002899 -0.5859607
0001d0 68 df 32 bf 4b 7f 9c 3f f9 78 5b bf f8 3d 8d 3f
       -0.6987214 1.2226347 -0.85731465 1.1034536
0001e0 ff 8e d6 3e 8d 42 be be 46 73 68 bf 42 ee 7f bf
       0.41905972 -0.3716015 -0.90800893 -0.9997293
0001f0 ce 49 4b 3f ee 2f 33 3f 5c 05 bc bf f2 8a b0 be
       0.7940949 0.6999501 -1.4689136 -0.34481007
000200 b4 d8 36 3d 22 f5 7f bf 60 03 bb 3e 97 df e8 3f
       0.044640258 -0.9998342 0.36526012 1.8193234
000210 dc aa 2a 3f e1 cc 6f bf 62 80 6e be 6d 3c 24 be
       0.6666696 -0.93671995 -0.23291162 -0.16038676
000220 44 48 34 bf b0 ff 79 be 58 8a 82 bf 37 91 2e be
       -0.7042277 -0.24413943 -1.0198469 -0.17047583
000230 02 26 33 3f 60 b6 8b 3f d2 4e 24 bf f0 43 22 3f
       0.6997987 1.0915031 -0.6418277 0.63384914
000240 77 1f e2 3e a0 6c 67 3f d7 46 16 3f 2a ef 0c 3f
       0.4416463 0.90400124 0.58701843 0.55052435
000250 ea f9 4c 3f ad 73 b4 be b4 0a 5b bf e4 0f c1 3f
       0.8006884 -0.35244504 -0.85563207 1.5082974
000260 cd f2 d2 3f cb b6 f8 3e 7e b2 52 bf 21 58 9d bd
       1.6480347 0.4857696 -0.8230361 -0.07682825
000270 5b 7b f7 be 7e 81 9f 3f 07 38 1a 3f fa 10 08 c0
       -0.483363 1.2461393 0.6024174 -2.1260362
000280 b3 4b 5a 3e c5 fa 62 3e 0d b0 cf bf 8f 44 a2 bf
       0.2131794 0.22165973 -1.6225601 -1.2677172
000290 07 bb 2e 3f 40 92 08 40 78 42 e9 3e bb a5 17 3f
       0.6825413 2.1339264 0.45558524 0.5923726
0002a0 bb bc 02 bd 41 8e d9 3d f5 8f ae 3f 27 84 3b 3e
       -0.03191827 0.10622836 1.3637682 0.18312131
0002b0 80 05 58 bf 89 c9 da be 3a 80 35 bf 9a 92 d7 3e
       -0.8438339 -0.42731884 -0.70898783 0.42104036
0002c0 f2 ee 42 3f 6d 97 8d bf 6a 41 9e 3f 39 09 c3 3f
       0.7614585 -1.1061836 1.2363713 1.523719
0002d0 8e 50 80 bf db ae bf 3f b5 a9 c6 bf ca be 1d 3f
       -1.0024583 1.4975237 -1.552054 0.61619246
0002e0 67 84 29 3f 03 65 38 3e cb c6 83 bf cc 88 2b be
       0.66217655 0.18007283 -1.0295042 -0.16751403
0002f0 00 52 a3 3d 0a 12 ab 3f cc 8a 89 bf 59 a1 10 bf
       0.07974625 1.336488 -1.0745482 -0.56496197
000300 e2 da 77 bd 19 4e 22 bf 67 cd da bd ed f5 89 3e
       -0.060511477 -0.6340042 -0.10683709 0.2694544
000310 7a 4f 09 bf ef 64 9b 3f 5a da e1 3e 04 0d ab be
       -0.53636897 1.2140177 0.44111902 -0.33408368
000320 0b 5b 80 bf 52 5b a5 3f 0c 98 ba 3f f4 58 f5 3f
       -1.0027784 1.2918494 1.4577651 1.9167771
000330 9d c1 ff be be fd 02 c0 54 d4 3d 3f 0c 4e ab 3e
       -0.49952403 -2.0467372 0.7415211 0.33457983
000340 b5 13 51 3f 5c b4 2b 3e
       0.81670696 0.1676802

branch.hidden_layers.0.bias f4 [20]
000000 a9 5e 91 3d fa 1d 0a 3e 39 8c 85 3e 18 c2 a5 3d
       0.07098133 0.13487998 0.26083544 0.08093661
000010 60 79 f6 3a ca 8d 21 3e 54 e5 06 3e 67 eb dd 3d
       0.0018804483 0.15776744 0.13173419 0.10835915
000020 22 bb 95 3d 42 d5 a7 3e 0b 67 5b 3e 1d 88 89 3d
       0.073110834 0.3277989 0.21426027 0.06715415
000030 26 70 da 3d c8 5b 86 bd f7 68 d4 3c 31 4f b0 3e
       0.10665922 -0.06560475 0.025928957 0.34435418
000040 5e 32 d9 3d 83 95 66 3e 68 21 2e 3e 9d 6b 18 be
       0.1060531 0.22517972 0.17004931 -0.14884801

branch.hidden_layers.1.thetas f4 [190]
000000 e2 7c f3 be 23 da 35 3f e8 ec ff 3f a9 8c 13 3f
       -0.47556216 0.71035975 1.9994173 0.57636505
000010 22 ab ea be ed 31 03 3e b3 b1 76 be 80 1a 7e bf
       -0.4583369 0.12812014 -0.24091224 -0.99259186
000020 28 18 d9 3d 65 fd 57 bf 7f 7c 5c 3f fc 65 84 3f
       0.106003106 -0.84371024 0.86127466 1.0343623
000030 3f a3 7b 3f d1 9c 93 3f 32 ff 85 bc 75 6b bf bf
       0.9829597 1.1532232 -0.016357038 -1.4954668
000040 60 19 71 3f 85 1d d1 3d 97 11 86 3e c6 d2 6c bf
       0.94179344 0.102107085 0.26185295 -0.92509115
000050 71 11 e7 3d 6f 57 cb be c8 55 86 3f 90 0e 7c 3f
       0.112826236 -0.39715144 1.0494928 0.9845972
000060 d9 de 88 3f e6 3f 39 bf fe 04 12 40 35 84 c9 3d
       1.0693008 -0.72363126 2.2815547 0.098396696
000070 9b a6 db be b3 42 4b be b7 21 8a bf f5 7c 93 3f
       -0.42900547 -0.19849662 -1.0791539 1.1522509
000080 30 7f 02 40 3c c6 0b 3f 7e 21 8a bf 3b 13 31 bd
       2.039013 0.54599357 -1.0791471 -0.04323123
000090 53 87 79 bf d2 14 f0 3f 45 0d 1e be dd 51 38 3f
       -0.97472113 1.8756354 -0.1543475 0.71999913
0000a0 00 f0 50 3f af 91 f8 3f 17 2b fb 3e 51 02 7f 3e
       0.8161621 1.9419459 0.49056312 0.24903227
0000b0 ce 27 a8 be 9a be c4 3e ab ef 9a bf 8e 09 ee 3e
       -0.3284287 0.38426667 -1.2104391 0.46491665
0000c0 12 c1 b5 be fe 8d 08 bf c6 13 8d 3f c5 07 5d 3f
       -0.35498863 -0.5334166 1.1021659 0.8633998
0000d0 05 4c cd be d9 a4 18 bf 35 3a b9 3d 84 47 f2 3f
       -0.4009706 -0.5962654 0.09044305 1.8928075
0000e0 41 3d 76 3f 64 e3 7d bf a2 4c 70 bf 1e cd 73 bf
       0.96187216 -0.99175096 -0.9386693 -0.9523486
0000f0 99 c5 d3 bd 32 cc 4e 3f 7b 1a 28 3f 0c ad 52 bf
       -0.10340423 0.8078033 0.65665406 -0.822953
000100 d2 e8 1b bf 7a b7 48 3f 9e 03 e4 3d 02 46 22 40
       -0.6090213 0.78404963 0.111335024 2.535523
000110 4b 83 49 bf d2 1b 60 3e 2a 5f 2b bf 03 b2 2f 3f
       -0.7871596 0.21885613 -0.66942084 0.68631
000120 89 8d 5c bf 5e dd 5c bf 0b a1 6b 3f e7 18 2a bf
       -0.86153466 -0.8627528 0.9204261 -0.6644425
000130 e5 80 67 3f 26 5e 3f bf 37 cc 5b 3f e6 15 97 3f
       0.9043105 -0.74753034 0.8585848 1.1803558
000140 e3 21 95 be 74 ca cb 3d 9b 9f a6 be 8c a9 13 bf
       -0.29127416 0.09950724 -0.32543644 -0.57680583
000150 e5 ff 31 3f eb b0 39 3f fc 15 1f 3f 7a 6d e5 bf
       0.6953109 0.7253558 0.6214292 -1.7924035
000160 04 78 fa bc f2 24 92 bd dd 62 15 be c8 7b 96 bf
       -0.030574806 -0.07135953 -0.14588495 -1.1756525
000170 0f 70 bc be 23 62 a8 3f fb 2a 9b bf c4 d1 48 3f
       -0.36804244 1.3154949 -1.2122492 0.78445077
000180 18 59 00 3f ab 92 b5 3f b6 6f f2 3e bd 43 28 bf
       0.50135946 1.4185385 0.47350854 -0.6572836
000190 0b 1e 45 3f a8 82 02 c0 bb 5a d7 3e 18 40 ff 3e
       0.76998967 -2.0392246 0.4206141 0.49853587
0001a0 6a 18 55 3d ea 9a 54 40 47 30 c2 be 28 b1 62 bc
       0.052025236 3.3219552 -0.37927458 -0.013836183
0001b0 5b 20 d0 be 83 79 a7 3f a7 90 aa 3f 92 33 18 bf
       -0.40649685 1.3083957 1.3325394 -0.5945369
0001c0 c2 ed 3b bf 86 11 1f c0 04 9d be be f2 b6 93 bf
       -0.73409665 -2.4854445 -0.37229168 -1.1540205
0001d0 66 be e6 be 33 e0 d8 be e6 89 b1 bf 2d 99 d3 bf
       -0.45067137 -0.4235855 -1.3870208 -1.653112
0001e0 3e 5f 84 bf 5d a4 e5 be 70 40 86 3d c3 43 80 3d
       -1.0341566 -0.44851962 0.06555259 0.062629245
0001f0 df 29 83 be b8 2e 0a bf c2 b0 f7 bd 8d 29 bd be
       -0.25617883 -0.5397754 -0.12094261 -0.36945763
000200 1b 16 60 3f 28 c3 04 3e 2f b1 a1 bf a5 9d f9 3e
       0.8753373 0.12965071 -1.2632197 0.48753086
000210 70 56 cb bf 4b cb ac 3e a4 06 9b be 08 69 3c 3f
       -1.5885754 0.3374885 -0.30278504 0.73597765
000220 7d cd 94 3f cb 08 98 3f dc ee d7 3f 2a 46 94 3d
       1.162521 1.1877683 1.6869769 0.07239945
000230 a3 0d c2 3f 04 74 ce bd 94 bf b2 3f 89 35 13 3f
       1.5160412 -0.10080722 1.3964715 0.57503563
000240 3e 10 1f 3f bc f6 e2 bf bb 49 ec bf 34 22 ad bf
       0.6213416 -1.7731547 -1.8460001 -1.3526063
000250 ec 22 44 3f eb ed b6 3f 0e e1 80 be 64 b8 a0 3e
       0.76615787 1.4291357 -0.25171703 0.3139068
000260 ea 7b f9 3e 4f 85 e3 be 3f dd 43 bc 80 2b 5d 3f
       0.4872735 -0.44437644 -0.011954605 0.863945
000270 34 dc 11 3d af 4a 93 bf 20 50 9d be b4 2c 9d 3f
       0.035610393 -1.1507167 -0.30725193 1.2279267
000280 55 71 55 be 10 69 57 be 47 a0 a6 3e 1b e0 43 bf
       -0.20844014 -0.21036172 0.32544157 -0.7651383
000290 8b 46 db 3f 13 7e 1f 3e df 46 e3 3d 4b 1f 0a 40
       1.7130903 0.15575437 0.11097502 2.15816
0002a0 68 cb 8a bf 2b ba 3f be 6f 4e 1b bf b5 a0 17 3f
       -1.0843325 -0.18723361 -0.60666555 0.59229594
0002b0 3c b4 80 3e 5c 60 92 3f 87 93 02 40 62 96 8d 3e
       0.25137508 1.1435657 2.0402544 0.27653795
0002c0 14 99 fc be b3 4e d7 bf 77 59 89 3f af b2 0c 3f
       -0.4933554 -1.6820892 1.0730428 0.5496015
0002d0 72 52 63 bf fe f8 c5 bf e8 96 d6 3d 64 5c d8 3f
       -0.88797677 -1.5466611 0.10478002 1.6903195
0002e0 26 d2 0a 40 ed 31 d9 bf cb ba d2 3f 04 10 3c bf
       2.1690764 -1.6968361 1.6463255 -0.7346194
0002f0 0d 3d 58 3f ff b9 99 3e
       0.84468156 0.30024716

branch.hidden_layers.1.bias f4 [20]
000000 54 2c a6 3d 17 47 9b 3d 38 fa 9d bb 5a db cc 3d
       0.08113924 0.07581919 -0.004821088 0.100027755
000010 5b 8d fe 3d 8c 6b bd bc 89 04 07 3e 89 6c a5 3d
       0.12429305 -0.023122571 0.13185324 0.08077342
000020 b0 d8 e1 bd 50 fb 7b bb c9 be 57 bc 4b 34 80 3d
       -0.11027658 -0.0038449354 -0.013168045 0.06259974
000030 48 d4 06 3d 3d 1d fb bd d0 64 7c bd 15 f7 7a 3d
       0.03291729 -0.12261436 -0.06161958 0.061270792
000040 3f 0d f4 3d 9e 6c 20 3e f5 6e 53 3e a4 9b 3e be
       0.11916589 0.15666434 0.20647795 -0.1861406

branch.hidden_layers.2.thetas f4 [190]
000000 57 57 6a 3f ec da 49 bf 1e 70 b8 3d 77 10 ab bd
       0.9153952 -0.78849673 0.0900576 -0.0835275
000010 45 50 be bf 62 22 e0 3d f5 da 9f 3e 58 44 18 40
       -1.4868246 0.10944058 0.31221738 2.3791714
000020 08 7a 8f bf 1e 69 0b 3d c7 c2 21 3f 4c 33 04 c0
       -1.1209116 0.034035794 0.6318783 -2.065631
000030 5c 18 d1 3f b6 cd a1 3e 3d 94 b1 bf 65 34 6d 3e
       1.6335559 0.31602257 -1.3873364 0.23164518
000040 30 d3 01 be 0c 54 9e 3e 6b c3 48 be 5d 67 38 3f
       -0.12678218 0.30923498 -0.19605796 0.7203272
000050 ae 84 bd 3f fc ed d3 be 05 e2 8e 3f 28 70 63 3e
       1.4806116 -0.41392505 1.1162726 0.22210753
000060 f2 b7 a4 bf 82 10 5c be 73 23 31 3c 3b 10 47 40
       -1.2868636 -0.21490672 0.010811674 3.1103656
000070 7c 2e 46 bf 63 d6 80 3f f9 c5 aa be 18 b1 fb 3f
       -0.7741468 1.0065426 -0.33354166 1.966342
000080 74 47 85 3d b1 a9 1a 40 0a 86 5b bf ea e8 58 3d
       0.06507769 2.4166071 -0.857514 0.0529565
000090 a4 61 f5 3e 74 42 6d bf 81 53 3c 3e d9 e7 ae 3f
       0.47926056 -0.92679524 0.18391229 1.3664504
0000a0 32 62 dd bf 53 07 ab bf f2 ad 92 bd b7 0c 17 bf
       -1.7295592 -1.336161 -0.07162084 -0.59003776
0000b0 95 4b 6b 3e 82 22 23 be bc ac f7 3e 10 6f 49 bf
       0.22978051 -0.15931132 0.48373973 -0.7868509
0000c0 57 17 0a bf 85 4e a6 3e 3d 94 12 bf 23 75 7a 3f
       -0.53941864 0.3248178 -0.57257444 0.97834986
0000d0 67 48 a5 be d3 fa 6f bf 4c 16 28 3e ba 30 e1 3e
       -0.322818 -0.937421 0.16414756 0.43982488
0000e0 ec 0e cd 3e 72 e5 91 3f 76 d2 08 be 1d e1 19 be
       0.40050447 1.1398146 -0.13361534 -0.1502728
0000f0 44 d6 44 3f c6 ac 8a bd 68 e9 93 3f 5e 18 b6 3d
       0.76889443 -0.06771235 1.1555605 0.088913664
000100 6a 4d 1b 3f bc 2b 21 3d 8d b2 18 3f 25 a1 d0 bf
       0.60665 0.03934835 0.59647447 -1.6299177
000110 4d 33 24 bf d9 fb 1f bf e9 e6 46 c0 8f c3 80 bf
       -0.6414078 -0.62493664 -3.1078436 -1.005968
000120 d3 44 c8 3e 88 a6 1e 3e fd 3c 6e bf 57 cf 9d bf
       0.3911501 0.15493214 -0.9306181 -1.23289
000130 90 f0 59 bd 58 b7 2d bf dd 10 8d 3e 82 1a 69 3e
       -0.053207934 -0.67857885 0.27551928 0.22764018
000140 8a 7c 2a 3e 87 39 2e 3f ae 7f 25 3f 4e d4 62 3e
       0.1664907 0.6805653 0.6464795 0.221513
000150 d8 a3 77 be ee f1 78 3e 1e 10 0c 3e 99 61 9e bf
       -0.24183595 0.24311039 0.13678023 -1.2373534
000160 9c 32 1c 3f fe 83 84 3f 6f 03 67 bf 02 95 ae bf
       0.61014724 1.0352781 -0.90239614 -1.3639224
000170 b7 e8 87 3f 26 4b 61 3f b7 61 77 3f 05 3a 94 be
       1.0617894 0.8800529 0.96633476 -0.28950515
000180 bd 2b a3 bd 66 72 0a 39 bc a7 80 bf 0b e6 33 bf
       -0.07967327 0.00013203322 -1.0051188 -0.7027289
000190 46 35 de 3f 56 ec 91 3f a0 8c 75 3e ea 0e 5f 3f
       1.7360008 1.1400249 0.23979425 0.8713213
0001a0 fe 8f c2 bd 97 4c ae 3f 40 6e e3 3f 31 da cd 3e
       -0.095001206 1.3617123 1.7768021 0.4020553
0001b0 9c bc a7 3f 38 a0 9d 3f a3 f2 01 bf a5 b0 9f be
       1.3104434 1.231452 -0.5076086 -0.31189457
0001c0 f0 fb 75 3f 31 ec 83 3f d8 75 5c bf 97 49 32 3f
       0.9608755 1.0306455 -0.86117315 0.6964354
0001d0 62 99 8b 3f c9 a6 9b 3f 6a 1a ad bf a2 a1 2f 3f
       1.0906184 1.2160274 -1.3523686 0.6860601
0001e0 4b 3e 85 3e 7a fc 0f bf 62 80 c2 3f cd ba b3 be
       0.26024088 -0.56244624 1.5195429 -0.35103455
0001f0 8d f4 c2 bf 9b 27 d6 3f 1c 72 a5 3f 26 36 80 be
       -1.5230881 1.6730837 1.2925448 -0.25041312
000200 46 03 32 bf 65 9a f2 bd 72 cb 7b bf 33 31 7f 3e
       -0.69536245 -0.11845855 -0.9835731 0.24921112
000210 71 0a e7 3e 7a 62 4e 3f d1 60 9e be 9d a3 16 3f
       0.45125154 0.80619013 -0.3093324 0.58843404
000220 4b 47 14 3f 58 41 53 bf db c4 b2 3e b0 2d 45 be
       0.57921284 -0.8252158 0.34915814 -0.1925571
000230 04 17 18 bf c6 14 9a 3f 59 4d c2 bf 62 25 00 3f
       -0.5941012 1.203759 -1.5179855 0.5005704
000240 98 a5 27 3f b9 98 53 bf 61 f6 ae be 3b bc 3c be
       0.6548705 -0.8265491 -0.34172347 -0.18431179
000250 e7 74 13 bf 1d ae 08 3f cf ec b5 3d 3a 88 a0 3e
       -0.57600254 0.53390676 0.08883058 0.31353933
000260 48 49 46 40 8a d4 2b 3f 80 93 85 bf a3 5b 8e bf
       3.0982227 0.67121184 -1.0435638 -1.1121715
000270 88 b3 ba bf 92 a1 82 bf ce d4 c7 3e a3 c7 92 be
       -1.4586039 -1.0205557 0.39029545 -0.28667936
000280 5c 60 58 bf 64 d9 7c 3f 29 65 6d 3e f5 d0 2d 3f
       -0.8452203 0.9876921 0.23183121 0.6789697
000290 c9 fa c7 3e 3e 19 4a be 95 4a 73 be d0 f4 02 40
       0.3905852 -0.19736192 -0.2375892 2.0461922
0002a0 59 f5 9d be 8d 9e 22 3f c1 7d 89 be da 57 5f 3e
       -0.30851248 0.6352318 -0.26853755 0.21810856
0002b0 36 94 f1 3e d0 97 47 3e 42 5d 91 3f ee 3c ef 3f
       0.47183388 0.19491506 1.1356585 1.8690469
0002c0 97 eb e6 3f a8 d1 bd 3e 21 3a d6 3b e0 77 43 3f
       1.8040646 0.37074018 0.006537691 0.7635479
0002d0 bc fe 46 bf 0e 4b c5 3f 8d 98 6c 3e aa 2e 53 be
       -0.77732444 1.541353 0.23105069 -0.2062327
0002e0 1c dd 15 bf b7 b7 38 bf f9 49 a4 be 3a 48 c2 3d
       -0.5854051 -0.72155327 -0.32087687 0.094864324
0002f0 eb ba a5 3e c6 03 11 bf
       0.3236917 -0.5664638

branch.hidden_layers.2.bias f4 [20]
000000 81 26 da bc fa 98 8d 3d e3 ed be bd d2 5b 8e bc
       -0.026629688 0.069139436 -0.09322717 -0.017377768
000010 4c e9 99 3d 54 0d 6a be 8d e6 7b bd 95 2d cd 3d
       0.07515201 -0.22856647 -0.061499167 0.1001846
000020 7a 24 bd 3c 0b a6 db bd 86 dc 26 3e eb 70 3e 3d
       0.023088682 -0.107250296 0.1629506 0.046494406
000030 8a 9e 03 3d e0 6c f8 3d 9d 1a f2 bd a5 c0 66 be
       0.032133617 0.12130141 -0.11821482 -0.22534426
000040 cc d1 19 be f6 5b a5 be 2c 44 71 be 4f 8a 3b be
       -0.15021437 -0.32296723 -0.23561162 -0.1831448

branch.hidden_layers.3.thetas f4 [190]
000000 02 d4 24 3e 5d 5a b1 3e 28 3a 41 bf 33 ad 74 40
       0.160965 0.34639254 -0.75479364 3.8230712
000010 96 e4 83 3d 28 36 a7 bf c5 3c 35 be 51 00 87 bf
       0.06440084 -1.3063402 -0.17698963 -1.0546972
000020 b7 de 1b 3f 63 78 62 bd 1a 05 9c bf 7a da 89 bf
       0.6088671 -0.05529059 -1.2189057 -1.0769799
000030 4c 02 37 bd 1d 8e cb 3f 82 e3 08 bf 2d 4f c7 3f
       -0.044679925 1.5902745 -0.5347215 1.5571038
000040 45 4c 95 3f 01 4b 9f bf 8f 4c 59 bf 3e c3 57 bf
       1.1663901 -1.2444764 -0.84882444 -0.8428229
000050 30 46 b1 bf 8d 92 03 3f ee 4c ed 3f 75 00 c8 3f
       -1.3849545 0.51395494 1.8539102 1.562514
000060 2c 70 23 bf 8d 8a 84 bf d3 25 0d bf a5 d3 0c 3e
       -0.63843036 -1.0354782 -0.5513584 0.13752611
000070 11 99 1b bf 0d 03 60 3e 97 ee 0e 40 24 ec 92 bf
       -0.60780436 0.21876164 2.2333124 -1.1478314
000080 b4 65 5e bf 88 d4 2b bf 1d a6 f9 3f ff a3 bb be
       -0.86873937 -0.6712117 1.9503819 -0.36648557
000090 b2 98 44 be d6 30 d0 bf ba 06 c1 3f e9 c8 8f bf
       -0.19198874 -1.6264904 1.5080178 -1.1233188
0000a0 59 28 27 3f d9 29 c4 bb 87 ef 20 c0 26 54 5a bf
       0.6529594 -0.005986434 -2.5146196 -0.8528465
0000b0 89 d9 b2 bf 15 03 bc be 9e f6 20 bf 8d 15 df be
       -1.3972636 -0.367211 -0.6287631 -0.4357113
0000c0 ad 99 94 be ee 66 cf be 54 6d e0 be 4d 8c 92 bf
       -0.29023495 -0.40508217 -0.4383341 -1.1449066
0000d0 50 48 27 bf fa 25 c5 be 18 19 0d bf 9b 97 a2 be
       -0.65344715 -0.38505536 -0.55116415 -0.3175629
0000e0 fd 73 f8 bc d4 76 e5 bf d4 62 b0 3f dc 69 25 3f
       -0.030328745 -1.7926888 1.378016 0.64614654
0000f0 28 ba 1d bc 32 ee b8 3d 53 ed 4c 3f eb 09 23 bf
       -0.009626903 0.09029807 0.8004963 -0.6368701
000100 44 80 c1 bd c3 72 46 be ef 0c d5 bf 7a 94 5e 3e
       -0.09448293 -0.19379716 -1.6644572 0.21736327
000110 7a 6a 6e be cb 58 0f c0 6c c4 dd be e9 2d af bf
       -0.23282805 -2.2397945 -0.4331392 -1.3685886
000120 0d 62 e0 3e 22 9f 94 3e 47 c1 74 3f 66 d5 73 bf
       0.43824807 0.2902766 0.9560742 -0.95247495
000130 91 83 56 bf 6e 8c 45 3f a7 01 39 bf 78 37 1b bf
       -0.83794504 0.77167404 -0.72268146 -0.60631514
000140 7e 93 4c 3f cf 1d b2 3e c2 c1 8e 3f d5 f1 ca 3f
       0.79912555 0.34788367 1.115288 1.5855051
000150 1a 53 03 c0 4c 43 36 3f f8 f5 66 3f 65 24 92 3f
       -2.051947 0.71196437 0.9021907 1.1417357
000160 8c fb 2c bf db f4 fa be 57 d9 3b bf 10 78 87 be
       -0.6757133 -0.49014935 -0.7337851 -0.26458788
000170 f2 a0 e7 bf 76 aa 86 be 89 3d 24 3f 6d eb a7 3f
       -1.8095992 -0.26301926 0.64156395 1.3118721
000180 40 0a 5a 3d 05 50 b1 3f 80 ff b2 3e 7e 0f 9a be
       0.05323243 1.3852545 0.34960556 -0.30089945
000190 9c 57 30 3e 18 8b 2a 40 f1 cd 8c bf 4e 03 3d 3f
       0.1722092 2.6647396 -1.1000348 0.7383317
0001a0 ad ac 2e 3e fc 97 4e c0 bd 88 8e 3f ad ca 82 bf
       0.17058058 -3.2280264 1.1135479 -1.0218102
0001b0 16 3f 62 3f bd 96 8d bf 73 72 4b bf 90 da 85 3f
       0.8837751 -1.1061627 -0.7947151 1.0457325
0001c0 f2 6a 76 be 46 e4 02 bf 47 36 83 be 2e 3f ff be
       -0.24064234 -0.5112957 -0.25627348 -0.4985289
0001d0 fa 34 18 bf c9 f4 4d be d2 4d c1 3e ee 43 76 bf
       -0.59455836 -0.2011291 0.37754685 -0.961974
0001e0 dc df 02 be a0 e3 a2 3d b5 94 77 3f 50 a6 18 bf
       -0.12780708 0.07953572 0.96711284 -0.5962877
0001f0 34 1b 01 40 0c d2 54 3f 37 68 22 bf 16 d9 9f 3f
       2.0172853 0.83133006 -0.6344027 1.2488124
000200 77 16 da bf ac 7a 42 bf 3b 9a 7e bf c1 01 08 3f
       -1.7038106 -0.7596843 -0.99454087 0.53127676
000210 d8 07 17 3f 68 27 72 bf bb 5b 10 3e 8c 84 05 3f
       0.58996344 -0.9459138 0.14097492 0.52155375
000220 18 00 86 3e 35 87 ea 3f 8f b8 7d 3e 74 a0 a7 bf
       0.26171947 1.8322512 0.24777435 -1.3095841
000230 60 e0 b8 3e 8f 56 3e 3f e6 63 4f 3f 08 e3 42 bf
       0.36108685 0.7435083 0.8101181 -0.7612767
000240 c7 01 e4 3f 78 a8 8f be 47 ae 9d 3f ba 80 3b bf
       1.7813042 -0.2805822 1.231881 -0.73243296
000250 ae 01 2d bf ba 06 b4 bc ef ba 9f be 66 2f fb bf
       -0.6758069 -0.021975864 -0.31197307 -1.962384
000260 3f 5c 2f 3f b5 e5 03 c0 3e 83 f0 be 7a 31 92 be
       0.6850013 -2.0608952 -0.4697513 -0.28553373
000270 a1 91 e2 3f eb 9c e3 bf 8c 3e 99 bd 29 4f 20 be
       1.7700692 -1.7782263 -0.07482633 -0.15655197
000280 21 f3 38 bf bf 75 4b bf 78 30 91 3f 40 9f bb bf
       -0.72245985 -0.7947654 1.1342916 -1.4657974
000290 d8 d5 44 bf 76 72 65 c0 5d 5a c8 3d 97 bc b6 be
       -0.768888 -3.5851111 0.097828604 -0.35690758
0002a0 0c 18 72 3f c9 a1 35 40 89 09 9f bf 04 49 84 bf
       0.9456794 2.8379996 -1.2424785 -1.0334783
0002b0 42 86 19 3f 59 a6 9f bf ba 45 9f bf 0b ee 8b be
       0.59970486 -1.247264 -1.2443154 -0.2733005
0002c0 a1 63 3d 3f 93 f3 68 3e db 12 3c bf 23 bc ac bf
       0.73980147 0.22749166 -0.7346627 -1.3494915
0002d0 cb 9c 51 40 80 dc 21 3f b3 6c 92 3e 5e 96 11 bf
       3.275195 0.6322708 0.28598556 -0.5687007
0002e0 06 ce 87 bf c8 06 32 bf 1b 31 aa bf ab bf 42 3f
       -1.0609748 -0.695416 -1.3296236 0.7607371
0002f0 6a c1 c0 3f c0 87 34 3e
       1.5059025 0.1762991

branch.hidden_layers.3.bias f4 [20]
000000 09 53 f1 3d e5 12 c0 3d 55 4b 14 3e 2d cd 8a 3d
       0.11783416 0.09378604 0.14481862 0.067774154
000010 85 71 b9 3d b1 a3 a4 3d 44 a2 9d 3d f7 6d db 3d
       0.09054855 0.08039034 0.07696965 0.107143335
000020 10 f0 01 3e 17 36 c6 3e 8a 26 df 3d 8e 31 05 3e
       0.12689233 0.38713142 0.108960226 0.13007185
000030 44 5a 5b 3d 40 4b 0c 3e 02 94 01 3e c1 ee cc 3e
       0.05355288 0.1370058 0.12654117 0.40025905
000040 93 cd 76 3b fd 0f fc 3d ab 0e 00 3d 1d 20 a0 3d
       0.0037659153 0.12307737 0.03126399 0.07818625

branch.output_layer.weight f4 [20, 20]
000000 6a 99 1f bd 37 c8 d7 be b6 c7 b6 be 71 cb 63 be
       -0.038964666 -0.4214494 -0.35699242 -0.22245575
000010 9e 3a e1 3d bb 0f 88 bd ca c3 8c 3d 1b dd 85 be
       0.109975085 -0.06643625 0.06873281 -0.26145253
000020 70 21 12 be 8a 0f 90 3d 75 89 c2 3e 7b 97 62 be
       -0.14270568 0.07034214 0.37995496 -0.22128098
000030 f5 93 af bd 46 91 aa be f9 4b 81 3e 79 dc 0a 3e
       -0.085731424 -0.3331396 0.25253275 0.13560666
000040 48 1e 65 3e ba 1f 14 3e e7 c4 24 3e dc aa 93 bd
       0.22374833 0.14465228 0.16090737 -0.07210323
000050 42 c4 10 bf 57 b9 7a bb 20 94 44 bd c0 e7 6a bc
       -0.56549466 -0.0038257444 -0.047992826 -0.01433748
000060 2c 9e 9a bd 4a 93 53 3d 70 da 8c bd 70 2d cd bd
       -0.075497 0.051654138 -0.06877601 -0.10018432
000070 b5 63 ae be 75 76 de 3e e2 02 a5 be a7 31 95 be
       -0.34060445 0.4344975 -0.32228762 -0.29139444
000080 9a 67 93 3e 73 af 94 3e 37 7b ba be 94 61 37 bf
       0.2878998 0.29040107 -0.3642213 -0.7163327
000090 cb 60 16 bf ed 11 14 3f 61 c0 86 3e e2 ec db be
       -0.58741444 0.5783985 0.26318648 -0.42954165
0000a0 19 91 4d bd 34 11 b7 bd 85 2b d2 be 87 e4 c2 3d
       -0.050187204 -0.08938828 -0.41048828 0.095162444
0000b0 35 b7 c2 3e b5 c4 bb bc d7 25 c1 3c 34 b4 23 3e
       0.380304 -0.022920946 0.023577614 0.15986711
0000c0 84 5e 58 3e 5b 2a 82 be 09 62 2c 3c 8d 35 7d bd
       0.21129805 -0.2542294 0.01052142 -0.061818648
0000d0 cd 40 81 3d 82 7a 4d 3d f2 4f 89 3e 13 2e ab 3e
       0.06311188 0.05016566 0.26818806 0.3343359
0000e0 af 9a 83 3b ca e1 a6 bc 2b 4e f7 bc 2e c3 78 bd
       0.0040162425 -0.020371336 -0.03018864 -0.060733013
0000f0 a2 c9 4e bc b3 a3 ff be 1c 22 d1 3e 00 9f 4b be
       -0.012621315 -0.4992958 0.40846336 -0.19884872
000100 be da 17 3d b1 37 86 3e fd c0 54 be 91 e9 08 3e
       0.037073843 0.26214364 -0.20776744 0.13370349
000110 11 dd 89 3e 42 24 45 be 3e fd 99 be 86 b8 67 3e
       0.26926473 -0.19252113 -0.3007602 0.22628984
000120 65 b3 ec 3d f3 95 bb bd aa f1 6d 3d 7b 69 74 be
       0.11557654 -0.0915946 0.058091797 -0.23868363
000130 aa fd e1 bd fc 9f e8 3e b7 e7 b4 3d 81 48 44 be
       -0.11034711 0.45434558 0.088332586 -0.19168283
000140 2e d5 3a bd b7 74 6f 3e 05 82 12 3f 01 8c b6 be
       -0.04561346 0.23384367 0.57229644 -0.3565369
000150 f6 90 42 bf 79 4d 99 3e 84 0f 8f bd 3f 07 b6 be
       -0.7600244 0.2994192 -0.06985381 -0.35552403
000160 2e a6 e2 bd e8 8c 01 be 1c 77 05 bf 50 a2 b7 3e
       -0.110668525 -0.12651408 -0.5213487 0.35866022
000170 0f 7e 0a 3e b6 ed a8 3e ab d4 c1 bd 2f 63 0a 3f
       0.1352465 0.3299386 -0.09464391 0.5405759
000180 84 16 ef bc 94 b4 7f be 24 cf 3a ba ae 8f 0d 3e
       -0.029185541 -0.24971229 -0.0007126203 0.1382434
000190 15 a4 79 be 88 09 18 3e 1a a3 83 3e fe 52 6a be
       -0.24378999 0.14847386 0.25710374 -0.22883222
0001a0 73 eb bf be 7f ed f8 3d d1 b0 44 be 08 6b 45 be
       -0.3748432 0.12154674 -0.19208075 -0.1927911
0001b0 d8 f3 48 3d f7 65 b3 3e 11 6b 42 be b5 ab 44 be
       0.049060673 0.3503873 -0.18986155 -0.19206126
0001c0 4f 5f 94 bc c1 03 50 3c 64 5d 1b 3d 04 4f 03 bf
       -0.018111853 0.0126962075 0.03793086 -0.51292443
0001d0 c1 6c 27 be 37 49 85 bd a7 be f0 3d 11 33 0a bc
       -0.1635008 -0.06508105 0.11755114 -0.008435027
0001e0 e5 47 ac bc 62 2c b0 be 59 b6 1e 3e 94 e7 52 be
       -0.021030376 -0.3440886 0.15499248 -0.20596153
0001f0 5e eb 43 be ac e8 9c 3d 17 24 59 3e 8b a3 b2 be
       -0.19132754 0.07661566 0.21205173 -0.34890398
000200 db 36 0d be 27 b9 d0 be 0c 10 7b 3d 9e ee bf bd
       -0.13790457 -0.4076626 0.0612946 -0.093716845
000210 11 39 a5 3e e3 e5 4b be 30 6f d2 bd 41 58 57 3e
       0.322701 -0.19911914 -0.102751136 0.2102976
000220 be 27 33 be 20 13 af 3e 68 93 17 3e 13 e0 cc 3c
       -0.17495629 0.3419428 0.14802325 0.02500919
000230 0f 24 9b 3e 35 a4 bd be 68 1a 89 3d 54 cb 8e be
       0.30300948 -0.37039343 0.0669449 -0.27889502
000240 2e 0b 16 3e 0b 8b d7 be c6 fe bf 3d c3 41 49 be
       0.14652702 -0.4209827 0.09374766 -0.19653992
000250 da 15 3b be 9b df ce 3e 59 31 ee 3d dd 73 8b be
       -0.18270054 0.40404972 0.11630506 -0.27236834
000260 ad 8b 15 3e 9e 3b fc bb 4a fe 48 3e 61 7c 3e 3d
       0.14604063 -0.0076975366 0.19628254 0.046505336
000270 8d 5c 54 3d 13 0a ce be 44 71 a6 bd 5b 06 ce 3e
       0.051846076 -0.4024206 -0.081270725 0.40239224
000280 f9 3d 59 3c 92 c1 84 bf 95 7c e5 3e 1a 10 03 3e
       0.013259404 -1.0371573 0.4482161 0.12799111
000290 6f 4a 8b 3e 02 7a f7 3d 9d 7a 82 be e2 95 cc 3d
       0.27205226 0.12083818 -0.25484172 0.099895254
0002a0 0f 6d 81 3e 53 34 3f bd 62 22 d1 3d 35 33 28 be
       0.25278518 -0.04668076 0.10211636 -0.16425784
0002b0 28 83 46 be 7a 30 15 bd eb 0f 35 3e 2c 6a c6 3d
       -0.1938597 -0.036423184 0.17681853 0.096882194
0002c0 b5 ba a4 3e cf bd c8 3d 73 ce 27 3e 67 03 b4 bd
       0.32173696 0.09801828 0.16387348 -0.087897114
0002d0 fa a4 cc 3c ef 69 70 be 68 a0 21 bd 48 48 a2 bc
       0.02498101 -0.2347791 -0.039459616 -0.019809857
0002e0 ae a3 4e 3e 42 41 32 3d 66 ec e8 bc 8b 29 11 3e
       0.20179626 0.043519266 -0.028433036 0.14176004
0002f0 b4 50 47 3e 81 36 07 3e 9a ec 27 be 03 3c 15 3e
       0.1946438 0.13204385 -0.1639885 0.14573674
000300 75 83 d0 bd 56 e2 c6 bd 81 f0 41 3e e2 72 75 3e
       -0.101813234 -0.09711139 0.18939401 0.23969606
000310 d9 7b 85 3c 0b 80 bc 3d 21 7b c5 bb eb 7b 86 3e
       0.016294407 0.0920411 -0.006026641 0.26266417
000320 b7 17 56 3e c3 ac fa be 9e 72 e7 3e bb 52 4b be
       0.20907484 -0.48959932 0.45204633 -0.19855778
000330 90 d5 a5 be 35 1d b5 bd 21 fd 48 3d 47 b3 86 be
       -0.32389498 -0.088434614 0.049069528 -0.26308653
000340 7b 38 29 bd 43 fc 49 3f a9 cd 00 3e 44 b9 39 be
       -0.04131363 0.78900546 0.12578453 -0.1813708
000350 9a 62 65 3d 47 a4 88 be 6e fb 06 3e 51 3f 94 be
       0.056002237 -0.26687834 0.1318185 -0.28954557
000360 06 91 86 bc bb 53 fb be 93 94 4b bd 4c 10 5e bc
       -0.016426574 -0.4908732 -0.04970224 -0.01355369
000370 3c 71 5f be 53 0d bc be 48 8f 56 3d 0c b0 15 bd
       -0.21820539 -0.36728916 0.052382737 -0.036544845
000380 b8 7a ac bd e1 2b 84 be fa 79 2c 3d ea 82 9a 3d
       -0.08421844 -0.25814727 0.042108513 0.07544501
000390 99 8a 85 be 88 78 d3 3d ff df cc 3e d8 5d 99 3d
       -0.26082304 0.10325724 0.40014645 0.074886024
0003a0 56 f7 90 3e cf 34 8a be b1 ec f7 bd 44 32 8c 3e
       0.28313702 -0.26993415 -0.12105692 0.273821
0003b0 c2 69 04 3e be 14 23 3e b1 21 90 3b dc 68 c4 bb
       0.12930968 0.15925881 0.0043985476 -0.0059939455
0003c0 9e 52 12 be 41 a5 90 3e 7c a2 9e bd 94 ab f3 3d
       -0.14289328 0.2825108 -0.07745835 0.1189796
0003d0 63 ef a8 bc 13 a0 23 bc 9e d2 89 bd d6 83 46 3e
       -0.020621961 -0.009986895 -0.06729625 0.19386229
0003e0 96 8c 92 3d 86 07 55 bd 26 05 51 bd 8a ea 11 3e
       0.07155721 -0.052009128 -0.0510303 0.14249626
0003f0 bc 3f 90 be 45 cf 90 3e be 31 32 3e 2f e1 6c 3e
       -0.28173625 0.28283134 0.17401788 0.23132776

branch.output_layer.bias f4 [20]
000000 78 e1 cf 3b 6d 0a d7 3d b3 cc 33 3e 20 7e 02 be
       0.0063440166 0.105000354 0.17558555 -0.12743425
000010 44 42 42 bd bb 26 0f 3e fa f7 96 3d 8e 06 8b bd
       -0.047426477 0.13979618 0.073715165 -0.067883596
000020 d8 f0 24 3e e5 d8 01 bd d9 b7 c6 bd 80 0b 49 be
       0.161075 -0.031700987 -0.09703035 -0.19633293
000030 66 b5 2e be 23 f1 97 3d 5d 5c 2d 3e 70 69 2a be
       -0.17061386 0.0741904 0.16929765 -0.16641784
000040 c0 1b 99 3c a3 57 ba 3d 97 aa f4 bd ab 15 8d bd
       0.01868999 0.09098747 -0.119466 -0.068888985

trunk.hidden_layers.0.thetas f4 [99]
000000 24 91 c2 3f 08 b2 b7 3f 8a 72 c1 bf a5 bc 98 bf
       1.5200543 1.4351206 -1.511308 -1.193257
000010 23 a1 af 3f 1c a3 c7 bf 56 21 a0 be ad c6 92 3f
       1.372105 -1.5596652 -0.31275433 1.1466881
000020 47 bf ce 3f 5d d5 c6 3f cf fa 7f bf d4 16 c0 be
       1.6152123 1.5533863 -0.9999208 -0.37517416
000030 44 75 5f 3e 3d 3e d4 bf 24 a2 43 bf d7 d9 29 c0
       0.21822077 -1.6581494 -0.7641928 -2.653921
000040 21 a3 cf 3f 05 05 2d 3f 2c f0 1d c0 3f 9e d2 3f
       1.6221658 0.67585784 -2.467784 1.6454543
000050 15 3c c7 3f ea f1 09 be 40 05 53 bf 55 26 33 3f
       1.556521 -0.13471189 -0.82429886 0.69980365
000060 de ec cb 3f e9 02 05 bf f7 67 06 c0 ca 79 eb 3e
       1.5931661 -0.51957566 -2.1000955 0.45991355
000070 c9 a2 bf 3f 1b a6 e6 3e b5 c2 93 bf 96 ca 77 bf
       1.4971553 0.45048603 -1.1543795 -0.96793497
000080 c3 89 aa be b5 9d 62 bf 18 c5 ae 3f 8a 25 89 3f
       -0.3330823 -0.8852189 1.3653898 1.0714581
000090 c6 77 b6 3f 66 1d ac be f8 61 8e 3f fa 8b 40 3e
       1.4255302 -0.3361618 1.1123648 0.18803397
0000a0 03 3a c8 3f e9 87 f2 3f 47 39 a6 be 87 aa 9e 3f
       1.5642704 1.8947726 -0.32465574 1.2395791
0000b0 c3 20 82 3f ed 71 6a bf 2c c8 e0 3f 22 5d 51 3f
       1.0166248 -0.91580087 1.7561088 0.81782734
0000c0 39 d5 d7 3f 74 9d 5b 3e 52 2e c6 3d ad 24 98 3f
       1.6861945 0.21446782 0.09676804 1.1886193
0000d0 9b 4e bf be ed 61 9a 3f d7 cc ad be f5 aa 4d 3e
       -0.3736466 1.2061135 -0.33945343 0.20084746
0000e0 22 73 ad 3f 70 9e 51 40 90 49 4c bf 18 a9 8a be
       1.3550761 3.2752953 -0.7979975 -0.27082133
0000f0 54 3f 80 3f 39 99 73 3f a3 1e fb bf fa 59 24 be
       1.0019326 0.95155674 -1.9618725 -0.16049948
000100 e1 56 d3 bf 6e 79 17 bf d0 00 c4 3e 57 81 72 3f
       -1.6510888 -0.5916966 0.3828187 0.94728607
000110 00 df b0 bf 81 30 8a 3f 8b f9 98 bf 84 05 44 be
       -1.3818054 1.0796052 -1.1951154 -0.19142729
000120 c9 1b fa be 0e d0 83 bf 1b 4b 1a bf a8 78 b4 be
       -0.48849323 -1.0297868 -0.6027085 -0.35248303
000130 8f 60 0f be 98 b7 95 3d 94 4d 2f bf c0 9b e9 bd
       -0.14001678 0.07310408 -0.6847775 -0.1140666
000140 f3 be 3e 3f eb 16 ac 3d 45 35 a7 3f ed 00 96 3f
       0.74510115 0.08402809 1.3063132 1.1719033
000150 ee 9a 0c 40 38 e9 0c 40 70 9f 18 3e d9 c1 af 3f
       2.1969562 2.2017345 0.1490457 1.3731033
000160 6c 53 cc 3e 2d 34 1e bf db 3b 50 bf 88 47 d9 3f
       0.39907396 -0.61798364 -0.8134133 1.6974955
000170 a8 e3 a5 3f 03 b3 81 3e 58 94 ca bf 4f 8d 07 3f
       1.29601 0.25331888 -1.5826521 0.52949995
000180 ef bf 29 3f a9 ea b6 3f 11 db a2 3f
       0.6630849 1.4290363 1.2723104

trunk.hidden_layers.0.bias f4 [20]
000000 63 d7 d5 3a 50 c4 54 bd f1 a2 0f be 5d 2e ab bc
       0.0016314801 -0.05194503 -0.14027001 -0.020896131
000010 8e 76 ce 3c 0d 09 3b bd 40 0e 81 bd 19 dc 1f be
       0.025203016 -0.04566293 -0.06301546 -0.15611304
000020 c4 43 cc bc 0a c2 ce 3c a2 e3 90 3c ce 64 6e bd
       -0.024934657 0.02523901 0.017686669 -0.058201604
000030 a1 2b 9d be d6 f9 a3 3d bf 78 bf bd 91 4f bd be
       -0.3069735 0.08006637 -0.09349202 -0.36974767
000040 d8 17 b5 3d 51 e3 1c 3e 2d a1 65 be da a8 5c 3e
       0.088424385 0.1532109 -0.22424765 0.21548787

trunk.hidden_layers.1.thetas f4 [190]
000000 e5 e4 76 be 0d 1d 8e 3f 93 65 32 3f a1 df ff be
       -0.24110754 1.1102616 0.6968624 -0.49975303
000010 e7 71 90 bf 0a 03 fc 3f 61 c6 7e 3b 25 49 03 bf
       -1.128476 1.9688427 0.0038875567 -0.51283485
000020 12 d6 de 3f 54 42 b3 3d 44 ad ff 3e 8d ab 36 bf
       1.7409079 0.087528855 0.4993688 -0.71355516
000030 61 d2 85 bf a4 0c c3 bf 1c 6a ba 3e bb ba 50 bf
       -1.0454828 -1.5238233 0.3640908 -0.8153493
000040 4f 41 e0 3e e1 36 0f 3f b3 30 fc bf 7a f8 e2 3f
       0.43799827 0.55943114 -1.9702362 1.7732079
000050 72 74 1f c0 49 72 40 3f d7 94 27 be b2 2b 15 3c
       -2.4914823 0.75174385 -0.16365372 0.009104656
000060 05 f0 c9 bf ac 82 99 3e fe 4b 81 3f b5 a0 b1 bf
       -1.5776373 0.29982507 1.0101316 -1.3877169
000070 6c 42 cc bc a7 44 19 be 51 b8 97 3e 20 ca 66 3e
       -0.024934016 -0.14967595 0.2963281 0.22538042
000080 28 85 f7 bf 16 72 8f bf 4c 86 e5 be 49 35 ef 3e
       -1.9337511 -1.1206691 -0.44829023 0.4672034
000090 3f b5 73 3f 8e a7 bd 3e b9 c9 5d 3f 5c a3 71 bf
       0.95198435 0.37041897 0.8663593 -0.9438989
0000a0 e2 39 ea 3e 3e de 61 3f 58 43 6a 3f a1 ba c6 be
       0.45747286 0.8822974 0.9150901 -0.38814262
0000b0 c0 c3 10 bf 8a d8 5a be 00 8f 67 bf 30 58 cb bf
       -0.5654869 -0.21371666 -0.90452576 -1.5886288
0000c0 0c 9a 46 3f 37 b4 cd bc f0 27 d7 be 6c 3b 75 3f
       0.77578807 -0.025110347 -0.42022657 0.95793796
0000d0 c2 d5 1d 3e 21 a0 63 bd 92 5e 7d 3f 49 3a a6 3f
       0.15413573 -0.055572633 0.9897243 1.2986537
0000e0 2f 87 a7 3f fa 72 b7 3d 10 d2 66 3e 76 e0 44 3f
       1.308813 0.08957477 0.2254107 0.76905
0000f0 45 e3 90 3f 73 bf 4e bd 0d af fb 3f 82 f5 0c be
       1.1319357 -0.05047555 1.9662796 -0.13765529
000100 02 2e a8 3f 37 82 c3 be 6e 2d 67 3f 61 b6 15 3f
       1.313904 -0.38185284 0.90303695 0.58481413
000110 ed c9 02 3f b8 93 04 3f 19 48 d2 be c8 75 1e 3f
       0.51089364 0.517879 -0.4107063 0.6189847
000120 45 7f 65 3f 89 be 62 bd 15 45 3e bf a7 71 3f 3f
       0.8964732 -0.05535749 -0.7432416 0.74782795
000130 f9 3f 73 bf 7d 75 16 3e 5e 62 21 bf f8 2a b6 bf
       -0.9501949 0.14693256 -0.6304072 -1.4231863
000140 c7 6f 7f 3f 5f a6 56 3f 3e 39 52 3e 44 91 b2 3f
       0.99779934 0.8384761 0.20529649 1.3950582
000150 38 8b ac bf 4b 5a 61 3e 37 f0 97 bd 60 68 97 3f
       -1.3479986 0.220071 -0.07418864 1.1828728
000160 4f 8b ed bf cf 35 5e be 09 6e e2 bb 2d 7c 02 3e
       -1.8558139 -0.21700214 -0.00691009 0.12742682
000170 88 bf 26 3f 77 a9 86 bf 50 4e 4b 3e 23 0c 03 be
       0.65136003 -1.0520467 0.19854093 -0.12797599
000180 68 11 d9 be f9 90 09 c0 95 9d 70 bf f7 47 39 bf
       -0.42396092 -2.1494734 -0.9399045 -0.72375435
000190 fb e2 d6 3e ba 40 d4 bf 79 90 34 3f 3c bd 01 40
       0.41970047 -1.6582253 0.7053295 2.027175
0001a0 93 e9 0f 40 fa 65 5c 3e fb 2b ef 3e 5f 1b b4 3f
       2.2486312 0.21523276 0.46713242 1.4070853
0001b0 b4 4c 84 3f d5 fe d0 3f 17 5f ce bf ec 12 ce 3f
       1.0335908 1.6327769 -1.6122769 1.6099524
0001c0 14 10 66 bf 77 05 1c 3f 47 84 9f bf 4b cd 84 3f
       -0.89868283 0.6094584 -1.2462243 1.037515
0001d0 33 d5 d0 bf fe 17 92 3e 38 37 b7 3f bd 93 9d 3f
       -1.6315063 0.2853393 1.4313726 1.2310711
0001e0 9f 35 f7 bf c8 70 49 3e 5b 31 66 bf ef c9 d6 3e
       -1.9313239 0.19671929 -0.8991906 0.41950938
0001f0 cf e2 14 c0 93 59 c3 3f 47 5f 95 3f 12 8c 0a bf
       -2.3263433 1.5261711 1.1669701 -0.5411998
000200 8b ee 49 bf 5f a6 ba be e7 be 8b 3f 5c 82 13 be
       -0.7887961 -0.36455056 1.0917634 -0.14405197
000210 4f 77 bd bd 28 e0 02 c0 35 0d b3 bf a2 43 c6 3e
       -0.09251272 -2.0449314 -1.3988405 0.38723475
000220 c9 d6 34 3f 72 0c cc 3e ee 69 d1 be f5 f3 71 3d
       0.70640236 0.39853245 -0.4090113 0.059070546
000230 dd 67 07 bf e7 c4 b2 3f 28 55 a6 be 72 0d a9 3e
       -0.5289286 1.396634 -0.32486844 0.3301807
000240 52 ae a5 bc 76 a0 d2 be 97 47 8c 3f 8e a5 28 bf
       -0.020224724 -0.41138047 1.0959347 -0.65877616
000250 99 1c fd 3f 20 dc b7 be 66 46 23 3f f3 15 03 40
       1.9774352 -0.3591013 0.63779294 2.0482147
000260 55 cc 5b 3e 5b d3 84 3f 24 19 6e 3e b9 3e 38 bf
       0.21464665 1.0377 0.23251778 -0.7197071
000270 74 dd 6f be 3d 67 29 bf 55 77 13 be ca f8 0e 3f
       -0.23424321 -0.66173154 -0.1440099 0.5584837
000280 5e dd 15 3d db 6a 35 c0 cf a1 b2 3f f6 ee 0e 40
       0.036588065 -2.834647 1.395563 2.233335
000290 1f 70 ea bd 1f 93 02 3e 1b 91 73 3e 4c 0a 3c be
       -0.11447167 0.12751435 0.23785822 -0.18363303
0002a0 05 75 01 40 28 79 63 bf e4 9d de bf 77 10 ad 3e
       2.0227673 -0.88856745 -1.7391934 0.33801624
0002b0 36 5a 3c 3f c5 70 85 bf 55 08 5e be 56 ca 1e c0
       0.7357515 -1.042504 -0.21682866 -2.4810996
0002c0 51 3b dc be f5 21 9b 3f 61 e4 b6 3f d7 f4 fe bf
       -0.43014005 1.2119738 1.4288446 -1.9918469
0002d0 8b 8d 80 3f cc bd 75 3f 55 15 cf 3d f7 d1 f9 be
       1.0043195 0.9599273 0.10111491 -0.48793003
0002e0 96 3f 81 3e 29 c8 4c bf 34 a1 24 bf 69 3d 3c 3f
       0.25243825 -0.7999292 -0.64308476 0.73531204
0002f0 6d 90 b2 be 75 2c 30 bf
       -0.34875813 -0.68817836

trunk.hidden_layers.1.bias f4 [20]
000000 63 d2 0c bd 6b 57 80 bc f1 eb fc 3d ca 94 0f bd
       -0.034380328 -0.015666684 0.1234969 -0.035054006
000010 79 28 96 bb e2 fc 1b 3d 5b 3e 66 3d 2b 82 c3 bd
       -0.0045824614 0.038082965 0.05621181 -0.09546312
000020 ba 00 74 3d a4 e1 71 3d f7 ca 3f bc cb d4 a4 3d
       0.059571005 0.05905308 -0.011706105 0.080483995
000030 29 26 c0 3d 89 c4 bd 3d 0c f6 11 bc d7 c5 8e bd
       0.093822785 0.09266002 -0.00890876 -0.06971329
000040 19 0c 2d be 7a e7 ab 3e de ef 4c be db b7 e4 3e
       -0.16899146 0.3357504 -0.20013377 0.4467152

trunk.hidden_layers.2.thetas f4 [190]
000000 49 83 bb 3d 4c 7a 42 3f b7 df 26 bf 3e 0c 61 3f
       0.091559 0.7596786 -0.6518511 0.87909305
000010 c9 25 5b bf b1 20 d7 3e 80 8c c9 3e 8e ba 5e be
       -0.8560453 0.4201713 0.39365005 -0.21750852
000020 70 50 e5 3f 7b f5 ef be 2d 33 96 3e ca f7 d7 3e
       1.7915173 -0.46866974 0.2933592 0.42181236
000030 bd e1 28 bf 0b b6 30 bf b9 58 7c bf cc e9 93 bf
       -0.6596945 -0.69027776 -0.9857288 -1.1555724
000040 9c 08 4e bf 69 6e a0 3f b8 82 06 40 12 be 21 3f
       -0.80481887 1.2533695 2.1017284 0.6318065
000050 d6 ed 3e 3f 81 44 b7 bf 3e 99 bf bf 3b 6f fa bf
       0.7458166 -1.4317781 -1.4968641 -1.9565195
000060 d8 cd 9d 3f d2 cc db bf f8 aa 93 3e 7b 47 15 c0
       1.2328444 -1.7171881 0.28841376 -2.3324878
000070 03 ea 04 3f f8 e4 91 be d2 29 c8 be f6 85 56 bf
       0.51919574 -0.28495002 -0.39094406 -0.8379816
000080 02 e8 49 3f 46 9c 68 3e 38 bd db 3d 07 ea fc 3f
       0.7886964 0.22715864 0.1072945 1.975892
000090 99 b0 fc be 2c 2e 64 bf a5 c3 8d bf de 23 97 3f
       -0.49353483 -0.8913295 -1.1075331 1.1807821
0000a0 0f e4 c9 be 00 c6 54 bf 1b ae 94 3f b3 e3 29 be
       -0.39431807 -0.83114624 1.1615633 -0.16590767
0000b0 a1 67 25 3f b3 8b 7d bf 4c 22 2f 40 ce 7d af bf
       0.6461125 -0.9904129 2.7364683 -1.3710268
0000c0 22 da 8d 3d 2f 7b f3 bc 5c 78 5a 3f 3f ba f7 bd
       0.06926371 -0.029721824 0.85339904 -0.120960705
0000d0 40 93 20 c0 fc 1e 1a bf 3b 98 b3 bf f6 03 7c bf
       -2.5089874 -0.6020353 -1.4030832 -0.98443544
0000e0 ef 29 4f 3f 43 76 ab bf 1e ea 25 c0 3b a5 dc bf
       0.8092336 -1.3395466 -2.5924144 -1.7237924
0000f0 62 07 92 bc 0b 29 8b 3f 38 81 bd bf c1 5b 1b 3f
       -0.017825786 1.08719 -1.480506 0.6068688
000100 86 7e 88 3f a9 51 a2 be c6 e2 4d 3f d0 63 35 be
       1.0663612 -0.31702927 0.80424154 -0.17713857
000110 c0 0f 16 c0 b8 f9 55 bf ef f5 ae 3f 9b ce 23 3e
       -2.3447113 -0.83584166 1.3668803 0.15996782
000120 6e 9a 03 bf 1a 98 13 3f 49 a3 41 bf 99 99 37 bf
       -0.51407516 0.57653964 -0.7563978 -0.71718746
000130 f1 4c 13 bf bd 56 a5 bf 32 ad 8b bf 43 83 89 3e
       -0.5753928 -1.2917095 -1.091223 0.26857957
000140 3c 34 f0 3e 63 5e 87 bf a3 9a bb 3f 8b a7 3f bf
       0.46914852 -1.057568 1.4656566 -0.74865025
000150 8b 8a f6 3e 70 78 9a bf c0 63 ef bf 39 c5 20 3f
       0.48152575 -1.2068005 -1.8702316 0.6280094
000160 2b e5 5c be 6c 8b 89 bf db 98 89 be 50 90 a1 3f
       -0.21571796 -1.0745673 -0.26874432 1.2622166
000170 df bd f5 3e 2a ef cd 3f 79 ef 92 bf 5b 4a b9 3f
       0.47996423 1.6088612 -1.1479331 1.4475816
000180 33 65 d0 be 2a 9d e3 3f 6d 74 c1 be f6 90 a4 be
       -0.4070221 1.7782338 -0.37784138 -0.32141846
000190 35 fd 25 3f 1b 48 19 3f 36 59 03 3f ce 68 4e bd
       0.6483949 0.5987565 0.51308 -0.05039292
0001a0 e7 5a 82 3f 81 4c 8a bf 89 96 87 be c3 bd 3c bf
       1.0183991 -1.0804597 -0.26482037 -0.73727053
0001b0 35 80 91 bf dc 53 ef be 1b 92 41 3e 26 6d 36 3f
       -1.1367251 -0.46743667 0.18903391 0.712603
0001c0 b2 5b f3 3d 4c b3 ed 3e 37 f3 05 bc 94 77 38 bd
       0.11882724 0.46425855 -0.008175663 -0.045035914
0001d0 34 d3 62 3e ee f9 d5 bf 55 6e e4 bf 3e b4 20 3f
       0.2215088 -1.6716897 -1.7846171 0.6277503
0001e0 df f1 47 3f f3 49 32 3f da 76 37 3f 46 d6 17 40
       0.7810344 0.6964409 0.7166573 2.3724532
0001f0 35 3b 35 c0 d1 20 e5 be 7f 1f df 3f 99 4d 9f bf
       -2.8317387 -0.447516 1.7431487 -1.2445556
000200 d7 fa 12 40 4e af d9 3e 9d 05 f0 be 8a 04 cd 3e
       2.29656 0.4251656 -0.46879283 0.40042526
000210 5a 53 d9 be 86 09 52 bf 00 41 c1 3b 09 e8 6e 3e
       -0.42446405 -0.8204578 0.005897641 0.23330702
000220 9e f2 e1 3f 64 58 67 bb cf 39 86 bf 14 f2 9d 3e
       1.7652166 -0.0035300488 -1.0486392 0.30848753
000230 fe 7a 2d bf 21 2f db 3e 93 f2 25 bf 5a 02 8a 3f
       -0.67765796 0.42809394 -0.64823264 1.0781968
000240 64 48 b0 bf 3e 12 04 c0 a8 1e 8d 3f bb 36 14 c0
       -1.3772092 -2.0636134 1.102498 -2.3158405
000250 52 44 ad 3f 82 81 f6 3e cd 34 0c bf d8 95 bc bf
       1.3536475 0.48145682 -0.5476807 -1.4733229
000260 a7 c9 3a 3f b7 23 78 bf 19 9f 2f 3f 00 b8 69 3f
       0.7296395 -0.96929497 0.6860214 0.91296387
000270 62 0f f1 be 13 e1 6d be 48 b5 0c 3f 8a ac 25 3f
       -0.4708205 -0.2323039 0.54964113 0.647164
000280 65 c2 87 bf cc ce c8 3f 85 45 9b bf 22 9e 08 c0
       -1.06062 1.5688109 -1.2130591 -2.1346517
000290 3c cd af bf 35 29 66 bf a9 fc c4 bf fd 99 0d 40
       -1.3734508 -0.89906627 -1.5389606 2.2125237
0002a0 55 d6 b5 be 68 12 ea 3e e6 f2 b9 bf fb 48 13 bf
       -0.35515085 0.45717168 -1.4527252 -0.57533234
0002b0 3f 68 8e 3f 98 32 e0 3f c9 ac 3b bc 02 78 c9 3e
       1.1125563 1.751544 -0.011454769 0.3934937
0002c0 23 c6 bf be 2b 60 d0 3f 3b 50 aa 3e 17 e7 04 bd
       -0.37455854 1.6279348 0.33264336 -0.032446947
0002d0 34 64 97 3f 36 d9 db 3f 27 79 80 3f 90 22 4e bf
       1.1827455 1.7175663 1.0036973 -0.8052149
0002e0 c4 5a 19 40 7c 54 85 bf b9 4a 83 be 34 55 18 bf
       2.396165 -1.0416408 -0.25642946 -0.5950501
0002f0 f7 9f f1 3e 3c 35 1e 3f
       0.47192356 0.6179998

trunk.hidden_layers.2.bias f4 [20]
000000 1d 44 63 3d 35 ea 85 3d 17 09 92 3d 94 68 94 3d
       0.05548488 0.06538812 0.0713064 0.07246509
000010 ff 55 93 3d 28 b8 d7 bd 60 3c b6 bd b4 03 b2 3d
       0.07194137 -0.10533172 -0.08898234 0.086921126
000020 3c d1 3c b9 8d 31 ad 3c 0e 92 2c bc 0b 1c a2 3d
       -0.00018007023 0.021141792 -0.010532869 0.07915505
000030 6e a9 2e 3e 2a 98 5e bd ee c2 e4 bd e1 69 56 3e
       0.1705682 -0.054344334 -0.111699924 0.20938827
000040 51 f1 83 be ef ab 11 3f 14 f9 01 be ba 2c 57 3e
       -0.25770047 0.56902975 -0.12692672 0.21013156

trunk.hidden_layers.3.thetas f4 [190]
000000 0b a7 69 3f 69 5c 9f be d7 93 1a c0 35 62 7c 3e
       0.9127051 -0.3112519 -2.4152734 0.24646838
000010 c9 86 53 3e 31 4f e3 3d 08 32 20 bf aa 43 7c 3f
       0.20656885 0.11099089 -0.6257634 0.9854075
000020 6e 93 a2 bf 98 a1 9c 3f 26 ce 41 40 a3 d9 0b 3e
       -1.2701242 1.2236814 3.0282073 0.1365724
000030 e5 cd a5 3f 9c 0a 3b bf be 75 5e 3f 1e 3a 07 bf
       1.2953459 -0.73063064 0.8689841 -0.52823055
000040 d6 7a ac 3e 76 1f a2 be 03 ad 12 3f de a5 29 bf
       0.33687466 -0.31664628 0.57295245 -0.6626872
000050 97 4e 2c 3f 51 f5 d3 be b1 5f 84 bf e0 07 72 3e
       0.6730742 -0.413981 -1.0341703 0.23635817
000060 f3 38 a1 bf 4d ff e0 be 07 6c 28 be 50 ad 26 bf
       -1.2595505 -0.4394478 -0.16447459 -0.65108204
000070 d2 63 8b 3e 54 bb 86 3f bf b8 f7 3f ee 75 42 be
       0.27224594 1.0525918 1.9353255 -0.18990299
000080 36 b8 27 bf 24 2b 8f 3e b8 09 d6 bd b3 1c b6 3e
       -0.6551546 0.279626 -0.104510725 0.3556877
000090 54 09 26 be 88 a2 8b 3f 14 f3 cc be 87 ef 93 bf
       -0.16214496 1.0908976 -0.40029204 -1.1557473
0000a0 93 9b 18 3e 2b 41 22 3e 6b da ad bf 00 b8 94 3f
       0.14903097 0.15845172 -1.3582281 1.1618652
0000b0 08 7d d9 be dc 35 7b 3e 87 47 f9 3f 18 bc ce 3e
       -0.42478204 0.24532264 1.9474953 0.4037788
0000c0 28 66 e4 3e 1d 90 3f bf b6 25 aa 3f 6f a4 c5 bf
       0.4460919 -0.74829274 1.3292758 -1.5440806
0000d0 03 c4 45 3f 2d 16 b1 be 22 c4 ab be be aa 30 bf
       0.77252215 -0.3458723 -0.33548075 -0.6901053
0000e0 2b 86 7e be 4b 9a a6 bf 5f f2 05 bf 6a fb 0a 40
       -0.24855869 -1.3015836 -0.52322954 2.171595
0000f0 42 f3 03 3f 89 24 c1 3e 21 57 f0 be d7 7d 15 3f
       0.51543057 0.37723187 -0.46941474 0.5839514
000100 e1 cd 90 3f 14 69 55 3f 36 2e ab 3e c4 bc c6 bf
       1.1312829 0.8336346 0.33433694 -1.5526357
000110 d9 7b 10 3f 0e fb fb 3e 9e 22 50 bf 54 2b 11 c0
       0.56438977 0.49214977 -0.8130282 -2.2682695
000120 1c 69 94 3f 2d a2 bf be 70 fc fa 3d 55 03 58 3f
       1.1594577 -0.37428418 0.1225518 0.84380084
000130 57 40 7c bf 3d ac a1 3d 4d e7 58 3f 66 f3 54 3f
       -0.98535675 0.0789418 0.84727937 0.83183897
000140 2d 80 33 bf ef df 72 bf dd 06 ed bd 89 e1 59 be
       -0.70117456 -0.94872946 -0.11573575 -0.21277441
000150 aa ad 4a 3f 7d a9 76 bf ac 13 3e 3f 3a da fa bd
       0.7917124 -0.9635237 0.74248767 -0.12248655
000160 5e f5 36 bf 9c d0 4c 3f 12 c7 33 3f 63 b2 ee bf
       -0.7146815 0.8000581 0.7022563 -1.8648189
000170 b5 76 46 bf 82 37 ed bf 88 5c 17 3f 36 69 e4 3c
       -0.7752488 -1.8532565 0.59125566 0.0278822
000180 d1 b1 b0 bf 17 75 6e bf 4f fd e2 3f ea aa 7a be
       -1.3804265 -0.93147415 1.7733554 -0.24479261
000190 5d ad b9 3e 5b ed e9 be 80 5d 15 be 0b 7d 38 3f
       0.36265078 -0.456889 -0.14586449 0.720658
0001a0 4a b7 31 3e ff 49 3f 3f 43 e6 39 3f f7 f9 23 be
       0.17355075 0.74722284 0.72616976 -0.16013323
0001b0 da 6e 87 bd 69 bb a9 bf 78 e6 1e bf a8 b1 81 bf
       -0.0661294 -1.3260318 -0.6207042 -1.0132341
0001c0 e7 52 19 c0 26 3e 09 bf 82 54 4c c0 5c 15 9a 3f
       -2.395685 -0.53610456 -3.192658 1.2037768
0001d0 52 f1 bc 3e 9d 3e e5 3d 56 30 7f bf be df 84 3f
       0.36902863 0.11193583 -0.9968313 1.0380781
0001e0 e4 60 b9 be de ac 49 3f 91 86 16 40 da f2 aa bf
       -0.36206734 0.787794 2.3519633 -1.3355362
0001f0 4b fc a7 3f f9 3c c5 3f 2b 43 e0 be 2c 2b 0b 40
       1.3123869 1.5409232 -0.43801245 2.17451
000200 f0 8a b9 3f 4c 3d 92 3e 0d ab b3 be 2d aa c6 bf
       1.4495525 0.2856239 -0.3509144 -1.5520684
000210 f0 d7 8b 3f 10 24 f6 3e d9 d9 55 3f 19 a4 1e 3f
       1.0925274 0.48074389 0.83535534 0.61969143
000220 7b 60 a5 3f 96 1b e4 be 16 8c fb bb 10 70 cb be
       1.2920069 -0.44552296 -0.0076766117 -0.39733934
000230 c8 9a 35 bf 00 02 55 bf 05 88 28 3f 09 21 a3 3f
       -0.709393 -0.83206177 0.6583255 1.2744457
000240 7e b3 96 bc c3 8b fd 3e 25 9a 8c bf 24 65 e7 3e
       -0.018396135 0.49520692 -1.0984541 0.45194352
000250 f6 2a 33 3f 68 70 14 bf c7 a0 b5 3f be 5b 1a bf
       0.6998743 -0.5798402 1.418969 -0.6029624
000260 1d dd 1e bf 27 45 e1 3d 3d 56 1a 40 12 df 91 bf
       -0.6205614 0.10999518 2.4115136 -1.1396201
000270 b6 83 28 bf 36 fa 88 bf fd af 93 be 58 f7 ab 3f
       -0.65825975 -1.0701358 -0.28845206 1.3434858
000280 08 e4 ea bf 36 2e f7 bf a5 2b 56 3e 12 b3 fd 3f
       -1.835084 -1.9310977 0.20915087 1.9820273
000290 1b b5 bd bf 6b a6 f8 3f bc 85 14 bf 44 6a 87 3e
       -1.4820894 1.9425787 -0.5801656 0.26448262
0002a0 19 b7 0b bd aa 10 f1 3f 88 f8 d8 3f 67 ec d6 3f
       -0.034110162 1.883321 1.6950846 1.6790894
0002b0 81 a7 2a bf 6e de 03 c0 a6 86 89 be 5e 43 80 be
       -0.6666184 -2.060451 -0.2686054 -0.25051397
0002c0 48 71 0b bf 4c df a3 bf 46 c8 18 3f ab bd 6c 3f
       -0.5446973 -1.280252 0.59680593 0.9247691
0002d0 eb bf cf 3d 95 95 b5 3e 53 0c 9a be 5b 1a a2 3f
       0.10144027 0.35465685 -0.30087528 1.2664293
0002e0 9d 14 aa 3f 89 e0 66 3f a3 82 42 bf dd 1b 75 bf
       1.3287541 0.90186363 -0.75980586 -0.9574564
0002f0 e3 d5 48 3f da b8 78 bd
       0.78451365 -0.060723163
