models/ensembles/ensemble_25_unbootsrapped/model13/model_checkpoint-10000.pt (torch, 14893 bytes, 24 tensors)

branch.hidden_layers.0.thetas f4 [55]
-0.0014308156 -0.42972878 1.7170902 -0.4103371 0.92319286 -0.29769173 0.35617378 1.5999023
-0.10929424 1.2889842 0.89252067 0.008973222 -0.25075284 -0.24091905 1.0494156 0.24990398
-0.25854847 1.2585883 0.114445955 -0.16219436 -0.46469268 -0.36662865 -0.7804954 1.0920247
0.87491333 1.5604519 -0.8906169 -0.5643439 -1.3011079 1.2097361 0.87650824 0.18708651
-1.5818229 0.9893908 1.1135819 1.5392848 -1.9826674 -0.07121222 -0.6310987 1.0459008
0.95176834 1.2378818 -0.53812855 -0.15148863 -2.3206348 -1.3308017 -0.51083386 -0.9293772
0.7449425 0.40808573 -0.6224085 0.51318294 2.2720966 0.47958744 0.2846056
00000000: 348a bbba 6905 dcbe 9dc9 db3f b417 d2be
00000010: 5e56 6c3f 0d6b 98be 695c b63e 99c9 cc3f
00000020: a9d5 dfbd 6ffd a43f 3c7c 643f 6c04 133c
00000030: ad62 80be 7cb3 76be 4053 863f d4e6 7f3e
00000040: 7760 84be 6c19 a13f a462 ea3d 4716 26be
00000050: 33ec edbe c0b6 bbbe 8cce 47bf 77c7 8b3f
00000060: 52fa 5f3f e3bc c73f 78ff 63bf d878 10bf
00000070: b48a a6bf a2d8 9a3f d862 603f 9b93 3f3e
00000080: 2c79 cabf b748 7d3f da89 8e3f 4907 c53f
00000090: 0cc8 fdbf b6d7 91bd af8f 21bf 14e0 853f
000000a0: 17a7 733f e972 9e3f cbc2 09bf d61f 1bbe
000000b0: 4885 14c0 b657 aabf 02c6 02bf aaeb 6dbf
000000c0: 8db4 3e3f 9df0 d03e 2a56 1fbf f55f 033f
000000d0: 086a 1140 7c8c f53e d3b7 913e

branch.hidden_layers.0.bias f4 [10]
0.5401458 0.35421094 0.4650571 0.4418094 0.43304363 0.3817274 0.1256572 0.06595567
0.22681619 0.27374935
00000000: ff46 0a3f 235b b53e f71b ee3e d734 e23e
00000010: e5b7 dd3e c671 c33e 48ac 003e c413 873d
00000020: 8142 683e e028 8c3e

branch.output_layer.weight f4 [10, 10]
-0.60725003 -0.16806415 0.51941884 0.6105078 -0.17651409 0.31449428 0.08124943 -0.10779306
-0.06879647 0.33336446 0.70139015 -0.23103684 -0.100411564 -0.3852387 0.11176098 -0.67945
0.12666607 -0.19147141 0.19852588 -0.07507229 -0.36650753 -0.33322352 0.5422804 0.23690145
-0.4175669 0.677196 -0.18421808 -0.14848061 -0.25123897 0.31600282 0.84887207 -0.15361363
-0.31456906 -0.4057631 0.30303752 -0.4263958 -0.15954721 0.11030267 0.008275267 -0.49077755
-0.38719472 0.099939846 0.66088235 0.116940536 -0.5330449 0.6471453 -0.008193961 -0.14711688
-0.09266403 0.29873934 -1.1707225 0.21700747 0.09105152 0.30912846 0.71981573 0.812625
0.5604876 -0.13925436 0.1473208 -0.73580104 0.57193315 -0.23694739 -0.10789138 -0.11051371
0.34060413 -0.20512742 0.43801662 0.060587298 0.05515101 -0.37962103 0.2726919 -1.6075544
-0.73673385 -0.5283793 1.0412081 -0.18975383 0.048698682 -0.41733438 0.2830254 0.92812914
-0.48447514 -0.38332364 0.47708073 0.6378298 -0.4396321 0.25581196 -0.08439542 -0.12552564
-0.4435695 0.5513855 0.07718832 -0.06422072 -0.088368975 -0.17981875 0.47922567 -0.50436825
0.13083807 -0.3440467 -0.018239869 -0.2504528
00000000: bd74 1bbf 0219 2cbe a2f8 043f 3d4a 1c3f
00000010: 1cc0 34be 6505 a13e 1a66 a63d 9cc2 dcbd
00000020: 2ae5 8cbd bfae aa3e 4e8e 333f ec94 6cbe
00000030: 94a4 cdbd 023e c5be f1e2 e43d 6ff0 2dbf
00000040: c0b4 013e 1511 44be 5e4a 4b3e 80bf 99bd
00000050: e0a6 bbbe 469c aabe e3d2 0a3f 4b96 723e
00000060: 54cb d5be b85c 2d3f aaa3 3cbe 4d0b 18be
00000070: 65a2 80be 1fcb a13e ae4f 593f e44c 1dbe
00000080: 320f a1be 2ec0 cfbe bc27 9b3e 8d50 dabe
00000090: 5860 23be 5ee6 e13d fc94 073c 3247 fbbe
000000a0: 633e c6be 43ad cc3d 962f 293f 857e ef3d
000000b0: a175 08bf 50ab 253f f73f 06bc cfa5 16be
000000c0: a4c6 bdbd 5df4 983e 3cda 95bf 3537 5e3e
000000d0: 3879 ba3d 1646 9e3e d845 383f 3108 503f
000000e0: 1e7c 0f3f b298 0ebe 44db 163e 755d 3cbf
000000f0: 366a 123f 56a2 72be 28f6 dcbd 0355 e2bd
00000100: aa63 ae3e ec0c 52be b743 e03e 632a 783d
00000110: 07e6 613d b05d c2be 469e 8b3e 58c4 cdbf
00000120: 979a 3cbf de43 07bf 4f46 853f d44e 42be
00000130: 4578 473d daac d5be b5e8 903e df99 6d3f
00000140: 200d f8be ff42 c4be ed43 f43e d048 233f
00000150: 7517 e1be c9f9 823e 82d7 acbd cb89 00be
00000160: 8b1b e3be 9a27 0d3f e914 9e3d 2786 83bd
00000170: cbfa b4bd 6822 38be 115d f53e 471e 01bf
00000180: 6afa 053e e426 b0be c76b 95bc 593b 80be

branch.output_layer.bias f4 [10]
0.12776835 0.2967365 -0.10517492 -0.077074975 -0.20893756 -0.10579357 -0.14774878 0.15222102
-0.3131806 0.22929218
00000000: b5d5 023e d9ed 973e f365 d7bd 7cd9 9dbd
00000010: baf3 55be 4daa d8bd 754b 17be d4df 1b3e
00000020: 3559 a0be 92cb 6a3e

trunk.hidden_layers.0.thetas f4 [17]
-1.3973126 0.59569925 1.4381605 -1.3084823 -1.262351 -1.3280078 1.9676273 0.783066
-1.2800864 1.5231262 -0.18818802 0.9878015 -1.9770321 -0.81597364 -1.8628889 0.79277486
-1.0378027
00000000: 24db b2bf bf7f 183f a515 b83f 597c a7bf
00000010: b894 a1bf 29fc a9bf 36db fb3f 0377 483f
00000020: dfd9 a3bf cdf5 c23f 5cb4 40be 8fe0 7c3f
00000030: 630f fdbf a6e3 50bf 2573 eebf 4bf3 4a3f
00000040: b8d6 84bf

trunk.hidden_layers.0.bias f4 [10]
0.5516579 -0.2444702 -0.25267988 0.5904169 -0.16977234 0.2509155 0.42683885 0.2020249
0.53302205 0.46343234
00000000: 7439 0d3f 6556 7abe 425f 81be 9025 173f
00000010: cdd8 2dbe ff77 803e 9f8a da3e 9edf 4e3e
00000020: 2274 083f 0147 ed3e

trunk.output_layer.weight f4 [10, 10]
0.63174075 -0.4073118 -0.34160128 0.53245324 -0.34467298 -0.048818618 0.5088734 -0.19057378
-0.28522426 0.63304466 -0.7554832 0.14483982 0.42728445 -0.50979245 0.12451664 0.035437383
-0.61294436 0.5461612 -0.12955602 -0.6479262 0.56691396 -0.060211066 -0.6027491 0.6330177
-0.19359271 -0.13242708 0.39794606 -0.5686736 -0.15698986 0.4008817 -0.47275782 -0.12837173
0.41384473 -0.5208371 -0.34864128 0.36475086 -0.1413268 0.6917559 0.8793964 -0.6309557
0.727211 -0.4764982 -0.31756017 0.18438412 -0.06949662 0.021522243 0.5932655 -0.3067384
-0.3746445 0.2882215 -0.2772232 -0.18265723 0.114205204 -0.14853449 -0.72309184 1.5959734
0.7162527 -0.02674924 -1.5398399 0.24631427 -0.17123505 -0.12506369 0.21953548 -0.306162
-0.3256881 -0.14337756 -0.3559141 0.8257201 0.8313507 0.06027847 -2.2130759 -0.388897
1.294525 -1.5469826 -0.9481895 1.7134466 0.023441281 2.8585985 -0.9883512 -0.7120196
0.37530413 -0.45478377 -0.68742913 0.46121013 0.1242825 -0.28309676 0.1712274 -0.73902005
-0.7693327 0.30384752 0.5286895 0.31828815 0.2946292 0.38688958 0.3013253 -0.5342264
-0.14266203 -0.10610552 0.24013826 -0.44290513
00000000: c3b9 213f 2c8b d0be 5de6 aebe db4e 083f
00000010: fa78 b0be 08f6 47bd 8745 023f c625 43be
00000020: ea08 92be 370f 223f 5967 41bf e450 143e
00000030: 07c5 da3e c281 02bf 9502 ff3d ca26 113d
00000040: ece9 1cbf 38d1 0b3f 55aa 04be 7ede 25bf
00000050: 4621 113f e19f 76bd c44d 1abf 730d 223f
00000060: 2b3d 46be f79a 07be 96bf cb3e 9894 11bf
00000070: f3c1 20be 5e40 cd3e 500d f2be e173 03be
00000080: 75e3 d33e 9555 05bf 1c81 b2be a0c0 ba3e
00000090: f9b7 10be ea16 313f 1f20 613f 5086 21bf
000000a0: 802a 3a3f 92f7 f3be 3f97 a2be 31cf 3c3e
000000b0: 3e54 8ebd 6a4f b03c 3fe0 173f d10c 9dbe
000000c0: 67d1 bfbe c591 933e 33f0 8dbe 7f0a 3bbe
000000d0: 6be4 e93d 6d19 18be 8c1c 39bf db48 cc3f
000000e0: 565c 373f 3921 dbbc 7919 c5bf cf39 7c3e
000000f0: 3e58 2fbe b210 00be e9cd 603e 44c1 9cbe
00000100: 97c0 a6be 91d1 12be 5f3a b6be 6462 533f
00000110: 66d3 543f 8fe6 763d 09a3 0dc0 821d c7be
00000120: ffb2 a53f 8703 c6bf 8cbc 72bf 3852 db3f
00000130: ee07 c03c 47f3 3640 9604 7dbf eb46 36bf
00000140: dd27 c03e 6bd9 e8be 5bfb 2fbf bc23 ec3e
00000150: d387 fe3d 0ff2 90be 3c56 2f3e 6b30 3dbf
00000160: fdf2 44bf e791 9b3e 3258 073f aaf6 a23e
00000170: a3d9 963e 6416 c63e 4f47 9a3e 10c3 08bf
00000180: ff15 12be da4d d9bd cee6 753e 76c4 e2be

trunk.output_layer.bias f4 [10]
0.5116237 -0.14453773 0.40836018 -0.20233367 0.51518714 0.30060273 -0.27829337 -0.18780704
0.29223773 -0.38257474
00000000: c5f9 023f b301 14be 9614 d13e 8f30 4fbe
00000010: 4ee3 033f 9ae8 993e 787c 8ebe 7d50 40be
00000020: 2fa0 953e d6e0 c3be

exp_avg f4 [55]
-2.1994524e-06 -2.6727826e-06 -4.9296295e-06 -2.1673059e-06 -7.2388984e-06 2.7843496e-06 -7.589423e-06 -4.5147226e-06
2.3000887e-06 5.4929836e-07 1.105775e-06 -1.6639511e-06 2.0008297e-06 -5.816401e-07 4.5090683e-06 -1.7695623e-07
2.3541825e-06 -5.0035608e-11 -2.514678e-07 -5.4366757e-07 1.2551914e-07 -6.380974e-07 5.1531465e-06 -3.0386042e-07
-2.04999e-06 6.0098378e-06 9.764847e-07 -1.2792225e-06 8.7653603e-07 -2.1537004e-05 5.029911e-06 -9.0093147e-07
3.523848e-06 -1.7674068e-07 -9.626487e-06 2.4970127e-06 5.1461193e-06 -3.6001032e-07 -3.9300874e-05 4.137943e-06
-3.3251117e-06 -5.5281305e-07 -4.1518133e-06 7.6280453e-06 -2.612762e-07 3.9191265e-05 3.9033744e-06 3.843676e-06
6.38193e-06 4.9320824e-06 -2.9837294e-05 3.947993e-06 3.934788e-06 1.5999834e-05 1.0083877e-06
00000000: 4e9a 13b6 0e5e 33b6 3269 a5b6 0872 11b6
00000010: aae5 f2b6 c3da 3a36 a6a8 feb6 2c7d 97b6
00000020: 395b 1a36 7f73 1335 246a 9435 ed54 dfb5
00000030: fe45 0636 0122 1cb5 9a4c 9736 5c01 3eb4
00000040: 8cfc 1d36 160f 5cae 7901 87b4 8df0 11b5
00000050: 70c6 0634 b849 2bb5 31e9 ac36 4222 a3b4
00000060: 8f92 09b6 1da8 c936 c20f 8335 c0b1 abb5
00000070: 194b 6b35 5daa b4b7 9bc6 a836 8ad7 71b5
00000080: 3f7b 6c36 1cc6 3db4 7281 21b7 5a92 2736
00000090: d4ac ac36 7147 c1b4 fed6 24b8 a9d8 8a36
000000a0: fc24 5fb6 0665 14b5 ce4f 8bb6 69f4 ff36
000000b0: 8745 8cb4 4d61 2438 bbf9 8236 edf8 8036
000000c0: 5c24 d636 447e a536 1a4b fab7 0079 8436
000000d0: 9207 8436 6237 8637 f057 8735

exp_avg_sq f4 [55]
1.015683e-08 7.806643e-09 2.8592268e-08 2.332994e-09 3.4985955e-08 1.9132012e-09 6.257972e-08 1.5641032e-08
1.4184109e-09 1.6659892e-10 1.7828098e-09 1.0636831e-09 9.686308e-09 3.426259e-09 7.801949e-09 1.1918909e-10
6.0984022e-09 1.213024e-10 1.6995515e-09 1.5622829e-09 1.1902014e-09 1.6134059e-09 1.7628613e-08 1.2089388e-10
3.069317e-10 3.5915082e-08 1.6374075e-09 5.846773e-10 3.763831e-11 4.4387792e-07 3.8694083e-08 2.7509273e-09
1.8844357e-09 3.9441678e-10 5.575186e-08 1.0251573e-08 1.6968684e-08 2.1564367e-10 1.3928183e-06 1.3291892e-08
1.6753736e-09 3.749639e-10 1.9742425e-08 4.8774442e-08 1.9363397e-10 9.377379e-07 1.2884733e-08 1.6439031e-09
9.114818e-09 7.1664212e-09 4.752343e-07 8.9009635e-09 2.3949174e-09 1.8814892e-07 1.8639863e-09
00000000: 367e 2e32 fb1d 0632 109b f532 7752 2031
00000010: 7743 1633 6479 0331 9163 8633 fe5a 8632
00000020: e6f1 c230 6d2d 372f 0b07 f530 0631 9230
00000030: d568 2632 6373 6b31 5609 0632 bf0c 032f
00000040: 1d8a d131 975f 052f a795 e930 f1b7 d630
00000050: 7d94 a330 acbe dd30 bb6d 9732 9aec 042f
00000060: ccbc a82f 0d41 1a33 280b e130 02b7 2030
00000070: f888 252e 1e4e ee34 9830 2633 d30a 3d31
00000080: 587f 0131 3ad5 d82f d173 6f33 e51e 3032
00000090: 88c2 9132 4c1a 6d2f dff0 ba35 5c5a 6432
000000a0: f842 e630 7a23 ce2f 0d96 a932 117c 5133
000000b0: 1ee7 542f dcb8 7b35 a85b 5d32 b3ef e130
000000c0: 6597 1c32 823c f631 b423 ff34 daea 1832
000000d0: d593 2431 fb05 4a34 9817 0031

exp_avg f4 [10]
-0.00019079173 -2.6619313e-05 9.714405e-05 7.517135e-05 -1.05276595e-05 0.00014174209 3.1618765e-05 -3.5630437e-05
-8.39743e-06 2.3377806e-05
00000000: 440f 48b9 8a4c dfb7 d1b9 cb38 50a5 9d38
00000010: f49f 30b7 9aa0 1439 649e 0438 e471 15b8
00000020: b0e2 0cb7 751b c437

exp_avg_sq f4 [10]
2.5750842e-05 2.437056e-07 7.323617e-06 4.6675736e-06 8.014e-08 1.5778747e-05 7.022317e-07 8.5437335e-07
6.355616e-08 5.776973e-07
00000000: 8303 d837 a5d6 8234 64bd f536 279e 9c36
00000010: 6e19 ac33 9a5c 8437 ff80 3c35 1758 6535
00000020: 5e7c 8833 0e13 1b35

exp_avg f4 [10, 10]
3.3121807e-05 2.780343e-05 2.7917189e-05 1.4288388e-05 3.465785e-05 1.4916348e-05 2.733558e-05 4.096726e-05
-8.025024e-06 4.22821e-05 -8.166449e-06 -7.339026e-06 -6.5208405e-06 -3.9378237e-06 -7.2153493e-06 -1.823028e-06
-5.608806e-06 -9.120663e-06 2.3059422e-06 -1.1202966e-05 2.0618152e-05 1.7990636e-05 1.7214341e-05 8.644902e-06
2.1198714e-05 9.481928e-06 1.6961903e-05 2.5477857e-05 -4.9112564e-06 2.5646812e-05 -2.5706363e-06 1.8887181e-06
-1.3741497e-06 2.676702e-07 -3.50074e-06 -6.2004924e-06 -2.7419208e-06 -2.5362365e-06 -1.8869012e-07 1.3619447e-07
2.6618116e-05 2.174486e-05 2.2451699e-05 1.1206155e-05 2.8349103e-05 1.3031586e-05 2.2357022e-05 3.3134118e-05
-6.2743907e-06 3.3441465e-05 3.924676e-05 2.4268342e-05 3.1057323e-05 1.6610755e-05 4.0330266e-05 2.0809011e-05
3.055025e-05 4.4714867e-05 -9.350494e-06 4.8959184e-05 -3.0096057e-06 5.2895433e-07 -2.566617e-06 -2.1092687e-07
-5.3275817e-06 -6.479021e-06 -4.2870843e-06 -4.5922798e-06 -1.54932e-07 -1.0969169e-06 6.5709855e-06 7.935501e-06
5.056427e-06 5.1455777e-06 5.178919e-06 1.5466424e-06 5.404733e-06 8.120214e-06 -1.2011202e-06 7.8885805e-06
6.735987e-06 4.9548844e-06 5.9558047e-06 1.6966623e-06 8.917605e-06 7.209697e-06 7.4647446e-06 9.795285e-06
-8.3363904e-07 5.8818546e-06 -6.8202794e-06 -5.843253e-06 -6.353622e-06 -3.1963914e-06 -8.228276e-06 -2.7895223e-06
-6.2881013e-06 -9.316716e-06 1.746326e-06 -9.778495e-06
00000000: 45ec 0a38 693b e937 b52f ea37 29b8 6f37
00000010: 955d 1138 3a41 7a37 b64e e537 43d4 2b38
00000020: 37a3 06b7 0f58 3138 a202 09b7 c141 f6b6
00000030: 98cd dab6 a621 84b6 611b f2b6 c4ae f4b5
00000040: 4733 bcb6 f304 19b7 c9bf 1a36 5ff4 3bb7
00000050: 25f5 ac37 99ea 9637 8467 9037 9209 1137
00000060: e4d3 b137 9214 1f37 6949 8e37 48b9 d537
00000070: 5fcb a4b6 1c24 d737 3283 2cb6 dc7f fd35
00000080: 6d6f b8b5 50b4 8f34 41ee 6ab6 d30d d0b6
00000090: d701 38b6 3634 2ab6 bf9a 4ab4 da3c 1234
000000a0: f849 df37 bb68 b637 a856 bc37 1202 3c37
000000b0: 3ccf ed37 3ca2 5a37 578b bb37 7df9 0a38
000000c0: 9b88 d2b6 8043 0c38 e39c 2438 de93 cb37
000000d0: 8c43 0238 5357 8b37 4b28 2938 038f ae37
000000e0: 1523 0038 398c 3b38 11e0 1cb7 8659 4d38
000000f0: a2f8 49b6 77fd 0d35 253e 2cb6 237b 62b4
00000100: 94c3 b2b6 5e66 d9b6 c6d9 8fb6 6217 9ab6
00000110: 625b 26b4 c739 93b5 567c dc36 b822 0537
00000120: 61aa a936 2da8 ac36 93c6 ad36 3a96 cf35
00000130: 4e5a b536 0e3c 0837 2d36 a1b5 3259 0437
00000140: b005 e236 2242 a636 f9d7 c736 dfb8 e335
00000150: d29c 1537 d3ea f136 ab79 fa36 6e56 2437
00000160: 3dc7 5fb5 bf5c c536 c1d9 e4b6 2911 c4b6
00000170: 3331 d5b6 9681 56b6 2d0c 0ab7 a133 3bb6
00000180: 61fe d2b6 fe4e 1cb7 4e63 ea35 510e 24b7

exp_avg_sq f4 [10, 10]
6.5212674e-07 3.532121e-07 6.371391e-07 1.6392738e-07 8.212911e-07 2.7920836e-07 5.929196e-07 1.2004695e-06
3.0419898e-08 8.346205e-07 3.3429508e-08 1.8261094e-08 3.261763e-08 8.4235365e-09 4.2179053e-08 1.4416701e-08
3.031747e-08 6.1380064e-08 1.5506216e-09 4.2928395e-08 2.4039062e-07 1.3160924e-07 2.3449206e-07 6.041176e-08
3.0350873e-07 1.0270704e-07 2.1858978e-07 4.4234906e-07 1.1118374e-08 3.0848713e-07 5.7213e-09 3.063387e-09
5.6222884e-09 1.4871714e-09 7.504358e-09 2.8576341e-09 5.016778e-09 1.0059987e-08 2.5668306e-10 7.090341e-09
4.0244885e-07 2.205883e-07 3.9288395e-07 1.0126866e-07 5.083783e-07 1.7265438e-07 3.657973e-07 7.403116e-07
1.86311e-08 5.169723e-07 8.7485347e-07 4.7428338e-07 8.555553e-07 2.206216e-07 1.1014582e-06 3.7356602e-07
7.9707917e-07 1.6147166e-06 4.1038835e-08 1.1236015e-06 1.5703336e-08 7.996504e-09 1.540628e-08 3.9166554e-09
1.9680973e-08 6.920724e-09 1.413768e-08 2.8579429e-08 7.44878e-10 1.9507615e-08 2.0651722e-08 1.161971e-08
2.0311028e-08 5.4789746e-09 2.6176641e-08 9.131331e-09 1.8891678e-08 3.844926e-08 1.0022431e-09 2.7545669e-08
4.842829e-08 2.5053327e-08 4.7267605e-08 1.202158e-08 6.049347e-08 2.0669523e-08 4.380625e-08 8.863452e-08
2.2751228e-09 6.048307e-08 3.111233e-08 1.668499e-08 3.071109e-08 8.04444e-09 3.9749153e-08 1.4117954e-08
2.8206049e-08 5.703008e-08 1.485855e-09 3.9663608e-08
00000000: cf0d 2f35 1aa1 bd34 de07 2b35 0404 3034
00000010: b276 5c35 1be6 9534 2029 1f35 d11f a135
00000020: 08a7 0233 af0a 6035 2294 0f33 92dc 9c32
00000030: 7717 0c33 1bb7 1032 5c28 3533 52ad 7732
00000040: 6936 0233 0cd0 8333 a61d d530 4560 3833
00000050: 090f 8134 7950 0d34 b0c8 7b34 b7bb 8133
00000060: ecf1 a234 cb8f dc33 80b5 6a34 fe7b ed34
00000070: 2003 3f32 269e a534 1695 c431 ad83 5231
00000080: 2c2e c131 3165 cc30 84ec 0032 0860 4431
00000090: 0c60 ac31 4ad4 2c32 ee1c 8d2f 4d9f f331
000000a0: 2610 d834 dada 6c34 8fed d234 0979 d933
000000b0: 7e77 0835 e062 3934 cc62 c434 d3b9 4635
000000c0: 390a a032 11c6 0a35 79d7 6a35 03a1 fe34
000000d0: 50a9 6535 01e4 6c34 d1d5 9335 868e c834
000000e0: ddf6 5535 3db9 d835 ad42 3033 a7ce 9635
000000f0: 00e4 8632 ff60 0932 c556 8432 4493 8631
00000100: eb0e a932 55cb ed31 2de2 7232 d47e f532
00000110: 21c0 4c30 b391 a732 9e65 b132 06a0 4732
00000120: 6c78 ae32 9241 bc31 0bdb e032 05e0 1c32
00000130: 3d47 a232 6923 2533 4bbf 8930 919d ec32
00000140: 78ff 4f33 d934 d732 4803 4b33 7887 4e32
00000150: a3e8 8133 c38c b132 7b25 3c33 5857 be33
00000160: 6258 1c31 ebe2 8133 5ea0 0533 ae52 8f32
00000170: 33e7 0333 d233 0a32 a8b8 2a33 6b8b 7232
00000180: c249 f232 3cf1 7433 e036 cc30 995a 2a33

exp_avg f4 [10]
8.346983e-05 -1.8803918e-05 5.147446e-05 -7.892679e-06 6.773484e-05 9.8334e-05 -1.0850306e-05 1.680573e-05
1.9583358e-05 -1.8433475e-05
00000000: 860c af38 1bbd 9db7 48e6 5738 cc6a 04b7
00000010: de0c 8e38 aa38 ce38 b609 36b7 08fa 8c37
00000020: f146 a437 96a1 9ab7

exp_avg_sq f4 [10]
5.2825967e-06 2.7017956e-07 1.9464435e-06 4.3927134e-08 3.2575842e-06 7.1082723e-06 1.255795e-07 1.6966852e-07
3.8966027e-07 2.5000605e-07
00000000: 2941 b136 320d 9134 a59f 0236 65aa 3c33
00000010: df9c 5a36 9883 ee36 08d7 0634 212e 3634
00000020: 8032 d134 9238 8634

exp_avg f4 [17]
2.5598604e-06 2.220111e-06 -7.5806934e-06 -1.6968438e-07 3.0282925e-07 7.1140454e-07 1.1350069e-05 4.7422637e-07
1.2008184e-06 -8.2945874e-08 -1.7009457e-06 7.206184e-08 -7.838599e-08 2.7653425e-07 2.2739263e-07 -9.425566e-08
1.991439e-07
00000000: 11ca 2b36 37fd 1436 a95d feb6 7d32 36b4
00000010: 8994 a234 59f7 3e35 2d6c 3e37 2d99 fe34
00000020: ce2b a135 fa1f b2b3 0d4c e4b5 6ac0 9a33
00000030: 2755 a8b3 9476 9434 3629 7434 9969 cab3
00000040: 42d4 5534

exp_avg_sq f4 [17]
6.666229e-10 1.8741453e-09 1.47946455e-08 6.541753e-10 1.2017342e-08 9.17151e-11 4.4043002e-08 7.17831e-11
7.538321e-10 8.75089e-12 8.814319e-10 1.05808695e-11 1.243864e-10 2.804729e-11 5.544142e-11 1.5826004e-11
2.8351953e-11
00000000: 6b3d 3730 50ca 0031 8a2b 7e32 7fd1 3330
00000010: d474 4e32 03af c92e cb29 3d33 4bda 9d2e
00000020: 3836 4f30 81f2 192d 4249 7230 0024 3a2d
00000030: a9c3 082f e2b4 f62d 7dd5 732e fe34 8b2d
00000040: ec62 f92d

exp_avg f4 [10]
-1.0929552e-06 1.7100807e-06 2.5204638e-06 -2.4134692e-07 1.874846e-07 -6.474227e-06 -3.7539055e-06 2.800688e-06
3.7907676e-06 2.3999037e-06
00000000: a8b1 92b5 ed85 e535 3d25 2936 7892 81b4
00000010: 604f 4934 303d d9b6 9beb 7bb6 74f3 3b36
00000020: e464 7e36 080e 2136

exp_avg_sq f4 [10]
5.946706e-09 9.614862e-10 5.8242446e-09 1.9036988e-09 1.0350312e-09 3.6790755e-08 5.0205196e-09 4.7415295e-08
2.8754341e-08 1.610367e-08
00000000: c753 cc31 4a25 8430 991e c831 39d2 0231
00000010: ec40 8e30 dd03 1e33 f580 ac31 aba5 4b33
00000020: 77ff f632 5854 8a32

exp_avg f4 [10, 10]
6.1522646e-06 -2.346337e-06 -1.3691761e-06 7.053689e-06 -1.7741943e-06 1.462933e-05 8.521613e-06 6.4679116e-06
1.2986835e-06 7.520581e-06 4.902251e-07 -2.103622e-07 -1.4474362e-07 5.8820024e-07 -1.8095425e-07 9.595338e-07
6.686665e-07 5.0237634e-07 7.0262905e-07 6.008939e-07 -3.2519843e-06 1.2321422e-06 8.606088e-07 -3.7004113e-06
9.729592e-07 -5.8185205e-06 -3.909693e-06 -2.996461e-06 -2.9353787e-06 -3.576894e-06 -1.2141735e-06 7.014789e-07
3.550378e-07 -1.6334345e-06 6.508087e-07 -4.5679726e-06 -2.4127562e-06 -2.341612e-06 -1.6087373e-06 -1.9520348e-06
-2.5373624e-06 9.63844e-07 5.68116e-07 -2.8944244e-06 7.3103575e-07 -5.7719476e-06 -3.4696304e-06 -2.6013163e-06
-8.493443e-07 -3.0730728e-06 4.0379695e-07 7.028567e-07 1.7087464e-07 -7.875067e-07 8.333661e-07 -1.0364374e-05
-3.2782161e-06 -3.6048414e-06 3.8096189e-06 -2.0926266e-06 -1.567826e-07 2.3272965e-07 2.8614485e-07 -3.9619468e-07
3.2082988e-07 4.927024e-07 -2.068306e-07 -2.3742069e-07 -3.4390641e-06 -2.2856345e-07 1.0192305e-06 1.2489092e-07
-8.384796e-08 5.4016516e-07 3.1886273e-07 -2.6141943e-06 -6.5448705e-07 -1.1752716e-06 -4.584462e-07 -1.5098188e-07
-6.367752e-06 1.608458e-06 1.123006e-06 -6.3712987e-06 8.2520506e-07 -8.219158e-06 -6.046817e-06 -3.0319034e-06
1.447199e-06 -5.9671665e-06 -1.2695189e-07 -3.6036738e-09 6.208361e-08 -8.804641e-08 -1.2847552e-08 6.9899255e-07
1.9670986e-07 2.2516714e-07 -5.066102e-07 9.152656e-08
00000000: 8d6f ce36 c375 1db6 88c4 b7b5 baae ec36
00000010: da20 eeb5 7e70 7537 0df8 0e37 f006 d936
00000020: 6d4e ae35 4d59 fc36 0398 0335 ecdf 61b4
00000030: d36a 1bb4 d0e4 1d35 534c 42b4 55c9 8035
00000040: 697e 3335 0adb 0635 4d9c 3c35 1d4d 2135
00000050: aa3c 5ab6 1560 a535 9604 6735 9554 78b6
00000060: a096 8235 b63c c3b6 0230 83b6 cf16 49b6
00000070: 6cfd 44b6 920a 70b6 aff6 a2b5 434d 3c35
00000080: 069c be34 623c dbb5 3cb3 2e35 9646 99b6
00000090: d6ea 21b6 9624 1db6 cbeb d7b5 b4ff 02b6
000000a0: 8e47 2ab6 6d5d 8135 a280 1835 d53d 42b6
000000b0: 653c 4435 a7ac c1b6 ccd7 68b6 4692 2eb6
000000c0: 7ffe 63b5 fd3a 4eb6 6ec9 d834 f2ab 3c35
000000d0: aa79 3734 0c65 53b5 7bb4 5f35 a6e2 2db7
000000e0: 53ff 5bb6 b4ea 71b6 c1a8 7f36 0d6f 0cb6
000000f0: 1358 28b4 3de4 7934 739f 9934 95b4 d4b4
00000100: 863e ac34 4042 0435 2a15 5eb4 b4ed 7eb4
00000110: acca 66b6 0b6b 75b4 7ecc 8835 c119 0634
00000120: e70f b4b3 deff 1035 2930 ab34 846f 2fb6
00000130: 02b0 2fb5 06be 9db5 5e20 f6b4 951d 22b4
00000140: 93aa d5b6 32e2 d735 31ba 9635 0ac9 d5b6
00000150: a983 5d35 04e5 09b7 c3e5 cab6 b477 4bb6
00000160: 613d c235 9239 c8b6 4550 08b4 80a4 77b1
00000170: d352 8533 0714 bdb3 22b8 5cb2 67a2 3b35
00000180: 3237 5334 79c5 7134 fdfd 07b5 428d c433

exp_avg_sq f4 [10, 10]
3.623632e-08 5.322821e-09 2.2264308e-09 4.5894932e-08 2.8667677e-09 1.4202945e-07 6.155957e-08 2.5704033e-08
1.9002249e-09 6.120752e-08 7.135898e-11 2.7860075e-11 1.156606e-11 1.12257356e-10 2.135091e-11 7.833097e-10
2.4368504e-10 1.6052083e-10 9.7784e-11 5.0354304e-10 3.1284817e-09 4.1141685e-10 2.1490983e-10 3.830481e-09
2.0702616e-10 1.0961562e-08 4.8526525e-09 2.0018889e-09 3.7710418e-10 6.7296986e-09 9.321679e-10 2.4499855e-10
7.836162e-11 1.4240924e-09 1.802178e-10 7.782554e-09 2.557425e-09 1.6278021e-09 4.853294e-10 2.4202422e-09
2.661501e-09 4.0431766e-10 2.5056016e-10 3.2400158e-09 2.1561271e-10 1.0182359e-08 4.4064663e-09 1.8234249e-09
9.923328e-10 1.0233163e-08 3.4636005e-09 5.391428e-10 2.2412211e-10 4.438733e-09 3.0083933e-10 1.46482195e-08
6.188727e-09 2.66847e-09 3.0185804e-10 6.668458e-09 4.6681606e-11 1.1143786e-11 7.348918e-12 6.0448715e-11
7.043224e-12 2.7133198e-10 1.02193504e-10 5.4138437e-11 8.92006e-11 4.6469145e-10 4.160489e-11 1.868349e-11
8.105435e-12 5.078677e-11 1.7870481e-11 5.7380034e-10 1.2609395e-10 6.429103e-11 4.364062e-11 3.188652e-10
1.747818e-08 2.2040902e-09 1.0144663e-09 2.1134564e-08 1.0807737e-09 5.5394736e-08 2.612011e-08 9.3992085e-09
4.348344e-10 2.7685529e-08 1.165452e-11 2.0149212e-12 1.8446742e-12 1.2132164e-11 1.1071622e-12 3.7113684e-11
1.5340356e-11 5.150806e-12 3.411529e-11 1.6744867e-10
00000000: 41a2 1b33 07e4 b631 c9ff 1831 031e 4533
00000010: b600 4531 c280 1834 bb32 8433 c4cb dc32
00000020: 1c95 0231 3171 8333 89eb 9c2e 500f f52d
00000030: e778 4b2d 46db f62e facd bb2d 8550 5730
00000040: 9ff7 852f 997e 302f 8007 d72e b169 0a30
00000050: d5fc 5631 c62d e22f bd4b 6c2f 449d 8331
00000060: afa0 632f 7651 3c32 62bc a631 9a91 0931
00000070: b250 cf2f 0e3b e731 be1d 8030 7bb0 862f
00000080: ac51 ac2e ccb9 c330 cd26 462f 09b4 0532
00000090: b2be 2f31 32b9 df30 0568 0530 5a51 2631
000000a0: 9fe5 3631 a746 de2f 35bf 892f f6a6 5e31
000000b0: 9511 6d2f 7dee 2e32 b067 9731 0f9c fa30
000000c0: 9b62 8830 edcd 2f32 4e04 6e31 cd32 1430
000000d0: c46c 762f 8283 9831 5f63 a52f 8da7 7b32
000000e0: 9ea4 d431 3860 3731 bef2 a52f 6020 e531
000000f0: d14e 4d2e 270b 442d 9648 012d 9aed 842e
00000100: b9cf f72c 952a 952f d4b9 e02e 761a 6e2e
00000110: 7927 c42e 8277 ff2f f1fa 362e 7b57 a42d
00000120: a297 0e2d d25c 5f2e bf30 9d2d 9cb9 1d30
00000130: 4ba4 0a2f a260 8d2e f8ee 3f2e 4a4c af2f
00000140: ed22 9632 c476 1731 5c6d 8b30 668b b532
00000150: 588a 9430 28eb 6d33 bb5e e032 287a 2132
00000160: 800d ef2f 1fd1 ed32 4b07 4d2d 98c9 0d2c
00000170: b2ce 012c 696e 552d b9d1 9b2b 4b3a 232e
00000180: 69ef 862d 563a b52c 670a 162e 9c1c 382f

exp_avg f4 [10]
1.856027e-05 1.7642171e-06 -1.0335715e-05 -5.5960354e-06 -7.633245e-06 -5.2648975e-06 -2.5718791e-06 -7.880429e-07
-1.261471e-05 -1.8871202e-07
00000000: e0b1 9b37 0aca ec35 8f67 2db7 94c5 bbb6
00000010: 8a10 00b7 20a9 b0b6 8c98 2cb6 e589 53b5
00000020: c4a3 53b7 c4a0 4ab4

exp_avg_sq f4 [10]
3.397749e-07 2.3656084e-09 2.9373782e-08 1.5794042e-08 3.6784822e-08 3.4580246e-08 1.9149067e-09 1.2369944e-09
1.4350397e-07 7.8718465e-10
00000000: 4f6a b634 3990 2231 a151 fc32 77ab 8732
00000010: 57fd 1d33 6285 1433 6597 0331 df02 aa30
00000020: 1216 1a34 3261 5830
