models/ensembles/ensemble_25_unbootsrapped/model18/model_checkpoint-10000.pt (torch, 14893 bytes, 24 tensors)

branch.hidden_layers.0.thetas f4 [55]
0	0x3f22fcde	0.63667095
1	0xbff65311	-1.92441
2	0xbf68d2e2	-0.9094678
3	0xbed0dbb7	-0.4079263
4	0xbfc4a066	-1.536145
5	0x3e57d5af	0.21077608
6	0x3f1f65d1	0.62264735
7	0xbed2c2c5	-0.41164222
8	0xbcf95ca2	-0.030439679
9	0xbf5b492d	-0.8565853
10	0x3ded53d3	0.11588254
11	0xbd93981b	-0.07206746
12	0xbf07c5d1	-0.5303622
13	0x3efa35e8	0.48869252
14	0x4025a2e7	2.5880678
15	0x3eca6979	0.39533594
16	0xbf8b9b98	-1.0906858
17	0xbd8d0334	-0.068853766
18	0xbea787e9	-0.3272088
19	0x3f2d2d5d	0.67647344
20	0x3f5c54d4	0.8606694
21	0xbe64d6cb	-0.22347562
22	0x40011646	2.0169845
23	0x3e864019	0.26220778
24	0x3fb556c3	1.4167103
25	0xbf929b46	-1.1453636
26	0x3f2a42cf	0.6650819
27	0xc04117e0	-3.0170822
28	0xbf78b3f5	-0.9714959
29	0xbed91406	-0.4239809
30	0x3e89bc6b	0.26901564
31	0x3fe0b000	1.7553711
32	0x3f046ae0	0.5172558
33	0xc0062d6d	-2.0965226
34	0x3f1927da	0.59826434
35	0xbdb0d203	-0.086338066
36	0x3f163918	0.5868087
37	0xbea8ab1f	-0.32943055
38	0x3ec38f36	0.381952
39	0x3f218a68	0.63101816
40	0xbecc3440	-0.39883614
41	0xbe07af3b	-0.13250439
42	0x3fb224d5	1.391749
43	0xbccdce8c	-0.025122903
44	0xc00bdd02	-2.1853642
45	0x3f21950d	0.6311806
46	0x3da768e0	0.081743
47	0x3f846ca2	1.0345652
48	0x3fefc2ef	1.8731364
49	0xbf9f553a	-1.2447884
50	0x3f25022f	0.64456457
51	0xbf3a9d2d	-0.7289608
52	0x3f7314f4	0.94953847
53	0xc020c530	-2.5120354
54	0x3ec63f71	0.38720277

branch.hidden_layers.0.bias f4 [10]
0	0x3edaa2fc	0.42702472
1	0x3ebc6a15	0.36799684
2	0x3f168189	0.58791405
3	0x3ecbe3b2	0.39822155
4	0x3edd8f84	0.43273556
5	0x3f01b3ba	0.50664866
6	0x3e795ba8	0.2435137
7	0x3f4aeb49	0.79265267
8	0x3e9d8f9c	0.30773628
9	0x3e7ae3fa	0.24501029

branch.output_layer.weight f4 [10, 10]
0	0xbf650ffc	-0.89477515
1	0xbebf358f	-0.3734555
2	0xbee02aff	-0.43782803
3	0x3f2279eb	0.6346728
4	0xbe3f7aae	-0.18699142
5	0xbf8c4f80	-1.0961761
6	0x3e490544	0.19630915
7	0x3f2f9ba3	0.6859686
8	0xbe02a71c	-0.1275906
9	0x3efaa172	0.48951298
10	0xbeb8e56b	-0.36112532
11	0xbde6e346	-0.11273818
12	0x3eef9ba1	0.46798423
13	0x3e56750a	0.20943084
14	0x3ebd4f2e	0.36974472
15	0xbe748d65	-0.23882063
16	0x3ec61025	0.38684192
17	0x3d97a190	0.074038625
18	0xbe693644	-0.22774607
19	0x3e42cf71	0.19024445
20	0x3ed19309	0.4093249
21	0x3ee41de1	0.44554046
22	0xbf118be3	-0.56854075
23	0xbec47aef	-0.3837504
24	0xbe852fa3	-0.26012906
25	0x3f17ad7d	0.592491
26	0xbd989c94	-0.0745174
27	0xbf445a3f	-0.76700205
28	0x3e608319	0.2192501
29	0xbf22ff70	-0.63671017
30	0xbebd6292	-0.36989266
31	0xbe87b8ae	-0.26508087
32	0x3ed031db	0.40663037
33	0x3ef7f50f	0.48429152
34	0x3f0228dd	0.508436
35	0xbed7e3f8	-0.42166114
36	0x3e53a83d	0.20669647
37	0x3ca4c787	0.020114673
38	0xbd83b0e8	-0.064302266
39	0x3d617442	0.055042513
40	0x3f0b6575	0.54451686
41	0x3ea47f40	0.32128334
42	0x3e679db2	0.2261875
43	0xbf15316f	-0.58278555
44	0x3ee6bcf9	0.4506605
45	0x3f1a4168	0.6025605
46	0xbeb5663b	-0.35429558
47	0xbf9f01e8	-1.2422457
48	0x3f3bb3bc	0.7332113
49	0xbe990752	-0.29888397
50	0xbef78ac7	-0.48348066
51	0xbdcc915f	-0.09988665
52	0x3f8d16bc	1.1022563
53	0x3f09624e	0.53665626
54	0x3e810408	0.25198388
55	0x3eddb15b	0.43299374
56	0x3eb2fe4b	0.34959635
57	0xbf27f211	-0.6560374
58	0xbe1dc983	-0.15408902
59	0xbe8bfd51	-0.27341703
60	0xbb4dc965	-0.0031400558
61	0xbeb54b92	-0.35409218
62	0x3f1e70d9	0.6189094
63	0x3ed41b0c	0.41426885
64	0x3eb8c1b7	0.36085293
65	0x3d8c59ed	0.068530895
66	0x3cd84a8b	0.026402732
67	0xbeace6e3	-0.33769903
68	0xbe8d8c5f	-0.27646157
69	0x3e8c3324	0.27382767
70	0xbf384103	-0.719742
71	0xbef9ec5f	-0.4881315
72	0x3f1d33ff	0.61407465
73	0x3e6ceaf7	0.23136507
74	0x3f2c60fb	0.6733548
75	0xbeffc591	-0.4995542
76	0x3ea69fa3	0.32543668
77	0xbf118779	-0.5684734
78	0x3e97e8cb	0.29669794
79	0xbe18e545	-0.1493121
80	0x3e7952db	0.24348013
81	0x3e82d45c	0.25552642
82	0xbf19b002	-0.6003419
83	0xbf33ffa0	-0.7031193
84	0xbe92d506	-0.2867815
85	0x3f240847	0.6407513
86	0xbec7121f	-0.38881013
87	0x3ee178d5	0.440375
88	0xbdbea254	-0.093083054
89	0x3cad5bba	0.021161903
90	0x3ec6f2f5	0.38857237
91	0x3e331ebe	0.17492196
92	0xbf2fbe59	-0.6864982
93	0xbed4068b	-0.41411242
94	0xbe9d7240	-0.30751228
95	0x3ea1d393	0.3160673
96	0xbed961ef	-0.4245753
97	0x3d49e739	0.049292777
98	0x3ea0ec69	0.31430367
99	0x3de08c53	0.10964265

branch.output_layer.bias f4 [10]
0	0xbca7dac9	-0.020490067
1	0x3d88f7aa	0.06687863
2	0x3eaba301	0.335228
3	0x3ca64549	0.02029671
4	0x3d321f51	0.043486897
5	0xbe491692	-0.19637516
6	0xbee46cde	-0.4461431
7	0x3d2f19db	0.042749267
8	0x3ea6a4c2	0.32547575
9	0xbd4b0ac8	-0.04957083

trunk.hidden_layers.0.thetas f4 [17]
0	0xbfbf3fc4	-1.4941335
1	0x3f317385	0.69316894
2	0xbfadf618	-1.3590727
3	0x3f926a66	1.143872
4	0xbe7f804b	-0.24951284
5	0x3fae5ef8	1.3622732
6	0xbfeabd4f	-1.8339022
7	0x3e73e048	0.23816025
8	0x3f1e6361	0.6187039
9	0xbf1fcc66	-0.6242126
10	0xbe9d436f	-0.3071551
11	0xbf554158	-0.8330283
12	0xbf563dc9	-0.83688027
13	0x3fed7596	1.8551509
14	0x3f4e692e	0.8062924
15	0x3fc9b5b2	1.5758574
16	0x3f9a0242	1.2031939

trunk.hidden_layers.0.bias f4 [10]
0	0x3edcc5d8	0.43119693
1	0xbdcdba37	-0.10045283
2	0x3ef9b66b	0.48771986
3	0x3cfcc7c1	0.030856969
4	0x3ebc0436	0.36721963
5	0xbe10de5f	-0.14147328
6	0x3f2ba005	0.67041045
7	0x3f0aa21c	0.5415361
8	0x3eacaf0c	0.337273
9	0xbd07550f	-0.033040103

trunk.output_layer.weight f4 [10, 10]
0	0xbf3a8dd1	-0.72872645
1	0x3f04dcd9	0.51899487
2	0x3dd00caa	0.101586655
3	0x3f45fdb9	0.77340275
4	0x3f96be35	1.1776797
5	0x3e6b42cf	0.22974704
6	0xbf10240b	-0.56305
7	0xbe8e645e	-0.2781095
8	0x3f91e954	1.1399331
9	0x3e83899c	0.25690925
10	0xbf1b4f21	-0.60667616
11	0x3f49a551	0.7876788
12	0xbf0f01a3	-0.5586187
13	0x3ee3c6bf	0.4448757
14	0x3f177a6b	0.5917117
15	0x3e6c6cd3	0.23088388
16	0xbf3dd52f	-0.7415342
17	0xbebe6918	-0.37189555
18	0x3e5971b8	0.21234787
19	0x3ec6ea5f	0.38850686
20	0x3eacc463	0.3374358
21	0xbe8808e7	-0.26569292
22	0x3f1feb84	0.62468743
23	0xbe39fafe	-0.18162152
24	0x3d90e6a5	0.07075242
25	0xbef5b47b	-0.47989258
26	0x3e6f1d2c	0.23350972
27	0x3ed3db27	0.41378137
28	0x3d91064c	0.07081279
29	0x3d431b93	0.04763372
30	0xbf161261	-0.58621794
31	0x3f1c31d2	0.6101352
32	0xbd9edba8	-0.0775674
33	0x3efeb0c5	0.4974424
34	0x3f505d32	0.81392205
35	0x3cc82e28	0.024436072
36	0xbf11ff5d	-0.5703028
37	0xbef0146c	-0.4689058
38	0x3e8731fb	0.2640532
39	0x3ed75db8	0.4206369
40	0x3f496a62	0.7867795
41	0xbf2c8c32	-0.6740142
42	0x3ecd307e	0.4007606
43	0xbf50fe3a	-0.8163792
44	0xbf81fa64	-1.0154538
45	0xbefc6e96	-0.4930312
46	0x3f19181d	0.5980242
47	0x3f0d3283	0.551552
48	0xbf2f35d7	-0.6844153
49	0xbf08754e	-0.5330399
50	0xbf776ed1	-0.9665347
51	0x3f927e8c	1.1444869
52	0xbbda33a3	-0.0066589876
53	0x3f8ac8c0	1.0842514
54	0x4013d745	2.310014
55	0x3f7a463f	0.9776344
56	0xbfb2049b	-1.3907655
57	0xbe91c4cf	-0.28470466
58	0x3d802a1d	0.062580325
59	0x3f6f0fbc	0.93383384
60	0xbf253567	-0.6453461
61	0x3f7b929d	0.9827059
62	0xbeb6ffa6	-0.3574192
63	0x3f586f10	0.8454447
64	0x3ff3b410	1.9039326
65	0x3f2dcc78	0.6789012
66	0xbf8cc5f4	-1.099791
67	0xbea93509	-0.33048275
68	0xbed3a29c	-0.41335
69	0x3f194389	0.59868675
70	0xbfb6f01e	-1.4292028
71	0x3f9009ce	1.1252992
72	0xbef3b863	-0.47601613
73	0x3f00494e	0.50111854
74	0x3fa0d02c	1.2563529
75	0xbe097cb1	-0.13426472
76	0xbf92d649	-1.1471645
77	0xbf4496f7	-0.76792854
78	0x3fb8a17a	1.4424279
79	0x3f97b03f	1.1850661
80	0x3f031d82	0.512169
81	0xbe46f6b4	-0.19430047
82	0x3f322370	0.69585323
83	0xbed5e41d	-0.417756
84	0xbd4f49da	-0.05060754
85	0xbf2a69da	-0.66567767
86	0x3f02e354	0.51128125
87	0x3ed93943	0.424265
88	0x3f1bc6c3	0.6085016
89	0xbf0fc7e8	-0.5616441
90	0x3f372db3	0.71554106
91	0xbef02cfa	-0.46909314
92	0x3f245e12	0.6420604
93	0xbe65afd3	-0.22430353
94	0xbf2258e3	-0.6341688
95	0xbf1caf46	-0.61204946
96	0x3e744571	0.23854615
97	0x3f191e0e	0.59811485
98	0x3f0b68ea	0.5445696
99	0xbf0b921a	-0.5451981

trunk.output_layer.bias f4 [10]
0	0xbe29021c	-0.16504711
1	0xbe54b11b	-0.20770685
2	0x3ef57d06	0.47946948
3	0xbe50a242	-0.20374396
4	0x3e9b27ac	0.30303705
5	0xbe53ad16	-0.20671496
6	0xbea3ab30	-0.31966543
7	0xbe9654e5	-0.29361644
8	0x3f03ec2a	0.5153223
9	0x3ee5dfd9	0.44897345

exp_avg f4 [55]
0	0x359a515d	1.1497574e-06
1	0x36572f3f	3.2064997e-06
2	0xb5d9667f	-1.619759e-06
3	0x355b3f5b	8.167605e-07
4	0x36489032	2.9886255e-06
5	0xb653a547	-3.1537654e-06
6	0xb51622e1	-5.593011e-07
7	0x34763bf4	2.2932346e-07
8	0xb56c8ade	-8.811893e-07
9	0x35f36830	1.8135233e-06
10	0xb590d587	-1.0790981e-06
11	0xb508a0a2	-5.08977e-07
12	0xb5f67d01	-1.8364809e-06
13	0x3678d878	3.7080881e-06
14	0xb4f8f045	-4.636842e-07
15	0x36101924	2.1472306e-06
16	0x360ca2e7	2.0956447e-06
17	0x352e76d5	6.4992975e-07
18	0x35699753	8.701947e-07
19	0x35e70f89	1.7215363e-06
20	0x350be275	5.2111074e-07
21	0x35c7ae82	1.4877444e-06
22	0x350ab3b3	5.1670503e-07
23	0x349c8207	2.9151872e-07
24	0x36bec848	5.685757e-06
25	0x365d605f	3.2987662e-06
26	0x361cce84	2.336602e-06
27	0x35af8936	1.307845e-06
28	0x34471b48	1.8543244e-07
29	0xb65ef64e	-3.3223946e-06
30	0xb524da40	-6.1412356e-07
31	0xb6417888	-2.88294e-06
32	0xb5d84cbd	-1.6115588e-06
33	0x35b38321	1.3374703e-06
34	0x3608c9be	2.0383009e-06
35	0x33f09784	1.12034314e-07
36	0xb532016c	-6.6312236e-07
37	0x36970f4b	4.501931e-06
38	0x35e9af9c	1.7410962e-06
39	0xb4b9bcb4	-3.4596235e-07
40	0xb585221b	-9.919198e-07
41	0x36a0f424	4.7967933e-06
42	0x35e204a4	1.6839663e-06
43	0x35ba8e69	1.3899527e-06
44	0x36107960	2.1528322e-06
45	0xb5ea3720	-1.7450402e-06
46	0xb49cb01f	-2.918541e-07
47	0xb64238fb	-2.894142e-06
48	0xb67ac957	-3.7370098e-06
49	0xb61931cb	-2.282776e-06
50	0xb52ab7c1	-6.359733e-07
51	0x3662b4fd	3.3781973e-06
52	0x369ae702	4.6164505e-06
53	0x35e7d7ce	1.7273649e-06
54	0xb68849eb	-4.061721e-06

exp_avg_sq f4 [55]
0	0x31bb16ee	5.445023e-09
1	0x3336f797	4.260036e-08
2	0x3162514c	3.293354e-09
3	0x3430e8d9	1.6475987e-07
4	0x32f4ec2e	2.851274e-08
5	0x32aae0ed	1.989289e-08
6	0x32a98821	1.9736094e-08
7	0x31f6624e	7.1707182e-09
8	0x32834abf	1.5284398e-08
9	0x2fc5b294	3.596098e-10
10	0x32f89776	2.8939876e-08
11	0x2ef72641	1.1239055e-10
12	0x31fc0e30	7.335778e-09
13	0x339a1f7f	7.176913e-08
14	0x32cfc2eb	2.418661e-08
15	0x301ebd85	5.774939e-10
16	0x33091283	3.1914634e-08
17	0x333f7e80	4.4585704e-08
18	0x2f21bd7e	1.4710186e-10
19	0x2ef5b742	1.1173863e-10
20	0x325fef56	1.3034727e-08
21	0x33e25e29	1.0541073e-07
22	0x32c35790	2.2740807e-08
23	0x2db167c5	2.0168653e-11
24	0x30914a52	1.0571262e-09
25	0x3066da71	8.3983936e-10
26	0x3321cabf	3.767013e-08
27	0x3182b868	3.8044625e-09
28	0x2d43c59a	1.1128343e-11
29	0x35e17361	1.6797386e-06
30	0x33911f3c	6.75777e-08
31	0x317fb8c0	3.7212402e-09
32	0x2f7add11	2.2815906e-10
33	0x2f2ea35b	1.5883243e-10
34	0x34afd50f	3.275131e-07
35	0x33f8191b	1.15529666e-07
36	0x30729815	8.825521e-10
37	0x3188b883	3.9790975e-09
38	0x34415b5f	1.8007766e-07
39	0x33912806	6.759369e-08
40	0x30e14af3	1.6392206e-09
41	0x303c9404	6.8604344e-10
42	0x32c30d08	2.2706914e-08
43	0x33942510	6.898529e-08
44	0x2ff3625a	4.4271325e-10
45	0x335742db	5.0119393e-08
46	0x338c3eae	6.5306594e-08
47	0x31a24e95	4.7237543e-09
48	0x30bb394f	1.3622329e-09
49	0x32228bf6	9.4614645e-09
50	0x30999b47	1.1176348e-09
51	0x31a4fe58	4.8019437e-09
52	0x323200e2	1.0361164e-08
53	0x3171f594	3.520971e-09
54	0x31158966	2.1760456e-09

exp_avg f4 [10]
0	0x36abe695	5.1230404e-06
1	0x367e234b	3.7869493e-06
2	0xb77c478d	-1.503703e-05
3	0xb4623abc	-2.1069258e-07
4	0xb6f7eb4c	-7.388566e-06
5	0x3545e400	7.372e-07
6	0xb5ddb9e7	-1.6519888e-06
7	0x360ff797	2.1452777e-06
8	0xb790a191	-1.7241373e-05
9	0xb56745a3	-8.615554e-07

exp_avg_sq f4 [10]
0	0x36e8e4bd	6.9407674e-06
1	0x36821a90	3.877394e-06
2	0x37e0e01d	2.6807242e-05
3	0x376ecea7	1.42340205e-05
4	0x368b2187	4.146426e-06
5	0x372cc889	1.029869e-05
6	0x36ab68d1	5.1083994e-06
7	0x3316bdf3	3.5097354e-08
8	0x36326e61	2.6588316e-06
9	0x358e197e	1.0587244e-06

exp_avg f4 [10, 10]
0	0x36c3f527	5.8399924e-06
1	0xb650d831	-3.1120255e-06
2	0x3718b34e	9.101654e-06
3	0xb5a34827	-1.2165445e-06
4	0xb6f99cd9	-7.4390377e-06
5	0xb591651b	-1.0832767e-06
6	0xb5a9c7df	-1.2649651e-06
7	0xb6c760de	-5.941939e-06
8	0xb6b299d4	-5.3227213e-06
9	0x36a898f5	5.0245967e-06
10	0xb4db8866	-4.0891172e-07
11	0x34780227	2.3097583e-07
12	0xb5badea4	-1.3922877e-06
13	0xb5515fb9	-7.799786e-07
14	0xb47f04d2	-2.3750479e-07
15	0x34eddd1f	4.4305577e-07
16	0xb2525583	-1.2243052e-08
17	0xb55ec93d	-8.2994285e-07
18	0xb4ee17c6	-4.4348252e-07
19	0x3683df69	3.9301126e-06
20	0x35918a51	1.0843597e-06
21	0xb5996989	-1.1430103e-06
22	0x3699b39a	4.5806637e-06
23	0x360a278f	2.0586629e-06
24	0xb536c79c	-6.8090753e-07
25	0xb67493b7	-3.6444815e-06
26	0xb48316de	-2.441729e-07
27	0x35185af2	5.6756755e-07
28	0x367fb793	3.8104815e-06
29	0xb751155f	-1.2462347e-05
30	0x34160554	1.3971777e-07
31	0xb4890282	-2.5520063e-07
32	0xb4aacfbc	-3.1816114e-07
33	0xb563b0b2	-8.4821215e-07
34	0xb58cc122	-1.0487022e-06
35	0xb4ec8278	-4.4053354e-07
36	0xb426f65e	-1.5549583e-07
37	0xb5f396fa	-1.8148851e-06
38	0xb4deb25c	-4.1480496e-07
39	0x36847808	3.94788e-06
40	0x37050a69	7.929842e-06
41	0x3485341a	2.481109e-07
42	0x37481c4e	1.1927519e-05
43	0x35b5fb05	1.3558607e-06
44	0xb67958da	-3.715561e-06
45	0x373d716e	1.1291688e-05
46	0x34d34da6	3.935831e-07
47	0x36215ce7	2.4044946e-06
48	0xb746d08b	-1.1850275e-05
49	0xb69ad412	-4.614246e-06
50	0xb6b9cc5f	-5.5372216e-06
51	0xb6128a04	-2.183603e-06
52	0xb7076d5c	-8.072089e-06
53	0x351cefae	5.846331e-07
54	0x364b783c	3.0319343e-06
55	0xb751bad4	-1.250087e-05
56	0x354081e9	7.171462e-07
57	0xb6a3a849	-4.8773695e-06
58	0x3723b854	9.758474e-06
59	0xb67ca47b	-3.7646666e-06
60	0xb68e0672	-4.23268e-06
61	0xb5caf77a	-1.5122198e-06
62	0xb6c41007	-5.843121e-06
63	0x356413c0	8.496536e-07
64	0x367589e3	3.6588106e-06
65	0xb713911b	-8.795668e-06
66	0x355c878e	8.2153645e-07
67	0xb64168b1	-2.882018e-06
68	0x36c749dd	5.939261e-06
69	0xb6c4a0ab	-5.8599594e-06
70	0x36f1dec1	7.2082917e-06
71	0x359560cc	1.1129537e-06
72	0x3723adec	9.756051e-06
73	0xb687d661	-4.0482705e-06
74	0xb72419fd	-9.781213e-06
75	0x372612c6	9.898742e-06
76	0xb5f599a0	-1.8298633e-06
77	0xb6719da9	-3.6003569e-06
78	0xb71415bc	-8.826548e-06
79	0x37933142	1.7546703e-05
80	0xb5c564f4	-1.4707025e-06
81	0xb42070fc	-1.4942265e-07
82	0x363a4919	2.7758708e-06
83	0x36505f79	3.1049988e-06
84	0x352dfd4f	6.4816135e-07
85	0xb6c3421e	-5.81915e-06
86	0xb554969f	-7.9195337e-07
87	0x368e8435	4.2473207e-06
88	0x373657bc	1.0868473e-05
89	0xb7ab9466	-2.0453892e-05
90	0xb58cddb1	-1.0495334e-06
91	0x3499c4fc	2.8641796e-07
92	0x361b5fc7	2.315255e-06
93	0x36376e96	2.7333494e-06
94	0x357de230	9.457899e-07
95	0xb653b8b4	-3.1548961e-06
96	0xb50eb8f4	-5.3168264e-07
97	0x369bf864	4.6482764e-06
98	0x37053e12	7.94187e-06
99	0xb7900d32	-1.7172282e-05

exp_avg_sq f4 [10, 10]
0	0x32cc09ca	2.3753177e-08
1	0x327b0623	1.4611518e-08
2	0x3365bc83	5.3489668e-08
3	0x32963ba0	1.7489413e-08
4	0x32bae43c	2.1757039e-08
5	0x329ab553	1.8010416e-08
6	0x31fc0a1e	7.3353155e-09
7	0x3342a10e	4.5315623e-08
8	0x335a1792	5.0778517e-08
9	0x346195ee	2.1009302e-07
10	0x32b554ad	2.110968e-08
11	0x3259c9c0	1.2676935e-08
12	0x334ad457	4.7224912e-08
13	0x328650a9	1.5636333e-08
14	0x32a49990	1.9161945e-08
15	0x3288019f	1.5833221e-08
16	0x31e1eca8	6.5752666e-09
17	0x332a56b1	3.9660055e-08
18	0x33403ed7	4.4760636e-08
19	0x3446c401	1.8511493e-07
20	0x349e0d6e	2.9439565e-07
21	0x343d0a01	1.7605636e-07
22	0x353173c3	6.6106094e-07
23	0x3469569e	2.1731327e-07
24	0x348e6b9a	2.6527852e-07
25	0x346c5a6d	2.201211e-07
26	0x33c288d1	9.058716e-08
27	0x351514ca	5.553708e-07
28	0x3527aa12	6.2459833e-07
29	0x362e163d	2.5940965e-06
30	0x32653503	1.3341608e-08
31	0x320a6129	8.054749e-09
32	0x32ff5e39	2.9728755e-08
33	0x322a68d5	9.919138e-09
34	0x32528281	1.2253282e-08
35	0x322c5d87	1.0032983e-08
36	0x31913bfd	4.2268753e-09
37	0x32d66f0e	2.496338e-08
38	0x32f31da4	2.8302402e-08
39	0x33fa098b	1.1643268e-07
40	0x33ce30c7	9.601495e-08
41	0x3376dbfb	5.747641e-08
42	0x34669bad	2.1477054e-07
43	0x3398e772	7.120151e-08
44	0x33ba80e0	8.684742e-08
45	0x339aa532	7.201233e-08
46	0x32fe8cc1	2.96335e-08
47	0x34426896	1.8105706e-07
48	0x34595150	2.0239281e-07
49	0x3561aa55	8.40669e-07
50	0x32785d02	1.4456647e-08
51	0x3213208d	8.563927e-09
52	0x330aa931	3.2284508e-08
53	0x32380dd7	1.0713356e-08
54	0x32613e71	1.3110921e-08
55	0x323a1210	1.0830732e-08
56	0x319a69b7	4.4940083e-09
57	0x32ea0e7e	2.7247776e-08
58	0x3302c47f	3.0446696e-08
59	0x340798c8	1.2628436e-07
60	0x32c445be	2.2849118e-08
61	0x326f02f4	1.3912302e-08
62	0x335b5e45	5.107565e-08
63	0x3291ad12	1.6958925e-08
64	0x32b59aa5	2.1141497e-08
65	0x3294646f	1.727514e-08
66	0x31fa4280	7.283518e-09
67	0x3338c59c	4.3020563e-08
68	0x33516516	4.875354e-08
69	0x345724f1	2.0036875e-07
70	0x31a9f649	4.9465467e-09
71	0x3150b9d0	3.0373606e-09
72	0x323b3616	1.089713e-08
73	0x317f316d	3.713548e-09
74	0x31a0d3ad	4.6806776e-09
75	0x3182960e	3.800557e-09
76	0x30daebc6	1.5928598e-09
77	0x321f2168	9.262614e-09
78	0x32326246	1.0383308e-08
79	0x3336a87d	4.2528416e-08
80	0x357e21ea	9.4671725e-07
81	0x3517eacd	5.6593564e-07
82	0x360e9e8b	2.1251933e-06
83	0x353ba30f	6.990021e-07
84	0x35650c19	8.532675e-07
85	0x353df255	7.0760626e-07
86	0x349c7b96	2.9147185e-07
87	0x35efa0b9	1.7853664e-06
88	0x3606c418	2.0081698e-06
89	0x370be6ac	8.338753e-06
90	0x353ff7de	7.151374e-07
91	0x34e62622	4.2868584e-07
92	0x35d757c4	1.6044291e-06
93	0x350dd490	5.283591e-07
94	0x352d80cf	6.4634963e-07
95	0x350f8fec	5.3481085e-07
96	0x346cb478	2.2044867e-07
97	0x35b5452c	1.3505683e-06
98	0x35cb73c1	1.5158367e-06
99	0x36d3391b	6.294938e-06

exp_avg f4 [10]
0	0xb79912c6	-1.8247763e-05
1	0x35364430	6.789951e-07
2	0xb6671e9b	-3.4439497e-06
3	0xb5b7aa1b	-1.368407e-06
4	0xb73d70e3	-1.1291561e-05
5	0x36e53561	6.830946e-06
6	0x36c3c850	5.8347723e-06
7	0xb77e6764	-1.5163652e-05
8	0x35dd91a8	1.6508175e-06
9	0x360df626	2.1153915e-06

exp_avg_sq f4 [10]
0	0x34a1364e	3.00281e-07
1	0x348d63c7	2.6335894e-07
2	0x3677ecb9	3.694366e-06
3	0x3431a2b4	1.65436e-07
4	0x35a0a43a	1.1968725e-06
5	0x3440de91	1.7962363e-07
6	0x3498f0d4	2.8487432e-07
7	0x33818a6c	6.0322094e-08
8	0x37473aea	1.1875041e-05
9	0x37166bb7	8.965776e-06

exp_avg f4 [17]
0	0x3573f943	9.088728e-07
1	0xb567d363	-8.6361814e-07
2	0xb707d981	-8.097269e-06
3	0xb5ab5432	-1.2764997e-06
4	0xb42e2675	-1.6219003e-07
5	0x35954b20	1.1123229e-06
6	0x36b0ac63	5.265277e-06
7	0xb572ac4d	-9.0402756e-07
8	0x36a7d5ba	5.001869e-06
9	0x34a91aed	3.1498294e-07
10	0xb62ac56a	-2.5446884e-06
11	0xb4d886ce	-4.0331219e-07
12	0x3463aaf0	2.1203209e-07
13	0xb481d39a	-2.4182083e-07
14	0xb60c5360	-2.0910156e-06
15	0xb5ccb023	-1.5250447e-06
16	0xb594bfa1	-1.1082631e-06

exp_avg_sq f4 [17]
0	0x2f949644	2.7027813e-10
1	0x30842ef4	9.617609e-10
2	0x318cc2c0	4.0966768e-09
3	0x30891bcd	9.975963e-10
4	0x319c36ac	4.546413e-09
5	0x2ecb8a04	9.255888e-11
6	0x325fdac1	1.3030047e-08
7	0x2f349cf5	1.6426667e-10
8	0x3037a006	6.680242e-10
9	0x2c664240	3.2721742e-12
10	0x3030f9d3	6.438345e-10
11	0x2d498967	1.1456037e-11
12	0x301aef45	5.6364896e-10
13	0x2d039460	7.479434e-12
14	0x30fe08c6	1.8483426e-09
15	0x30a7e590	1.2216095e-09
16	0x2de8dde3	2.6473884e-11

exp_avg f4 [10]
0	0xb73fd058	-1.1432996e-05
1	0x35a509f7	1.2296358e-06
2	0xb70804c2	-8.107339e-06
3	0x36188f16	2.2733052e-06
4	0xb6ee3275	-7.0988267e-06
5	0x369d56e6	4.689081e-06
6	0xb7108f10	-8.616378e-06
7	0xb70dd4bf	-8.453789e-06
8	0xb6c12d92	-5.7571533e-06
9	0x360d3c07	2.1045578e-06

exp_avg_sq f4 [10]
0	0x33451986	4.589085e-08
1	0x32b67fd4	2.1245718e-08
2	0x3428568c	1.5677705e-07
3	0x30287907	6.1290034e-10
4	0x30cd307d	1.4929494e-09
5	0x324848e8	1.1658109e-08
6	0x31dda7b9	6.4510144e-09
7	0x33c90122	9.359998e-08
8	0x31cb0c01	5.9094423e-09
9	0x31f02bdb	6.989905e-09

exp_avg f4 [10, 10]
0	0x36743e8b	3.6395238e-06
1	0xb5577cd9	-8.027542e-07
2	0x35b701f2	1.3635129e-06
3	0xb5402844	-7.158417e-07
4	0xb56b062c	-8.7553303e-07
5	0xb4b4edf4	-3.3700746e-07
6	0x3725cd7c	9.882609e-06
7	0x362828b9	2.5057655e-06
8	0xb716675e	-8.964764e-06
9	0xb5d0e68a	-1.5564303e-06
10	0x332925b9	3.9382687e-08
11	0xb2134e36	-8.574309e-09
12	0x31826211	3.794647e-09
13	0xb1f2496d	-7.0514745e-09
14	0xb2b1dffc	-2.0707368e-08
15	0x33012b80	3.0074716e-08
16	0x34197c5f	1.4294481e-07
17	0x3310a34d	3.3676134e-08
18	0xb4f0d075	-4.4855156e-07
19	0xb38ff4e7	-6.703504e-08
20	0x35693c61	8.6887127e-07
21	0xb48fac44	-2.6761165e-07
22	0x33dfbde8	1.04187905e-07
23	0xb4dd12b4	-4.1178066e-07
24	0xb589cc2b	-1.0266716e-06
25	0xb50ebdcf	-5.317533e-07
26	0x3691a89c	4.3409655e-06
27	0xb45353a4	-1.9681335e-07
28	0x36a23f2a	4.8353295e-06
29	0x353ab7fa	6.955812e-07
30	0x34b6b07f	3.402856e-07
31	0x333bc090	4.3714465e-08
32	0x350cf33c	5.2508017e-07
33	0x3491db1b	2.7167775e-07
34	0x3591c0de	1.0859474e-06
35	0x3489c7af	2.5663527e-07
36	0x3528dc52	6.2905485e-07
37	0x353ec140	7.106173e-07
38	0xb6468455	-2.9581327e-06
39	0xb4f463a6	-4.5521045e-07
40	0x34cf33f0	3.8594544e-07
41	0x32f31da7	2.8302408e-08
42	0x35140467	5.51407e-07
43	0x347d6b24	2.3601439e-07
44	0x358fad40	1.0704753e-06
45	0x33619614	5.252339e-08
46	0x355817d1	8.050093e-07
47	0x351fb729	5.949865e-07
48	0xb552d14e	-7.8535675e-07
49	0xb400f220	-1.2009014e-07
50	0x35d2107d	1.5651018e-06
51	0xb527af93	-6.246784e-07
52	0xb3c1ad4b	-9.018785e-08
53	0xb5878098	-1.009571e-06
54	0xb642ab96	-2.900813e-06
55	0xb5128c4d	-5.4593403e-07
56	0x36afb049	5.2359287e-06
57	0x34923795	2.723506e-07
58	0xb3c5e7c5	-9.215686e-08
59	0xb44e6190	-1.9220738e-07
60	0x34c3c2d7	3.6463345e-07
61	0xb4afce9d	-3.274662e-07
62	0xb568a8b9	-8.667226e-07
63	0xb556b19c	-7.997967e-07
64	0xb638019b	-2.741907e-06
65	0xb4d0ec07	-3.8914752e-07
66	0x361c0ba0	2.3252578e-06
67	0xb560883f	-8.3644767e-07
68	0x35961a4b	1.1183523e-06
69	0x34381302	1.714325e-07
70	0x359c3ff8	1.1641523e-06
71	0xb4060599	-1.2481759e-07
72	0x34af7f02	3.26887e-07
73	0x33947142	6.9123885e-08
74	0x34fb9b2e	4.68653e-07
75	0x35683e38	8.6517275e-07
76	0x364e844f	3.0773406e-06
77	0x35b03d1a	1.3130805e-06
78	0xb7732711	-1.44930245e-05
79	0xb60d24e9	-2.1032122e-06
80	0xb59c15ce	-1.1629252e-06
81	0xb48ce35e	-2.6242463e-07
82	0xb6875596	-4.033277e-06
83	0xb5e0fb1a	-1.6762381e-06
84	0xb6e47f27	-6.809732e-06
85	0xb4f160d7	-4.4960208e-07
86	0x35e3524c	1.693677e-06
87	0xb6954c98	-4.4494627e-06
88	0x356a60e1	8.731277e-07
89	0x353155ec	6.606267e-07
90	0xb5c12449	-1.4390181e-06
91	0x348727ea	2.517475e-07
92	0xb5ec7ab3	-1.761908e-06
93	0xb4353619	-1.6876619e-07
94	0xb5bbd987	-1.3995895e-06
95	0x32cd78bc	2.3920045e-08
96	0xb5b535fa	-1.350126e-06
97	0xb6211173	-2.4001026e-06
98	0x363b8201	2.7940844e-06
99	0x35517b09	7.8037607e-07

exp_avg_sq f4 [10, 10]
0	0x309643b7	1.0933182e-09
1	0x2ea15822	7.337088e-11
2	0x30c052d5	1.3993381e-09
3	0x2ecf48de	9.426214e-11
4	0x2f2c450e	1.5667842e-10
5	0x2fd9e883	3.963728e-10
6	0x31802b58	3.730218e-09
7	0x30f1823f	1.7572076e-09
8	0x327d35f4	1.4738806e-08
9	0x2f322cb8	1.6204893e-10
10	0x2fcc9920	3.7216186e-10
11	0x2d57d8ae	1.2269448e-11
12	0x304e2dbc	7.5007356e-10
13	0x2e83cbf6	5.993421e-11
14	0x2fbdba8b	3.4511446e-10
15	0x2ecd3c12	9.332991e-11
16	0x30a363af	1.1888143e-09
17	0x3048fae3	7.311611e-10
18	0x3215aa5b	8.711676e-09
19	0x2e8d499b	6.4250126e-11
20	0x33adaf68	8.0878465e-08
21	0x319ca3fc	4.5588404e-09
22	0x33af0cdd	8.151412e-08
23	0x2f21e1b4	1.472305e-10
24	0x31c969f8	5.861917e-09
25	0x3282dcbb	1.5234368e-08
26	0x34b3a7ae	3.346335e-07
27	0x33c223a2	9.0403105e-08
28	0x35397008	6.90809e-07
29	0x30d7cfcd	1.5702369e-09
30	0x30420593	7.058471e-10
31	0x2df955eb	2.8346178e-11
32	0x309183c2	1.0587586e-09
33	0x2e497b65	4.5811705e-11
34	0x2fad9452	3.1573905e-10
35	0x2f3d62cb	1.7224548e-10
36	0x313535c0	2.636952e-09
37	0x3096af21	1.0963711e-09
38	0x323d03da	1.1002124e-08
39	0x2eb1c2bb	8.083619e-11
40	0x2f406cb8	1.7500923e-10
41	0x2e31ddea	4.044224e-11
42	0x2f109d26	1.3152554e-10
43	0x2f7beb26	2.2911859e-10
44	0x2e9a57b9	7.018692e-11
45	0x2f9d2cb0	2.8589886e-10
46	0x2ff4cb59	4.452783e-10
47	0x30e606fa	1.6736685e-09
48	0x304d82ee	7.476463e-10
49	0x2f40191a	1.7471216e-10
50	0x2e84738a	6.023189e-11
51	0x2c81e243	3.6915206e-12
52	0x2f19c976	1.3986842e-10
53	0x2dfbcc19	2.8626034e-11
54	0x2ea05787	7.2915056e-11
55	0x2dc1420e	2.1970894e-11
56	0x2f4076d3	1.7504513e-10
57	0x2f35d620	1.6537927e-10
58	0x30f8baf7	1.8097513e-09
59	0x2d94db50	1.6923046e-11
60	0x2d196a93	8.720707e-12
61	0x2c32fb19	2.5434709e-12
62	0x2ca99fe6	4.821021e-12
63	0x2d690482	1.32455175e-11
64	0x2d20d39b	9.141933e-12
65	0x2e130684	3.3429717e-11
66	0x2e10fb7a	3.2965165e-11
67	0x2e60252f	5.096473e-11
68	0x2e488ec4	4.5601536e-11
69	0x2dc0566f	2.1866257e-11
70	0x2e697c4f	5.3088475e-11
71	0x2c72d1db	3.4506762e-12
72	0x2ebf5a8e	8.70176e-11
73	0x2d853ce5	1.5147392e-11
74	0x2e4f2ccd	4.7106142e-11
75	0x2e1628c3	3.4142255e-11
76	0x2f4ffa6d	1.891551e-10
77	0x2f0804c7	1.2370825e-10
78	0x3093036b	1.0696629e-09
79	0x2ddc0a10	2.5015573e-11
80	0x329357b7	1.715294e-08
81	0x3087510a	9.845575e-10
82	0x3296b523	1.754467e-08
83	0x2f480573	1.819183e-10
84	0x30bac06d	1.3587972e-09
85	0x3167f9f3	3.3757004e-09
86	0x33968f0f	7.0109415e-08
87	0x32aeb1cd	2.033712e-08
88	0x3420d26a	1.497771e-07
89	0x2feecd1e	4.3437692e-10
90	0x31e8d4d5	6.776285e-09
91	0x2fe5286f	4.1683587e-10
92	0x31e7ed22	6.7499437e-09
93	0x2f980740	2.765379e-10
94	0x301854e0	5.541789e-10
95	0x30e2a52b	1.6490608e-09
96	0x32f01409	2.7948788e-08
97	0x321c43a9	9.095779e-09
98	0x33754cb3	5.7113265e-08
99	0x2fd39c70	3.8491832e-10

exp_avg f4 [10]
0	0x36a5b7a0	4.93876e-06
1	0x32a54691	1.9240618e-08
2	0x34fc031a	4.6940914e-07
3	0x35e407c1	1.698958e-06
4	0x35efa06a	1.7853574e-06
5	0x3327565a	3.8961254e-08
6	0xb630f827	-2.6370487e-06
7	0x35a427c4	1.2230525e-06
8	0xb7585442	-1.2894221e-05
9	0xb6c3d449	-5.836166e-06

exp_avg_sq f4 [10]
0	0x32ae68b5	2.0303881e-08
1	0x3224811a	9.575411e-09
2	0x357d4020	9.434316e-07
3	0x32641bd4	1.3277674e-08
4	0x31a7d794	4.884848e-09
5	0x310a5c27	2.0134026e-09
6	0x302f65f3	6.380951e-10
7	0x30c1dcc9	1.4105349e-09
8	0x345c30ce	2.0506852e-07
9	0x33b37bec	8.357878e-08
