models/ensembles/ensemble_25_unbootsrapped/model16/model_checkpoint-10000.pt (torch, 14893 bytes, 24 tensors)

branch.hidden_layers.0.thetas f4 [55]
00000000: 60be f9be cb58 2fbf f743 3dbe 3056 06bf
00000010: c8d9 f13e f870 aa3d 59f3 59bf 2f00 65bf
00000020: fd60 acbf 9696 903f ee1b 363f d5dc 9c3f
00000030: 3cfc a9bf 2451 013f e0b9 bdbf eca4 83bf
00000040: e873 4fbf 0d1c b8be da66 283e 6ab4 e83e
00000050: 7dea c93f 6ff0 d6bf 91fb e73f 4b59 53bf
00000060: aeb0 453f 5857 11bf 04a4 ff3e 056b 53bf
00000070: 88f9 a0bf ca8c 2c3f d36b 3cbf 9462 a7bf
00000080: f666 8f3f 51ca 0140 9aa4 0640 5afd 88bf
00000090: 88e8 57be 5f9c 893e eb90 2dbf 27fe 083d
000000a0: a2f7 7b3f f287 043e 5968 70bf dbe5 1f40
000000b0: 0424 17bf c7dc 8dbf 38f0 aabf 7308 e03f
000000c0: c0bb 963f acc7 9c3e 0b83 60bf 9431 93bf
000000d0: d99f d1be 8200 77be 42e7 2b3f
-0.48778057 -0.6849486 -0.18482958 -0.5247526 0.47236466 0.08322328 -0.85136944 -0.89453405
-1.3467098 1.1295955 0.7113637 1.2254893 -1.3280101 0.50514436 -1.482235 -1.0284705
-0.81036234 -0.359589 0.16445485 0.45450145 1.5774685 -1.6792125 1.8123647 -0.82558125
0.77222717 -0.567739 0.49929821 -0.82585174 -1.2576151 0.6740233 -0.73602027 -1.3076959
1.1203296 2.0279734 2.1037965 -1.0702317 -0.21084797 0.26877114 -0.6779925 0.033445504
0.9842473 0.12942484 -0.9390922 2.4984043 -0.5903933 -1.1083001 -1.3354559 1.7502578
1.1776047 0.30621088 -0.87699956 -1.1499505 -0.40942267 -0.24121287 0.67149746

branch.hidden_layers.0.bias f4 [10]
00000000: 812c d73e bdf6 8c3e 80f8 d33e e676 0c3f
00000010: ccee b93e 7778 ea3e 823a e73e 1a79 e73e
00000020: 50e5 ea3d 03e1 4a3e
0.4202614 0.27531996 0.41400528 0.54868925 0.36315 0.45795032 0.45161825 0.4520958
0.11469519 0.19812398

branch.output_layer.weight f4 [10, 10]
00000000: caf3 633e 88a1 96be 858a 003e bf09 81bf
00000010: 43f9 363f f742 39bf 5a3c 963d daae 56be
00000020: 6b25 203d 7e2f 90bc a03f 51be 52d0 8fbe
00000030: 1caf 99bc 054c 23bf 27de f93e c222 1bbf
00000040: 5b0b 00be 442b 47be 73a4 59be 3a72 46be
00000050: 97b7 1c3e 0d9c 8f3c cca2 2fbf 0453 943f
00000060: 48e9 9abe dd8d ab3e 3bc3 123d 96dc 033f
00000070: 393e c23d 771f 56be b4d6 2c3f 884d 9c3e
00000080: 4530 94bd ef9b 273e b105 f5bd 073e 5bbe
00000090: 53b1 6a3f 095d 18bf 7f7c 5dbe aca5 013f
000000a0: cba1 f7be 56a2 51bc 21ef 0c3f 9dc9 59bf
000000b0: 8018 053e 4ccf bfbe 3980 e2bd 69ac 923d
000000c0: 0963 6f3e ce9c cdbd aacd 35be 2e62 eabe
000000d0: f09f f33e ce71 91bf a2fc ca3e 7d8c 05bf
000000e0: db0f f8be 68a8 d83c 4261 273e c5d8 cbbe
000000f0: 8b1b 083f 10a2 02be e42b c8be 9676 45bc
00000100: 8fea 4ebe 26f0 fabe 98f3 0d3f 87d5 60bf
00000110: e6f0 eebe 7114 a43d f41b ba3e 117f 8f3e
00000120: d0f6 f4be 6f98 983e 5f53 22bf 7574 9f3e
00000130: e60b de3e 1833 e6be a5fc a7be 3624 5c3e
00000140: f94f 86bf 1de1 cebe 2ec7 153f e0b0 93bd
00000150: 3728 06be e41c 9c3e aa55 1dbf 5cd8 a9be
00000160: 618a 5d3e d960 793e f7b6 efbe 6cab 15be
00000170: bd79 183f 676c 12bf 794a d53e 233d bcbe
00000180: 7a98 b5be 6ae7 4b3e 6037 2bbe a1b9 39be
0.22260967 -0.29420114 0.12552841 -1.0081099 0.71474093 -0.72367805 0.0733573 -0.20965138
0.039098185 -0.017600771 -0.20434427 -0.28088623 -0.018760256 -0.6378787 0.488023 -0.6059991
-0.12504332 -0.19450098 -0.21254139 -0.19379511 0.15304409 0.017530465 -0.68607783 1.1587834
-0.30256104 0.3350667 0.035830718 0.5150846 0.09484524 -0.2091044 0.6751511 0.30527902
-0.07235769 0.16368078 -0.11963976 -0.2141038 0.91676825 -0.5951696 -0.21629523 0.5064342
-0.48365626 -0.012795052 0.5505238 -0.8507326 0.12997627 -0.37462842 -0.11059613 0.07161791
0.23377623 -0.10039674 -0.17754236 -0.4577803 0.4758296 -1.1362855 0.3964587 -0.52167493
-0.48449597 0.02644749 0.16345695 -0.3981382 0.5316703 -0.12757134 -0.39095986 -0.012052199
-0.20206665 -0.49011344 0.5544982 -0.87825817 -0.46668166 0.080117114 0.36349452 0.2802663
-0.47844553 0.29803798 -0.63408464 0.31143537 0.43368453 -0.44960856 -0.3280994 0.21498188
-1.0493156 -0.40406123 0.5850705 -0.072114706 -0.13101278 0.30490792 -0.6145884 -0.33172882
0.21634819 0.2435335 -0.4681928 -0.14616174 0.5956076 -0.5719666 0.4165838 -0.36765394
-0.35467893 0.19912496 -0.16720343 -0.18137218

branch.output_layer.bias f4 [10]
00000000: 505a 1e3f e134 b23c ddb8 e0be 0476 933d
00000010: 5081 143f f4f1 c83e 009c 1ebc c75c 15bd
00000020: 33e6 b93e 4a4e 4cbc
0.61856556 0.02175373 -0.4389104 0.07200244 0.58009815 0.39247096 -0.009680748 -0.036465432
0.3630844 -0.012469837

trunk.hidden_layers.0.thetas f4 [17]
00000000: e8f2 363f 51fb 3a3f 3a26 97be e37e 2840
00000010: 710d 563d 1833 0840 965e 28bf 99ed 04c0
00000020: 37c4 dfbe 3b08 b5bf dd28 10c0 c84b a4bf
00000030: d19d 3a40 1930 003f 0a07 2cbf 5d15 803f
00000040: 6b55 0e3f
0.71464396 0.7303973 -0.29521352 2.6327446 0.052258912 2.1281185 -0.65769327 -2.0770018
-0.43704388 -1.4143137 -2.252494 -1.2835627 2.9158823 0.5007339 -0.6719824 1.000652
0.5559909

trunk.hidden_layers.0.bias f4 [10]
00000000: ee51 5fbe edca 91be 85c6 b63e 1118 88be
00000010: 52ff d53e 7641 ff3e ec5f b23e 987d 863c
00000020: 80c0 f33e 470c 8b3e
-0.21808597 -0.28475133 0.35698333 -0.2658086 0.41796356 0.4985463 0.34838808 0.01641731
0.47607803 0.27157804

trunk.output_layer.weight f4 [10, 10]
00000000: b126 ce3e 085d 073e 8fa3 17bf be73 e53e
00000010: a3fa bbbd bdc2 93be 482b c93f ef88 1a3f
00000020: e75c f6be 1309 a3bd 9b93 b33e 5e3f 133e
00000030: f5cc 1fbf b3c2 353e f467 b8be 3d8a 06bf
00000040: a885 313f 5ad4 1c3e 5ce6 19be fce0 76be
00000050: cc4a f0be 2e1c 49bf fa46 053f 2f0d 16bf
00000060: 9384 313f 264d 5f3f 117b a7bf 1e0c 05bf
00000070: 76e6 cb3e e215 8a3f 6310 063c ac1d c7be
00000080: 4e0d 513f 96d7 63be b983 023f f876 f43e
00000090: fe28 fabe 4724 fbbe dd99 323f 9c43 12bf
000000a0: 116e f93e 6c2f 543d 9193 a3be c824 913d
000000b0: ad48 d7be 0b5a 6abe 9c6d 253f 6203 d03d
000000c0: e7aa 00bf bfe2 1b3e bed7 fe3e c208 c93e
000000d0: 7321 4cbe 0200 8b3e e3f8 8dbd 3c8c 0abf
000000e0: 7b22 573f c518 2d3f 57eb fdbe c447 0fbd
000000f0: f877 05bf b8b1 90be ebdc 523f 4772 2abf
00000100: de4f 593f 58ea 1a3f 9c8e 42bf 4903 18bf
00000110: 762d 1c3f a6be 03bf 81c1 13bf 13f3 22bf
00000120: a535 353f b7c9 27bf 3005 253f eac6 1a3f
00000130: 9a1b edbe 6b49 bebe 4c01 283f c3f6 d83b
00000140: 52fc 463e 8061 cebd a6a0 16bf a40f b83c
00000150: a45c 34bf 848e 80bf 9fe7 573f b9ab 1a3f
00000160: 2ca8 6dbf f309 0740 f46c 033f bc69 683e
00000170: 1e4c 1bbf 5529 8bbc 5309 633d 632e 44bd
00000180: 2f2d 083f 5f9a 273f f35f ddbe 0d4f 133c
0.40263894 0.13219082 -0.59233946 0.44814867 -0.091786645 -0.2885951 1.5716333 0.60365194
-0.48117754 -0.07960715 0.35073552 0.14379641 -0.62422115 0.17750053 -0.3601681 -0.52554685
0.6934457 0.1531538 -0.15029281 -0.24109262 -0.46932065 -0.78558624 0.52061427 -0.58613867
0.6934292 0.87227094 -1.3084432 -0.51971614 0.39824265 1.0787928 0.008182618 -0.38889825
0.81660926 -0.22250208 0.5098224 0.47747016 -0.488594 -0.49051115 0.69766027 -0.57134414
0.48716787 0.051803038 -0.31948522 0.070870936 -0.42047635 -0.22885911 0.64620376 0.10156895
-0.50260776 0.15223216 0.49773973 0.39264494 -0.19934635 0.27148443 -0.06932237 -0.5412023
0.8403699 0.6761592 -0.49593613 -0.03498055 -0.5213618 -0.2826059 0.82368344 -0.66580623
0.8488749 0.6051383 -0.75998855 -0.5938001 0.6100687 -0.5146278 -0.5771714 -0.6365215
0.7078498 -0.6554217 0.6446104 0.6045977 -0.4631012 -0.37165388 0.6562698 0.006621213
0.1943219 -0.100771904 -0.5883888 0.022468396 -0.7045386 -1.0043492 0.843378 0.6041828
-0.92834735 2.1099823 0.51338124 0.22696584 -0.6066302 -0.016987482 0.055428814 -0.0478958
0.53193945 0.65469927 -0.43237266 0.008991015

trunk.output_layer.bias f4 [10]
00000000: 6e67 a5bd e6ae c5be c215 323f 59dc bf3e
00000010: ccee 98be 7147 d43c 8aed 8b3e 0c4e 143f
00000020: 01fd cbbe 22ca 7ebe
-0.08076368 -0.3861 0.6956445 0.374728 -0.29869688 0.025912972 0.27329665 0.5793159
-0.39841464 -0.24881795

exp_avg f4 [55]
00000000: 45c0 0bb4 2c7f 78b6 3117 9ab7 7623 aab6
00000010: e8ca 9bb6 5814 1a37 c395 0db4 93eb 1db7
00000020: 1495 e8b4 0657 c237 1a42 75b7 76fc 59b6
00000030: 419a e437 7071 25b7 016f e3b4 2466 d835
00000040: f052 7637 802b a236 06e1 81b6 f21e 8235
00000050: a5fd d337 273e a3b7 05a5 fbb6 fc40 4c36
00000060: 7165 c3b6 3e70 d437 b0a0 53b7 a33e 40b6
00000070: 819e c5b5 8989 dbb8 c7ee b737 da8a 59b7
00000080: a323 61b5 7718 6b36 8fbc 57b8 ec10 3937
00000090: f15b 6637 cfad fdb5 67d0 8ab8 183d 9c37
000000a0: 13b7 9837 1398 3eb6 dca0 cb38 5da8 f537
000000b0: a805 6037 10a3 9d38 b07f 41b7 f09b 98b7
000000c0: 2437 8238 cf9c 00b7 1254 00b9 7e56 10b7
000000d0: 7885 1b38 1c7c 3037 513d 06b7
-1.3015331e-07 -3.7028904e-06 -1.836903e-05 -5.070523e-06 -4.6429814e-06 9.183852e-06 -1.3186131e-07 -9.412778e-06
-4.3321836e-07 2.3167126e-05 -1.4618528e-05 -3.2482471e-06 2.7251548e-05 -9.861178e-06 -4.236281e-07 1.6122981e-06
1.4682053e-05 4.8330403e-06 -3.8706958e-06 9.694761e-07 2.5271273e-05 -1.9460056e-05 -7.4995937e-06 3.0436195e-06
-5.823262e-06 2.5324636e-05 -1.2613993e-05 -2.8646689e-06 -1.4723774e-06 -0.00010468352 2.192649e-05 -1.2966537e-05
-8.387089e-07 3.503197e-06 -5.1435603e-05 1.1030799e-05 1.3730475e-05 -1.8900554e-06 -6.619171e-05 1.8625098e-05
1.8205063e-05 -2.8400725e-06 9.709757e-05 2.9284676e-05 1.3352757e-05 7.516716e-05 -1.1533426e-05 -1.8192426e-05
6.209154e-05 -7.665904e-06 -0.0001223835 -8.603207e-06 3.7079182e-05 1.0519314e-05 -8.001299e-06

exp_avg_sq f4 [55]
00000000: b219 1c31 d88d 4231 49eb 3933 0803 bb31
00000010: 300d 9c31 9798 8231 8b31 3d2f 2167 6632
00000020: 378d 0c32 24c2 aa33 793f ad32 cb6f 0330
00000030: d513 d933 751e 5932 6545 632f e2e8 8a31
00000040: b335 0633 c0db ce30 960c c430 3085 9430
00000050: 9f3b c033 43b8 0333 fc36 2931 4bc4 3631
00000060: 8c39 1631 8537 ba33 3944 3832 c815 d02f
00000070: 84ae 3530 f4d0 ff35 3aae 8933 a81f 9732
00000080: d718 4e2f 94c0 6131 1cf7 8134 1be8 0032
00000090: 0e47 b932 850a 5f30 13e6 f334 3850 6d33
000000a0: 0b2d 5e33 f5d4 7730 873f e235 440c cd33
000000b0: 7794 a232 c436 7e35 01a2 bd32 22ec 6b33
000000c0: 1d9b 0935 6386 db31 265d 2c36 8cef 5932
000000d0: 489e 2934 d0d8 ad32 f9bc 2f32
2.2715594e-09 2.8311344e-09 4.328766e-08 5.442761e-09 4.541697e-09 3.8008454e-09 1.7207051e-10 1.3411211e-08
8.181181e-09 7.951556e-08 2.0168715e-08 4.781639e-10 1.01084574e-07 1.26379875e-08 2.0670184e-10 4.0428043e-09
3.1248145e-08 1.5050929e-09 1.4264454e-09 1.0806271e-09 8.951542e-08 3.06684e-08 2.4623992e-09 2.6596065e-09
2.1860584e-09 8.671399e-08 1.0725722e-08 3.7850456e-10 6.609542e-10 1.9059794e-06 6.411251e-08 1.759311e-08
1.8744416e-10 3.2851277e-09 2.4207918e-07 7.503355e-09 2.1569146e-08 8.1141877e-10 4.5429678e-07 5.525382e-08
5.172937e-08 9.0160707e-10 1.6856801e-06 9.5482875e-08 1.8926796e-08 9.470207e-07 2.2076167e-08 5.4929963e-08
5.1262197e-07 6.389017e-09 2.5684217e-06 1.2685529e-08 1.5796934e-07 2.0238446e-08 1.0229308e-08

exp_avg f4 [10]
00000000: 64c8 8339 f76f c438 b8b4 ccb9 e45a 163a
00000010: 2b59 bdb9 c49e 6339 f27b 9c39 20da cab8
00000020: e8b7 cdb8 80ec b838
0.0002513557 9.3668634e-05 -0.00039044558 0.00057355897 -0.00036115324 0.00021707552 0.00029846985 -9.6727395e-05
-9.809417e-05 8.817855e-05

exp_avg_sq f4 [10]
00000000: c3ee 1b37 db23 b035 f0db a637 7f15 4038
00000010: 2ca9 9037 0b45 d836 24e4 4e37 b007 b135
00000020: 8ab4 c735 4556 9535
9.294311e-06 1.3123457e-06 1.9891158e-05 4.5796387e-05 1.7244914e-05 6.4453393e-06 1.2331675e-05 1.3189765e-06
1.4879199e-06 1.1126473e-06

exp_avg f4 [10, 10]
00000000: e981 65b7 0519 d0b6 3fbf 2db6 4632 c0b6
00000010: e059 7ab7 9f4f 14b7 89a2 9ab7 ca74 03b8
00000020: 61c9 02b7 ed3d 93b7 3005 82b7 4e0f 03b7
00000030: e022 22b7 2251 57b7 7d70 9eb7 f192 aab7
00000040: 5ccb c5b7 abaf 0fb8 5db7 79b7 2d57 28b8
00000050: 1c35 f538 c97d 6d38 1cd9 b138 e276 e138
00000060: 4b33 1939 beab 3939 421d 4839 c5b4 9139
00000070: cafc 0639 ccbd b039 4e3e 2238 a2f6 b537
00000080: 28a2 9d37 89d1 0738 2798 3a38 0c4c 3f38
00000090: dba1 7338 e729 a738 5098 0438 fecd bd38
000000a0: cace 59b7 7060 dbb6 e235 08b7 ef7d 20b7
000000b0: a35e 87b7 68c0 85b7 c3b1 a2b7 029e eab7
000000c0: 1771 4db7 80b0 07b8 fd52 50b7 0bd1 c7b6
000000d0: d547 acb6 ef14 01b7 6bc6 71b7 a784 4eb7
000000e0: 6070 97b7 0bd9 ecb7 e616 22b7 e629 cab7
000000f0: 4926 3138 fc5f c537 15ce af37 f843 1638
00000100: 3955 4c38 4ce9 5538 f697 8638 2bf0 b938
00000110: 4b21 1438 a2c3 d138 bdeb a238 b807 2838
00000120: 43db 5c38 4276 9238 5ab9 c838 4073 e838
00000130: d650 0139 cc5c 3639 dd3c a738 f1da 6139
00000140: c824 cc37 e8cb 4137 df20 24b6 2a9d 3437
00000150: 31a9 bb37 22ea ef36 0619 d237 b3ba 4438
00000160: cc9a a936 2260 a337 a7db 56b7 8685 d6b6
00000170: 3677 f8b6 e882 21b7 0b79 82b7 4cb1 82b7
00000180: a09e a1b7 cca8 edb7 be17 45b7 b8a6 01b8
-1.3679711e-05 -6.2017957e-06 -2.5890329e-06 -5.7278985e-06 -1.4922087e-05 -8.840026e-06 -1.8433917e-05 -3.1341602e-05
-7.795491e-06 -1.7552602e-05 -1.5499623e-05 -7.811772e-06 -9.664072e-06 -1.2833889e-05 -1.888745e-05 -2.0334004e-05
-2.3578927e-05 -3.425746e-05 -1.4884249e-05 -4.013551e-05 0.00011692403 5.662235e-05 8.4804575e-05 0.0001075098
0.00014610325 0.00017706954 0.00019084386 0.0002779124 0.00012873407 0.00033710746 3.8681836e-05 2.1691729e-05
1.8791368e-05 3.2381653e-05 4.448756e-05 4.5608773e-05 5.8086454e-05 7.9709855e-05 3.1613105e-05 9.050591e-05
-1.2982355e-05 -6.5379354e-06 -8.118777e-06 -9.566064e-06 -1.6137323e-05 -1.5944432e-05 -1.9394682e-05 -2.7968552e-05
-1.2245283e-05 -3.2350887e-05 -1.2417088e-05 -5.954998e-06 -5.134362e-06 -7.693873e-06 -1.4410917e-05 -1.2309442e-05
-1.8052931e-05 -2.823446e-05 -9.661284e-06 -2.4099787e-05 4.2235744e-05 2.3528926e-05 2.095759e-05 3.5826088e-05
4.871676e-05 5.1000432e-05 6.417923e-05 8.866222e-05 3.5316956e-05 0.00010002336 7.768672e-05 4.006151e-05
5.265629e-05 6.98385e-05 9.5712676e-05 0.00011084089 0.00012332512 0.00017391442 7.974517e-05 0.00021539234
2.4335823e-05 1.1551172e-05 -2.4457038e-06 1.0765429e-05 2.2370923e-05 7.1500117e-06 2.5045603e-05 4.690392e-05
5.054613e-06 1.947588e-05 -1.2806536e-05 -6.393241e-06 -7.404854e-06 -9.626827e-06 -1.5553573e-05 -1.5579768e-05
-1.9266561e-05 -2.8331204e-05 -1.1747643e-05 -3.0911266e-05

exp_avg_sq f4 [10, 10]
00000000: cecf 7132 0cb0 7631 1655 d031 994a 3332
00000010: 367e b232 1a5d f632 4e33 2433 439e a433
00000020: 772a 7532 515e d833 3e97 0533 8543 0932
00000030: a638 6132 f8a1 c832 76fe 4333 8217 8833
00000040: 433b b633 3158 3534 8d01 0833 47ac 7034
00000050: 482a 0536 b90e 0635 e053 5935 7498 c935
00000060: adef 4236 a430 8836 6c5e b636 3c6f 3537
00000070: 5adf 0736 6527 7137 1d80 2c34 de3d 2e33
00000080: f6c1 8d33 d8cc 0134 e921 7d34 cca4 b034
00000090: ef11 ec34 5d99 6b35 4fe9 2f34 b2cb 9b35
000000a0: 09ac b832 55ea be31 f851 2032 a091 8932
000000b0: 0cf1 0733 4153 3b33 9991 7a33 3dc6 f933
000000c0: 21a9 bb32 3556 2534 3cab 8432 598d 8731
000000d0: 0a0c e531 b03f 4532 1c8e c332 b3c0 0633
000000e0: 19fd 3333 7dd1 b333 7279 8632 6e60 ed33
000000f0: 2266 5834 6376 5a33 8b43 b133 6c14 2334
00000100: b7d6 9e34 e4ed dd34 cc46 1435 35fe 9335
00000110: 29fa 5c34 82bb c335 d0de 5835 e18e 5b34
00000120: 9559 b434 9a42 2335 3afc 9e35 f31f dd35
00000130: f5fa 1336 6356 9336 b2c6 5c35 dd8f c336
00000140: c286 a132 a348 a531 7d64 0532 9c6b 7532
00000150: 3957 e832 32d8 2133 8486 5a33 658e d633
00000160: b719 a332 a728 1134 7c38 ad32 5630 b431
00000170: 623e 1832 e0c6 8032 6216 ff32 de48 2f33
00000180: 6073 6a33 67ae e933 8b14 b032 7bbe 1a34
1.4075296e-08 3.5897783e-09 6.06327e-09 1.0436133e-08 2.0779321e-08 2.8680507e-08 3.8230887e-08 7.665633e-08
1.4270532e-08 1.007544e-07 3.110403e-08 7.989802e-09 1.3109604e-08 2.335672e-08 4.5633406e-08 6.3372696e-08
8.485815e-08 1.6889022e-07 3.1666378e-08 2.2414416e-07 1.9843155e-06 4.9940314e-07 8.0960854e-07 1.5020037e-06
2.9047762e-06 4.0587784e-06 5.435015e-06 1.08143395e-05 2.0246575e-06 1.4373892e-05 1.6065356e-07 4.05688e-08
6.6011054e-08 1.2088583e-07 2.3574798e-07 3.290246e-07 4.3971474e-07 8.7767495e-07 1.6383022e-07 1.1607683e-06
2.1498652e-08 5.5563683e-09 9.331863e-09 1.6015122e-08 3.1651368e-08 4.361505e-08 5.834008e-08 1.16310254e-07
2.1846576e-08 1.5398184e-07 1.544469e-08 3.9450865e-09 6.666146e-09 1.148139e-08 2.2765612e-08 3.1374565e-08
4.1906876e-08 8.373443e-08 1.565488e-08 1.1053713e-07 2.0153723e-07 5.0864752e-08 8.254491e-08 1.5187987e-07
2.958602e-07 4.1337546e-07 5.523732e-07 1.1026337e-06 2.0580104e-07 1.4583204e-06 8.0790505e-07 2.0447943e-07
3.3592792e-07 6.081915e-07 1.1845325e-06 1.6475082e-06 2.2050783e-06 4.390998e-06 8.2245526e-07 5.8282008e-06
1.8804148e-08 4.81039e-09 7.764467e-09 1.42853445e-08 2.7048019e-08 3.7682362e-08 5.087942e-08 9.991053e-08
1.8987391e-08 1.3518967e-07 2.0165537e-08 5.2441846e-09 8.861749e-09 1.4991599e-08 2.9696086e-08 4.0811635e-08
5.4587304e-08 1.08816316e-07 2.0498439e-08 1.4411664e-07

exp_avg f4 [10]
00000000: d6a7 13b8 8015 74b8 9a82 fd39 4c9e 0b39
00000010: eecb 46b8 0427 26b8 82aa 1a39 321b a139
00000020: a09f 3538 4a7b 41b8
-3.520384e-05 -5.8194157e-05 0.00048353226 0.00013315043 -4.7396803e-05 -3.961382e-05 0.00014750104 0.00030728575
4.3302425e-05 -4.6129608e-05

exp_avg_sq f4 [10]
00000000: d4c0 6934 5ea6 0135 57e2 0138 bf29 2836
00000010: 7746 b234 991c 8034 f546 5336 24be 5237
00000020: 5ff6 9a34 c8cb a634
2.1769966e-07 4.829834e-07 3.0966792e-05 2.505825e-06 3.3206354e-07 2.3862665e-07 3.1482753e-06 1.2561246e-05
2.8863994e-07 3.106818e-07

exp_avg f4 [17]
00000000: 9044 83b6 a7cd b234 707b 5db7 26da 04b4
00000010: 2c8d 2d36 5bc0 3436 6f73 84b4 cff5 0ab5
00000020: ff13 ea36 b3bf 50b5 89b1 5fb5 9dfd a9b3
00000030: a861 9db4 0236 88b4 6306 3634 ddd2 7e34
00000040: d676 bc32
-3.912086e-06 3.3304715e-07 -1.32013665e-05 -1.237282e-07 2.5861182e-06 2.6934056e-06 -2.4670905e-07 -5.1766705e-07
6.9760713e-06 -7.7765e-07 -8.333232e-07 -7.915808e-08 -2.9314583e-07 -2.537127e-07 1.6952394e-07 2.3732305e-07
2.194012e-08

exp_avg_sq f4 [17]
00000000: a423 a931 30c1 8d2f 8522 2f32 4a65 002e
00000010: 842b 5a32 bb1e f82f 5e22 102f f345 692e
00000020: c2ea b331 014d a42e 4031 ff2e d81d 212c
00000030: 872a 532e a097 9a2d 6c24 892c f87f d22c
00000040: 4e1c b12a
4.922599e-09 2.5785019e-10 1.01941895e-08 2.9193793e-11 1.2699164e-08 4.5132773e-10 1.3108933e-10 5.3040194e-11
5.2362745e-09 7.471535e-11 1.1604806e-10 2.2896043e-12 4.8013617e-11 1.7575108e-11 3.897818e-12 5.9827664e-12
3.1461156e-13

exp_avg f4 [10]
00000000: 4906 9d37 dda8 87b6 8c2d 40b6 f48e a237
00000010: 5877 0db8 3835 68b7 8060 8a37 bad2 a1b4
00000020: ad41 a536 7631 79b7
1.8718785e-05 -4.042972e-06 -2.8636741e-06 1.9378473e-05 -3.3728167e-05 -1.38406685e-05 1.6495818e-05 -3.014191e-07
4.925029e-06 -1.4853073e-05

exp_avg_sq f4 [10]
00000000: aa6a 6133 df17 7e31 8da9 ac31 50e8 7e33
00000010: d759 1b34 c23c 5b32 811f 6e33 152e cf2f
00000020: 3497 8f32 6de5 c732
5.2483905e-08 3.6975434e-09 5.0251345e-09 5.935027e-08 1.4468183e-07 1.27612925e-08 5.5442346e-08 3.7685824e-10
1.671615e-08 2.327098e-08

exp_avg f4 [10, 10]
00000000: dcf9 dbb5 b049 e7b5 ef56 7536 32b4 e6b5
00000010: 22ac 8536 3f68 b536 4ed7 35b5 d92c 36b5
00000020: 2c1e 4837 0834 cb36 d65c 3535 dd9f 8735
00000030: 830f c0b5 fb28 7135 94d0 ffb5 75d6 0eb6
00000040: 6e9f 54b6 dc1a b3b4 a4e5 1db6 6f1c 24b7
00000050: 422e 4e35 feda 8b35 9b98 c8b5 153a 7f35
00000060: 2c6a 04b6 e400 13b6 8228 8eb5 6a97 51b4
00000070: 1ac7 dab5 ac5f 73b6 f66e 30b7 2066 4eb7
00000080: 0945 c437 03a1 46b7 a80e e037 9d32 1138
00000090: a3d9 5237 4a46 dfb5 daad 8138 62ff 8738
000000a0: 2bf3 8bb5 b8c9 adb5 bcd8 1a36 8f13 a4b5
000000b0: b35b 3636 b464 6536 492d 0f36 41b2 af32
000000c0: 364c ca36 ee20 b636 1864 d935 b88d 1e36
000000d0: baaa 68b6 2719 0e36 71b4 97b6 aee0 acb6
000000e0: 68ef eeb6 ab27 3ab5 e5e8 cbb6 93cc b1b7
000000f0: 6486 3037 3a5b 4d37 cf2a c3b7 7da7 4537
00000100: ec88 dfb7 3690 10b8 2892 27b7 ad71 0d36
00000110: a0af 91b8 34a2 b8b8 69c1 1535 b0c8 3a35
00000120: cc93 94b5 2d59 2e35 a12f bbb5 6365 dab5
00000130: 5857 1fb4 9905 8533 8e4b 83b5 7f5a 06b7
00000140: 1407 11b5 ca50 bcb4 81ed de35 3075 f7b4
00000150: dc6b a935 b7b0 2336 a45d 5635 5bc2 87b4
00000160: bf81 b736 eb36 09b8 d2ff c535 15a8 0636
00000170: 978c 56b6 c882 f635 90ee 85b6 8938 9fb6
00000180: 1f0e a2b6 141c b3b4 30d3 e4b6 0275 85b7
-1.638949e-06 -1.7232287e-06 3.6558447e-06 -1.7188779e-06 3.983748e-06 5.406356e-06 -6.7741064e-07 -6.7865545e-07
1.1927954e-05 6.0559287e-06 6.756285e-07 1.010481e-06 -1.4309629e-06 8.983913e-07 -1.9059685e-06 -2.128448e-06
-3.1683262e-06 -3.336089e-07 -2.3528492e-06 -9.781782e-06 7.6808294e-07 1.0420042e-06 -1.4945575e-06 9.5079423e-07
-1.9731333e-06 -2.1905225e-06 -1.0591614e-06 -1.9519726e-07 -1.6300212e-06 -3.626551e-06 -1.0516253e-05 -1.2302335e-05
2.3397168e-05 -1.1839208e-05 2.6709706e-05 3.461783e-05 1.2567648e-05 -1.6635252e-06 6.183582e-05 6.4848704e-05
-1.0427078e-06 -1.2948212e-06 2.3073944e-06 -1.2224644e-06 2.717349e-06 3.4182276e-06 2.133502e-06 2.0453742e-08
6.0289412e-06 5.427856e-06 1.6196891e-06 2.3626326e-06 -3.467007e-06 2.117429e-06 -4.521157e-06 -5.1521556e-06
-7.1208233e-06 -6.9348124e-07 -6.076984e-06 -2.1195307e-05 1.0521708e-05 1.22401925e-05 -2.3265746e-05 1.1781111e-05
-2.664743e-05 -3.4466582e-05 -9.988005e-06 2.1076805e-06 -6.9468515e-05 -8.8040164e-05 5.5788274e-07 6.958244e-07
-1.1069874e-06 6.494982e-07 -1.3946448e-06 -1.6271773e-06 -1.4839804e-07 6.194313e-08 -9.78225e-07 -8.008093e-06
-5.402701e-07 -3.507651e-07 1.6609412e-06 -4.60926e-07 1.2622872e-06 2.4391754e-06 7.985748e-07 -2.5287122e-07
5.4689294e-06 -3.271449e-05 1.4752097e-06 2.0065393e-06 -3.197032e-06 1.8366491e-06 -3.991481e-06 -4.745151e-06
-4.82962e-06 -3.3361778e-07 -6.819515e-06 -1.5909322e-05

exp_avg_sq f4 [10, 10]
00000000: 3596 982f 3af9 0430 8030 aa30 4538 e62f
00000010: aabf 0631 d51e 2431 c649 0231 0051 ef2d
00000020: 70fc ec31 a577 cc32 4fd3 bb2e 430a 2a2f
00000030: 749b cf2f 12c9 112f b460 2730 577c 4430
00000040: 4556 4c30 8b9f 512d c96e 0431 2463 fa31
00000050: 9318 612e d13a 9c2e 4d50 722f 06a6 902e
00000060: 8500 ab2f 8628 ec2f 17f0 a42e 1434 792e
00000070: ec16 1f31 cc98 4631 31db 7032 2631 a532
00000080: 5bb7 8b33 5cc3 9932 a5ab c933 4013 0b34
00000090: 8a63 4732 eafb e530 4005 0c35 1fee 4935
000000a0: 0111 022f 75ab 592f a02d 1030 71c0 3e2f
000000b0: 9563 6030 47a3 8b30 9b9c 2d30 1aea 0e2e
000000c0: 154c 6431 22f3 2732 9c6a 0230 764b 5830
000000d0: 729b 1131 970f 3e30 35d5 6131 7053 8d31
000000e0: 049f 2531 13e6 c32e 8911 6332 8fd0 2133
000000f0: a5bb 8d32 148f c132 6275 a433 f16c b432
00000100: c534 ed33 2d9f 2334 feea 5932 b5b8 0931
00000110: 74c0 2535 caa5 6c35 fa56 062f e0e2 262f
00000120: 2652 ba2f c3b3 212f 6299 d22f 089c 1330
00000130: 115e 8b2f dcfc 5130 fe5a 4332 677e d331
00000140: 9d7c 362e e446 932e 9caf 4b2f 20cf 822e
00000150: 262f 9f2f 77ff ba2f 6f15 302f 6419 fc2c
00000160: 71d1 ab30 1852 9631 f30a c72f d737 2230
00000170: 9f97 df30 4c36 0f30 3f3f 2c31 d4ba 5931
00000180: 4611 dd30 b709 3b2e adac 3032 e983 ee32
2.7755367e-10 4.837549e-10 1.2382912e-09 4.1876738e-10 1.9608515e-09 2.3882667e-09 1.8959425e-09 2.7207125e-11
6.897203e-09 2.3803134e-08 8.5413114e-11 1.5465056e-10 3.7763537e-10 1.3259108e-10 6.089167e-10 7.148108e-10
7.4337364e-10 1.19157e-11 1.9271502e-09 7.2872286e-09 5.1180903e-11 7.1045066e-11 2.20383e-10 6.5778535e-11
3.1105088e-10 4.2956944e-10 7.500505e-11 5.66623e-11 2.3150575e-09 2.8899647e-09 1.4019677e-08 1.9230878e-08
6.506044e-08 1.7900383e-08 9.391014e-08 1.2952387e-07 1.1605957e-08 1.6733541e-09 5.2161704e-07 7.5224847e-07
1.1829472e-10 1.9796949e-10 5.245173e-10 1.7348768e-10 8.163224e-10 1.0159987e-09 6.3159583e-10 3.2494986e-11
3.3221614e-09 9.775961e-09 4.7445226e-10 7.868758e-10 2.1188638e-09 6.914375e-10 3.2863003e-09 4.113126e-09
2.410105e-09 8.908443e-11 1.3217126e-08 3.7675417e-08 1.6499891e-08 2.2533222e-08 7.658197e-08 2.1004299e-08
1.1045771e-07 1.5238466e-07 1.26844935e-08 2.0041118e-09 6.1747346e-07 8.8158106e-07 1.2218129e-10 1.5178214e-10
3.3891573e-10 1.4706729e-10 3.8307763e-10 5.370002e-10 2.535079e-10 7.639309e-10 1.1371183e-08 6.1552785e-09
4.1492688e-11 6.697379e-11 1.8525131e-10 5.9485084e-11 2.8955432e-10 3.4014722e-10 1.6014721e-10 7.1650897e-12
1.2501414e-09 4.3749075e-09 3.620567e-10 5.901461e-10 1.6268479e-09 5.210026e-10 2.5065245e-09 3.1683856e-09
1.6084776e-09 4.2527506e-11 1.028381e-08 2.7766832e-08

exp_avg f4 [10]
00000000: 0e18 6c37 ebf6 09b7 b1a9 0eb7 5496 d238
00000010: da38 3137 fb5a a1b7 286f d1b8 e76b beb6
00000020: ec2c 4536 b81e 89b7
1.4072297e-05 -8.223326e-06 -8.503369e-06 0.00010041581 1.0563259e-05 -1.9235062e-05 -9.986601e-05 -5.6750027e-06
2.9381436e-06 -1.6345977e-05

exp_avg_sq f4 [10]
00000000: 2b83 0d33 b467 3532 5c93 c931 2251 af35
00000010: 30c7 7332 b27c 7033 cf7b cd35 1a48 d332
00000020: f8bc a731 ac8b 2f33
3.2948417e-08 1.0559166e-08 5.8666227e-09 1.3062129e-06 1.4189752e-08 5.5992764e-08 1.5309723e-06 2.4596421e-08
4.881823e-09 4.0872393e-08
