models/ensembles/ensemble_25_unbootsrapped/model5/model_checkpoint-10000.pt (torch, 14893 bytes, 24 tensors)

branch.hidden_layers.0.thetas f4 [55]
000000 31 fb 76 3e a3 a9 8f bf 2b 53 2b 40 79 07 93 bf
       0.2411926 -1.1223644 2.6769512 -1.1486655
000010 70 d3 c9 bf 2d 52 7c 3e 39 b9 02 bd d0 5c 63 3f
       -1.5767651 0.24640723 -0.031914923 0.88813496
000020 af b2 c1 bf 88 d6 4a 3f 5b f0 83 bf 8a 55 87 bf
       -1.5132655 0.792336 -1.0307726 -1.057298
000030 e4 f3 68 3f aa 77 41 3f f5 40 af 3f ae 8f 9c 3e
       0.9099715 0.7557322 1.3691698 0.3057837
000040 68 2b 7b bf c0 34 a6 3f 99 a4 b8 3f 11 6c cb bf
       -0.9811311 1.2984848 1.4425231 -1.5892354
000050 25 b0 4e 3f f6 18 9e 3f 78 b6 9f 3e 03 bf ae 3f
       0.80737525 1.2351367 0.311939 1.3652042
000060 60 99 53 3f f5 4a bc bd 11 57 bf be 8d 4f 9e be
       0.82655907 -0.091939844 -0.37371114 -0.30920067
000070 6a dd d2 3f 51 70 d3 be ff 3c 9c be 52 28 3c c0
       1.647382 -0.41296628 -0.30515286 -2.939961
000080 39 35 7a bf 37 9e e9 3f 3d c8 88 3f 6c 4d 3d 40
       -0.9773746 1.8251408 1.0686108 2.9578505
000090 52 85 03 3f e8 ac 4d bf 0e ab 3e 3f b1 a2 95 3f
       0.51375306 -0.8034196 0.7447976 1.1690274
0000a0 f2 3b 0b 3d 5e 1d da 3e 67 e2 0b bf 23 d1 97 bf
       0.033992715 0.4260053 -0.5464234 -1.1860698
0000b0 9b 3b 16 3f ef 7e 04 40 2b f7 74 3f 7b 51 31 bf
       0.586847 2.0702474 0.9568965 -0.69264954
0000c0 15 ec 39 40 b9 1c e5 bf 29 09 02 c0 9e 7a 68 3e
       2.9050343 -1.789939 -2.031809 0.22703025
0000d0 70 b2 4e be d1 d4 8c 3f 5e 3c 21 40
       -0.20185256 1.1002446 2.5193095

branch.hidden_layers.0.bias f4 [10]
000000 c7 ca 98 3e ca 7f b4 3e 43 00 aa 3e b8 f1 04 3f
       0.29842207 0.35253745 0.33203325 0.51931334
000010 e4 14 d1 3d de 07 c7 3e 93 bf de 3e af 97 9c 3e
       0.10209063 0.3887319 0.43505535 0.30584475
000020 10 9b c1 3e fa 3f 8f 3d
       0.37813616 0.069946244

branch.output_layer.weight f4 [10, 10]
000000 ce 58 9d 3c 26 08 e1 be a3 80 f8 bd 76 b0 a7 bf
       0.019207384 -0.4395153 -0.121339105 -1.3100727
000010 da 21 9a bf 84 6c 45 3f c9 35 6a 3f 87 91 ae be
       -1.2041581 0.77118707 0.9148832 -0.34095404
000020 75 9b 9c 3e f1 01 90 bd 07 14 7e 3e 9d f6 2e 3e
       0.30587354 -0.0703162 0.24812327 0.17086263
000030 70 bf 06 3f 30 60 c7 3e 4e a7 18 3d ae 88 c1 be
       0.5263586 0.38940573 0.03726893 -0.3779959
000040 95 c7 28 3f 86 93 de bd 57 05 3d be 28 a9 06 3e
       0.6592954 -0.108679816 -0.18459068 0.13150465
000050 d4 ed c0 be d2 fa 14 bf c3 8f 01 be 1c 3e 6f 3d
       -0.37681448 -0.5819522 -0.12652497 0.05840884
000060 11 41 cc bd 19 d5 99 3e da 2d 9f be d5 35 0c 3f
       -0.09973348 0.30045393 -0.3108967 0.5476964
000070 2d 33 7b 3e 78 7d 37 3d 41 97 13 3f f1 7d 15 3f
       0.24531241 0.04479739 0.5765267 0.58395296
000080 2d c1 97 3e a1 5b 4b 3f 6f 7b 4f bf 62 f8 12 bf
       0.2963957 0.7943669 -0.8104772 -0.5741025
000090 2f 2b 82 bf ee 49 6d bf 6f 43 bd be 90 d6 14 bd
       -1.0169429 -0.9269093 -0.3696551 -0.036337435
0000a0 0a f5 ab 3d 42 79 b5 3e 98 69 75 3e ad a4 c5 3e
       0.08396347 0.35444075 0.23966062 0.386022
0000b0 51 64 8b be 1c 67 8e be 05 b7 85 bf 61 6e 04 bf
       -0.27224973 -0.2781304 -1.0446478 -0.51730925
0000c0 37 57 98 be c9 f8 a1 bd 0d 3a bf be 4f 8c c3 be
       -0.2975404 -0.0790878 -0.37348977 -0.38192984
0000d0 6e 01 91 be 2b c2 a2 3e 2f 1a 30 3f d5 77 be bc
       -0.28321403 0.31788763 0.68789953 -0.0232505
0000e0 9a 7e 19 bf f2 5a 94 3f 56 57 08 3f 3e b1 12 3e
       -0.59958804 1.1590254 0.53258264 0.14325425
0000f0 77 bb b6 3e d0 ad 14 3f b8 8b 2b 3f ea 42 24 3f
       0.356899 0.58077717 0.6701007 0.641646
000100 c5 23 b5 bb b7 4e e7 be 44 56 6e bf 39 2e 5a bd
       -0.0055279457 -0.45177242 -0.9310038 -0.053266738
000110 d3 74 08 bf de e5 4a 3e 47 70 66 3d 59 95 be 3e
       -0.5330326 0.1981425 0.05625942 0.37223318
000120 07 2c 29 3f ed 01 88 3e eb 22 90 3f 2a 78 f3 3c
       0.66082805 0.2656397 1.1260656 0.029720385
000130 fb 23 98 3f 65 c5 01 3f e3 43 31 bf ed 36 82 be
       1.188598 0.50691825 -0.6924421 -0.2543253
000140 95 f7 01 bf 4a 96 01 bf 59 e0 85 bd 9f 85 19 be
       -0.50768405 -0.5061995 -0.065369315 -0.14992379
000150 86 bb d2 3c ee 01 94 3d 50 77 6b be 78 bc 67 3f
       0.025724184 0.072269306 -0.22994733 0.90521955
000160 4e 0d 08 3f 52 07 6c bd 3b 21 ca be 27 f2 01 bf
       0.531453 -0.05762417 -0.39478478 -0.5076012
000170 38 8e ae bd e1 e4 09 be 97 f9 60 bd e4 84 dc 3e
       -0.0852322 -0.13466217 -0.054925527 0.43070138
000180 bb 72 0a bf f7 b4 3e 3f 21 ec a0 3e 71 59 83 3d
       -0.54081315 0.7449488 0.31430152 0.06413544

branch.output_layer.bias f4 [10]
000000 d0 2b 5a 3d 92 c1 06 be a4 db 34 be b6 59 0b 3f
       0.05326444 -0.13159779 -0.17661911 0.54433763
000010 9a 8d 1d be 0c 0f 94 bd fd 66 f3 bb 6e e8 25 bf
       -0.15386048 -0.072294325 -0.0074280486 -0.64807785
000020 05 75 a6 3e ad 54 c4 3e
       0.32511154 0.38345852

trunk.hidden_layers.0.thetas f4 [17]
000000 14 bb 0f bf f4 ae 97 3f d4 ee d7 3f 1d 55 e0 bf
       -0.56144834 1.1850266 1.686976 -1.7525975
000010 a7 73 b6 3f fd 31 17 40 c3 84 f3 be 91 e6 01 40
       1.4254044 2.362426 -0.47562227 2.0296977
000020 3c 86 f4 3e b1 07 d8 3f b6 5a 8f bf d5 5b a0 bf
       0.47758663 1.6877347 -1.1199558 -1.2528025
000030 d1 b6 a7 3f 5b ed b2 3f 0f 22 91 bf 19 e6 66 c0
       1.3102666 1.3978685 -1.1338519 -3.607794
000040 6f 91 14 40
       2.3213766

trunk.hidden_layers.0.bias f4 [10]
000000 ff 0c 81 be 30 21 df 3e 16 d8 7d be ac 1a 8f 3e
       -0.25205228 0.43580008 -0.24789461 0.27950037
000010 26 8c 64 be 01 bc fc bd d9 f5 da be 1c bd 4e 3e
       -0.22319087 -0.123405464 -0.42765692 0.20189327
000020 79 0c 48 be ed cd 8a 3f
       -0.19536008 1.0844094

trunk.output_layer.weight f4 [10, 10]
000000 db 68 71 bf cc 25 c6 3f 56 b8 5b bf 0c ec 8d 3f
       -0.9430062 1.5480285 -0.8582815 1.1087661
000010 70 f9 46 bf 51 22 c5 bf 24 61 84 bf 07 db 2f 3f
       -0.7772436 -1.5401098 -1.0342145 0.68693584
000020 f0 81 de be a0 15 e8 bf d7 65 d4 be e7 cf 1b be
       -0.4345851 -1.81316 -0.41483948 -0.15216027
000030 ba 65 a9 be fe 9c e5 3e 28 de b6 be f1 af 74 3e
       -0.33085424 0.44846338 -0.35716367 0.23895241
000040 ae e1 99 3d 3a 51 59 3f d3 0a bd be fd bf 8c 3e
       0.07513748 0.84889567 -0.3692232 0.27490225
000050 c8 aa 8c 3e 52 ae 29 3f 4b 50 35 3e 0e 49 94 3d
       0.27474046 0.66281617 0.1770641 0.072404966
000060 a3 d3 7c 3e 4c 5c 13 be a1 d8 85 bf 55 06 36 bf
       0.24690108 -0.14390677 -1.0456735 -0.7110341
000070 33 bd a1 3e ed 07 8f bf 8e 62 2f be 4f 79 0d 3f
       0.3158966 -1.1174294 -0.1712744 0.5526323
000080 09 ce 12 3c 0a 3b e2 3e 09 34 7c bd 44 b9 09 be
       0.008960255 0.44185668 -0.061573062 -0.1344958
000090 20 36 3b bf fb 1f f8 3c 1d b5 4b 3e 8e 65 66 3f
       -0.73129463 0.030288687 0.19893308 0.8999871
0000a0 1d 7c fd bd 8d 89 8e bc b4 48 91 be 27 d3 4d 3e
       -0.12377188 -0.017399574 -0.2837578 0.2010008
0000b0 9b 41 a7 be 78 99 89 be 3c 09 b8 3e ff 5e 07 bc
       -0.3266724 -0.268749 0.35944545 -0.008262395
0000c0 b1 2b 4d be 66 d4 04 3f d4 10 87 be 0a 97 39 40
       -0.20036198 0.51886594 -0.26380026 2.8998437
0000d0 d0 4c f9 bb 8e 80 ad 3f 26 26 17 be 26 fd 03 c0
       -0.0076080337 1.3554857 -0.14760646 -2.062326
0000e0 9e e5 6d c0 f0 29 b9 bf 14 58 8b 3d b2 80 bd bf
       -3.7171397 -1.4465923 0.06803909 -1.48049
0000f0 e0 35 d1 be 69 47 10 3f 09 d6 1c bf 51 59 4e 3e
       -0.40861416 0.56358963 -0.6126409 0.20151259
000100 9c d4 1d bf 56 a0 aa be bf 2a 16 3e 93 a3 7f 3f
       -0.6165254 -0.33325452 0.14664744 0.9985897
000110 01 5d 98 be 97 48 56 3f 1f 70 17 bf 7f b7 3e bd
       -0.29758456 0.83704513 -0.5915546 -0.046561714
000120 26 12 85 be 8c d4 66 3e 8b 71 1a be 32 b5 5c bf
       -0.2599041 0.22542018 -0.15082376 -0.8621398
000130 58 1f 86 3e 0b 05 96 3f e9 8e 00 bf 63 be 24 be
       0.26195788 1.1720289 -0.50218064 -0.16088252
000140 5d 64 99 3c c2 e1 99 3f 2d ba 1d 3e 6d e5 08 3e
       0.018724615 1.2022021 0.15403052 0.13368769
000150 ba 4a d7 bc 28 59 cd be 70 8a 34 bf 4f 56 5d bf
       -0.02628075 -0.40107083 -0.7052374 -0.8645982
000160 f0 b7 37 be dc 51 73 bf c8 1f 28 bd 75 6a b7 3e
       -0.1794126 -0.9504678 -0.041045934 0.35823408
000170 fd 83 f1 3e 4e 89 19 3e 2b 3f 15 3e 45 97 bb be
       0.47171012 0.14993784 0.14574878 -0.36638847
000180 7e 42 09 be 17 ba 28 bf f0 a2 5c be 90 29 e0 be
       -0.13404271 -0.6590895 -0.2154653 -0.4378171

trunk.output_layer.bias f4 [10]
000000 3f 35 60 3e ef 96 ee 3e c2 c2 b2 be 95 11 16 3e
       0.21895312 0.46599528 -0.34914213 0.14655145
000010 23 32 e4 3e 04 bf 93 be e1 d0 76 3e 64 27 8b 3e
       0.445695 -0.2885667 0.24103118 0.2717849
000020 37 ce 4d be f7 03 c8 be
       -0.20098196 -0.39065525

exp_avg f4 [55]
000000 d0 af 30 35 cf de 13 35 c1 af 5f b5 e4 d5 2c b6
       6.582095e-07 5.5085997e-07 -8.332973e-07 -2.5754498e-06
000010 df 98 6c b6 6c 48 31 b4 d8 c7 88 34 10 dd 17 34
       -3.5255723e-06 -1.6510756e-07 2.547738e-07 1.4143393e-07
000020 41 22 37 b6 26 89 26 b5 82 08 36 36 78 d5 1d 36
       -2.7289063e-06 -6.2039396e-07 2.7125066e-06 2.3519078e-06
000030 8f 9b cf b5 4b b3 d8 b5 d5 3e 1c b6 c6 0f 0e 36
       -1.5467975e-06 -1.6145435e-06 -2.3282385e-06 2.116883e-06
000040 fe 43 e5 b4 4f 17 81 35 8a 68 54 b4 ad a4 ea b5
       -4.2704045e-07 9.618033e-07 -1.978207e-07 -1.7482286e-06
000050 6f 21 53 b6 44 36 20 35 0c 70 9e 35 62 6b 03 36
       -3.146091e-06 5.968361e-07 1.1804527e-06 1.9583026e-06
000060 13 86 eb b5 04 c9 d9 b2 22 b2 36 b6 de 7e 29 b5
       -1.7547885e-06 -2.5353536e-08 -2.72238e-06 -6.314202e-07
000070 6c 41 09 b6 a1 a7 c6 b6 cb bc 55 b6 da 0b ae b4
       -2.0452671e-06 -5.9203744e-06 -3.1849365e-06 -3.241865e-07
000080 ed ff 3b b5 9e 31 a5 34 22 fa f8 33 fa ed 5e b1
       -7.003535e-07 3.0769746e-07 1.1593899e-07 -3.2440526e-09
000090 2b 92 81 b5 95 70 6e b6 34 f0 90 b6 39 44 49 36
       -9.65379e-07 -3.5530295e-06 -4.3194977e-06 2.9991045e-06
0000a0 c1 6f 76 b4 11 55 5c b5 6f b9 c8 b5 b1 79 99 b5
       -2.2951191e-07 -8.2080174e-07 -1.495513e-06 -1.1434805e-06
0000b0 96 a5 b3 35 e0 9e 0e 34 79 a5 30 35 34 9d 23 36
       1.3384731e-06 1.3282579e-07 6.5805904e-07 2.4380397e-06
0000c0 24 df 59 36 c8 53 2d b6 ce 1c 60 b6 dc b5 8a b5
       3.2465405e-06 -2.5827776e-06 -3.3395368e-06 -1.0334729e-06
0000d0 cb ee fe 35 7a c0 36 b6 ec 30 4c 34
       1.8993973e-06 -2.723215e-06 1.9016778e-07

exp_avg_sq f4 [55]
000000 a5 68 5f 2f f6 6e ce 33 52 44 e4 32 9e 91 88 33
       2.0318909e-10 9.612806e-08 2.6573762e-08 6.359481e-08
000010 80 9b 97 33 a4 7f 23 31 1a de 1f 34 20 9f 9d 32
       7.059771e-08 2.3792177e-09 1.4888829e-07 1.8349567e-08
000020 c5 10 cc 32 b3 05 1a 2f 8e 3a 8f 33 30 79 e4 30
       2.3756352e-08 1.4008243e-10 6.6696074e-08 1.6623627e-09
000030 77 95 27 33 d7 e8 ed 33 a3 36 7c 31 15 f7 0a 30
       3.9018655e-08 1.1078526e-07 3.6701884e-09 5.055523e-10
000040 e7 bf 37 33 3d 14 17 31 fb 93 51 32 0a 81 aa 30
       4.2782542e-08 2.1984896e-09 1.2199048e-08 1.2405803e-09
000050 58 d5 18 34 af 8b 4e 30 eb 8c e1 30 24 7f 3e 31
       1.4233717e-07 7.5140866e-10 1.6410956e-09 2.772091e-09
000060 0f 98 4c 30 85 45 06 31 20 5d 97 31 a8 f1 6d 2f
       7.4430856e-10 1.9539084e-09 4.4052655e-09 2.1640878e-10
000070 ba a7 30 31 5e f6 a1 35 ec 95 16 34 ad c7 71 31
       2.5706712e-09 1.2067137e-06 1.402438e-07 3.5183618e-09
000080 1c 3b 24 30 6d 30 ba 2f c4 6e 96 36 dd f4 10 32
       5.974685e-10 3.3867611e-10 4.483243e-06 8.437579e-09
000090 01 5b 29 2f c4 9f a6 30 6d f1 93 34 bb 98 14 34
       1.5402792e-10 1.2123498e-09 2.7556544e-07 1.3839137e-07
0000a0 cc ee a6 30 0f aa 63 31 ce 1f 89 34 45 80 e7 31
       1.214596e-09 3.3129515e-09 2.554138e-07 6.7375674e-09
0000b0 e1 0c 3b 30 11 34 f3 33 da ea 21 33 67 4f 4d 33
       6.8048506e-10 1.132504e-07 3.769933e-08 4.7802498e-08
0000c0 7a 92 dc 33 95 7d 0f 33 21 2a 9a 31 26 da a7 30
       1.0271192e-07 3.3409e-08 4.4867794e-09 1.2212851e-09
0000d0 32 fe be 33 e6 55 7b 33 40 0f ac 32
       8.893802e-08 5.8518616e-08 2.003037e-08

exp_avg f4 [10]
000000 48 1a a9 b6 a2 57 23 36 32 2f a4 36 32 49 8f 37
       -5.039652e-06 2.4339902e-06 4.893075e-06 1.7081013e-05
000010 a2 59 14 b7 13 79 bd b6 90 55 0a b6 54 28 96 b3
       -8.842357e-06 -5.646734e-06 -2.0613406e-06 -6.992255e-08
000020 d6 1e c3 b6 f6 f8 bd 35
       -5.8150426e-06 1.4154054e-06

exp_avg_sq f4 [10]
000000 a9 ec 1e 37 ca 77 ae 37 cd 7d dd 37 88 56 aa 37
       9.472636e-06 2.0798198e-05 2.6403834e-05 2.0305873e-05
000010 31 6a 0c 34 ff 59 2c 37 57 d1 cb 35 2b 3a aa 36
       1.3077148e-07 1.0272953e-05 1.5185605e-06 5.0731664e-06
000020 8e 5f eb 37 ac aa 98 33
       2.805868e-05 7.1090966e-08

exp_avg f4 [10, 10]
000000 e6 a5 22 b7 ed 42 e8 b6 10 23 ba b5 d2 83 6c b6
       -9.694579e-06 -6.92193e-06 -1.3868284e-06 -3.524347e-06
000010 77 89 15 37 d6 ed b7 34 d8 e4 ca 35 55 63 a8 36
       8.913098e-06 3.4259455e-07 1.5116775e-06 5.018354e-06
000020 b2 98 91 b6 8c 74 44 37 cd e6 98 35 6d 1c 19 35
       -4.339113e-06 1.1709646e-05 1.1392054e-06 5.7038307e-07
000030 4d 44 31 35 24 f7 36 b5 8d 46 b3 b5 f3 e1 06 36
       6.603703e-07 -6.815992e-07 -1.3357072e-06 2.0099076e-06
000040 f0 c4 45 36 c3 c7 48 b5 59 10 c3 35 ef 2c c2 35
       2.946992e-06 -7.47965e-07 1.453339e-06 1.4467204e-06
000050 70 8c 90 35 59 de 56 35 ec 53 c4 34 24 61 b7 34
       1.0769709e-06 8.004477e-07 3.6568906e-07 3.4157085e-07
000060 1a 7e 66 b5 75 12 bd 34 2b 25 ee 33 09 9e 2a b5
       -8.586518e-07 3.5217423e-07 1.10894995e-07 -6.3559906e-07
000070 9f f8 9e 34 58 9e 32 b5 07 d4 b4 b6 34 5f ab b6
       2.961069e-07 -6.654059e-07 -5.3891013e-06 -5.1072802e-06
000080 9c 05 5e b6 48 80 6b 36 ae aa 92 36 81 7b 53 b6
       -3.3083843e-06 3.5092398e-06 4.371009e-06 -3.1513339e-06
000090 58 02 64 b6 99 91 38 36 9e a9 e3 35 50 c6 86 35
       -3.3976012e-06 2.7502886e-06 1.6962183e-06 1.0041495e-06
0000a0 1f be 1f b6 bc 31 20 b6 62 0f 96 b5 83 1c fa 35
       -2.3803511e-06 -2.3870807e-06 -1.1180348e-06 1.863475e-06
0000b0 f6 c7 18 36 b5 85 4a b5 4a 0b 04 b5 de 2b 9b 35
       2.2766158e-06 -7.5445433e-07 -4.919026e-07 1.1561167e-06
0000c0 ba a4 a2 35 bc 68 72 35 31 fd 3c 35 10 59 e1 b5
       1.2117882e-06 9.0304434e-07 7.04039e-07 -1.6789727e-06
0000d0 fb 56 bb b5 1d 12 b2 35 f6 a2 42 b6 5c f6 e4 35
       -1.39579e-06 1.3267305e-06 -2.9003108e-06 1.7059024e-06
0000e0 f2 3f 93 b4 8e 75 1d b6 d7 71 e5 35 96 c3 37 36
       -2.742741e-07 -2.346325e-06 1.7094961e-06 2.738297e-06
0000f0 e4 25 8c b4 9c 78 34 b5 83 55 a1 35 e0 58 c0 34
       -2.61046e-07 -6.7230735e-07 1.2020322e-06 3.5827452e-07
000100 27 38 a1 35 ee b5 2d 36 25 8f 92 36 be e9 47 b3
       1.2011777e-06 2.5884906e-06 4.3678033e-06 -4.6545885e-08
000110 2d d0 e6 35 bc 16 0e 36 c4 f9 7a 36 70 8a 2f 36
       1.7196922e-06 2.1172882e-06 3.7398286e-06 2.6157613e-06
000120 b1 3f e4 b4 1a fe 42 b6 fe be d7 b6 cf 48 d5 35
       -4.251465e-07 -2.905616e-06 -6.4297337e-06 1.5890927e-06
000130 d3 bf cf 35 5d 76 0e b6 f8 8e fd 35 1a e5 48 35
       1.547853e-06 -2.1228545e-06 1.8891578e-06 7.483919e-07
000140 2e fd 7a 35 be c1 d5 34 b9 d0 df b4 06 a7 17 35
       9.350068e-07 3.9815308e-07 -4.1688853e-07 5.6494935e-07
000150 57 84 cd b5 8b 03 ae 33 29 dc 1a b5 4b 9d 41 b5
       -1.5312206e-06 8.103151e-08 -5.7689846e-07 -7.2126994e-07
000160 99 6a 67 35 a0 42 09 32 f8 fd 5d 35 57 33 43 35
       8.6209326e-07 7.989598e-09 8.269849e-07 7.271787e-07
000170 71 ae c3 34 64 26 c3 b2 f6 f0 26 b5 22 62 7a 34
       3.6448503e-07 -2.2718446e-08 -6.2190463e-07 2.3318765e-07
000180 70 c1 bf 33 64 c5 e5 b4 8f f2 7d b3 b6 a4 f2 b4
       8.929317e-08 -4.2798194e-07 -5.912676e-08 -4.5195856e-07

exp_avg_sq f4 [10, 10]
000000 77 1d d7 32 36 a1 3c 33 97 a1 2e 33 ab 66 e3 33
       2.5042693e-08 4.391878e-08 4.0659497e-08 1.05891864e-07
000010 b9 a1 24 32 1f 87 53 33 f6 23 42 34 22 e9 89 30
       9.582828e-09 4.9250158e-08 1.808074e-07 1.0034322e-09
000020 93 f2 23 34 84 d2 02 35 8d 2e 80 34 3c 7b e4 34
       1.5268806e-07 4.8735114e-07 2.3875728e-07 4.2557974e-07
000030 78 f5 d5 34 f1 19 8a 35 8d 9b c5 33 0a 9e 02 35
       3.9852944e-07 1.0289351e-06 9.201822e-08 4.865875e-07
000040 9d 3d ee 35 ba e5 21 32 2c 9a c8 35 11 a0 9f 36
       1.7750314e-06 9.423667e-09 1.4946031e-06 4.7572034e-06
000050 ec b1 37 32 32 94 9e 32 b1 15 94 32 bb 8c 39 33
       1.0692457e-08 1.8461012e-08 1.7239332e-08 4.3201663e-08
000060 ab 15 87 31 5d 2f af 32 ba 62 9e 33 e9 72 51 30
       3.9314805e-09 2.039422e-08 7.3754066e-08 7.6197054e-10
000070 dd 6e 85 33 52 57 54 34 04 02 f2 33 c2 0a 58 34
       6.213461e-08 1.9775806e-07 1.126937e-07 2.0120481e-07
000080 15 08 4a 34 d3 91 02 35 5c 56 42 33 d2 75 78 34
       1.8815656e-07 4.8640976e-07 4.524769e-08 2.3139663e-07
000090 cc ad 61 35 76 a6 90 31 4b ae 3d 35 04 fe 16 36
       8.407194e-07 4.209876e-09 7.0661616e-07 2.2499598e-06
0000a0 5d 64 bd 33 bc 9a 28 34 fe aa 1d 34 4b f4 ca 34
       8.819254e-08 1.5702511e-07 1.4683971e-07 3.7803179e-07
0000b0 1a 7f 14 33 3b 81 40 34 b5 01 2f 35 cb 23 7e 31
       3.4574533e-08 1.7928407e-07 6.5195064e-07 3.698221e-09
0000c0 4b 39 13 35 83 52 ea 35 c2 05 8e 31 5e d6 ef 31
       5.484514e-07 1.7458373e-06 4.1333985e-09 6.980186e-09
0000d0 a1 5f e3 31 f9 2c 86 32 90 16 b7 30 31 0b fe 31
       6.6174413e-09 1.5620104e-08 1.3321415e-09 7.3936453e-09
0000e0 3c ea e2 32 26 f7 24 30 bd d1 bf 32 ae d4 97 33
       2.641638e-08 6.001407e-10 2.2330704e-08 7.070172e-08
0000f0 3c f7 05 35 c0 37 6f 35 ef b4 5f 35 38 83 10 36
       4.9906134e-07 8.9115565e-07 8.3337267e-07 2.1534051e-06
000100 b5 44 56 34 9b 75 89 35 a2 b5 79 36 f6 0e a2 32
       1.9955299e-07 1.0241523e-06 3.7209616e-06 1.8866086e-08
000110 68 e6 51 36 87 16 27 37 e9 96 27 34 f8 7e 95 34
       3.127754e-06 9.959221e-06 1.5607988e-07 2.7845795e-07
000120 94 1f 8c 34 4a ae 35 35 ce 66 80 33 9c 7e ab 34
       2.6100008e-07 6.768138e-07 5.9791645e-08 3.1943352e-07
000130 95 cd 9c 35 88 13 bf 31 11 1c 84 35 ae 46 52 36
       1.1682738e-06 5.561052e-09 9.842935e-07 3.133358e-06
000140 12 4a 1f 32 50 36 8d 32 44 27 84 32 da 0a 28 33
       9.27186e-09 1.6439259e-08 1.5384678e-08 3.9125418e-08
000150 33 02 77 31 d6 d0 9f 32 65 8b 90 33 09 e5 0e 30
       3.594448e-09 1.8605004e-08 6.730878e-08 5.198478e-10
000160 86 18 73 33 c3 5d 41 34 fd 06 43 32 c3 7f ad 32
       5.660015e-08 1.8008636e-07 1.1352083e-08 2.019795e-08
000170 27 30 a2 32 8f 3d 50 33 63 8e 96 31 35 10 c5 32
       1.888118e-08 4.848476e-08 4.381762e-09 2.2941189e-08
000180 e2 3b b3 33 e1 fd 0e 30 aa dc 96 33 1a 19 70 34
       8.34623e-08 5.202008e-10 7.025058e-08 2.2360874e-07

exp_avg f4 [10]
000000 ad ba 84 b7 24 1b a9 36 74 e9 00 36 53 4a db b6
       -1.5822554e-05 5.039752e-06 1.9209374e-06 -6.535361e-06
000010 48 05 9b b5 95 95 4b 36 f7 3b cf 36 b7 b0 9d 36
       -1.1549937e-06 3.0336425e-06 6.1760616e-06 4.699537e-06
000020 0e a7 b8 35 bb 6e 8c 35
       1.3757688e-06 1.046304e-06

exp_avg_sq f4 [10]
000000 ff 1c 8b 35 9e 77 29 37 e4 7d e1 34 11 b4 a0 36
       1.0364746e-06 1.01010355e-05 4.2001113e-07 4.789334e-06
000010 24 27 79 36 cd 3c 1f 34 1b d2 b1 37 db 0d df 36
       3.7126674e-06 1.4830148e-07 2.1197882e-05 6.647531e-06
000020 e5 87 cd 34 b7 1c ff 34
       3.8283102e-07 4.7518344e-07

exp_avg f4 [17]
000000 a5 9e ac b5 85 5c 62 b4 29 c7 be 36 47 6a d3 b4
       -1.286117e-06 -2.1081549e-07 5.6856265e-06 -3.937914e-07
000010 be b3 a3 b6 90 19 5f 34 db 12 c6 36 ff 64 98 b5
       -4.8787033e-06 2.0777793e-07 5.903055e-06 -1.1354276e-06
000020 65 0c 06 b2 13 92 6b 33 d7 7d 01 b5 ba 05 de 32
       -7.802645e-09 5.4848055e-08 -4.8239366e-07 2.5846806e-08
000030 b4 64 27 34 4d 1b 4c 34 80 31 0c b5 b7 ee 90 35
       1.5589723e-07 1.9008912e-07 -5.2226096e-07 1.0798311e-06
000040 81 46 8f b5
       -1.067485e-06

exp_avg_sq f4 [17]
000000 eb bf 88 30 2b da 7e 2f a6 cc 71 32 33 52 2f 31
       9.949849e-10 2.3178674e-10 1.4074578e-08 2.5512576e-09
000010 98 3f bb 31 2f 46 ae 2e a7 22 54 34 a3 04 ca 2f
       5.449646e-09 7.925071e-11 1.9756645e-07 3.674688e-10
000020 2f 10 56 2e 7e 24 ed 2d e9 14 2f 31 f4 cc 4f 2e
       4.867234e-11 2.6959986e-11 2.5477738e-09 4.7248386e-11
000030 30 3b 1a 2f 04 66 1f 2c 16 94 84 30 d1 97 39 2f
       1.4027246e-10 2.265189e-12 9.646353e-10 1.6879588e-10
000040 df 29 59 2e
       4.9377277e-11

exp_avg f4 [10]
000000 1b 1c 0f b5 e4 88 84 b5 d3 f0 1d b4 e0 59 ed b5
       -5.331255e-07 -9.874607e-07 -1.4709376e-07 -1.7684033e-06
000010 ed 9e a5 34 3d 41 7a b6 2f 77 f5 b4 a2 45 c2 36
       3.084928e-07 -3.7290877e-06 -4.5721524e-07 5.789757e-06
000020 39 ca 99 b5 f0 dd 98 b6
       -1.1458243e-06 -4.55579e-06

exp_avg_sq f4 [10]
000000 ac 17 02 31 28 07 cc 32 1e 51 2d 32 74 d9 5c 33
       1.8930946e-09 2.375198e-08 1.0088369e-08 5.1420514e-08
000010 68 1a 09 32 24 ba 14 34 d0 71 4c 34 3a 1f 6b 33
       7.980454e-09 1.3851292e-07 1.9040385e-07 5.47436e-08
000020 d2 75 fc 31 a4 c0 c7 32
       7.34756e-09 2.3254252e-08

exp_avg f4 [10, 10]
000000 8e bc ee 34 f0 07 76 b5 fa d0 cc 34 72 06 3a b5
       4.4468146e-07 -9.165369e-07 3.8150012e-07 -6.929978e-07
000010 18 25 7e 34 d3 78 66 35 91 54 5d b0 7b c3 3b b6
       2.3669088e-07 8.58575e-07 -8.051951e-10 -2.7978956e-06
000020 bf cf 2f 35 0a 51 c9 36 65 ce 4c 35 df 76 53 b5
       6.549489e-07 5.999701e-06 7.6296266e-07 -7.8776606e-07
000030 08 45 16 b4 11 8d aa b4 14 f0 2c 34 ab 81 6d 34
       -1.3994952e-07 -3.1767607e-07 1.6106088e-07 2.2119518e-07
000040 96 05 e9 35 91 d8 45 36 9c 2c a0 b3 12 a2 b2 35
       1.7361479e-06 2.9481346e-06 -7.458695e-08 1.3309202e-06
000050 28 d1 3b b4 ce 20 ec 34 86 85 2d b4 a7 94 8a 34
       -1.7491823e-07 4.3982294e-07 -1.6160456e-07 2.5812662e-07
000060 26 23 0a b4 d5 fc 5b b4 ff bc 0d b4 19 dd 19 b4
       -1.2865038e-07 -2.0487944e-07 -1.3200405e-07 -1.432967e-07
000070 cf 65 5a b4 d5 2e 51 b4 94 04 75 b5 cc e7 45 35
       -2.033987e-07 -1.9481679e-07 -9.1276274e-07 7.372553e-07
000080 93 3b b0 b3 58 fc e9 34 02 93 1a b4 b3 74 c9 b5
       -8.206475e-08 4.3583236e-07 -1.4395849e-07 -1.5009631e-06
000090 07 46 6b 34 cd b0 0f 36 7b 68 50 b5 8b e7 5d b7
       2.1911556e-07 2.1411572e-06 -7.763808e-07 -1.3226537e-05
0000a0 05 5e 88 b5 ce 00 44 35 79 82 f0 34 c9 99 2b 34
       -1.0160153e-06 7.301686e-07 4.4798415e-07 1.5981563e-07
0000b0 0d 19 90 b3 23 f3 54 b4 f8 51 2c b6 d0 9e bb b6
       -6.710079e-08 -1.9832491e-07 -2.567771e-06 -5.5915225e-06
0000c0 ba 18 ab 34 ea 65 4d b6 d7 a3 6d 34 1f 24 0a b5
       3.1869223e-07 -3.0606702e-06 2.213195e-07 -5.146157e-07
0000d0 8a 07 e7 33 02 b8 cb b4 4f 0e c3 33 5c fb 50 34
       1.0758147e-07 -3.794558e-07 9.082998e-08 1.9462954e-07
0000e0 06 ba 35 35 ae 18 dc b3 27 6b 0c 34 fa 86 e7 35
       6.7698454e-07 -1.02490375e-07 1.3077498e-07 1.7250125e-06
0000f0 a6 e1 cc 33 78 b2 87 b5 f0 24 31 35 a6 fd 53 b5
       9.5405355e-08 -1.0110225e-06 6.599139e-07 -7.897273e-07
000100 80 44 c3 34 1b d3 d3 34 aa 34 b1 b4 5d ef 56 b6
       3.637142e-07 3.9455412e-07 -3.3007137e-07 -3.2027813e-06
000110 38 bd 28 35 6a c8 ac b5 73 bf ae 35 4e b1 9e b5
       6.2860227e-07 -1.2873327e-06 1.3019729e-06 -1.182352e-06
000120 a1 36 a8 34 5f a0 4f b5 ea a1 c2 34 9c 5b 09 36
       3.1332186e-07 -7.734688e-07 3.6253124e-07 2.0467915e-06
000130 e2 10 13 b5 ec 32 c5 b6 61 eb 9b 35 7e 5e 83 37
       -5.4786335e-07 -5.8769856e-06 1.1616904e-06 1.5660418e-05
000140 4a 5e 3b b4 65 ca c9 34 fb d4 fe b3 34 ea 5a 34
       -1.7450034e-07 3.758643e-07 -1.18665376e-07 2.0388035e-07
000150 ee d0 f7 b3 db 52 1c b4 bf 66 45 b4 03 0d 98 b4
       -1.1539838e-07 -1.4558775e-07 -1.8384434e-07 -2.8321674e-07
000160 55 32 18 b4 ab 3a 47 34 c3 bb 2d b4 ba 34 c5 34
       -1.4174414e-07 1.8554663e-07 -1.6180188e-07 3.6732473e-07
000170 4a f8 f5 b3 91 50 5b 34 7e 09 f7 b3 df 96 d8 b3
       -1.1453865e-07 2.0425274e-07 -1.15035604e-07 -1.0085727e-07
000180 d1 e9 7d b4 67 c3 84 b4 7c 68 f2 b3 cd 08 15 35
       -2.3647523e-07 -2.472909e-07 -1.1288009e-07 5.551963e-07

exp_avg_sq f4 [10, 10]
000000 4e af b0 2d 2e 04 49 2e 53 ad e6 2d 5b 8d 0f 2e
       2.0086734e-11 4.570582e-11 2.6224944e-11 3.2639984e-11
000010 94 dc 7d 2d a7 6a 43 2d b3 be 71 2d bc 9d ee 2f
       1.4430363e-11 1.1108148e-11 1.3741608e-11 4.3404025e-10
000020 e0 fd 24 2f 17 c4 84 30 ed ab 16 32 db e1 a4 33
       1.5005908e-10 9.659996e-10 8.7702405e-09 7.677928e-08
000030 70 cd d4 32 88 58 20 33 a0 f2 60 32 ae 00 f0 31
       2.477347e-08 3.733342e-08 1.3093683e-08 6.9849966e-09
000040 ac 89 96 30 75 8a 19 35 86 66 d6 32 8b ef 32 35
       1.0953065e-09 5.7198423e-07 2.4959501e-08 6.665875e-07
000050 75 12 d8 2c 42 59 4a 2e 21 45 1e 2d 78 b9 8d 2d
       6.1411384e-12 4.600876e-11 8.99661e-12 1.6112209e-11
000060 b7 09 a9 2c 13 d3 06 2d 88 dc ce 2d 6d 03 c8 2f
       4.8043475e-12 7.663886e-12 2.3517424e-11 3.6382222e-10
000070 32 81 fc 2d ce c8 9a 30 f3 20 40 31 0d 3b cf 32
       2.8706457e-11 1.1262047e-09 2.7958407e-09 2.4124825e-08
000080 cc fc 06 32 0c 90 49 32 5b a9 8e 31 88 c2 14 31
       7.857306e-09 1.1732492e-08 4.1519974e-09 2.1647413e-09
000090 7e 86 cb 2f b2 79 41 34 0b 02 08 32 d2 42 6e 34
       3.7021047e-10 1.8018798e-07 7.916706e-09 2.2189786e-07
0000a0 d9 91 8e 32 60 c4 1e 34 e6 cd 4d 33 e2 79 9a 33
       1.65973e-08 1.4786337e-07 4.7917545e-08 7.193354e-08
0000b0 38 66 da 32 49 fb 5e 32 d7 d7 00 31 67 df 94 35
       2.5425024e-08 1.2979236e-08 1.8749142e-09 1.1091878e-06
0000c0 dd 4c 47 33 18 ee b5 35 2f da 5b 2b 2d fc 2e 2c
       4.6403205e-08 1.3554845e-06 7.810722e-13 2.4866873e-12
0000d0 c1 02 a4 2b 98 c6 b1 2b e9 fb 0a 2b cb 75 c1 2a
       1.1653665e-12 1.2631727e-12 4.9377044e-13 3.4365422e-13
0000e0 85 bb cd 2b e2 45 d2 2c e9 06 74 2d 98 03 a3 2e
       1.4618173e-12 5.9763175e-12 1.38713286e-11 7.41302e-11
0000f0 08 07 85 2f 22 15 e5 30 60 79 29 30 49 67 6c 30
       2.4197555e-10 1.6667949e-09 6.1654326e-10 8.6003077e-10
000100 c3 d7 b1 2f d0 77 2a 2f 87 11 2b 2e 2d b6 5b 32
       3.234942e-10 1.5503976e-10 3.8896466e-11 1.27889e-08
000110 c8 bd 96 30 6b 3b d3 32 d8 b3 db 30 35 a0 5b 32
       1.0967875e-09 2.4590653e-08 1.5985462e-09 1.2783905e-08
000120 17 57 90 31 81 a7 d6 31 d4 21 16 31 ff 30 af 30
       4.2008526e-09 6.2472627e-09 2.1847102e-09 1.2746851e-09
000130 ec b5 93 2f 1d eb d0 33 a5 a6 a2 31 7c e3 de 33
       2.6868407e-10 9.7285216e-08 4.733766e-09 1.037906e-07
000140 5c d5 1b 2e 9a 8d 97 2f 86 1c 59 2e 40 5e f6 2e
       3.543242e-11 2.7567354e-10 4.936542e-11 1.1203527e-10
000150 1d a8 fb 2d a9 86 29 2e fe ee 26 2e 05 82 22 30
       2.8610054e-11 3.8545753e-11 3.7956298e-11 5.9120026e-10
000160 87 af 00 2f 0b 3d 9d 2f a1 0a e3 2d 9f 13 31 2f
       1.1703892e-10 2.8601507e-10 2.5811632e-11 1.6105027e-10
000170 2d d5 44 2e 6c 7d a1 2e 04 d3 cf 2d 73 3e b0 2d
       4.475458e-11 7.343712e-11 2.3626885e-11 2.0036616e-11
000180 7d d6 87 2d 03 21 28 30 a4 8b 36 2f dc d5 92 30
       1.5442975e-11 6.1164956e-10 1.6602414e-10 1.0683681e-09

exp_avg f4 [10]
000000 1d 75 88 33 06 53 0a b6 11 57 6a 35 68 69 e8 b5
       6.354296e-08 -2.0611928e-06 8.729849e-07 -1.7316024e-06
000010 96 24 d7 35 5d 3d 17 b4 ce 05 13 b6 8f 56 d3 34
       1.6029396e-06 -1.4085295e-07 -2.1908086e-06 3.9364792e-07
000020 df 11 84 35 4c f7 90 35
       9.839968e-07 1.0800809e-06

exp_avg_sq f4 [10]
000000 24 aa 39 31 23 16 95 35 52 aa 4f 30 0e f8 be 34
       2.7017757e-09 1.1107808e-06 7.55482e-10 3.557074e-07
000010 12 ef 10 36 28 e0 9a 2f 24 3e 1b 33 b5 d7 49 34
       2.159683e-06 2.817171e-10 3.6145266e-08 1.8798058e-07
000020 e2 d6 31 31 8d d4 81 31
       2.5879037e-09 3.7785584e-09
