src/data_driven/antiderivative/classical_training_seed420/model_checkpoint-3000.pt (torch, 14787 bytes, 24 tensors)

branch.hidden_layers.0.thetas f4 [55]
0.7365075 -0.14283876 -0.76238185 0.95938855 -1.4137192 1.069024 -2.6562624 -0.14928834
-0.6513973 -0.14327694 -1.0831853 1.8897291 0.2995575 1.0192525 0.25659108 0.19260253
-0.18099648 -0.48237324 -2.0129662 0.8868233 -1.1125096 0.22434935 -1.9329816 1.2682343
-1.7288889 -0.11312983 0.12932931 -0.89020467 -1.4048551 0.84901106 -1.1692021 -1.0449903
-0.15754867 -0.23701926 -0.5710621 1.9293369 -0.6614412 -1.8047715 0.25983965 -1.0079045
-1.2716824 -0.15610957 -0.27982068 0.088952176 -0.19288284 0.19221513 1.3202094 -0.28152937
2.1033971 0.33092436 1.7859137 -0.7513132 0.20513806 -0.56963056 -0.72141016
00000000: c18b 3c3f 5344 12be 752b 43bf 7d9a 753f
00000010: c0f4 b4bf c7d5 883f 3400 2ac0 0bdf 18be
00000020: f9c1 26bf 31b7 12be d1a5 8abf a5e2 f13f
00000030: 9a5f 993e de76 823f e85f 833e 9939 453e
00000040: 2457 39be a0f9 f6be 70d4 00c0 da06 633f
00000050: b766 8ebf d6bb 653e f16b f7bf 8055 a23f
00000060: 3b4c ddbf 9db0 e7bd e76e 043e 74e4 63bf
00000070: 4bd2 b3bf ca58 593f 6aa8 95bf 3ec2 85bf
00000080: 7054 21be 2db5 72be 2031 12bf 83f4 f63f
00000090: 3654 29bf c102 e7bf b409 853e 0403 81bf
000000a0: 7dc6 a2bf 30db 1fbe a844 8fbe 8f2c b63d
000000b0: 1483 45be 0bd4 443e 9ffc a83f 9e24 90be
000000c0: 0f9e 0640 eb6e a93e d298 e43f 1056 40bf
000000d0: b60f 523e 4fd3 11bf 56ae 38bf

branch.hidden_layers.0.bias f4 [10]
0.29710525 0.31795773 0.3306454 0.89740527 0.37614474 0.22917718 0.09201898 0.33027866
0.31703314 0.2342008
00000000: 2e1e 983e 5bcb a23e 5b4a a93e 5abc 653f
00000010: 0b96 c03e 6cad 6a3e 7274 bc3d 491a a93e
00000020: 2b52 a23e 56d2 6f3e

branch.output_layer.weight f4 [10, 10]
0.5179095 0.47854674 0.5104222 -0.009056884 -0.019221071 0.009536399 0.010572872 -0.39007232
-0.287044 -0.45128724 0.22133084 0.45554376 0.41618472 -0.66917986 -0.6390024 0.12210588
-0.31636155 -0.24428053 0.010504053 0.030677825 -0.24735877 -0.42708173 -0.5102683 0.43589953
0.38121077 0.011558548 0.19907175 0.22022907 -0.06708843 0.38339776 0.5815074 0.2802027
0.49088508 -0.46711054 -0.2514997 0.2353789 0.10042007 -0.33523625 0.18838198 -0.1723148
-0.115394205 -0.4331612 -0.28080487 0.5357253 0.419741 -0.0033888787 0.38314307 0.14995717
0.20289747 0.3757045 -0.04293186 0.042150296 -0.009722941 0.5236381 0.1837413 0.0105595905
0.2099653 0.43610865 0.013852133 0.059501115 -0.38585645 0.029594071 -0.52489996 0.48537302
0.16633679 -0.35240495 0.26010305 0.23279257 0.1646667 -0.1315934 0.25660175 0.16456783
0.54894793 0.5171493 -0.50767016 0.50763494 0.52535295 -0.48592117 -0.53899527 -0.228485
0.12363475 -0.5549735 -0.4563954 -0.9700948 0.32580698 -0.20366524 -0.9798645 0.5394294
0.6132329 0.6117505 0.10987688 0.4598714 0.34181184 -0.16558754 -0.38214278 0.40291217
-0.20192708 -0.07353106 -0.16675112 -0.5253288
00000000: b895 043f 1404 f53e 08ab 023f 5363 14bc
00000010: 8275 9dbc 8e3e 1c3c d739 2d3c 8fb7 c7be
00000020: 6ef7 92be 1f0f e7be 8da4 623e 083d e93e
00000030: 2a16 d53e 5f4f 2bbf a995 23bf a612 fa3d
00000040: 24fa a1be ad24 7abe 3119 2c3c 1050 fb3c
00000050: 9e4b 7dbe 75aa dabe f1a0 02bf 392e df3e
00000060: 0f2e c33e 1060 3d3c 77d9 4b3e bb83 613e
00000070: a965 89bd b64c c43e abdd 143f ba76 8f3e
00000080: 4a55 fb3e 1d29 efbe 92c4 80be 2b07 713e
00000090: 0aa9 cd3d 16a4 abbe 35e7 403e 4a73 30be
000000a0: cc53 ecbd 4ec7 ddbe a8c5 8fbe 4b25 093f
000000b0: 4be8 d63e f317 5ebb 542b c43e 5f8e 193e
000000c0: 5bc4 4f3e 575c c03e 51d9 2fbd caa5 2c3d
000000d0: f84c 1fbc 260d 063f ae26 3c3e 2202 2d3c
000000e0: 2501 573e a249 df3e 0ff4 623c 71b7 733d
000000f0: fa8e c5be 446f f23c d85f 06bf d082 f83e
00000100: 3154 2a3e 6c6e b4be 3a2c 853e 2d61 6e3e
00000110: 639e 283e 6cc0 06be 4e61 833e 7884 283e
00000120: da87 0c3f e663 043f acf6 01bf 5df4 013f
00000130: 887d 063f a9ca f8be 98fb 09bf f9f7 69be
00000140: 3734 fd3d be12 0ebf a8ac e9be 2258 78bf
00000150: 2cd0 a63e 9f8d 50be 66d8 7abf 0c18 0a3f
00000160: d5fc 1c3f ae9b 1c3f 2107 e13d 4474 eb3e
00000170: f601 af3e c88f 29be 38a8 c3be 814a ce3e
00000180: f9c5 4ebe 7497 96bd cec0 2abe f37b 06bf

branch.output_layer.bias f4 [10]
0.27001518 0.5138353 -0.33950344 0.21891245 -0.40745485 -0.14329371 -0.2552825 -0.24048775
0.599379 -0.121987976
00000000: 6e3f 8a3e b68a 033f 65d3 adbe 962a 603e
00000010: ec9d d0be 96bb 12be 63b4 82be 6c42 76be
00000020: e770 193f d5d4 f9bd

trunk.hidden_layers.0.thetas f4 [17]
1.4779271 -0.8614793 1.267121 -1.1877357 -0.5979776 1.029297 -0.84058034 -0.13576096
-1.6060601 -0.6983774 0.70803505 -0.93186116 -1.1180298 -0.1408875 0.73540473 2.464862
-0.0015977805
00000000: b72c bd3f e889 5cbf 0531 a23f b907 98bf
00000010: 0f15 19bf 01c0 833f 4630 57bf ec04 0bbe
00000020: 6193 cdbf dcc8 32bf c941 353f 748e 6ebf
00000030: 9a1b 8fbf d044 10be 7c43 3c3f 4dc0 1d40
00000040: 9e6c d1ba

trunk.hidden_layers.0.bias f4 [10]
-0.24364719 0.2160571 0.14667444 0.12911043 0.19497499 0.049164977 0.18452048 0.2486024
0.5635978 -0.08195336
00000000: a67e 79be 133e 5d3e d331 163e 8635 043e
00000010: 86a7 473e 3761 493d f0f2 3c3e a191 7e3e
00000020: f247 103f 2ad7 a7bd

trunk.output_layer.weight f4 [10, 10]
-0.29846263 0.6095598 0.21764915 0.27717414 0.27592555 0.04916189 0.3806869 -0.36007038
0.45177022 0.09260096 -0.4054897 0.20853418 0.6305359 0.18388106 0.26195174 -0.6477966
0.3948231 -0.2736232 -0.13819236 0.39064145 -0.36099964 0.052659664 -0.70056796 -0.5930845
-0.4922908 0.001999273 -0.6030306 0.3893483 -0.528283 -0.01140584 -0.13054685 0.37487522
0.20066756 0.27459863 0.49543133 -0.15688643 0.24883139 -0.17054853 -0.102069005 0.032485243
0.042084377 -0.3712777 -0.59860736 -0.5677937 -0.05259604 0.19001782 -0.29854423 0.18579257
-0.18496352 -0.45953315 -0.45333886 -0.03638994 -0.7282442 -0.5069812 -0.092584066 0.015051851
-0.6813516 0.07247323 0.022214571 -0.11785114 -0.14615116 -0.42211968 -0.3866525 -0.7556544
-0.6763192 -0.15508923 -1.1905876 0.031519808 -0.33029062 -0.36241007 -0.1741853 0.4390774
0.6509439 0.5950543 0.53121567 -0.17312695 0.5428968 0.015004992 0.66438496 -0.0153525835
-0.319214 0.6199745 0.4496511 -0.36593062 -0.27625597 -0.69095385 0.05726996 -0.5947653
-1.2081542 0.30837274 0.12741357 0.3121271 0.7075198 0.22210774 0.34754845 -0.28542587
0.5876566 -0.19104408 0.49196452 0.25883454
00000000: 18d0 98be 1c0c 1c3f 6bdf 5e3e c5e9 8d3e
00000010: 1d46 8d3e fa5d 493d 65e9 c23e 255b b8be
00000020: 6d4e e73e 92a5 bd3d 599c cfbe fc89 553e
00000030: cd6a 213f 514b 3c3e 8a1e 863e ffd5 25bf
00000040: 4126 ca3e 5718 8cbe 4c82 0dbe 2802 c83e
00000050: f2d4 b8be a9b1 573d 6c58 33bf 63d4 17bf
00000060: 8a0d fcbe 3c06 033b 3760 1abf a958 c73e
00000070: 8e3d 07bf 8fdf 3abc 13ae 05be a5ef bf3e
00000080: cc7b 4d3e 3198 8c3e 2da9 fd3e d6a6 20be
00000090: a8cd 7e3e 46a4 2ebe 8e09 d1bd 3f0f 053d
000000a0: ab60 2c3d 1c18 bebe 553e 19bf ee5a 11bf
000000b0: f26e 57bd 0894 423e cada 98be 6840 3e3e
000000c0: 1467 3dbe ee47 ebbe 081c e8be 9e0d 15bd
000000d0: 366e 3abf 85c9 01bf b79c bdbd 0a9c 763c
000000e0: 0f6d 2ebf d86c 943d 55fb b53c f05b f1bd
000000f0: a6a8 15be 1220 d8be 51f7 c5be 9172 41bf
00000100: 4123 2dbf b6cf 1ebe 2d65 98bf ea1a 013d
00000110: da1b a9be d08d b9be a25d 32be c1ce e03e
00000120: 42a4 263f 7b55 183f c0fd 073f 3148 31be
00000130: 49fb 0a3f 7fd7 753c 2215 2a3f 6789 7bbc
00000140: 0470 a3be a6b6 1e3f ab38 e63e 425b bbbe
00000150: 6c71 8dbe 5ae2 30bf e893 6a3d 8a42 18bf
00000160: cca4 9abf 08e3 9d3e b478 023e 20cf 9f3e
00000170: 0520 353f 3670 633e dff1 b13e 5723 92be
00000180: aa70 163f 0fa1 43be c6e2 fb3e f685 843e

trunk.output_layer.bias f4 [10]
0.4000459 0.30004773 -0.15924138 0.26961106 -0.12466329 -0.1105598 -0.27457905 0.15887293
0.3988506 0.44769785
00000000: d1d2 cc3e db9f 993e 2c10 23be 760a 8a3e
00000010: 784f ffbd 2d6d e2bd a095 8cbe 96af 223e
00000020: 2536 cc3e a738 e53e

exp_avg f4 [55]
-1.3465774e-06 4.2877815e-07 -1.4775582e-06 3.7706757e-06 -2.37901e-06 -1.7692388e-07 -1.3908113e-06 -2.3848481e-06
1.7467107e-06 1.4326125e-06 -1.9149088e-06 -1.0151888e-05 -1.7610739e-06 1.8057948e-07 6.2282134e-06 -1.1546532e-05
2.8847708e-06 1.7988432e-06 -8.430123e-06 2.443047e-06 -2.6010632e-06 3.1294435e-06 4.2455176e-06 -2.4843157e-06
-1.1794995e-05 5.7007155e-06 2.2698205e-06 6.534707e-06 5.306549e-06 6.7117476e-06 -2.5628478e-06 3.7751101e-06
-7.7152663e-07 -1.5307303e-05 1.0776832e-05 -1.4899061e-06 3.6704482e-06 9.154124e-06 -1.8621431e-05 -1.3756194e-06
-1.3760825e-06 -3.5221526e-06 -5.706257e-06 1.3618238e-06 -1.8235049e-06 3.5615988e-06 -9.616425e-07 -9.81581e-07
-4.9658806e-06 -3.641338e-06 -1.0867826e-05 -3.7614438e-07 -7.4367354e-06 -1.1244975e-06 -2.3179484e-06
00000000: 0cbc b4b5 d232 e634 8350 c6b5 b70b 7d36
00000010: 15a7 1fb6 77f8 3db4 eaab bab5 610b 20b6
00000020: 8670 ea35 3148 c035 e281 00b6 0752 2ab7
00000030: 0a5e ecb5 4fe5 4134 f2fb d036 fab7 41b7
00000040: fc97 4136 c86f f135 1a6f 0db7 3af3 2336
00000050: ed8d 2eb6 6e03 5236 b874 8e36 38b8 26b6
00000060: 1ee3 45b7 c648 bf36 3853 1836 b544 db36
00000070: e90e b236 7935 e136 64fd 2bb6 e657 7d36
00000080: e81a 4fb5 2f68 80b7 24ce 3437 c9f8 c7b5
00000090: d251 7636 aa94 1937 3835 9cb7 eca1 b8b5
000000a0: d6b1 b8b5 1f5e 6cb6 6078 bfb6 e9c7 b635
000000b0: 27bf f4b5 cd03 6f36 c911 81b5 debe 83b5
000000c0: 97a0 a6b6 b65d 74b6 f554 36b7 e4f0 c9b4
000000d0: 1289 f9b6 71ed 96b5 0d8e 1bb6

exp_avg_sq f4 [55]
5.990612e-09 2.8647833e-08 7.171756e-09 2.4118044e-08 1.7622838e-08 1.7768276e-08 1.1880174e-08 8.9014325e-09
1.196903e-07 3.235772e-08 1.3870785e-08 3.0909472e-08 1.1241443e-08 5.4573213e-09 7.215855e-08 3.4313977e-08
4.9078494e-08 2.0782682e-09 1.643439e-08 8.652078e-07 1.6121708e-08 2.695033e-09 3.128359e-08 3.9138015e-07
8.32551e-07 3.9928132e-08 5.948981e-09 9.2267106e-07 3.0252195e-08 2.0523372e-07 1.3257705e-08 6.310084e-09
1.3404187e-08 8.384059e-07 2.4115073e-07 1.1641207e-09 6.1382984e-08 8.5871363e-07 3.7883296e-07 9.592864e-09
2.1558133e-09 6.225535e-08 1.6872487e-08 4.996747e-08 5.610681e-10 1.4537025e-06 6.5385843e-09 1.3425035e-08
5.191382e-08 2.3080425e-08 3.1335937e-08 9.1036445e-10 7.1943975e-07 6.348221e-09 1.9190779e-08
00000000: fbd5 cd31 4015 f632 6f6b f631 242c cf32
00000010: 0861 9732 daa0 9832 8f19 4c32 eaec 1832
00000020: 3884 0034 b0f9 0a33 5c4c 6e32 53c1 0433
00000030: 6420 4132 1b83 bb31 95f5 9a33 9e60 1333
00000040: 60ca 5233 48d1 0e31 9b2b 8d32 a140 6835
00000050: 037c 8a32 8633 3931 ac5c 0633 e11e d234
00000060: 787c 5f35 727d 2b33 ca67 cc31 79ad 7735
00000070: a4ee 0133 375e 5c34 01c4 6332 16d0 d831
00000080: 3d48 6632 d10e 6135 8177 8134 dbfe 9f30
00000090: a7d1 8333 5a82 6635 6862 cb34 ddcd 2432
000000a0: 7825 1431 3eb1 8533 feee 9032 d09b 5633
000000b0: a839 1a30 d61c c335 ffa9 e031 eea3 6632
000000c0: d9f7 5e33 6442 c632 3a96 0633 343d 7a30
000000d0: 861f 4135 8b1f da31 f8d8 a432

exp_avg f4 [10]
-9.080101e-06 -4.567926e-06 -2.8720447e-06 -1.3498145e-05 3.7149423e-06 2.421811e-07 -5.980792e-06 -6.4243295e-08
-9.930209e-06 -1.0248286e-05
00000000: bd56 18b7 3046 99b6 5abd 40b6 1776 62b7
00000010: 394e 7936 1e05 8234 9dae c8b6 20f6 89b3
00000020: ec99 26b7 0ef0 2bb7

exp_avg_sq f4 [10]
1.3788962e-06 2.9179776e-06 5.3375265e-06 2.3567785e-07 3.077461e-07 2.0608977e-07 9.469243e-08 4.8013834e-07
1.7114363e-07 1.1974641e-06
00000000: 8312 b935 79d2 4336 0119 b336 a20e 7d34
00000010: 4d38 a534 8649 5d34 b759 cb33 dbe2 0035
00000020: 9ac3 3734 8eb8 a035

exp_avg f4 [10, 10]
1.2409901e-06 6.880729e-07 3.5131175e-06 -9.7524035e-06 2.7113576e-06 3.9206904e-07 6.4347984e-07 3.1820814e-06
1.2372211e-06 -7.13839e-06 -4.0369223e-06 -2.3172986e-06 5.7774236e-07 -7.016756e-06 1.9180602e-06 -6.007194e-07
7.595097e-06 2.700908e-07 -4.1019152e-06 -5.9687277e-06 7.5172843e-06 2.4603803e-06 1.8147847e-06 -1.4117413e-05
-3.4128418e-06 7.862339e-07 -1.12140215e-05 2.216172e-06 8.200172e-06 9.814149e-06 -1.6711505e-06 -1.6005478e-06
7.595857e-07 -8.4470985e-06 1.9752408e-06 -5.003936e-07 3.268838e-06 1.2375933e-06 -1.4782555e-06 -3.185867e-06
4.3992513e-06 -3.8387054e-07 -1.2868229e-06 -1.08034465e-05 6.035411e-07 -7.4840824e-07 -1.0655114e-05 3.118892e-06
6.790192e-06 1.0029981e-05 4.7620924e-06 7.388294e-07 -8.1786396e-07 -9.494048e-06 -4.4189326e-07 -3.070302e-07
-1.0827092e-05 3.3458339e-06 8.0145155e-06 8.37776e-06 8.345214e-06 5.819792e-07 2.014535e-06 -2.037813e-05
-1.6285835e-06 2.0714553e-07 -1.1831772e-05 1.7644163e-06 5.9804784e-06 1.4983746e-05 5.1818706e-06 -6.953847e-08
8.482738e-06 -2.0659698e-05 3.6864878e-06 1.1903182e-06 2.8239483e-06 1.556988e-07 -5.5986643e-06 -6.202973e-07
-8.807036e-06 3.535793e-06 -1.2762102e-06 1.9319343e-05 -8.026082e-06 1.4563877e-06 1.37711795e-05 -2.4284655e-06
-6.512218e-07 -2.1497237e-05 1.1247879e-06 -1.3025155e-07 4.47836e-06 -1.3367593e-05 3.6610359e-06 3.1865346e-07
2.4844696e-06 2.7521767e-06 -1.015767e-06 -6.995431e-06
00000000: 1890 a635 02b4 3835 e6c2 6b36 419e 23b7
00000010: c5f4 3536 8f7d d234 99bb 2c35 be8b 5536
00000020: 980e a635 4e86 efb6 e674 87b6 e382 1bb6
00000030: 2716 1b35 7a71 ebb6 06b8 0036 1f41 21b5
00000040: 63d9 fe36 ff00 9134 2fa3 89b6 fb46 c8b6
00000050: fb3c fc36 031d 2536 8793 f335 d4d9 6cb7
00000060: 2d08 65b6 950d 5335 db23 3cb7 8cb9 1436
00000070: 7893 0937 73a7 2437 4b4c e0b5 67d2 d6b5
00000080: 55e6 4b35 03b8 0db7 618e 0436 c952 06b5
00000090: 365e 5b36 621b a635 7968 c6b5 c7cc 55b6
000000a0: 489d 9336 c416 ceb4 e6b6 acb5 7340 35b7
000000b0: 0703 2235 39e6 48b5 5ec3 32b7 284e 5136
000000c0: 4ed7 e336 7146 2837 10ca 9f36 f853 4635
000000d0: 2f8b 5bb5 a048 1fb7 593d edb4 e9d5 a4b4
000000e0: 02a6 35b7 fd88 6036 1576 0637 358e 0c37
000000f0: 6c02 0c37 4e39 1c35 7331 0736 b3f1 aab7
00000100: b495 dab5 bb6b 5e34 1381 46b7 e2d0 ec35
00000110: ebab c836 b362 7b37 eedf ad36 2e55 95b3
00000120: 1551 0e37 5d4e adb7 6165 7736 06c3 9f35
00000130: 1083 3d36 292e 2734 29dc bbb6 8282 26b5
00000140: eec1 13b7 7648 6d36 404a abb5 f90f a237
00000150: c2a7 06b7 1a79 c335 c40a 6737 b8f8 22b6
00000160: 9fcf 2eb5 f754 b4b7 6bf7 9635 46db 0bb4
00000170: d244 9636 6045 60b7 1eb0 7536 6613 ab34
00000180: ddba 2636 09b2 3836 7d55 88b5 4bba eab6

exp_avg_sq f4 [10, 10]
1.958271e-06 2.4396763e-06 2.2523948e-06 1.8096958e-07 4.899119e-07 9.868645e-07 1.2623948e-07 3.550353e-07
6.401862e-08 2.4906487e-06 3.5960662e-07 5.214926e-07 5.384115e-07 7.2944054e-08 1.16561225e-07 1.8069045e-07
1.4330478e-08 7.509942e-08 1.9691532e-08 4.926641e-07 1.0847928e-06 1.1558632e-06 9.4507976e-07 6.882573e-08
2.2179206e-07 5.3032625e-07 9.7089014e-08 1.6804233e-07 2.1438163e-08 1.2757845e-06 4.302754e-07 6.1691907e-07
6.1772e-07 6.2936245e-08 1.3064172e-07 2.2210655e-07 1.5285686e-08 8.807938e-08 1.9394047e-08 5.829581e-07
7.124931e-07 7.693631e-07 6.445406e-07 5.0604548e-08 1.4991139e-07 3.4606202e-07 5.9541133e-08 1.0792498e-07
1.5060005e-08 8.5520213e-07 3.483113e-07 2.0276669e-07 1.03225084e-07 2.0564821e-08 7.2465575e-08 1.3953185e-07
6.01273e-08 3.0268023e-08 1.8134406e-09 3.174635e-07 1.2068228e-06 1.2005833e-06 9.497368e-07 7.8740115e-08
2.4389462e-07 5.7408965e-07 1.2004794e-07 1.7040242e-07 2.1713456e-08 1.3894004e-06 2.4687884e-07 4.5494784e-07
5.6416957e-07 7.289611e-08 1.5356436e-07 1.3547253e-07 1.1738098e-08 7.2876475e-08 2.3777433e-08 4.2494875e-07
9.382293e-08 1.4191573e-07 1.6314527e-07 3.6701874e-08 4.3676675e-08 4.789231e-08 1.1537892e-08 2.2163235e-08
7.3814337e-09 1.6506254e-07 2.0550037e-06 2.6261666e-06 2.4850683e-06 2.0891432e-07 5.5367207e-07 1.0383998e-06
1.3220942e-07 3.8619265e-07 7.353743e-08 2.6492476e-06
00000000: d76a 0336 52b9 2336 d927 1736 8a50 4234
00000010: 7d82 0335 6874 8435 728c 0734 ae9b be34
00000020: 9c7a 8933 0525 2736 f50f c134 b3fc 0b35
00000030: 5b87 1035 6ba5 9c33 3650 fa33 d003 4234
00000040: 1c32 7632 5846 a133 2326 a932 9f3f 0435
00000050: 3299 9135 2823 9b35 63b1 7d35 58cd 9333
00000060: bd25 6e34 be5b 0e35 407f d033 206f 3434
00000070: 0527 b832 9f3b ab35 9a00 e734 5b9a 2535
00000080: 65d1 2535 9127 8733 8646 0c34 2f7c 6e34
00000090: 944d 8332 2726 bd33 f697 a632 937c 1c35
000000a0: 2742 3f35 3b86 4e35 7e04 2d35 4a58 5933
000000b0: 54f7 2034 67ca b934 2bba 7f33 63c4 e733
000000c0: 4d5d 8132 0b91 6535 8aff ba34 15b8 5934
000000d0: 97ac dd33 85a6 b032 5f9e 9b33 39d2 1534
000000e0: 551f 8133 0b00 0233 c53c f930 da6f aa34
000000f0: 1efa a135 ba23 a135 6af1 7e35 d617 a933
00000100: 9ff0 8234 241b 1a35 87e6 0034 dcf7 3634
00000110: 6584 ba32 6f7b ba35 c58a 8434 8e3f f434
00000120: 7071 1735 0f8b 9c33 73e3 2434 6876 1134
00000130: b3a8 4932 4480 9c33 213f cc32 8324 e434
00000140: b47b c933 8061 1834 082d 2f34 23a2 1d33
00000150: 0397 3b33 27b2 4d33 3038 4632 7861 be32
00000160: c79f fd31 0c3c 3134 b2e8 0936 333d 3036
00000170: 26c5 2636 ee51 6034 0ea0 1435 255f 8b35
00000180: 73f5 0d34 ea55 cf34 a1eb 9d33 bac9 3136

exp_avg f4 [10]
1.766e-06 -7.507657e-06 1.0393155e-05 -3.8464987e-06 4.9404675e-06 6.1676606e-06 1.0320541e-05 7.199422e-06
-1.12621765e-05 1.094832e-06
00000000: 4c07 ed35 48ea fbb6 435e 2e37 2c11 81b6
00000010: 4bc6 a536 cdf3 ce36 6326 2d37 9092 f136
00000020: aef2 3cb7 24f2 9235

exp_avg_sq f4 [10]
6.57616e-08 6.868663e-08 1.1018104e-08 4.0573894e-08 9.399646e-09 7.3232984e-09 1.2811593e-08 5.8776337e-08
3.148831e-08 9.0528985e-08
00000000: d238 8d33 e080 9333 224a 3d32 7843 2e33
00000010: 157c 2132 6aa0 fb31 fb19 5c32 4471 7c33
00000020: c33d 0733 d668 c233

exp_avg f4 [17]
-9.032658e-06 1.5251369e-05 2.9786308e-05 3.5000078e-06 9.52598e-06 4.009004e-06 1.2660412e-05 8.999784e-06
9.328771e-06 2.8661655e-06 -5.780732e-06 -1.4222996e-06 1.503131e-06 2.8197212e-07 1.5436637e-05 -5.867107e-06
-7.711675e-07
00000000: f98a 17b7 22e0 7f37 9cdd f937 ade1 6a36
00000010: c6d1 1f37 1585 8636 0e68 5437 c7fd 1637
00000020: c482 1c37 5958 4036 1cf8 c1b6 d8e5 beb5
00000030: 30bf c935 f461 9734 ed7d 8137 11de c4b6
00000040: 3a02 4fb5

exp_avg_sq f4 [17]
3.0000894e-08 9.4111596e-07 1.0339437e-07 5.707722e-07 1.3981979e-06 4.5918443e-07 3.0723768e-06 1.4036598e-07
4.7286716e-07 1.5743375e-08 4.227216e-07 2.0762558e-08 1.6391029e-08 2.2196009e-08 1.5297671e-06 1.458458e-09
9.678615e-08
00000000: 55da 0033 ffa0 7c35 a809 de33 2b37 1935
00000010: b7a9 bb35 d485 f634 082f 4e36 82b7 1634
00000020: 5ede fd34 0c3c 8732 6af2 e234 5959 b232
00000030: 41cc 8c32 8aa9 be32 6652 cd35 ee72 c830
00000040: c0d8 cf33

exp_avg f4 [10]
1.519431e-06 3.4072666e-06 -2.876668e-06 -7.83802e-06 -1.1954653e-06 -3.3831802e-05 -1.5503127e-06 -3.8339906e-05
-0.00013219306 5.231675e-06
00000000: 40ef cb35 65a8 6436 c80c 41b6 0a80 03b7
00000010: e073 a0b5 9fe6 0db8 5714 d0b5 29cf 20b8
00000020: 4e9d 0ab9 bf8b af36

exp_avg_sq f4 [10]
1.6986507e-06 3.5910055e-06 2.9655453e-06 2.2839777e-06 4.3040004e-06 7.683172e-07 8.424746e-07 3.507485e-07
5.9767035e-07 5.151646e-07
00000000: 32fd e335 01fd 7036 ae03 4736 7046 1936
00000010: 156b 9036 5b3e 4e35 6a26 6235 824e bc34
00000020: 986f 2035 d749 0a35

exp_avg f4 [10, 10]
8.2951624e-07 4.2771705e-07 1.0864716e-06 1.0022983e-06 4.3818753e-07 -1.2689345e-06 2.8481172e-06 -4.528096e-06
1.1875829e-05 -1.2886254e-06 -6.6451025e-07 -2.412267e-06 -1.1760519e-06 1.2347425e-06 -2.7161807e-06 3.849733e-06
2.784993e-06 6.7765773e-06 1.5408306e-05 -1.0951566e-05 1.9402437e-06 2.8591144e-06 6.4319074e-06 1.0911263e-05
3.5324683e-06 5.0247318e-06 6.5842273e-06 4.275213e-06 1.5510659e-05 -2.3469086e-06 -4.3254448e-07 1.515599e-09
9.718183e-07 2.6629843e-06 -1.04410034e-07 6.6164785e-07 3.214148e-06 1.0661023e-06 9.590209e-06 -5.260178e-06
1.5216302e-06 2.0894572e-06 4.71624e-06 7.9288e-06 2.5975419e-06 4.0261957e-06 4.766294e-06 3.4892237e-06
1.2201275e-05 -1.5825964e-06 6.424329e-07 3.725825e-06 5.489349e-06 7.806227e-06 4.172848e-06 2.9308072e-07
4.6592127e-06 -1.2974414e-06 5.1715415e-06 1.908216e-06 2.1004978e-06 3.6897372e-06 7.4593827e-06 1.21171815e-05
4.4525486e-06 3.5297196e-06 7.266348e-06 1.6116066e-06 1.2997878e-05 -1.0100877e-06 2.979272e-06 -3.8533744e-06
-4.802294e-06 -9.171728e-06 -3.959083e-06 -2.2411925e-06 -3.354528e-06 -8.68108e-06 7.852382e-06 1.9645756e-06
-3.8971802e-06 -3.1122042e-06 -3.983157e-07 6.997791e-06 -3.828269e-06 2.0343716e-05 7.2875996e-06 3.669341e-05
5.2894695e-05 -2.7304939e-05 -5.4604646e-07 -9.724791e-08 -7.871798e-07 -1.941715e-06 -3.3683668e-07 -1.1424048e-06
4.4613128e-07 -1.8735575e-06 6.874828e-06 -8.247384e-07
00000000: ecab 5e35 fca0 e534 e1d2 9135 b586 8635
00000010: 0940 eb34 4250 aab5 4822 3f36 0cf0 97b6
00000020: 4c3e 4737 d5f4 acb5 cc60 32b5 6ee2 21b6
00000030: d6d8 9db5 6eb9 a535 a147 36b6 f42c 8136
00000040: d1e5 3a36 5b62 e336 1641 8137 9ebc 37b7
00000050: 2235 0236 36df 3f36 aad1 d736 850f 3737
00000060: 580f 6d36 1e9a a836 15ee dc36 cd73 8f36
00000070: e31c 8237 957f 1db6 7638 e8b4 664d d030
00000080: 6c6f 8235 b9b5 3236 0638 e0b3 189c 3135
00000090: a4b2 5736 ff16 8f35 a2e5 2037 9680 b0b6
000000a0: d13a cc35 9a38 0c36 3140 9e36 f005 0537
000000b0: 6e51 2e36 c218 8736 27ee 9f36 6828 6a36
000000c0: 14b4 4c37 9969 d4b5 a773 2c35 3009 7a36
000000d0: 2631 b836 7df7 0237 7e04 8c36 b558 9d34
000000e0: 5556 9c36 bf23 aeb5 3487 ad36 e70e 0036
000000f0: 47f6 0c36 349d 7736 9c4b fa36 e64a 4b37
00000100: 1a67 9536 1fe0 6c36 74d1 f336 624e d835
00000110: 7611 5a37 5992 87b5 81ef 4736 3c4c 81b6
00000120: 6423 a1b6 46e0 19b7 44d8 84b6 6567 16b6
00000130: 5a1e 61b6 f4a4 11b7 b9bd 0337 27d7 0336
00000140: 86c4 82b6 43db 50b6 18d8 d5b4 91ce ea36
00000150: 9574 80b6 cca7 aa37 0188 f436 40e7 1938
00000160: 3fdb 5d38 e90c e5b7 0794 12b5 9bd6 d0b3
00000170: 954e 53b5 694e 02b6 7bd6 b4b4 bb54 99b5
00000180: d183 ef34 f276 fbb5 53ae e636 9763 5db5

exp_avg_sq f4 [10, 10]
6.882093e-08 3.5555456e-07 2.8341182e-07 3.1062432e-06 2.808056e-06 1.5453803e-07 1.4439183e-07 1.7531154e-06
7.4242155e-07 9.2199406e-07 2.3892603e-08 1.2703349e-07 1.1895833e-07 1.0980391e-06 9.980876e-07 5.0260574e-08
6.947921e-08 4.083195e-07 4.0160867e-07 2.100769e-07 1.0539913e-08 1.5822238e-08 6.7841106e-09 1.2349629e-07
1.0881781e-07 1.7275855e-08 2.3543012e-09 1.2945763e-07 5.355755e-08 7.5534864e-08 3.1515743e-08 1.7215383e-07
1.4355992e-07 1.4883261e-06 1.3595844e-06 7.53233e-08 7.573671e-08 7.7728214e-07 3.9070164e-07 4.2324126e-07
7.286681e-09 1.6902433e-08 1.0367177e-08 1.6047264e-07 1.4127083e-07 1.2543577e-08 3.104809e-09 1.2246882e-07
5.0916757e-08 6.3521135e-08 4.102974e-10 1.3223614e-09 1.3916721e-09 1.8229498e-08 1.4490848e-08 9.369799e-10
1.0519402e-09 1.5340477e-08 6.1249983e-09 1.3148141e-08 2.8384317e-09 4.822841e-09 2.6218183e-09 3.651343e-08
3.219694e-08 4.195033e-09 8.800771e-10 3.0129012e-08 1.1922668e-08 1.4974953e-08 8.0244735e-09 6.326373e-08
6.9403356e-08 5.344691e-07 4.8021155e-07 1.6014647e-08 5.2848264e-08 1.4056576e-07 2.2511867e-07 8.089095e-08
8.044319e-09 9.388204e-09 7.511477e-09 8.074401e-08 6.4538234e-08 1.32090605e-08 3.6030432e-09 5.268291e-08
7.676089e-08 3.0469977e-08 4.835472e-08 2.734556e-07 2.3399784e-07 2.3775065e-06 2.177177e-06 1.12371836e-07
1.2186922e-07 1.1354961e-06 6.3900234e-07 5.974336e-07
00000000: b5ca 9333 0ce3 be34 d327 9834 da74 5036
00000010: 0972 3c36 17ef 2534 200a 1b34 964c eb35
00000020: d24a 4735 f37e 7735 643c cd32 b366 0834
00000030: 0976 ff33 5660 9335 07f6 8535 16de 5733
00000040: 9a34 9533 0137 db34 ad9c d734 8091 6134
00000050: 0713 3532 78e9 8732 ab19 e931 679a 0434
00000060: 39af e933 0266 9432 4ec9 2131 0b01 0b34
00000070: 2607 6633 bb35 a233 ed5b 0733 49d9 3834
00000080: 7325 1a34 7fc2 c735 f77a b635 6cc1 a133
00000090: b2a4 a233 6ca6 5035 a0c1 d134 d639 e334
000000a0: 535e fa31 d830 9132 541b 3232 624e 2c34
000000b0: 3bb0 1734 3c7f 5732 615c 5531 f97f 0334
000000c0: 91af 5a33 1d69 8833 3a90 e12f 75be b530
000000d0: 1c45 bf30 1797 9c32 6cf3 7832 0dc7 8030
000000e0: db93 9030 11c6 8332 0e74 d231 23e2 6132
000000f0: 380e 4331 28b6 a531 842b 3431 f1d2 1c33
00000100: e948 0a33 e723 9031 ece9 7130 3367 0133
00000110: 73d4 4c32 45a2 8032 02dc 0932 9adb 8733
00000120: e60a 9533 7078 0f35 e3e7 0035 9590 8932
00000130: 48fb 6233 6cee 1634 26b8 7134 45b6 ad33
00000140: 4a33 0a32 c249 2132 d30b 0132 7d65 ad33
00000150: 4598 8a33 10ee 6232 6899 7731 7945 6233
00000160: bfd7 a433 18de 0233 94ae 4f33 74cf 9234
00000170: d640 7b34 408d 1f36 9e1b 1236 1251 f133
00000180: 28db 0234 5967 9835 e887 2b35 535f 2035

exp_avg f4 [10]
-7.442532e-06 5.8800174e-06 -1.7292274e-05 4.0083087e-06 -1.357403e-05 -5.3946496e-06 -1.8689558e-05 -2.7617541e-05
3.5734105e-05 5.0544772e-06
00000000: ddba f9b6 f74c c536 e00e 91b7 1c7f 8636
00000010: 04bc 63b7 b003 b5b6 85c7 9cb7 38ac e7b7
00000020: 34e1 1538 a199 a936

exp_avg_sq f4 [10]
2.7871401e-05 5.8099777e-06 2.928693e-06 1.2151554e-05 2.3994373e-06 3.0545752e-07 6.300047e-07 1.8932083e-06
1.1350695e-06 1.7710114e-05
00000000: 61cd e937 54f3 c236 908a 4436 87de 4b37
00000010: 0506 2136 c3fd a334 981d 2935 241a fe35
00000020: b158 9835 2e90 9437
